model/linear_resnet_model_50epoch54output.pt (torch, 162305 bytes, 44 tensors)

input_layer.0.weight f4 [64, 118]
0	0x3d96dc62	0.073662534
1	0xbcaee09a	-0.021347333
2	0xbdaa0e01	-0.08303452
3	0x3cf0381f	0.029323636
4	0xbd2735eb	-0.040822905
5	0xbdf8979e	-0.12138294
6	0xbda30702	-0.07960321
7	0xbcf2882c	-0.029605947
8	0xbd7a54ac	-0.061115906
9	0xbc4c9eaa	-0.012489
10	0xbc4146f4	-0.011796702
11	0xbd8468c7	-0.06465297
12	0x3c91e1ee	0.017807927
13	0xbda3a4ac	-0.07990393
14	0xbccac455	-0.024751822
15	0x3d8cae43	0.06869175
16	0x3deb3b7e	0.114859566
17	0xbda23e79	-0.07922072
18	0xbcc059ce	-0.023480322
19	0xbd9c0421	-0.07617975
20	0x3c41c50f	0.011826768
21	0x3c0f31e2	0.00873992
22	0x3d0d82aa	0.03454844
23	0xbd993944	-0.07481626
24	0xbb183305	-0.002322377
25	0xbc8f1bf1	-0.017469378
26	0x3e014fd1	0.12628104
27	0xbda62088	-0.081116736
28	0xbda998be	-0.082810864
29	0x3d8c7fa5	0.06860284
30	0xbc82f2fb	-0.015985003
31	0xbc490604	-0.012269501
32	0xbb8bc9f7	-0.0042660194
33	0x3d34d28c	0.044146106
34	0x3bbc05ab	0.0057379804
35	0xbc3156fc	-0.010823961
36	0xbcea91be	-0.028633948
37	0xbe1a870d	-0.1509058
38	0x3d3073d9	0.04307923
39	0xbc89cd13	-0.01682142
40	0xb9f30ee1	-0.00046359657
41	0x3d24fab1	0.04027814
42	0x3dbaac38	0.09114879
43	0x3b9c39ba	0.0047676237
44	0x3d334a0d	0.043771792
45	0x3c9ac070	0.01889059
46	0xbc8eafda	-0.017417837
47	0xbd66fb09	-0.05639175
48	0x3d8f09bc	0.069842786
49	0x3d13f9a3	0.036126744
50	0x3bf1cabd	0.0073789046
51	0xbd129581	-0.03578711
52	0x39ac6494	0.00032881333
53	0xbd73bce7	-0.059506323
54	0xbdc68f76	-0.09695332
55	0xbc9f5178	-0.019448027
56	0xbb93beda	-0.0045088353
57	0xbd97ba2d	-0.07408557
58	0x3a81a3b4	0.0009890706
59	0xbd15fc62	-0.036617644
60	0x3dfaa399	0.12238235
61	0x3cfcea45	0.030873427
62	0xbe15b693	-0.14620428
63	0x3def1605	0.11674122
64	0x3d9ecd5c	0.07754013
65	0x3d7f5c41	0.06234384
66	0x3d0378f8	0.032097787
67	0x3de9b839	0.11412091
68	0x3da6cb9b	0.081443034
69	0xbdf2e983	-0.11860945
70	0x3b5c28c5	0.0033593636
71	0x3c8bf499	0.017084407
72	0xbd5a11b2	-0.05323953
73	0xbdcf7f68	-0.10131723
74	0x3da75e8f	0.081723325
75	0x3d438ab7	0.04773971
76	0x3d8e863e	0.069591984
77	0xbc469dcc	-0.012122583
78	0xbda471f6	-0.08029549
79	0xbc9908fb	-0.01868104
80	0x3da00f9b	0.078154765
81	0xbd27c688	-0.04096082
82	0xbd59e2a7	-0.05319467
83	0xbd25653f	-0.04037976
84	0xbda0117c	-0.07815835
85	0x3d1e884b	0.038704198
86	0x3db539a0	0.08848882
87	0x3c928f9c	0.017890744
88	0xbdcaacdb	-0.09896251
89	0x3e6ccfe3	0.23126177
90	0x3dac9a71	0.08427895
91	0xbdd0b3df	-0.10190558
92	0xbd488132	-0.048951335
93	0x3d7104a4	0.058842316
94	0xbc991f0c	-0.018691562
95	0x3d69ec52	0.05711014
96	0xbcff8797	-0.031192584
97	0xbe7590d0	-0.23981023
98	0x3d0889c6	0.033334516
99	0xbcb5db27	-0.022199227
100	0x3d275931	0.040856544
101	0x3d84455e	0.06458543
102	0xbd6130ff	-0.054978367
103	0x3c40c916	0.011766693
104	0x3d305ce3	0.043057334
105	0x3d20b4f4	0.03923507
106	0xbdb0143e	-0.08597611
107	0x3cccbc36	0.02499209
108	0xbcd822b5	-0.026383737
109	0x3e184be3	0.14872698
110	0xbc6ac42d	-0.0143289985
111	0x3d46eef8	0.048567742
112	0x3b3ce14c	0.002882081
113	0xbd4fdf62	-0.050750144
114	0x3d9e70a4	0.07736328
115	0xbdc2fbf7	-0.09520715
116	0x3d8e34c3	0.06943657
117	0xbca93609	-0.020655649
118	0xbd598365	-0.053103823
119	0xbd91ce0e	-0.0711938
120	0x3cb773ed	0.022394145
121	0x3cf3c531	0.029757114
122	0xbdcc1876	-0.09965603
123	0x3b2626a2	0.0025352617
124	0xbca92efd	-0.020652289
125	0xbd93e4d0	-0.07221377
126	0xbbba14eb	-0.005678763
127	0xbbb357bc	-0.0054731052
128	0xbba8e30c	-0.005154019
129	0x3d4b7a82	0.04967738
130	0xbc6e3b5f	-0.014540522
131	0xbd2a202b	-0.041534584
132	0xbbf49028	-0.007463474
133	0xbd043830	-0.032280147
134	0x3c2a97d9	0.01041218
135	0xbd8632fa	-0.06552692
136	0xbe094ef8	-0.1340903
137	0xbc4bf91d	-0.01244953
138	0x3b6a0ee4	0.0035714442
139	0xbd8779ee	-0.06615053
140	0xbcbc89f2	-0.023014996
141	0xbd207688	-0.03917554
142	0xbd84cce0	-0.06484389
143	0xbd124ba0	-0.035716653
144	0xbdaa1d25	-0.0830634
145	0x3dde1878	0.10844511
146	0xbd67c2ad	-0.05658214
147	0x3c7d29d4	0.015451867
148	0xbd141823	-0.03615583
149	0xbbde7572	-0.006788903
150	0x3d5162a4	0.05111946
151	0xbdbba681	-0.091626175
152	0x3cb7eae5	0.022450874
153	0xbcf4cab3	-0.02988181
154	0xbdb8cecc	-0.090238184
155	0xbd3406bd	-0.04395174
156	0xbcb372c3	-0.021905309
157	0xbe18df51	-0.14928938
158	0xbd7666a1	-0.06015647
159	0xbd7addb3	-0.061246585
160	0xbd396cd5	-0.045269806
161	0xbd6673f9	-0.056262944
162	0xbdc3b7c2	-0.095565334
163	0xbd65df00	-0.056120872
164	0xbd72d708	-0.0592871
165	0xbd980990	-0.07423699
166	0x3badb24b	0.005300795
167	0x3c71ae05	0.014750962
168	0x3bc57478	0.006025847
169	0xbc87643a	-0.016527284
170	0xbba06ba8	-0.004895646
171	0x3b284a13	0.0025678917
172	0xbdb83bb0	-0.089957595
173	0xbdc46aff	-0.095907204
174	0xbd82bb26	-0.06383352
175	0xbd92d53f	-0.0716958
176	0xbc7bd09c	-0.015369561
177	0x3bd5c7fe	0.006524085
178	0xbde06832	-0.10957374
179	0x3c70cf16	0.014697811
180	0xbd17e1f4	-0.03708072
181	0x3d1f4e60	0.038893104
182	0xbe0c6e86	-0.13714036
183	0xbca17358	-0.01970832
184	0x3ce31eeb	0.027724704
185	0xbbfcb3fe	-0.0077118864
186	0xbde2fd25	-0.1108344
187	0x3d377832	0.04479236
188	0x3c442d51	0.011973695
189	0x3ce20dd5	0.027594486
190	0xbc5fcff6	-0.013660422
191	0x3c30780e	0.010770811
192	0xbdfbb241	-0.122898586
193	0xbaa0e72f	-0.0012275929
194	0xbcefe43e	-0.029283639
195	0xbdf20d4d	-0.11818943
196	0x3c454654	0.012040693
197	0xbc8490bb	-0.016182294
198	0x3d263ebe	0.04058718
199	0x3c0a364d	0.008435798
200	0x3db7fe4c	0.0898405
201	0xbdf090d3	-0.11746373
202	0xbd2ee1b5	-0.04269572
203	0xbdc39204	-0.09549335
204	0x3c60a6ed	0.013711673
205	0x3d7fb69d	0.062430013
206	0xbda1a74d	-0.07893238
207	0xbcc86f6d	-0.024467194
208	0xbc79dea9	-0.01525084
209	0x3c6b08e3	0.0143453805
210	0xbdb0d2f5	-0.08633987
211	0xbd80e5db	-0.062938415
212	0xbdef75d5	-0.116923966
213	0xbd8f226f	-0.069889896
214	0x3d898b80	0.06716061
215	0x3cfd472c	0.030917726
216	0xbd8e5f37	-0.069517545
217	0x3cffc055	0.03121964
218	0xbcf4d6ae	-0.029887524
219	0xbcee8926	-0.029118132
220	0xbcf24766	-0.029575061
221	0x3b85daa4	0.004084902
222	0x3c481094	0.012210984
223	0xbde0d21c	-0.10977575
224	0xbd6509de	-0.055917613
225	0xbd54c1d7	-0.051942673
226	0xbdf2d731	-0.11857451
227	0xbc8066e3	-0.01567406
228	0xbdb5d046	-0.08877616
229	0xbd265beb	-0.040615004
230	0xbd9499b0	-0.07255876
231	0xba5e3ecb	-0.0008477985
232	0xbdd76774	-0.10517779
233	0xbd6f9017	-0.058487024
234	0xbd646223	-0.055757653
235	0xbd945ab3	-0.07243862
236	0x3d8bf083	0.06832983
237	0x3c5145e1	0.012773008
238	0xbdcf19b2	-0.10112323
239	0xbc8c697d	-0.017140144
240	0xbe0afd2c	-0.1357314
241	0xbda0a6d5	-0.07844321
242	0xbd539477	-0.05165526
243	0xbd96d34f	-0.07364523
244	0xbd82b5e7	-0.06382351
245	0xbc47d03b	-0.012195642
246	0xbdb900c9	-0.09033353
247	0xbc4d9df9	-0.012549871
248	0x3cbd152b	0.023081383
249	0xbd248384	-0.040164486
250	0xbd9d6aa5	-0.076863565
251	0x3d00cccc	0.03144531
252	0xbd4539de	-0.04815089
253	0xbd728c26	-0.059215687
254	0xbd9d2145	-0.07672361
255	0xbd9658c0	-0.073411465

input_layer.0.bias f4 [64]
0	0x3de26814	0.110550076
1	0x3d9b7615	0.07590882
2	0xbd7d93a4	-0.06190838
3	0x3d168f64	0.03675784
4	0xbdaf9acb	-0.08574446
5	0xbd7ed935	-0.062218864
6	0x3e4f29b1	0.20230748
7	0x3d2e75e8	0.042592913
8	0xbdbe9af1	-0.093068965
9	0x3e1bf525	0.15230234
10	0x3ce6395f	0.028103529
11	0x3dd69d1a	0.104791835
12	0x3e1da2b6	0.153941
13	0x3e21161e	0.15731093
14	0x3c210119	0.009826922
15	0x3d9ca63b	0.076488934
16	0x3dc6997c	0.096972436
17	0xbbae9df7	-0.0053288895
18	0x3cff1e5f	0.031142412
19	0x3d5bad63	0.05363215
20	0x3d93a0a8	0.07208377
21	0xbdca8181	-0.09887982
22	0xbd26ae60	-0.04069364
23	0xbd8371fe	-0.06418227
24	0x3d8b01aa	0.06787427
25	0xbd8f08db	-0.06984111
26	0xbe050234	-0.12989122
27	0xbd66948f	-0.05629402
28	0xbd270aa1	-0.04078162
29	0x3d6c1f54	0.057647064
30	0x3e6ebb40	0.23313618
31	0x3d8d1358	0.06888455
32	0x3bdee7ad	0.0068025202
33	0xbca5f781	-0.02025962
34	0x3ddce8e4	0.10786608
35	0x3c191eb8	0.009345703
36	0xbdd45da8	-0.10369426
37	0xbdb21b17	-0.08696573
38	0x3ce751d1	0.028237255
39	0x3d4c261b	0.049841028
40	0x3dc258d1	0.09489597
41	0xbb49e6a1	-0.0030807632
42	0x3d290e28	0.041273266
43	0xbd78f8b8	-0.06078407
44	0xbcc8bd8c	-0.024504445
45	0xbd6f7aa8	-0.058466583
46	0x3cc0257c	0.023455374
47	0xbc8e7ca7	-0.017393423
48	0xbd796560	-0.060887694
49	0x3d60faa7	0.05492654
50	0xbb1754d8	-0.0023091342
51	0x3bd639a8	0.006537635
52	0x3de768ba	0.11299272
53	0x3c85c83e	0.016330834
54	0x3e18f072	0.14935473
55	0x3d6366c6	0.055517934
56	0x3ddd5e8f	0.10809051
57	0x3dcecf0f	0.10098087
58	0x3d753fa8	0.05987516
59	0x3e332b07	0.17496882
60	0x3d2829bf	0.041055437
61	0x3e620747	0.22073089
62	0x3c818bf1	0.0158138
63	0xbd200f87	-0.039077308

input_layer.1.weight f4 [64]
0	0x3ff1c1f9	1.8887321
1	0x3fa4fc71	1.2889539
2	0x3ffe0b70	1.984724
3	0x3ff48505	1.9103094
4	0x3ff93fd5	1.9472605
5	0x40055eef	2.0839193
6	0x3fea8331	1.8321286
7	0x3ff3e8ff	1.905548
8	0x3ffc1a40	1.9695511
9	0x3feb0729	1.836156
10	0x3fe919c4	1.8210988
11	0x3fe0ab07	1.7552193
12	0x3ff153b7	1.8853673
13	0x3fee0864	1.8596311
14	0x3fed56fa	1.8542168
15	0x3ff87c5f	1.9412955
16	0x3fe68c36	1.8011539
17	0x3ffa7872	1.9568007
18	0x3fa9c931	1.3264524
19	0x3fec87c8	1.8478937
20	0x3fff29c7	1.9934624
21	0x3fed7a50	1.8552952
22	0x3fefc768	1.8732729
23	0x3ff495f8	1.9108267
24	0x400460f7	2.0684183
25	0x3fcf1e47	1.6181115
26	0x3fef4491	1.86928
27	0x3fb087c6	1.3791435
28	0x3fefe43d	1.8741528
29	0x4001ced0	2.0282478
30	0x3ff7005f	1.9296988
31	0x3ff67285	1.9253699
32	0x3fedcc5b	1.8577989
33	0x3fe55e77	1.7919453
34	0x3ff28c1c	1.8949008
35	0x3ff083ab	1.8790182
36	0x3feeb663	1.864941
37	0x3fef7939	1.8708869
38	0x3fea724b	1.831613
39	0x3ff31ee4	1.8993802
40	0x3ffc3585	1.9703833
41	0x3fe8d4c7	1.8189934
42	0x4000bca8	2.0115147
43	0x3ff32c51	1.8997899
44	0x3ff0ff92	1.8827994
45	0x3ff58bb2	1.9183257
46	0x3ff0ee17	1.8822659
47	0x3fbd5928	1.4792833
48	0x3ff814f5	1.9381396
49	0x3fff9c0c	1.9969497
50	0x400163b6	2.0217109
51	0x3ff15a7f	1.8855742
52	0x3feebeed	1.8652016
53	0x3ff1cb08	1.8890085
54	0x3fe4d299	1.7876769
55	0x3ff36484	1.901505
56	0x3fed8e80	1.8559113
57	0x3fe9816f	1.8242625
58	0x3ff87eff	1.9413756
59	0x3fec6fca	1.8471615
60	0x3feba30a	1.840913
61	0x3fffdfce	1.9990175
62	0x40043f29	2.066355
63	0x3faf4ba2	1.3694956

input_layer.1.bias f4 [64]
0	0x3f7500a7	0.9570412
1	0x3d763f7a	0.06011913
2	0x3f769fd3	0.9633762
3	0x3f7e61de	0.99368083
4	0x3f895f9a	1.07323
5	0x3f6ef8fe	0.9334868
6	0x3f6a0418	0.91412497
7	0x3f804bc1	1.0023118
8	0x3f8fe130	1.1240597
9	0x3f7155ea	0.9427172
10	0x3f6f0755	0.9337056
11	0x3f5ad49c	0.85480666
12	0x3f80c6e6	1.0060699
13	0x3f6ee52d	0.93318444
14	0x3f70bca7	0.9403786
15	0x3f85e744	1.0461202
16	0x3f6b3357	0.91875213
17	0x3f655ab7	0.89591545
18	0xbdf78572	-0.120859995
19	0x3f82da34	1.022284
20	0x3f89a514	1.0753503
21	0x3f81b9a6	1.013478
22	0x3f722662	0.9458982
23	0x3f88cc00	1.0687256
24	0x3f862ddf	1.0482749
25	0x3f032e33	0.5124237
26	0x3f8450fb	1.0337213
27	0x3ce344c5	0.027742753
28	0x3f7f50e5	0.9973281
29	0x3f6d35f3	0.92660445
30	0x3f76d886	0.9642414
31	0x3f88b33a	1.0679696
32	0x3f73a4de	0.9517344
33	0x3f686e83	0.9079363
34	0x3f7c507f	0.9856033
35	0x3f811467	1.0084351
36	0x3f738922	0.95131123
37	0x3f871ea9	1.0556232
38	0x3f6dd99a	0.9291016
39	0x3f811d72	1.0087111
40	0x3f7b7dd9	0.98238903
41	0x3f6df1fe	0.92947376
42	0x3f89844e	1.0743501
43	0x3f7f83de	0.9981059
44	0x3f7a31ec	0.97732425
45	0x3f8426c5	1.0324332
46	0x3f7974b8	0.97443724
47	0xbde3bbea	-0.11119826
48	0x3f8a8045	1.0820395
49	0x3f6fcf10	0.9367533
50	0x3f80f05d	1.0073353
51	0x3f71ab63	0.9440214
52	0x3f7b6637	0.9820284
53	0x3f8b6b97	1.0892209
54	0x3f6b4f43	0.9191782
55	0x3f7bb1bd	0.9831808
56	0x3f77f06b	0.96851224
57	0x3f700c45	0.9376872
58	0x3f773f18	0.9658065
59	0x3f725b61	0.94670683
60	0x3f7e482b	0.9932887
61	0x3f80be99	1.0058166
62	0x3f6a4339	0.91508824
63	0x3e994569	0.29935768

input_layer.1.running_mean f4 [64]
0	0x3d984f44	0.07436994
1	0x3da605ed	0.08106599
2	0xbd94cb80	-0.07265377
3	0x3d1d64e5	0.0384263
4	0xbd633c57	-0.055477466
5	0xbd739d5e	-0.05947625
6	0x3e51e9a5	0.20499285
7	0x3d28d042	0.041214235
8	0xbdce03eb	-0.10059341
9	0x3e245506	0.16048059
10	0x3d0909af	0.0334565
11	0x3de4e673	0.11176767
12	0x3e4476f6	0.19186005
13	0x3e39652d	0.18105002
14	0x3d1be2b2	0.03805799
15	0x3d8d42f6	0.068975374
16	0x3dfdaee5	0.12386874
17	0xbc837ad6	-0.016049784
18	0x3d31a9f8	0.043374985
19	0x3d974ff2	0.07388295
20	0x3da8e997	0.08247679
21	0xbdf49c54	-0.1194388
22	0xbd47fb37	-0.04882356
23	0xbd9d5471	-0.076821215
24	0x3d7eb345	0.062182683
25	0xbd7e9119	-0.062150095
26	0xbe0a247a	-0.13490477
27	0xbd4b4176	-0.049622975
28	0xbd09e228	-0.033662945
29	0x3c40be0e	0.011764063
30	0x3e792adf	0.2433276
31	0x3d9d545e	0.076821074
32	0x3cab157f	0.020884274
33	0x3c4553dd	0.01204392
34	0x3dd66c64	0.104698926
35	0x3c817e4a	0.01580729
36	0xbd91c3ee	-0.07117449
37	0xbd9fd49a	-0.078042224
38	0x3d045088	0.032303363
39	0x3d7b9b18	0.061427206
40	0x3ddb724a	0.10715158
41	0x3d1b1e62	0.037870772
42	0x3d8c9ea6	0.06866197
43	0xbd8a8e5f	-0.067654364
44	0x3c48f312	0.012264984
45	0xbd428637	-0.04749128
46	0x3d07b60a	0.03313259
47	0xbcf55087	-0.029945625
48	0xbd8659d5	-0.06560103
49	0x3d5d94f9	0.05409715
50	0x3bf9aa6a	0.007619192
51	0x3d090676	0.033453427
52	0x3de92345	0.1138368
53	0x39de3b84	0.00042387482
54	0x3e2cbacf	0.16868137
55	0x3cb2c7ad	0.021823728
56	0x3de9c333	0.114141844
57	0x3e039df1	0.12853219
58	0x3d4fc578	0.05072543
59	0x3e364cf1	0.17802788
60	0x3d6ae706	0.057349227
61	0x3e69116a	0.22760549
62	0x3bb9e1a5	0.005672651
63	0xbd0071a0	-0.03135836

input_layer.1.running_var f4 [64]
0	0x401ad957	2.4195154
1	0x4129c3e5	10.610326
2	0x4146738e	12.403212
3	0x412d2525	10.8215685
4	0x4068bc5a	3.636496
5	0x40dc97b2	6.8935175
6	0x3f8c1440	1.094368
7	0x401916cb	2.3920162
8	0x40c46c7c	6.1382427
9	0x401a7770	2.41354
10	0x400b42ae	2.1759448
11	0x409c526c	4.8850613
12	0x415e4800	13.892578
13	0x41ca3de8	25.280228
14	0x40b8c5a3	5.7741256
15	0x414b337b	12.700068
16	0x416e268d	14.884412
17	0x41ae976a	21.823933
18	0x41723dec	15.140118
19	0x3fa5222b	1.2901052
20	0x40a9f764	5.311449
21	0x402cb43a	2.6985002
22	0x4015ebe9	2.3425238
23	0x3fc64101	1.5488588
24	0x40030be4	2.0476007
25	0x4132c732	11.173632
26	0x40340467	2.8127687
27	0x4162a2c5	14.164739
28	0x412eda1f	10.928252
29	0x3fdaa7f2	1.7082503
30	0x408e29e3	4.442613
31	0x402c64c2	2.6936498
32	0x4025bf9a	2.5898194
33	0x405bb55d	3.4329445
34	0x3f169861	0.5882626
35	0x3f13bc9e	0.5770968
36	0x3f1f4488	0.62213945
37	0x40cdb3b4	6.4281864
38	0x411b3619	9.700707
39	0x3f3a2530	0.72712994
40	0x4121f9ff	10.123534
41	0x415a62ec	13.649151
42	0x400bab93	2.182347
43	0x3f6d8c5a	0.92792284
44	0x400430bd	2.0654747
45	0x3f1f726b	0.6228396
46	0x3f6558b1	0.8958846
47	0x41931ea1	18.389956
48	0x3fea1555	1.828776
49	0x40d80713	6.7508636
50	0x413abf6a	11.671732
51	0x3f1cb4f4	0.6121361
52	0x417207b4	15.126881
53	0x4178a01a	15.539087
54	0x418305d7	16.377851
55	0x40391425	2.8918545
56	0x40050978	2.078703
57	0x4082cb8f	4.0873485
58	0x408300e0	4.093857
59	0x40f55ecb	7.6678214
60	0x40d882cd	6.765967
61	0x416dbb8b	14.858287
62	0x40d79de9	6.738026
63	0x409b64bd	4.856047

res_blocks.0.linear1.weight f4 [64, 64]
0	0xbd0ca485	-0.034336586
1	0xbe96176b	-0.29314741
2	0xbd849500	-0.06473732
3	0x3cdf551f	0.027262269
4	0x3d8279e6	0.063709065
5	0x3d8d3947	0.068956904
6	0xbd4c1b6c	-0.04983084
7	0xbb6dd0ae	-0.0036287713
8	0x3cde3024	0.027122565
9	0xbca4ea1f	-0.020131169
10	0xbc90b6ed	-0.01766535
11	0xbdf5604e	-0.11981259
12	0x3c7e96e0	0.015538901
13	0xbd2096b9	-0.03920624
14	0x3d62bb41	0.05535436
15	0xbd7d821e	-0.061891668
16	0xbcd3cea8	-0.025855377
17	0xbdbea7b8	-0.093093336
18	0xbeeeafd6	-0.46618527
19	0x3d2dddcd	0.042447854
20	0xbe065285	-0.13117416
21	0xbe0b2ad5	-0.13590558
22	0xbd5960f0	-0.053070962
23	0xbde0e58a	-0.10981281
24	0x3e104842	0.14090064
25	0xbe2e2372	-0.17005709
26	0xbd905c00	-0.070487976
27	0xbea89daf	-0.32932803
28	0x3dd81cf8	0.105524
29	0xbd77dd6e	-0.060513906
30	0x3da4f01d	0.080536105
31	0xbda8819b	-0.08227845
32	0xbd705c4b	-0.058681767
33	0xbd1f008d	-0.038818885
34	0x3d3bfeae	0.04589718
35	0x3cab6947	0.020924224
36	0x3d5177d4	0.051139668
37	0xbdd39619	-0.10331363
38	0x3cd2f96d	0.025753701
39	0x3ba5405a	0.0050430717
40	0x3b94e53a	0.0045439275
41	0x3d83f21a	0.064426616
42	0x3c765a57	0.015036187
43	0x3b582efe	0.0032986994
44	0xbd2e7b46	-0.04259803
45	0x3ce94f58	0.028480217
46	0xbdb82b0a	-0.08992584
47	0xbeb2e649	-0.3494132
48	0xbde87212	-0.11349882
49	0xbdfda70f	-0.123853795
50	0x3d9b9a89	0.075978346
51	0x3dbdc9d4	0.09267011
52	0x3d0cc3d6	0.03436645
53	0x3d511b26	0.05105128
54	0xbdaf36d6	-0.08555381
55	0xbdd685f1	-0.10474766
56	0xbdb487a8	-0.08814937
57	0x3c807663	0.015681451
58	0xbe03fe76	-0.12890038
59	0xbe0f2959	-0.13980617
60	0xbac9fb3d	-0.0015409958
61	0x3a430d34	0.0007440627
62	0xbd79f672	-0.061026044
63	0xbdb1be82	-0.086789146
64	0xbda4caba	-0.080464795
65	0xbd838977	-0.06422704
66	0x3c946124	0.018112727
67	0xbdbd5397	-0.09244459
68	0xbd57acee	-0.052655153
69	0xbdced9a4	-0.101001054
70	0x3d98460b	0.07435235
71	0x3dd64ea0	0.10464215
72	0xbce8ed16	-0.028433364
73	0xbe2fd530	-0.17171168
74	0x3cb5b432	0.02218065
75	0xbbe45672	-0.006968313
76	0xbd796251	-0.060884777
77	0x3be571db	0.007002098
78	0x3cbc8228	0.023011282
79	0xbd8861e3	-0.066592954
80	0xbc54ac33	-0.012980509
81	0xbda024f2	-0.07819547
82	0x3db72570	0.089426875
83	0xbb018d93	-0.0019768223
84	0xbc4001b1	-0.011719153
85	0xbd91f170	-0.07126129
86	0xbe470831	-0.19436719
87	0xbdea96c8	-0.114545405
88	0x3d6eb9f3	0.058282804
89	0x3d512916	0.051064573
90	0xbdd26020	-0.10272241
91	0x3dd39324	0.10330799
92	0xbbc3a0c1	-0.005970091
93	0xbe10ed4c	-0.14153022
94	0xbd28a07f	-0.041168686
95	0xbd9fdcfd	-0.07805822
96	0xbd53eaea	-0.051737703
97	0x3d83c8f5	0.06434814
98	0x3d8bb8c3	0.0682235
99	0xbc4aaa94	-0.012369771
100	0x3d66c453	0.056339573
101	0xbdbd20b1	-0.09234751
102	0x3da6632a	0.08124383
103	0xbcdd16ce	-0.026988413
104	0x3d48b8e8	0.049004465
105	0x3d127572	0.035756536
106	0xbd9abcb1	-0.07555521
107	0xbe57cc6f	-0.21074079
108	0xbe1a3bce	-0.15061876
109	0x3cfb8f51	0.030707987
110	0xbde28db4	-0.11062184
111	0x3a2b56f7	0.0006536091
112	0x3ce311e6	0.027718496
113	0xbdb8836d	-0.090094425
114	0xbcabf1c8	-0.020989314
115	0xbd34e896	-0.044167124
116	0xbe173047	-0.1476451
117	0xb9ad06c3	-0.0003300217
118	0xbdc618b7	-0.09672683
119	0x3d8f531c	0.06998274
120	0xbe47ebf8	-0.19523609
121	0xbce10523	-0.02746827
122	0xbcefeee7	-0.029288722
123	0xbcc4f38e	-0.024041917
124	0x3ccfee81	0.025382282
125	0xbe23048e	-0.15919706
126	0xbd2c4eb5	-0.04206725
127	0x3d0a39d2	0.033746548
128	0x3da4219e	0.080142245
129	0x3dc213d4	0.09476438
130	0x3e11cbde	0.14237925
131	0x3c1cd1c0	0.009571493
132	0x3b716cc9	0.0036838523
133	0xbdd2bb4e	-0.10289632
134	0xbe0f985c	-0.14022964
135	0x3d3b8633	0.04578228
136	0xbbecedab	-0.0072304807
137	0x3dc458ec	0.09587273
138	0xbde36a92	-0.11104311
139	0x3cbdc12d	0.023163402
140	0xbd86598b	-0.06560048
141	0xbd69bf23	-0.057067048
142	0xbca7b06c	-0.020469867
143	0x3d56a11e	0.052399747
144	0x3d8a7cb7	0.06762069
145	0x3dcf9a5c	0.101368636
146	0x3dc9fe63	0.098629735
147	0xbd999c80	-0.07500553
148	0x3dd8827c	0.10571763
149	0xbe3a2e65	-0.1818176
150	0xbe1a73c8	-0.1508323
151	0x3c3d2381	0.011544109
152	0xbe3c388d	-0.18380947
153	0xbdc3bd60	-0.09557605
154	0xbdf2e20e	-0.11859523
155	0xbd639cae	-0.055569343
156	0x3d1943ba	0.037418105
157	0xbd51d60f	-0.051229533
158	0x3ac09882	0.0014693888
159	0x3d946b85	0.0724707
160	0xbd9d8ddb	-0.076930724
161	0x3d405188	0.046952754
162	0xbe301774	-0.17196447
163	0xbe20d037	-0.15704428
164	0xbe1e1411	-0.15437342
165	0x3dbadfe4	0.09124735
166	0xbd3205db	-0.043462615
167	0xbdfac2cd	-0.122441866
168	0x3df81156	0.121126816
169	0xbdf6dcb2	-0.12053813
170	0x3e21013c	0.15723127
171	0xbc015e0e	-0.00789596
172	0xbe0e72cc	-0.13910979
173	0xbdfeda38	-0.12443966
174	0x3d9da043	0.07696583
175	0x3e00694e	0.1254017
176	0x3dba11ea	0.09085448
177	0xbd2e4d3f	-0.042554136
178	0x3d7e2f4f	0.062056836
179	0xbda2517d	-0.07925699
180	0xbd3bfc66	-0.045895003
181	0x3d0ac9a2	0.0338837
182	0x3c9ce143	0.019150382
183	0xbd8defb7	-0.069304876
184	0x3d47ba50	0.048761666
185	0x3de7912a	0.11306985
186	0xbd74e2be	-0.05978655
187	0xbd6b2434	-0.057407573
188	0xbdcdefb8	-0.10055488
189	0xbce94af6	-0.028478127
190	0x3d566e88	0.052351505
191	0xbd680fae	-0.05665558
192	0x3c6250d3	0.013813215
193	0xbea54925	-0.32282367
194	0xbdd4030c	-0.10352144
195	0x3cfb55ed	0.030680621
196	0x3cdea042	0.027176026
197	0xbcd17098	-0.025566384
198	0xbe43f297	-0.1913551
199	0xbdaa68f5	-0.083208
200	0x3d142e87	0.036177184
201	0xbd8ee366	-0.069769666
202	0xbdfb4b36	-0.12270205
203	0xbc4d9539	-0.0125477845
204	0x3a685dc7	0.00088640716
205	0x3cca2008	0.024673477
206	0xbd10a613	-0.03531463
207	0xbe810f83	-0.25207147
208	0x3cc21725	0.023692677
209	0xbd9c70a8	-0.07638675
210	0xbdb602dc	-0.08887264
211	0xbcf057f0	-0.029338807
212	0xbcd1b4da	-0.025598932
213	0xbe48be4a	-0.1960384
214	0x3bd6f7de	0.00656031
215	0xbdc7d755	-0.09757868
216	0xbe0b5966	-0.13608322
217	0xbe41427a	-0.18873015
218	0xbdc0705e	-0.09396432
219	0xbeb1d072	-0.34729344
220	0xbdc24644	-0.09486058
221	0xbd68bf59	-0.05682311
222	0xbd2b56c2	-0.041830786
223	0x3bc8a76c	0.006123474
224	0xbe0e59fb	-0.13901512
225	0x3d8c3329	0.068456955
226	0xbd41d94e	-0.04732638
227	0xbd6e500f	-0.05818182
228	0x3dbe540d	0.09293375
229	0xbd36cf30	-0.044631183
230	0xbe12e9b1	-0.14346959
231	0xbd5a4c29	-0.05329529
232	0xbe888aca	-0.26668388
233	0xbe17c4b6	-0.14821133
234	0x3e24454d	0.16042061
235	0xbe0d6c99	-0.13810958
236	0xbd67befc	-0.05657862
237	0xbd0c1492	-0.034199305
238	0x3d8cab7e	0.06868647
239	0xbe61e2c1	-0.22059156
240	0x3dea376e	0.114363536
241	0xbe1a01b1	-0.15039708
242	0xbe6a93c7	-0.22907935
243	0xbd310dee	-0.043226175
244	0x3d9ff5e8	0.07810575
245	0xbc5e87cf	-0.013582184
246	0xbdb9ba41	-0.09068728
247	0xbc299b5f	-0.010351985
248	0x3d189c53	0.037258457
249	0x3d2458c9	0.040123735
250	0x3c3b7c39	0.011443191
251	0xbe06dc99	-0.13170089
252	0x3d4647bf	0.048408266
253	0xbd06c879	-0.03290603
254	0xbe28c8ec	-0.16482896
255	0xbe223e18	-0.15844

res_blocks.0.linear1.bias f4 [64]
0	0xbdeac127	-0.11462622
1	0xbd733119	-0.059372995
2	0xbda346a4	-0.07972458
3	0xbc7d60a8	-0.015464939
4	0xbd0c53f3	-0.034259748
5	0xbd9b03b1	-0.075690635
6	0x3d3190b8	0.043350905
7	0x3e008157	0.12549339
8	0x3d8d5965	0.06901816
9	0x3e1a85ee	0.15090153
10	0xbca4a68e	-0.02009895
11	0xbd88fc19	-0.06688709
12	0x3d5a7787	0.053336646
13	0x3d9848c4	0.07435754
14	0x3db8957e	0.09012888
15	0xbe24bcdc	-0.16087669
16	0xbe2ffc09	-0.17185988
17	0x3dea3336	0.11435549
18	0xbd66d0e8	-0.056351572
19	0x3d31bcf1	0.04339308
20	0x3d9cd4ae	0.07657753
21	0xbd004b86	-0.031322025
22	0x3d1b5068	0.03791848
23	0x3bce4fd2	0.0062961364
24	0xbd9569ac	-0.07295546
25	0x3d2a0038	0.041504115
26	0x3c55681b	0.013025309
27	0xbdc45419	-0.09586353
28	0x3e09b4ff	0.13447951
29	0xbde573c3	-0.112037204
30	0x3d39cc81	0.045361046
31	0xbd5987ad	-0.053107906
32	0x3d93b3f5	0.072120585
33	0x3e085ee5	0.1331745
34	0x3dad98fd	0.08476446
35	0x3d90dec3	0.070737384
36	0x3dd118e8	0.102098286
37	0x3da6dc6d	0.08147512
38	0x3dea8b17	0.114523105
39	0x3c21f67c	0.009885427
40	0x3e1681f8	0.14698017
41	0x3e21a5ac	0.15785855
42	0xbd6b9ccd	-0.057522584
43	0xbe155861	-0.14584495
44	0x3db6c70b	0.08924683
45	0xbd243e51	-0.040098492
46	0x3da3beed	0.079954006
47	0xbc8b9f63	-0.017043775
48	0x3dcc52c7	0.09976726
49	0x3dd9a22a	0.106266335
50	0xbcb28775	-0.021793107
51	0x3d42ca41	0.047556166
52	0x3df444bb	0.11927172
53	0x3e3bd1e3	0.18341784
54	0x3d53336d	0.051562715
55	0x3def49f9	0.11684031
56	0xbd17ec97	-0.037090864
57	0x3ca13bbf	0.01968181
58	0x3d4c76a8	0.049917847
59	0x3db37784	0.0876303
60	0x3dc4df70	0.0961293
61	0x3c84ed4b	0.016226431
62	0xbc04238d	-0.008065117
63	0x3d9abd12	0.075555936

res_blocks.0.bn1.weight f4 [64]
0	0x3f494149	0.7861524
1	0x3f6eacc3	0.93232363
2	0x3f65ab96	0.89714944
3	0x3f7f2ac6	0.9967464
4	0x3f81528f	1.010332
5	0x3f69ba3b	0.9129979
6	0x3f6aba91	0.9169093
7	0x3f7fbaf6	0.99894655
8	0x3f875273	1.0572037
9	0x3f76fd56	0.9648031
10	0x3f759d26	0.95942914
11	0x3f486763	0.78282756
12	0x3f6bad66	0.9206146
13	0x3f6c79e2	0.9237348
14	0x3f49e570	0.7886572
15	0x3f52e43c	0.8237951
16	0x3f939fb3	1.1533111
17	0x3f86c1aa	1.0527852
18	0x3f5ba976	0.8580545
19	0x3f56e2ef	0.83940023
20	0x3f8298d3	1.0202888
21	0x3f82315b	1.0171312
22	0x3f83ecb9	1.0306617
23	0x3f4e0e1c	0.8049028
24	0x3f790e62	0.9728757
25	0x3f433c8c	0.7626426
26	0x3f6908c2	0.9102899
27	0x3f57bd9f	0.84273714
28	0x3f672486	0.90290105
29	0x3f70ed38	0.9411197
30	0x3f82c7cb	1.0217222
31	0x3f3237e4	0.6961653
32	0x3f4c0ffd	0.79711896
33	0x3f787ee9	0.9706865
34	0x3f7a6e96	0.9782499
35	0x3f6c7ed0	0.92381
36	0x3f48988e	0.7835778
37	0x3f6ea074	0.9321358
38	0x3f54375f	0.8289699
39	0x3f668624	0.9004843
40	0x3f7a6cf3	0.97822493
41	0x3f701d5f	0.93794817
42	0x3f7b58d7	0.98182434
43	0x3f781acb	0.9691588
44	0x3f7551fa	0.9582821
45	0x3f7bea82	0.98404706
46	0x3f5d4bd8	0.86443853
47	0x3f74c990	0.9562006
48	0x3f750a7b	0.95719117
49	0x3f7a8c83	0.97870654
50	0x3f87fca0	1.062397
51	0x3f85dec3	1.0458606
52	0x3f5980bf	0.84962076
53	0x3f504926	0.81361616
54	0x3f533375	0.8250039
55	0x3f6c6cc0	0.9235344
56	0x3f81c3da	1.0137894
57	0x3f73d472	0.9524604
58	0x3f800d4e	1.000406
59	0x3f6352e5	0.8879836
60	0x3f7a2e19	0.9772659
61	0x3f726c9f	0.9469699
62	0x3f7a4dbf	0.9777488
63	0x3f78d085	0.97193176

res_blocks.0.bn1.bias f4 [64]
0	0x3f090885	0.53528625
1	0x3e108706	0.14114007
2	0x3e260322	0.16212133
3	0xbe378f68	-0.17925799
4	0x3c682763	0.014169547
5	0x3dc42a39	0.09578366
6	0xbe681744	-0.22665125
7	0xbd20f042	-0.039291628
8	0xbe4a8625	-0.19777735
9	0x3d732430	0.059360683
10	0xbe87e96f	-0.26545283
11	0x3ed9737c	0.4247092
12	0xbcd111d0	-0.025521189
13	0x3e83aaf2	0.25716358
14	0x3edd9f28	0.4328549
15	0x3d7908b3	0.06079931
16	0xbd0aa552	-0.033849068
17	0xbd92d6fa	-0.0716991
18	0x3e89d89a	0.26923066
19	0x3e1025c6	0.1407691
20	0xbd212972	-0.039346166
21	0xbe69b910	-0.22824502
22	0xbe2acb26	-0.16679057
23	0x3ebaf66a	0.36516124
24	0xbddca6a1	-0.107739694
25	0x3e48dddd	0.19615884
26	0xbdf664bd	-0.12030933
27	0x3ea6e79e	0.32598585
28	0x3e871e44	0.26390278
29	0xbe4d80f2	-0.2006872
30	0xbe8fb500	-0.2806778
31	0x3f02d8c2	0.51111996
32	0x3e868e08	0.26280236
33	0xbe6c5621	-0.2307973
34	0xbde4180c	-0.11137399
35	0xbe716e9f	-0.23577355
36	0x3f04f882	0.5194169
37	0xbddf82ca	-0.10913618
38	0x3ec2f0b0	0.38074255
39	0x3e6532d8	0.22382677
40	0xbb7cbc02	-0.003856421
41	0x3eb2592b	0.34833655
42	0xbe7bd5fb	-0.24593346
43	0x3d979748	0.074019015
44	0xbd9ddfc7	-0.07708698
45	0x3e819fd5	0.25317255
46	0x3df8475d	0.121229865
47	0xbebbdeb6	-0.36693352
48	0x3dbfbc0b	0.09362038
49	0x3e3f8d1c	0.18706173
50	0xbea2bcd5	-0.31784692
51	0xbe280966	-0.16409835
52	0x3f0377fe	0.5135497
53	0x3ec219d9	0.37910345
54	0xbd8347f8	-0.06410211
55	0x3d421712	0.047385283
56	0x3d08a04b	0.033355992
57	0xbd953ff8	-0.07287592
58	0x3d8638f8	0.06553835
59	0x3ee25935	0.44208685
60	0x3ec26a9f	0.3797197
61	0xbe6a5483	-0.22883801
62	0xbe21b56a	-0.1579186
63	0x3e85225f	0.26002786

res_blocks.0.bn1.running_mean f4 [64]
0	0xc02d4d64	-2.7078485
1	0xc043228e	-3.048984
2	0xbfb1d86c	-1.3894172
3	0xc095beef	-4.6795573
4	0xc06ae4be	-3.6702113
5	0xc073f2f9	-3.8117049
6	0x3ed04ee3	0.40685186
7	0x3fa9a69f	1.3253974
8	0xc029c549	-2.6526663
9	0xbd117f4a	-0.035521783
10	0x40057e03	2.0858161
11	0xc059f9e7	-3.4058778
12	0xbffe448f	-1.9864672
13	0xc085a266	-4.176074
14	0xc056d8c2	-3.3569798
15	0xc078ecd4	-3.8894548
16	0x4093578d	4.6044374
17	0x40392480	2.8928528
18	0xc01bfd5e	-2.4373393
19	0xc0609e9f	-3.5096815
20	0xc088f7be	-4.280242
21	0xc0229144	-2.5401163
22	0xc0637756	-3.5541587
23	0xc04d8a2f	-3.211559
24	0x405abc57	3.4177454
25	0xc040945b	-3.009055
26	0xbf45969d	-0.7718294
27	0xc07dd1e8	-3.9659367
28	0xc04681c4	-3.1016703
29	0xbf35fa34	-0.71084905
30	0x4092f411	4.5922933
31	0xc032d3ef	-2.7941854
32	0xbff0ddea	-1.8817723
33	0xc00169db	-2.022086
34	0x3ed22e71	0.41051057
35	0xc017254e	-2.361652
36	0xc047f4ba	-3.124312
37	0x3fc6a36e	1.5518625
38	0xc0773bf4	-3.8630342
39	0x3e7beebb	0.24602787
40	0xc03a219d	-2.9083016
41	0xc00e6914	-2.2251635
42	0xc03f6b8b	-2.990939
43	0x3d74cd7f	0.05976629
44	0x3fd18ba2	1.6370738
45	0xbfeb6682	-1.8390658
46	0xbfdc334c	-1.7203155
47	0x3fd9e105	1.7021796
48	0xc02d0837	-2.7036264
49	0xbfc12e4c	-1.5092254
50	0xc0127622	-2.2884603
51	0x402814a9	2.626261
52	0xc0552cdf	-3.3308637
53	0xc0638f76	-3.5556312
54	0xbf79e81d	-0.976198
55	0xc02bd17c	-2.684661
56	0xc082d16f	-4.0880656
57	0xc0963b10	-4.69471
58	0xc005e169	-2.091883
59	0xc02d84fe	-2.7112422
60	0xc03a63db	-2.9123447
61	0xc0118fa7	-2.2743928
62	0xc038c172	-2.886807
63	0xc021f448	-2.5305347

res_blocks.0.bn1.running_var f4 [64]
0	0x40068d46	2.1023726
1	0x4007283c	2.1118307
2	0x41571b0f	13.444106
3	0x403baad3	2.9323013
4	0x4144c110	12.297134
5	0x411dcb1c	9.862087
6	0x3f873945	1.0564352
7	0x416b4de0	14.706512
8	0x40035160	2.0518417
9	0x417c3dab	15.765056
10	0x40835078	4.103573
11	0x3ff3bcc8	1.9041986
12	0x40520f70	3.2821922
13	0x40867a8b	4.202459
14	0x3fdb8b6c	1.7151923
15	0x3fd5079f	1.6642951
16	0x40447f3b	3.0702655
17	0x40db6fa3	6.8573775
18	0x40bd3874	5.9131413
19	0x409f2127	4.972797
20	0x4065359b	3.5813968
21	0x40603d5c	3.503745
22	0x40adb7c6	5.4286833
23	0x3fd15fe5	1.635739
24	0x41cecc49	25.849749
25	0x40beee10	5.9665604
26	0x40080bb4	2.1257143
27	0x40060bac	2.0944624
28	0x3faaa453	1.3331398
29	0x412b17da	10.693323
30	0x404df703	3.2182014
31	0x40620d46	3.5320601
32	0x3fffcdcb	1.9984678
33	0x3ff03d2c	1.8768668
34	0x411883a5	9.53214
35	0x4011252b	2.2678936
36	0x40438832	3.0551877
37	0x3fe83580	1.8141327
38	0x4066555a	3.5989594
39	0x3fcf8673	1.6212906
40	0x4084cb59	4.1498227
41	0x406d8e1d	3.711799
42	0x403f6d6f	2.9910543
43	0x41529ef4	13.163807
44	0x3f0e2b41	0.5553475
45	0x40208f2a	2.508738
46	0x410d6280	8.836548
47	0x4028dce3	2.6384819
48	0x402e2dc5	2.7215436
49	0x4085cf07	4.181522
50	0x3fedd7d3	1.8581489
51	0x40df55fc	6.979246
52	0x409f032f	4.9691386
53	0x40332931	2.7993891
54	0x4082bd7d	4.085631
55	0x4013d3f2	2.309811
56	0x40b01d84	5.503603
57	0x40f76e12	7.7321863
58	0x41138d6c	9.222027
59	0x40435d85	3.052583
60	0x4039c493	2.902623
61	0x3fef0fa5	1.8676649
62	0x40f26d7e	7.5758657
63	0x40c888c3	6.2666945

res_blocks.0.linear2.weight f4 [64, 64]
0	0xbbc05832	-0.0058698887
1	0x3dcacb23	0.099020265
2	0xbd0c4830	-0.03424853
3	0x3de47695	0.1115543
4	0x3d65a303	0.056063663
5	0x3ca900e4	0.020630307
6	0xbe212df5	-0.15740187
7	0x3e190120	0.14941835
8	0xbde2822e	-0.11059986
9	0xbd86d777	-0.065840654
10	0x3d87b926	0.06627111
11	0xbe368c04	-0.17826849
12	0x3d4c3adb	0.049860816
13	0x3b97edf4	0.0046365205
14	0xbcbfb486	-0.02340151
15	0x3d976c5f	0.07393717
16	0xbd9bb490	-0.07602799
17	0xbcb2aa66	-0.021809768
18	0x3deec734	0.11659089
19	0x3e0f384f	0.13986324
20	0x3d93843a	0.072029546
21	0xbe374612	-0.17897823
22	0xbd3c93a4	-0.04603924
23	0xbe3747fa	-0.1789855
24	0xbca94c88	-0.020666376
25	0xbcd7a935	-0.026325801
26	0xbcf4b59f	-0.02987176
27	0x3d640e68	0.0556778
28	0xbda32bd9	-0.07967348
29	0xbdf3b300	-0.11899376
30	0xbe7a7b02	-0.24460986
31	0xbdc62fea	-0.09677108
32	0xbde80c19	-0.113304324
33	0xbe03e840	-0.12881565
34	0x3dc1dbb7	0.094657354
35	0xbd56c50e	-0.05243402
36	0x3da00160	0.07812762
37	0x3d87ebb9	0.066367574
38	0x3d291a2d	0.04128473
39	0xbc210964	-0.009828899
40	0xbb5df04f	-0.003386516
41	0x3db5fc06	0.0888596
42	0xbccc76fd	-0.024959082
43	0xbd954471	-0.07288445
44	0xbe023936	-0.12717137
45	0x3cbdad97	0.023154063
46	0xbd8b84fb	-0.068124734
47	0xbbe0b0bb	-0.0068570054
48	0xbe0f4b82	-0.13993648
49	0xbc941bb1	-0.01807961
50	0xbdeeec8e	-0.11666213
51	0x3d04aa7e	0.032389157
52	0x3afb260e	0.0019161121
53	0xbdc28ce3	-0.09499528
54	0x3c0c8e0a	0.008578787
55	0xbd14eda1	-0.036359433
56	0x3dab36a2	0.0836003
57	0xbd29ee6b	-0.04148714
58	0xbd7a4b1d	-0.06110679
59	0x3c2362d3	0.009972292
60	0xbcc38e29	-0.023871498
61	0xbe2c600c	-0.16833514
62	0xbd1cbdfa	-0.038267113
63	0xbd84c4de	-0.06482862
64	0x3dacc454	0.08435884
65	0xbe3725e2	-0.17885545
66	0xbd80b4fb	-0.06284519
67	0xbe0982fe	-0.13428876
68	0xbd1d57d4	-0.038413838
69	0x3c1f5695	0.009725233
70	0x3e140f0b	0.14458863
71	0x3e1a3d65	0.15062483
72	0xbd28a0b9	-0.041168902
73	0xbc434fac	-0.011920851
74	0xbbe5f8bc	-0.007018177
75	0x3c91acf0	0.017782658
76	0x3e089792	0.1333907
77	0xbe51e16d	-0.2049615
78	0x3e428cef	0.18999074
79	0x3b122e72	0.0022305516
80	0xbcd786d4	-0.026309408
81	0xbd1b9ebe	-0.037993185
82	0x3daa43d2	0.08313717
83	0x3d1b1c09	0.037868533
84	0xbdb5beda	-0.08874293
85	0x3d2c05c4	0.041997686
86	0xbde5599f	-0.111987345
87	0x3dbb9bf1	0.09160603
88	0xbcb2a848	-0.021808758
89	0xbdb76c5f	-0.08956217
90	0xbd8ecc9f	-0.06972622
91	0x3cf38682	0.029727224
92	0x3d8ac089	0.067750044
93	0x3c832220	0.016007483
94	0xbdcb1909	-0.099168845
95	0x3dc99b75	0.09844104
96	0x3d4ae5e0	0.049535632
97	0x3c986930	0.018604845
98	0x3d89e172	0.067324534
99	0xbdc3e3e6	-0.095649526
100	0x3e5c5f2a	0.21520677
101	0x3cfb5a78	0.030682787
102	0xbd24871f	-0.040167924
103	0xbd136371	-0.035983507
104	0xbe4bc41b	-0.19899027
105	0x3d2ef2a8	0.042711884
106	0xbe2c8beb	-0.1685025
107	0x3cd0a30b	0.02546837
108	0xbc03d10a	-0.008045444
109	0xbcd5f5d8	-0.026118204
110	0x3de90ef0	0.11379802
111	0x3dd4b660	0.10386348
112	0xbdb4774a	-0.08811815
113	0xbc88b040	-0.016685605
114	0x3d8001e8	0.062503636
115	0x3ca9ab72	0.020711634
116	0x3d0c4b1a	0.03425131
117	0x3dfec56e	0.124400005
118	0x3cf52c8d	0.02992847
119	0xbcffcb9f	-0.031225024
120	0x3d801d98	0.062556446
121	0x3dd453d1	0.10367549
122	0x3e49b315	0.1969722
123	0x3c428693	0.011872905
124	0x3e265221	0.16242267
125	0x3d430710	0.047614157
126	0x3d91a632	0.07111777
127	0xbe25aeac	-0.16179913
128	0x3dcb51c6	0.099277064
129	0xbd26ea45	-0.04075076
130	0x3e950145	0.2910253
131	0xbcebedbe	-0.028799888
132	0xbe8fe992	-0.28107888
133	0x3dfdf965	0.12401084
134	0xbd95a917	-0.07307642
135	0xbe5797c8	-0.21053994
136	0x3d00d073	0.031448793
137	0xbdf32eb5	-0.11874143
138	0xbd605602	-0.054769523
139	0x3d81e99f	0.06343388
140	0x3dc21984	0.09477523
141	0xbdff6cee	-0.124719486
142	0xbd73af5d	-0.05949341
143	0x3d50ff82	0.05102492
144	0x3daf48df	0.08558821
145	0xbd09a262	-0.033602126
146	0x3cf3153f	0.029673217
147	0xbdfdf6be	-0.12400578
148	0xbd7f3364	-0.06230487
149	0x3ad98885	0.0016596472
150	0xbe091a29	-0.13388886
151	0xbd534ef5	-0.05158897
152	0x3d3615cc	0.04445438
153	0x3de70f7d	0.11282251
154	0x3c85f82d	0.016353691
155	0x3d09eec3	0.033674967
156	0xbdeaf4eb	-0.11472496
157	0xbd712535	-0.058873374
158	0x3e134703	0.14382558
159	0xbd3bd204	-0.045854583
160	0x3cf32a3c	0.029683225
161	0x3d885725	0.066572465
162	0xbc27f256	-0.0102506485
163	0x3dddc88c	0.10829267
164	0xbc2924d6	-0.010323724
165	0x3dbc1589	0.09183795
166	0xbd9192a9	-0.07108051
167	0xbadc8568	-0.0016824426
168	0xbdeac59d	-0.11463473
169	0x3d0a5596	0.033773027
170	0x3d3a4a4c	0.04548101
171	0x3df19f68	0.117979825
172	0xbcb558e1	-0.022137107
173	0xbd534e83	-0.051588546
174	0x3d5aa234	0.053377345
175	0xbd61ebe0	-0.05515659
176	0x3dba7bde	0.09105657
177	0xbe0fef3a	-0.14056101
178	0x3e16bd71	0.14720704
179	0x3e26859b	0.16261904
180	0x3d8f53f9	0.069984384
181	0x3d60fce7	0.054928686
182	0x3d5e13e3	0.054218184
183	0xbd2b1cbd	-0.041775454
184	0xbdc2ce3a	-0.09511991
185	0xbdc7ca0a	-0.09755333
186	0xbe0949c5	-0.13407047
187	0xbe16fe7e	-0.14745519
188	0xbcf8ffdd	-0.030395443
189	0xbdb02113	-0.086000584
190	0xbe438adc	-0.1909594
191	0x3bc85b99	0.006114435
192	0x3e0f9e71	0.14025284
193	0xbcf7634a	-0.030198712
194	0x3d020c9e	0.031750314
195	0x3b1ff822	0.0024409373
196	0x3da15033	0.07876625
197	0xbb88efde	-0.004178985
198	0x3d21e4a9	0.039524708
199	0xbdd5f08b	-0.104462706
200	0x3dbcee57	0.09225147
201	0xbc8dd856	-0.017315071
202	0xbd8a5e03	-0.067562126
203	0xbd5fa2e5	-0.054598708
204	0xbda76a01	-0.081745155
205	0x3ded06d4	0.11573568
206	0xbe14ec9f	-0.14543389
207	0x3d069e17	0.03286561
208	0x3ceb61af	0.028733103
209	0xbda3d00f	-0.079986684
210	0x3dd3c385	0.10340027
211	0xbcf9150f	-0.03040555
212	0xbe3303b1	-0.17481877
213	0x3e19b6c9	0.15011133
214	0xbc10e395	-0.008843322
215	0x3c0f66ee	0.008752568
216	0x3dd9c296	0.106328174
217	0xb9fcb5a5	-0.0004820052
218	0x3d2b29a1	0.041787747
219	0x3d4e56c2	0.050375707
220	0xbd172d72	-0.036908574
221	0x3d1bd2a4	0.03804268
222	0x3e5888f7	0.21145998
223	0x3e07e788	0.13271916
224	0x3dcc087e	0.09962557
225	0x3dda79be	0.10667752
226	0xbe9ba710	-0.30400896
227	0x3cf54b0b	0.02994301
228	0x3daba7fd	0.083816506
229	0xbd1977b8	-0.03746769
230	0xbc7bc794	-0.015367407
231	0x3d5d2f38	0.05400011
232	0xbd3e7726	-0.046500348
233	0x3baa87b8	0.005204167
234	0xbd949b76	-0.07256214
235	0xbdabe338	-0.08392948
236	0x3dd19600	0.10233688
237	0x3cc2c8cc	0.023777388
238	0xbdb8235f	-0.089911215
239	0xbde0bd82	-0.10973646
240	0xbdd3e795	-0.10346905
241	0xbd21712b	-0.039414566
242	0x3e00a194	0.12561637
243	0x3d86d8d5	0.06584326
244	0x3dae863c	0.08521697
245	0x3b76a45c	0.0037634587
246	0xbd147295	-0.036242086
247	0xbd15b37b	-0.03654812
248	0xbd27f51a	-0.04100523
249	0x3dd01e67	0.10162049
250	0x3e2529a5	0.16129167
251	0x3ddbf83d	0.10740707
252	0x3dedc247	0.11609321
253	0x3db5cdcb	0.088771425
254	0xbd1a67e6	-0.03769674
255	0x3d02b155	0.0319074

res_blocks.0.linear2.bias f4 [64]
0	0xbdea1ba4	-0.11431053
1	0x3e895074	0.26819193
2	0x3d39ecf3	0.045391988
3	0x3e7f3664	0.24923092
4	0xbda42777	-0.0801534
5	0xbe3da32c	-0.18519276
6	0x3e849b78	0.25899863
7	0x3caa8ee3	0.020820087
8	0xbdcc626a	-0.099797085
9	0x3e6cbf71	0.23119904
10	0x3e895544	0.26822865
11	0x3e83b414	0.25723326
12	0x3e729680	0.23690224
13	0x3e46197e	0.19345662
14	0x3e10eaa3	0.14152007
15	0xbe24a361	-0.16077949
16	0x3ec98483	0.3935891
17	0xbe5519d2	-0.20810631
18	0x3e720b43	0.23637109
19	0x3e5bdd15	0.21471055
20	0xbe894abc	-0.2681483
21	0x3e964fad	0.29357663
22	0x3c3e8448	0.011628218
23	0xbea71537	-0.32633373
24	0xbee3b52c	-0.4447416
25	0xbc18a148	-0.009315796
26	0x3c8a0991	0.016850265
27	0x3e1158a2	0.14193967
28	0xbe7b7075	-0.24554618
29	0xbe3a555c	-0.18196625
30	0xbd2a7420	-0.04161465
31	0xbd430623	-0.047613274
32	0xbcb2202f	-0.021743862
33	0xbcb616da	-0.022227693
34	0x3dbc4c5b	0.09194251
35	0x3e9fec6a	0.31235057
36	0x3ea2d8d2	0.31806046
37	0xbcce6423	-0.025194233
38	0x3d5a482b	0.05329148
39	0x3db5fee7	0.088865094
40	0xbda09ef1	-0.07842816
41	0x3e988c5f	0.29794595
42	0xbee6a2c8	-0.45046067
43	0xbd934cbc	-0.0719237
44	0x3dbb1faf	0.091369025
45	0x3e8ce1ce	0.27516025
46	0x3eb996ff	0.36248013
47	0x3e919d4b	0.28440318
48	0xbce18102	-0.027527336
49	0xbe42c85a	-0.1902174
50	0xbea18d93	-0.31553325
51	0x3e750075	0.23925956
52	0x3e468ac4	0.19388872
53	0xbe762ca0	-0.2404046
54	0x3e623859	0.22091807
55	0x3e038b41	0.1284609
56	0x3e936790	0.2878995
57	0x3e3f370d	0.18673344
58	0xbdfb6272	-0.12274636
59	0x3ee45349	0.44594792
60	0x3e4e79fd	0.20163722
61	0xbdb68813	-0.08912673
62	0xbe80820d	-0.2509922
63	0x3f05c227	0.5224938

res_blocks.0.bn2.weight f4 [64]
0	0x3ff83cd3	1.9393562
1	0x3ffa0423	1.9532512
2	0x40006fbf	2.0068204
3	0x3ff87c5f	1.9412955
4	0x3ff58e76	1.9184101
5	0x4006b83f	2.1049955
6	0x3fe9d1bb	1.826713
7	0x3ff77884	1.9333653
8	0x3fff3729	1.9938709
9	0x3ff0240a	1.8760998
10	0x3ff6a995	1.9270502
11	0x3ff54a2b	1.9163259
12	0x3ff501b9	1.9141151
13	0x3ff35bbb	1.9012369
14	0x3ff5d786	1.9206398
15	0x3ff28a5f	1.8948478
16	0x3feb046c	1.8360724
17	0x3ffd1de1	1.9774743
18	0x3ffb5c11	1.9637471
19	0x3fec5c6f	1.8465708
20	0x3fffb4a4	1.9977002
21	0x3ff3366f	1.9000987
22	0x3fed6882	1.8547518
23	0x3ffa11c6	1.9536674
24	0x4000b106	2.0108047
25	0x3ff48f2c	1.9106193
26	0x3ff6c900	1.928009
27	0x3ff269fc	1.8938594
28	0x3ff404ff	1.9064025
29	0x4000e0e5	2.0137265
30	0x4002ad88	2.0418415
31	0x3ff60177	1.9219197
32	0x3fe79b05	1.8094183
33	0x3fea420b	1.8301405
34	0x3fee0823	1.8596233
35	0x3ff37d34	1.9022584
36	0x3ff11f70	1.8837719
37	0x3ff2ff7f	1.8984221
38	0x3ff54648	1.9162073
39	0x3ff26a41	1.8938676
40	0x3ff666b5	1.9250094
41	0x3ff2b9ed	1.896299
42	0x4001e947	2.029863
43	0x3fef58d7	1.8698987
44	0x3ff437ac	1.907949
45	0x3ff4f898	1.9138365
46	0x3ff3ba34	1.90412
47	0x3ffa4f33	1.955542
48	0x40003f2b	2.0038555
49	0x4003e141	2.0606234
50	0x4000910f	2.0088537
51	0x3fef0091	1.8672048
52	0x3ff38b1f	1.9026831
53	0x3ff57318	1.9175749
54	0x3ff4d4de	1.9127462
55	0x3ff27e70	1.8944836
56	0x3fefa397	1.8721799
57	0x3fea9f6f	1.8329905
58	0x3ff96003	1.9482425
59	0x3ff56a47	1.9173058
60	0x3fed8868	1.8557253
61	0x3ffe51f9	1.9868766
62	0x40095076	2.145536
63	0x3ff78208	1.9336557

res_blocks.0.bn2.bias f4 [64]
0	0x3f67f0bc	0.90601707
1	0x3f884299	1.0645324
2	0x3f81fa36	1.0154483
3	0x3f80d122	1.0063822
4	0x3f890d4d	1.0707184
5	0x3f8abc73	1.083876
6	0x3f6da62c	0.92831683
7	0x3f81414b	1.0098051
8	0x3f816c4b	1.0111173
9	0x3f811d2e	1.008703
10	0x3f81849e	1.0118597
11	0x3f860ffa	1.0473626
12	0x3f816b8b	1.0110945
13	0x3f830237	1.0235051
14	0x3f80dd40	1.006752
15	0x3f846a71	1.0344983
16	0x3f750f37	0.9572634
17	0x3f79f01b	0.97631997
18	0x3f8d9b81	1.1063081
19	0x3f858be6	1.0433319
20	0x3f8bdbcf	1.0926455
21	0x3f83a610	1.0285053
22	0x3f82cf33	1.0219482
23	0x3f879127	1.0591172
24	0x3f80550e	1.0025957
25	0x3f88b1c6	1.0679252
26	0x3f83a861	1.028576
27	0x3f87793d	1.0583874
28	0x3f83ae66	1.0287597
29	0x3f75193b	0.95741624
30	0x3f809733	1.0046142
31	0x3f895732	1.0729735
32	0x3f7db663	0.99106425
33	0x3f6995e5	0.91244346
34	0x3f84caf0	1.0374432
35	0x3f80aedf	1.0053366
36	0x3f82759f	1.0192145
37	0x3f8679a8	1.0505877
38	0x3f803f0e	1.0019243
39	0x3f82d462	1.0221064
40	0x3f810aff	1.0081481
41	0x3f802250	1.0010471
42	0x3f84bd8e	1.0370347
43	0x3f82757c	1.0192103
44	0x3f806630	1.0031185
45	0x3f85165a	1.0397446
46	0x3f85cea1	1.0453683
47	0x3f885549	1.0651027
48	0x3f892276	1.0713642
49	0x3f87c456	1.0606792
50	0x3f8915aa	1.0709736
51	0x3f7b4243	0.9814798
52	0x3f809e32	1.0048277
53	0x3f8b754c	1.0895171
54	0x3f84bb14	1.0369592
55	0x3f7c84ca	0.9864012
56	0x3f775c21	0.9662495
57	0x3f6ed9f7	0.9330134
58	0x3f7a91f4	0.97878957
59	0x3f86075e	1.0470998
60	0x3f850e29	1.0394946
61	0x3f7a507a	0.9777905
62	0x3f80887b	1.004165
63	0x3f8729bc	1.0559611

res_blocks.0.bn2.running_mean f4 [64]
0	0xbf26396c	-0.6493137
1	0x3f3dcfdf	0.7414531
2	0xbe826548	-0.25467896
3	0x3f2fb9f5	0.6864312
4	0xbea1baf9	-0.3158796
5	0xbf5e50da	-0.8684212
6	0x3fa49ed6	1.2860973
7	0x3f2dd7f4	0.67907643
8	0xbf1abf13	-0.60447806
9	0x3f356fe7	0.70873874
10	0x3dd5923f	0.10428285
11	0x3f07b728	0.5301385
12	0x3fb1b538	1.3883429
13	0x3f86d0db	1.0532488
14	0x3f933152	1.1499426
15	0xbe961d9f	-0.29319474
16	0x3f801840	1.00074
17	0xbf812cd7	-1.0091809
18	0x3f323096	0.69605386
19	0x3d98e07b	0.07464691
20	0xbf08c1ff	-0.53421015
21	0x3f4d54a7	0.80207294
22	0xbe65eaff	-0.22452925
23	0xbe9fc999	-0.31208494
24	0xbfc5cc62	-1.5452998
25	0xbda0d551	-0.07853187
26	0x3d5d3ade	0.05401122
27	0x3f45dbb5	0.7728837
28	0xbf1b136f	-0.6057653
29	0xbed39701	-0.41326144
30	0xbf94239c	-1.1573367
31	0x3eb17e84	0.34666836
32	0xbcf9bc4f	-0.0304853
33	0x3f0cb553	0.5496418
34	0xbcf796b7	-0.030223234
35	0x3f2db82f	0.67859167
36	0xbdec9ab3	-0.11552944
37	0xbefc98fe	-0.49335474
38	0x3f84053c	1.0314097
39	0x3f66077d	0.89855176
40	0xbf621c9d	-0.8832491
41	0x3fa3c0d5	1.2793223
42	0xbf860333	-1.0469726
43	0x3e93883f	0.28814885
44	0x3f31791a	0.6932541
45	0x3f56d956	0.8392538
46	0x3fb4c799	1.4123412
47	0x3dab25ec	0.083568424
48	0xbf418d3e	-0.75606143
49	0xbf13150e	-0.57454
50	0xbf15b0d8	-0.5847297
51	0x3f13c3c7	0.5772061
52	0x3f593796	0.8485044
53	0xbf13f054	-0.57788587
54	0x3fb21cb7	1.3915013
55	0x3f3ac40b	0.7295539
56	0x3f888940	1.0666885
57	0x3fb195a4	1.3873792
58	0xbf0b6a6d	-0.5445927
59	0x3f8d3d95	1.1034418
60	0x3f2050e6	0.6262344
61	0xbf35c418	-0.7100234
62	0x3dbe0499	0.09278221
63	0x3f5d5993	0.86464804

res_blocks.0.bn2.running_var f4 [64]
0	0x3d51c063	0.051208865
1	0x3e22583f	0.15853976
2	0x3edef6c1	0.43547633
3	0x3e03cb05	0.12870415
4	0x3e798491	0.24366976
5	0x3f14869a	0.58017886
6	0x3ee52aea	0.44759303
7	0x3fc3e305	1.5303656
8	0x3dc5da14	0.09660736
9	0x3ede8a2a	0.43464786
10	0x3dda3f58	0.10656613
11	0x3ea13239	0.3148363
12	0x3e9d6521	0.30741218
13	0x3e77e455	0.24208196
14	0x3ef4d7d5	0.47820917
15	0x3ea3ae15	0.31968752
16	0x3e9aa0e8	0.30200887
17	0x3e8fd6a6	0.2809345
18	0x3ef60a52	0.4805475
19	0x3e395810	0.181
20	0x3ed15f95	0.40893236
21	0x3f041991	0.5160151
22	0x3e64abc2	0.22331145
23	0x3f79d93a	0.97597086
24	0x3e1ec5c0	0.15505123
25	0x3e086bb0	0.1332233
26	0x3f557d10	0.83393955
27	0x3e9ddda7	0.3083317
28	0x3e690a36	0.22757801
29	0x3ee94959	0.45563772
30	0x3e408cdc	0.18803734
31	0x3e91305f	0.28357217
32	0x3e47f726	0.19527873
33	0x3e9aa6b9	0.30205324
34	0x3e83c88c	0.25738943
35	0x3e4a1256	0.19733557
36	0x3ddbafef	0.10726916
37	0x3e0b3ffb	0.13598625
38	0x3e8b0820	0.27154636
39	0x3f46600f	0.77490324
40	0x3fbd3c7c	1.4784083
41	0x3e865f53	0.26244602
42	0x3e829274	0.2550236
43	0x3e8fd9fa	0.2809599
44	0x3e2e57c6	0.1702567
45	0x3ed50a05	0.41609207
46	0x3dcb2c02	0.09920503
47	0x3d8b92a3	0.06815078
48	0x3e8d9d87	0.27659246
49	0x3e61fbcf	0.22068714
50	0x3f004679	0.5010753
51	0x3e81a46a	0.2532075
52	0x3f2608d5	0.64857227
53	0x3ef57d88	0.47947335
54	0x3f3257b4	0.69665074
55	0x3f41db03	0.7572481
56	0x3eebda98	0.4606521
57	0x3f264eb1	0.64963824
58	0x3fa29f0d	1.2704788
59	0x3e8d4b3c	0.27596462
60	0x3e0ca2cc	0.13733977
61	0x3dc14bf0	0.09438312
62	0x3eb5f152	0.35535675
63	0x3dd8a9d8	0.1057927
