model/linear_resnet_model_400epoch.pt (torch, 168448 bytes, 44 tensors)

input_layer.0.weight f4 [64, 118]
00000000: 4346 f3bd 7949 893d 0f6c 893d bf75 13bc
00000010: 7ee3 9e3d db52 6a3d e764 743d 44f1 e13b
00000020: 509e cc3d 3b20 91bc dd61 843d 494a 96bd
00000030: 0c2e b53d fd40 1dbd 622f 1abe e551 1cbe
00000040: 373e d23c 4aed 143d aefb 373d 35c8 debd
00000050: f329 4bbd 0991 3c3d 9345 ea3c 4084 ac3d
00000060: b3e3 c93d e38f e33a ad06 243b 7411 27bd
00000070: 0ff8 b03c f9bb 29bd 30ce 1bbc 9f16 b5bd
00000080: b233 f7bd 264f bfbd 79ea e53c 8498 13bd
00000090: bc92 90bd 8ba4 253d 1ec4 11bd c02b 7c3d
000000a0: 675b fabc 7397 64bd 715b e33c f291 bbbd
000000b0: e761 543d 1797 60bd 42fc 55bd 45c4 e23c
000000c0: a6b3 63be c986 d03d f30d a0bd 17fe b63d
000000d0: 6a10 cc3d 6370 35bd aa31 b23d 86a4 9a3d
000000e0: e10a 253d 30f2 03bd 8bde 613e 32f0 90bd
000000f0: 1f44 20bd bda5 b03c 9b36 0f3d 2328 b53c
00000100: 874a d23c b517 36be 99ad acbd 2747 3bba
00000110: ed84 693c 8c9c f23b 660c 633c d96b 3ebc
00000120: d46f e03c 6c78 3fbd 638f 013e e6fc e43d
00000130: cf51 90bc b5bb 81bc 5ae5 81bd b548 0fbd
00000140: 3513 96bd e8a1 e93c d513 65bd ea4f 5b3a
00000150: 9121 cc3d a168 b13d cd50 e93c dc79 5dbc
00000160: f389 9d3d 2c94 613d c839 e33d 6379 a83d
00000170: 39aa 473e c4d1 313b c13c 1bbd 3a6f e73d
00000180: 0959 cb3c a964 7e3d 0be0 a13d 04cb 933c
00000190: 8b60 273d 16ef 68bc 0d96 b73c f46c 0dbc
000001a0: 37b6 083b c0a6 e93c c17a 5b3d 0b2f aabc
000001b0: 6c28 c93d 5928 45bc 6547 6b3c 030e 8fbc
000001c0: 17d7 c83d cc1a 99bd 0aeb 883c 3660 62bd
000001d0: 234c a0bd b852 b03d 30dd 7ebd 0dd0 553d
000001e0: 938b b23a 2a3c 013c dbc7 cdbd 5d71 053a
000001f0: 4605 90bd 3404 84bd b297 423d 09fa f23c
00000200: ed96 8dbd 8921 45bd 9d6e 1b3d 478e eabb
00000210: f8c4 b63c a683 d3bc 7b64 8bbd cee4 bdbd
00000220: 0dc5 a7bd dc49 b93c ba5b 75bd 21d4 20bc
00000230: f2a3 88bb 24d9 0d3d 3d16 2dbd 1431 83bd
00000240: e497 c13c 76d0 1ebd a76e 53bd 3cdf 4a3d
00000250: de40 9fbd 9488 ffbb 6110 4fbc 17cf 6dbc
00000260: 753a 0e3d d1da 113d 06f9 62bd 89fd c6bc
00000270: 5d70 533d 2cb2 e1bd 3a21 60bd 6677 a2bd
00000280: 5ac8 1cbd c026 94bd 1e8e 53bd 0f3f 09bd
00000290: 0938 503c 8019 f5bc d744 33bd c043 b43b
000002a0: 2a39 93bc e744 e43b 5ada 0ebe df92 d8bb
000002b0: e67b 84bc 70e3 06bd 77eb 9ebd 6ce0 b4bc
000002c0: e5b4 2bbd 0a55 d5bd 4021 dbbd 23ac 8dbd
000002d0: d2e4 6b3d 2ebe babd afa6 08be 2a20 6ebd
000002e0: ec0b 9cbc 52bb 27be 628f 56bd 7a7a 21ba
000002f0: ffc1 35bd 9762 98bd fbc5 bdbd f8fc 2e3d
00000300: 6fc1 ffbd effd 53bd d99c a2bd abac 86b9
00000310: adfc 20bd 5006 a6bd 4e02 fdbc c9f8 303d
00000320: 0fc7 3e3d 36b7 fc3c d24b b7bd 547c 21bd
00000330: 5401 173d c586 173c f35a 82bc 546f 273d
00000340: 3308 d8bd 18dd 80bd ad3f ecbb 55a1 813b
00000350: de9f ab3c 53b4 3cbd 1156 973d 1332 8fbc
00000360: 8af5 b5bd ce45 053b 303f 17be 67e9 7bbd
00000370: 394c 343d 88fc 45bd a547 5a3d b771 f1bd
00000380: a15c 4abd 2337 8d3c bc44 98bd fc9f 4ebd
00000390: b301 773d 5fbc 35bd 0427 92bc 6296 8a3d
000003a0: bf9e cfbc 5dc2 ac3c 5569 4d3d 07e7 423a
000003b0: 6151 00bd bdec a23d e74e 733d 9d29 b33d
000003c0: 91a8 8d3d f413 34bc e9e5 a3bc 5999 33bc
000003d0: 1f64 403d e7d3 b73d 7db6 0c3d 4f59 ee3d
000003e0: f3cf 363c 1536 b43d cdb6 0fbd e63d d43c
000003f0: 06c7 af3c 35c7 75bd 1af2 4dbc 6711 20bd
-0.11878636 0.06703467 0.06710064 -0.009000241 0.077582344 0.057207923 0.05966654 0.006895216
0.09991133 -0.017715564 0.064639784 -0.073383875 0.08846673 -0.038392056 -0.15057138 -0.15265615
0.025664432 0.03635911 0.044917755 -0.1087803 -0.049600553 0.046036754 0.028597629 0.08423662
0.09857883 0.0017361607 0.0025028393 -0.04078813 0.021602659 -0.04143903 -0.009509608 -0.08842205
-0.12070407 -0.09341268 0.028065907 -0.036034122 -0.07059237 0.040440124 -0.035587423 0.06156516
-0.030561162 -0.055808496 0.027753564 -0.09158696 0.05185118 -0.05483159 -0.052242525 0.02768148
-0.22236499 0.10181958 -0.078151606 0.089351825 0.09964068 -0.044296633 0.08700879 0.075509116
0.040293578 -0.03221339 0.2205755 -0.070770636 -0.039127465 0.021563405 0.034964185 0.022113865
0.025670303 -0.17782481 -0.084315486 -0.00071440864 0.014252883 0.0074039157 0.0138579365 -0.011622393
0.027397074 -0.046745703 0.12652354 0.11181049 -0.017617134 -0.015836576 -0.063425735 -0.03498145
-0.07327882 0.028519586 -0.055927116 0.0008366095 0.0996734 0.086625345 0.028480912 -0.013517823
0.07692327 0.05507295 0.11095005 0.08226278 0.19498529 0.0027133087 -0.037899736 0.11300512
0.024822729 0.062107716 0.07904061 0.018041141 0.040863555 -0.014217159 0.022410417 -0.0086319335
0.0020860562 0.028521895 0.053583864 -0.020774385 0.09822163 -0.012033545 0.0143602835 -0.017462736
0.0980665 -0.07475814 0.016713638 -0.055267535 -0.07827022 0.08609527 -0.06222266 0.052200366
0.0013621919 0.007887879 -0.10047885 0.000509044 -0.07032256 -0.06446114 0.04750795 0.029660242
-0.069135524 -0.048127685 0.037947286 -0.007158074 0.022310719 -0.02581961 -0.068062745 -0.09272157
-0.08191881 0.022618227 -0.05990193 -0.0098162005 -0.0041699344 0.03463091 -0.042257536 -0.06405845
0.023631997 -0.038773023 -0.0516192 0.0495293 -0.07776044 -0.007798264 -0.012638182 -0.014514706
0.034723718 0.03560907 -0.05541327 -0.024290817 0.05162083 -0.11020312 -0.054719187 -0.0793293
-0.038277008 -0.072339535 -0.051649205 -0.033507403 0.012708672 -0.029919386 -0.043766823 0.0055012405
-0.017971594 0.0069662216 -0.13950482 -0.0066093053 -0.01617236 -0.032931745 -0.07759755 -0.022079669
-0.04192056 -0.104166105 -0.10699701 -0.06917598 0.057591267 -0.09118305 -0.13344835 -0.058136143
-0.019048654 -0.16380051 -0.052382834 -0.0006159913 -0.044374462 -0.074406795 -0.092662774 0.04272172
-0.124880664 -0.05175584 -0.079400726 -0.0002568712 -0.03930347 -0.08106673 -0.030884888 0.04320601
0.046576556 0.03084908 -0.089500085 -0.03942521 0.0368665 0.00924844 -0.015912509 0.040877655
-0.10548439 -0.0629217 -0.007209739 0.003956 0.020950254 -0.046070408 0.07389463 -0.017479932
-0.088847235 0.0020335796 -0.14770198 -0.061501887 0.044018004 -0.048336536 0.05329098 -0.117892675
-0.049404744 0.017238205 -0.07434985 -0.05044554 0.060304355 -0.044369098 -0.01784087 0.067669645
-0.02534425 0.021088773 0.05014928 0.00074349385 -0.03132761 0.079553105 0.05940142 0.087481715
0.06916917 -0.010991085 -0.02000709 -0.010961854 0.046970483 0.08975964 0.034353722 0.11638128
0.011157977 0.08799378 -0.03508644 0.025908422 0.021457206 -0.06000443 -0.012569929 -0.039079096

input_layer.0.bias f4 [64]
00000000: 0ccd 713d d2b0 b6bb a5fb 153c 03dd 36bd
00000010: 9328 6bba 342a 443d ef28 9cbd 34a4 643d
00000020: 6d79 533c cdb2 933c 3606 683d 1cd4 d23d
00000030: 6e48 94bd af37 25ba 3212 4c3d 7058 043e
00000040: 43fc 85bd fea3 ef3d a4c3 eebd 40ad 943c
00000050: 23de 89bc 3ca3 1b3c 5551 b3bc bba1 d93c
00000060: ae14 b83c 41b8 cd3d 3656 873d 8cd8 26bd
00000070: 7801 a43d e3b8 c6bc 329d 4dbd fba7 403d
00000080: 6fff 15bd 8dbd 103e d8ed bb3a fd1f be3d
00000090: d991 013d 3e42 62bd ca92 19bd b325 98bd
000000a0: 033b 143d c325 fb3c d3a8 553b cbf6 df3c
000000b0: c03f cebd d82e 963d 1c6c 8abd 517e 313d
000000c0: c127 093d 8ba3 e23d 9106 1b3d 5168 eb3d
000000d0: 6587 363d 83e2 7dbd be57 f83b 65b4 b5bd
000000e0: 64cb ab3c 738b bd3d 2c1a 213c c343 87bd
000000f0: 23fe 263c dc8e 053e 6a89 903c c88f a23d
0.05903344 -0.005575278 0.009154235 -0.044644367 -0.00089705846 0.04789181 -0.07624995 0.05582066
0.012907368 0.018029595 0.05664655 0.10294363 -0.07240377 -0.0006302548 0.04982204 0.12924361
-0.06542256 0.11701201 -0.11658409 0.018149018 -0.016829556 0.009499367 -0.021889368 0.026566377
0.022470798 0.10044909 0.0660824 -0.04073386 0.08008093 -0.024258083 -0.05019874 0.0470352
-0.036620554 0.14134808 0.0014337851 0.09283445 0.03163323 -0.055238955 -0.037493505 -0.074290656
0.03618909 0.030657655 0.0032601848 0.02733936 -0.10070753 0.073331535 -0.067589015 0.043333355
0.033485178 0.110663496 0.03784806 0.11494506 0.044562716 -0.061983597 0.007578819 -0.08872298
0.020971008 0.092551135 0.0098329 -0.066047214 0.010192427 0.13042778 0.01764365 0.0793758

input_layer.1.weight f4 [64]
00000000: a62b e93f f18d 0440 8449 e63f 6149 f93f
00000010: c5d0 e83f b65a ef3f 7d30 ed3f aeb6 f13f
00000020: 4039 ff3f 47ed f53f 6d67 f23f d741 f13f
00000030: 3036 f53f a73e f03f 0127 ed3f 6c8c f03f
00000040: c9a3 ee3f 8cfd fb3f dcec 0340 b6be 0240
00000050: 065b 0140 4685 ec3f 920f f43f 766f f73f
00000060: f33b f03f 65b6 f33f 33a5 f43f ff04 f73f
00000070: dfce ea3f b9b7 0040 6e85 ee3f c1c2 ee3f
00000080: 5cfb f93f 347a ef3f 5f78 f43f efae f03f
00000090: 4ced ef3f 54d9 ee3f 974e f93f 2f69 f03f
000000a0: 21d2 f13f b256 eb3f 0972 eb3f dff4 fc3f
000000b0: 4790 f33f 05cf f03f 5e11 f13f 8309 f73f
000000c0: 19ca ee3f a896 ee3f 13b5 f83f 5f83 ee3f
000000d0: c146 f53f 6c90 f93f c36c e43f 2602 f03f
000000e0: 4c30 e93f 25a3 ec3f 6d76 f03f 3363 f03f
000000f0: b5a1 f13f e4aa f43f 6ee7 f93f 194a f63f
1.8216445 2.0711634 1.7991185 1.9475518 1.8188711 1.8699558 1.8530422 1.8883874
1.9939346 1.9213036 1.8937813 1.8848218 1.9157162 1.876912 1.8527528 1.8792853
1.8643733 1.9686751 2.0613317 2.04289 2.0211806 1.8478172 1.9067252 1.933089
1.8768295 1.9040037 1.9112915 1.92984 1.8344382 2.0112135 1.863447 1.8653184
1.9529834 1.8709168 1.9099234 1.8803385 1.8744292 1.8660073 1.9477109 1.87821
1.8892251 1.8385832 1.8394176 1.9762229 1.9028405 1.8813177 1.8833425 1.9299778
1.8655425 1.8639727 1.943026 1.8633841 1.9162217 1.9497199 1.7845691 1.8750656
1.8217864 1.8487288 1.8786141 1.8780273 1.8877474 1.9114652 1.9523752 1.9241363

input_layer.1.bias f4 [64]
00000000: 08a5 653f 8e39 6f3f 7473 853f c04c 743f
00000010: 23cc 623f df8b 793f 541c 823f f458 723f
00000020: 81ba 7e3f a494 833f 1ecf 7a3f bb0f 713f
00000030: 5046 733f 7e74 763f c7f2 6e3f ecac 803f
00000040: 9a97 773f fc1b 583f 0953 743f 7bfd 713f
00000050: d17b 713f 0538 833f b0a6 713f ec66 7c3f
00000060: a5c6 833f 9828 793f ef0a 843f 3f49 663f
00000070: 07c6 863f aae5 7f3f 0dda 763f 87ed 813f
00000080: bf5f 633f d5a1 6f3f 62d6 833f 26e3 763f
00000090: 680c 753f 8916 723f 7206 7e3f 0749 813f
000000a0: 8330 853f cbb6 6a3f 0876 8b3f 8443 843f
000000b0: 66ce 7e3f cebe 6c3f ed91 7e3f 696f 6a3f
000000c0: c2aa 753f b429 803f 2210 7d3f 5e60 783f
000000d0: dcdc 7d3f aa54 7b3f d50a 773f 47e1 753f
000000e0: d5c4 5e3f 353a 6c3f 5abf 7d3f 198c 7f3f
000000f0: de4d 783f 7789 813f cce7 5c3f 1e44 793f
0.8970494 0.93447196 1.0425858 0.9542961 0.8859274 0.9747905 1.0164895 0.9466698
0.9950333 1.0279737 0.97972286 0.9416463 0.95029163 0.962715 0.933392 1.0052772
0.967157 0.844177 0.954392 0.94527406 0.94329554 1.0251471 0.9439497 0.98594546
1.0294997 0.97327566 1.0315837 0.89955515 1.0529183 0.99959815 0.9642647 1.0150613
0.8881797 0.9360631 1.02998 0.9644035 0.95722055 0.94565636 0.99228585 1.0100411
1.040543 0.9168517 1.0895395 1.0333104 0.9953369 0.92478645 0.99441415 0.9157625
0.9596368 1.0012727 0.9885274 0.97022045 0.9916513 0.9817606 0.96500903 0.9604687
0.8701909 0.92276317 0.99120104 0.9982315 0.96993816 1.0120076 0.86291194 0.97369564

input_layer.1.running_mean f4 [64]
00000000: b39b b13d 4b3d 203d 5055 0fbd b3d1 733b
00000010: 0281 71bd f948 e43c 8cdc 60bd edbd 403d
00000020: 20ef 6d3d 43e0 9f3d b249 e43c cc26 963d
00000030: a6ea f6bd 8de4 eebc a2cc 0d3d d93a 9a3d
00000040: 7d63 e7bd a56b 3c3e b366 80bd 3075 4e3d
00000050: 2b72 193b b47a 5e3d a25c 263d b598 b93d
00000060: 95d2 e7bc 4955 b83c 899c e3ba 6099 f13a
00000070: e7a4 643d 7f08 a73c 66fd 2cbb 0bb5 cd3d
00000080: 15d7 073d fdea b33d 09dc 1fbd c75f 6e3d
00000090: 585b c1bc 833f e2bd ae30 d23b 7b8e 28bd
000000a0: 48f2 b93b 7784 0f3b 0040 71bd be11 723d
000000b0: e26d 5dbd 94f6 f93d 5bcc eabd 6337 de3d
000000c0: 79e9 373d e55b 743d 1b45 733b 9ba0 113e
000000d0: 154e 763c 3dcf 813b 8283 783d 374a e7bd
000000e0: ab59 45bd 9cf4 233e a6c0 9f3d 1ca1 bfbc
000000f0: f9f4 10bd 0623 e63d 8491 3b3c 7be8 6e3d
0.086722754 0.039120954 -0.03499347 0.0037203848 -0.058960922 0.027866827 -0.05489783 0.047056127
0.058089375 0.078064464 0.027867172 0.07331619 -0.120564744 -0.029161716 0.03461898 0.075307555
-0.11298273 0.18400438 -0.06269588 0.050404727 0.0023413997 0.054316238 0.040615685 0.0906233
-0.028298656 0.022501605 -0.0017365377 0.001843255 0.055821326 0.020389793 -0.0026396154 0.10044297
0.033164103 0.08785055 -0.0390282 0.05819681 -0.023603126 -0.1104727 0.0064144945 -0.041151505
0.005674634 0.0021899024 -0.058898926 0.05909895 -0.05405987 0.12205234 -0.11464759 0.10850408
0.04490039 0.05965795 0.0037120047 0.14221422 0.015033265 0.0039614723 0.06067229 -0.11293452
-0.048181217 0.1601128 0.07800417 -0.023392253 -0.035389874 0.11237149 0.011448268 0.05832718

input_layer.1.running_var f4 [64]
00000000: 38d1 7340 f494 f540 1bd6 2b41 e157 0641
00000010: 50cb c340 c374 1640 c385 2440 8824 7a3f
00000020: 9d3c 8740 dd0e 9640 dfda 4b40 5b99 0c40
00000030: 1df3 6140 61be 0440 23eb 1141 1c37 3240
00000040: 34f3 2341 f796 6141 8522 3441 ba43 1241
00000050: d918 6840 362c 8540 4d5d 1341 7e96 3f41
00000060: 58e6 1940 6bd3 5241 cda6 d340 42da 0441
00000070: 16a7 0241 38ba 3141 91d7 0540 caea d440
00000080: 9cdb 5941 27be 0f41 622c a73f 9b23 6040
00000090: 762f d340 8222 ed40 0fb3 0f41 f12a 3e40
000000a0: c78f ca40 99de a03f bd79 ba41 60d8 1340
000000b0: 2a53 bb3f e86a 3340 6feb 1640 a704 2b41
000000c0: d6b6 1d40 f9be fa40 cfb5 503f 5384 e93f
000000d0: 0f6e 6840 018b 1741 dc52 2640 a5e7 093f
000000e0: 9f4d 2841 4904 6441 9827 3041 263c 983f
000000f0: 2e48 3f40 2d02 2940 1997 5340 ba53 1b3f
3.8096447 7.6744328 10.739772 8.396455 6.1185684 2.3508766 2.5706642 0.9771199
4.226149 4.6893144 3.1852338 2.19686 3.5304635 2.0741198 9.119906 2.7846136
10.246876 14.099357 11.258428 9.141535 3.6265166 4.161647 9.2102785 11.974241
2.404684 13.176616 6.6141114 8.303286 8.165792 11.107964 2.0912821 6.653661
13.616116 8.983924 1.306042 3.5021732 6.5995436 7.4104624 8.9812155 2.971371
6.330051 1.2567931 23.309443 2.3100815 1.4634755 2.8034 2.3581197 10.688636
2.4642844 7.835812 0.8152742 1.8243507 3.6317174 9.4714365 2.5988073 0.53869087
10.51895 14.251046 11.009666 1.1893356 2.9887805 2.6407578 3.3060973 0.6067463

res_blocks.0.linear1.weight f4 [64, 64]
00000000: 5ab6 533d 03d8 e0bd 8af3 1abe 1f6d f3bd
00000010: 3cd6 11be 2d16 8cbb 1c4d 86bc 746b 8b3d
00000020: 9f5a a2bc 173f 1e3d 91f0 863d 5a8b d2bd
00000030: f968 84bd a68a 36bc 3cfb 8bbb f270 01be
00000040: 9524 d8bc 0c9f 74be e205 7ebd 952d 0ebe
00000050: 979c 50be 0eac a93c 30bf a7bd ae94 16be
00000060: 5cdf 373d d4f1 973d 5c2c 54bc 72cc 55be
00000070: b406 89bd 4581 23be 93e5 263c 71e1 63be
00000080: c721 e0bd 65d1 f8bd 5124 cebd 65a2 c63c
00000090: eb22 02bd f4b1 6dbd 2c85 5abd 3ded e1bd
000000a0: 4f7d 683d 8a7a 643d f5d6 d8bd 44a5 54bd
000000b0: e8f4 36bd 0bef 8ebd 8e33 833d fec7 94bc
000000c0: 54d4 273c d8c9 27bd 9f96 58bb 1eb9 78bd
000000d0: d4f6 1cbc 913a bebd 5c5e 88bd c240 9f3c
000000e0: 5fce 363d e1c2 27be 3836 acbd 5ba5 e8bd
000000f0: 1b32 abbd bb07 a2bd 1dbc a43d 78ba 1bbd
00000100: fe82 8cbd f535 cebc 4294 833d 95f0 e9bd
00000110: 13c1 be3d 2bf9 3fba f76c 21be b9d9 993b
00000120: 6ff7 3abe 8786 7d3d 10ae 9c3d 1912 d0bd
00000130: d7cf 05bc 2688 733d cf9c 783d 8c8d 79bd
00000140: 46e2 8fbd 2f62 213d c733 84be 6fd2 5cbe
00000150: 94fb b1bd bf4e 37bd 7eb7 43be 3ca1 5abd
00000160: be01 3e3d 8944 0d3c 6b8d 4dbd e647 3ebd
00000170: ff45 59bd ed99 8dbe 04c7 84bd 014e 1abe
00000180: 584e 06be d209 2f3d 30cb b03d a904 ef3d
00000190: 6143 f73d a396 81bd 3044 f5bc 0a04 1ebe
000001a0: 6b36 0fbc fdca 0a3d 6738 c8bd 7ff7 fa3c
000001b0: 9f3f c0bc 3720 14be eea2 9dbd 5ef3 59bd
000001c0: fd32 05be 9f29 9b3d 5b9c 6b3d 23ac 65be
000001d0: 049d c63c e018 2fbd 8304 a4bc 8f43 9a3d
000001e0: 1294 edbd bbe8 0fbe 3fad 2abe 8474 bdbd
000001f0: d783 913d ee15 32bc 14bd f83c fa3a 063e
00000200: fe06 b43d 55b3 84bb ba6c a9bd 5eb8 8cbd
00000210: fc35 323d 7af3 d6bd 2d3e aebd bb53 1b3d
00000220: b2cb 833c 8e75 38bc f583 ab3a 2554 14be
00000230: 7c4c 1fbe 5b7a 63bd 6301 f1bc afb7 31bc
00000240: 5a23 983c 79f5 30be 3708 0fbe 3e58 4fbc
00000250: 0bdb 1cbe 26aa 8dbd 8e72 793d a621 fbbd
00000260: 729f 803d 2bda 35be af13 22be 4d64 fabc
00000270: 1d9e 7ebd 76f8 62be d8e0 b6bd 05ba 07be
00000280: ab1b 9ebd 6e65 e5bd 2153 e7bd 79e5 1cbe
00000290: 4b10 11be c87d 29be e3ff c5bd 2058 cebc
000002a0: 837e e6bd 9e4c e3bd 94c0 01bd 2425 20bc
000002b0: 2d33 48bc 479c 36bd 6c36 b1bd fbe2 a7bd
000002c0: a590 34bd eb3d 333c 8a87 643d afa3 de3c
000002d0: 4be7 69bd 2c33 f6bd 4b8e fb3c a43c 8d3d
000002e0: 00bd 1d3d e4a3 45be 46ab 433d 4f89 803d
000002f0: 4fee 0bbe 1b6f e1bd a78a f63c 5f7b 9e3b
00000300: 7f38 fb3c f7e1 67bd 40ab dfbd 7103 1bbc
00000310: 0efe 26be 9edc 30be 4d6e 22bd db0d cc3c
00000320: 6ef0 0dbe afe0 8dbd 4b52 153d cecc 693b
00000330: 3dde ccbd 8406 8cbd f2b7 f1bd 09e2 833d
00000340: 980f 11be 4195 54be 4a59 85bd 73f1 13be
00000350: ef71 f1bd 7903 72bb 4035 a0bc 7d36 4ebe
00000360: c86b 553d 1d8b 21be 6b0e 03bd 8783 a9bd
00000370: e3cc 7ebd d0fc 17be b90c 03bc eedd debd
00000380: 83ff c3bd 2f4c 893d 8e4c 023d 3158 dcbd
00000390: 5df0 1cbd e68f 09be 6b64 4abe d6a3 21be
000003a0: a138 193d 7ac3 8dbb ff8c 16bd 79ea 6a3d
000003b0: 9d74 053d 9899 b33c b72e a63d b9ca 97bc
000003c0: 20da 703b e585 a0bb 27c6 3a3d d4cd 10be
000003d0: f7ff da3c 0237 323c 7701 c3bd 449a fb3d
000003e0: ebae 0fbd 0794 47be b6ed 44be 6c2d 84bd
000003f0: c052 453d 7b67 01bb e9df 0838 e80b a23d
0.051687576 -0.10978701 -0.15131965 -0.118860476 -0.1424188 -0.0042751045 -0.01639419 0.068076044
-0.019818602 0.038634386 0.06588853 -0.102804855 -0.064653344 -0.011141455 -0.004271893 -0.12640741
-0.026384631 -0.23888797 -0.06201733 -0.13884576 -0.20372234 0.020711925 -0.08190763 -0.14705154
0.044890746 0.07419172 -0.012950029 -0.20878771 -0.06690732 -0.15967281 0.010186571 -0.22253968
-0.109439425 -0.12149314 -0.100655206 0.024247358 -0.03177158 -0.058031037 -0.05334966 -0.11031578
0.05676013 0.055780925 -0.10587875 -0.051915422 -0.044667155 -0.069791876 0.06406318 -0.01816177
0.010243494 -0.040963978 -0.0033048762 -0.060723417 -0.009580333 -0.092885144 -0.066586226 0.019440059
0.044630405 -0.16382934 -0.08408779 -0.11359664 -0.08359166 -0.07911631 0.08043692 -0.038019627
-0.06860922 -0.025172213 0.06424762 -0.114228405 0.0931417 -0.00073232007 -0.15764223 0.004695144
-0.18258451 0.061895873 0.07650387 -0.10159702 -0.008167229 0.059456013 0.06069642 -0.060926005
-0.0702558 0.039400276 -0.25820753 -0.21564649 -0.08690563 -0.044752833 -0.19112965 -0.05337642
0.04638838 0.008622297 -0.050183695 -0.046455286 -0.05304527 -0.276565 -0.06483272 -0.15068819
-0.13115823 0.042733975 0.08632505 0.11670811 0.120733984 -0.0632756 -0.02993974 -0.15431228
-0.008741002 0.03388499 -0.09776383 0.030635593 -0.023467837 -0.14465414 -0.07697092 -0.05321061
-0.13007732 0.07576298 0.05752216 -0.22428946 0.024244793 -0.042748332 -0.020021683 0.07532417
-0.11600508 -0.14053623 -0.1666765 -0.09250739 0.071052246 -0.010869486 0.030363597 0.13108435
0.08790396 -0.0040496984 -0.08272691 -0.06871103 0.043508515 -0.10495658 -0.08507953 0.03792165
0.01608834 -0.011258496 0.0013085591 -0.14485224 -0.1555652 -0.05553661 -0.029419607 -0.010847016
0.018571544 -0.1728114 -0.13967977 -0.012655316 -0.15317933 -0.06917219 0.060900263 -0.12262277
0.06280412 -0.17759006 -0.15827821 -0.030565405 -0.062162507 -0.22165093 -0.08929604 -0.13254555
-0.07720121 -0.11200987 -0.112951525 -0.15321912 -0.14166372 -0.16551888 -0.09667947 -0.025188506
-0.11254599 -0.11098598 -0.031677797 -0.00977448 -0.0122192325 -0.04458263 -0.08652958 -0.0819759
-0.044083256 0.010940055 0.055793323 0.02717766 -0.057105344 -0.12021479 0.030707499 0.06896332
0.038510323 -0.193008 0.04777076 0.062761895 -0.13665126 -0.1100752 0.030095411 0.0048364843
0.030666588 -0.05661198 -0.10921335 -0.00946127 -0.16307852 -0.17271659 -0.039655972 0.02490895
-0.13861248 -0.069276206 0.036455434 0.0035675052 -0.10003326 -0.0683718 -0.11802663 0.06439597
-0.14166105 -0.20760061 -0.06511171 -0.14447574 -0.11789309 -0.003692834 -0.019556642 -0.20137973
0.05210474 -0.15775724 -0.031996172 -0.0827704 -0.062207114 -0.14842534 -0.007998639 -0.108821735
-0.09570219 0.06703984 0.03181129 -0.10759009 -0.038315166 -0.13433799 -0.19764869 -0.15785155
0.03740752 -0.004326281 -0.036755558 0.057352517 0.032581914 0.021923825 0.08114379 -0.018529283
0.0036751106 -0.004898774 0.04559913 -0.14141017 0.026733382 0.010877373 -0.09521764 0.12285283
-0.035078924 -0.19490062 -0.19231305 -0.06453976 0.04817462 -0.0019745517 3.263346e-05 0.07912427

res_blocks.0.linear1.bias f4 [64]
00000000: 8f3e c9bb e34f 193e 3c46 a63d 4c4c 04bd
00000010: 0e5e d83d 874f 9c3c 7cb2 bcbd b2bb 15bc
00000020: c2fb 943d 6e17 a53b a1a4 46be 1131 97bc
00000030: c7c1 dd3d 3a7a f4bd 559b c4bd 9238 193d
00000040: 886e 7a3d ca99 143d ccf8 6e3d b8cc cbbc
00000050: bce1 ebbd cef0 613c f6d0 c1b9 68e1 943d
00000060: b8d1 883d 6a0b a9bc 44c8 6d3c af75 983d
00000070: e87a 8d3d 2734 543d 7928 ec3b 0f72 2bbd
00000080: d91f a7bd 5ae3 23bd ba36 b2bd a5fb a63d
00000090: f084 b53c f95f cf3d 2d20 3f3d 1961 ad3c
000000a0: 940c a93d 9a3c b33c 4716 82bd cbba 0c3e
000000b0: 0f03 01bd 03a4 0c3c a817 4c3d bd42 a33c
000000c0: de4a de3c 0ee0 b1bc bf12 a8bd a1a0 6abc
000000d0: 2afa 153d 9762 0b3d fa69 aabd 3a01 cabd
000000e0: 6028 dbbd e05a 1ebd a3ea afbd 4037 ac3c
000000f0: df53 0fbe d29f 59bd cc6d a13d 5b17 8bbd
-0.006141491 0.1497188 0.08118865 -0.032299325 0.105648145 0.01908089 -0.09213731 -0.009138988
0.072745815 0.0050381934 -0.19398738 -0.018456014 0.10827976 -0.11937375 -0.0959994 0.037407465
0.061140567 0.036279477 0.05834274 -0.024877891 -0.11517665 0.0137903225 -0.00036967517 0.07269555
0.06680626 -0.020635325 0.014513079 0.07444321 0.06908208 0.05180755 0.007206973 -0.04185682
-0.08160371 -0.04001174 -0.087018445 0.08153466 0.022158116 0.10125727 0.046661545 0.021164464
0.08254352 0.021879483 -0.06351905 0.13743131 -0.031497058 0.008584025 0.049827248 0.019929284
0.027135309 -0.021713283 -0.082067005 -0.0143205235 0.03661553 0.03402957 -0.08320995 -0.09863515
-0.1070106 -0.038660884 -0.08589675 0.021022439 -0.13996838 -0.053130932 0.0788227 -0.06791564

res_blocks.0.bn1.weight f4 [64]
00000000: d0ec 633f 7c55 803f c2da 743f 6280 483f
00000010: 311a 663f 5ee7 583f a52a 333f 25a2 863f
00000020: ca6d 853f 486d 7a3f 0bd5 873f 537d 803f
00000030: 75bb 843f fd05 763f 98b4 863f 1a04 5a3f
00000040: e07d 603f 95a7 813f 8a4a 6f3f 4dfd 7e3f
00000050: f1fb 603f 1147 5c3f c105 6e3f 7cd9 5f3f
00000060: f6a2 583f fcda 543f ccc6 553f 95be 593f
00000070: 9e1c 893f 17ac 7b3f 0003 683f a897 743f
00000080: 4dd8 4e3f 3984 7e3f eedd 643f 8d95 683f
00000090: 4210 2d3f 347b 6d3f 0862 883f ba75 793f
000000a0: 55af 7e3f e73c 533f 75b2 5c3f 2411 823f
000000b0: 5354 7a3f 41dc 743f bc42 873f d2a9 5d3f
000000c0: 9f5b 7d3f b535 8e3f f77d 643f ff41 693f
000000d0: 0c74 883f 3e7e 6c3f 0a59 613f 0b21 7c3f
000000e0: ac00 7d3f a924 763f 3ec4 573f 648f 6e3f
000000f0: 7b81 823f 7514 843f 5ea0 803f e50c 563f
0.8903322 1.0026088 0.956463 0.78320897 0.89883715 0.8472804 0.69986945 1.0518233
1.042413 0.97823 1.061189 1.0038246 1.0369707 0.9610289 1.0523863 0.8516251
0.8769207 1.0129267 0.9347311 0.99605256 0.8788443 0.8604594 0.9297753 0.8744123
0.8462366 0.83146644 0.83506465 0.8505643 1.0711858 0.98309463 0.9062958 0.9554391
0.807988 0.99420506 0.8940114 0.90853196 0.6760293 0.9276612 1.0654917 0.9744526
0.99486285 0.82514805 0.86209804 1.0161481 0.9778492 0.9564858 1.0567241 0.8658725
0.9896793 1.111014 0.8925471 0.9111633 1.0660415 0.9238013 0.8802649 0.9848792
0.9882915 0.9614969 0.84283817 0.93187547 1.0195764 1.0318743 1.004894 0.83613425

res_blocks.0.bn1.bias f4 [64]
00000000: d938 103f 48d6 18be 27da af3e f621 163f
00000010: 258d c13d 9e10 233f 0a9a 763e 4435 53be
00000020: ecfa 79be d8af b33d 2fb9 9bbe 80e3 8cbd
00000030: 77b6 64bd 445a a2bc 18ba 03be ef2b b03e
00000040: 4b65 22be 18e8 09be f1f1 5fbc 31e3 b2be
00000050: ec9f 813e 9e2b 843e 02ad 633e 537d 8a3e
00000060: 8904 fb3d c7f3 043f bc92 753e 77f9 d83e
00000070: 26b2 e6bd 1ded 41bc 1939 25bd 5954 723e
00000080: 1f09 a23e 9070 5ebe 5b7e 983d 006a 713e
00000090: 3cd8 c13e ee77 8fbe 0bc6 ffbd 293e f13c
000000a0: 2528 a5bd e5fe cb3e 2fb8 a33e 3a55 85be
000000b0: b15d 67be 2e22 013e 52e5 48be d6fc c53e
000000c0: 803f 39be 6fcc 3dbe e15d bcbe dae8 403e
000000d0: 8976 1dbe 37a7 1d3e bd3b 5b3e fd79 acbd
000000e0: 16b5 51be d5ed 55bd 667c 353e 6bcd b53e
000000f0: bb98 64be c763 71bd 2920 e0bd dd32 983e
0.5633674 -0.14925492 0.34346125 0.5864557 0.09450749 0.6369723 0.24082199 -0.20625788
-0.24412125 0.08773774 -0.3041472 -0.0687933 -0.055838075 -0.019818433 -0.12863958 0.3440852
-0.15858953 -0.13467443 -0.013668523 -0.34938958 0.25317323 0.25814527 0.22233966 0.2704874
0.122567244 0.51934475 0.23981756 0.42377827 -0.11264448 -0.011836317 -0.040337656 0.23664989
0.31647584 -0.21722627 0.074459754 0.23575592 0.37860286 -0.28021187 -0.124889456 0.029448586
-0.080642976 0.39842907 0.31976458 -0.26041585 -0.22594334 0.12610695 -0.19618729 0.3866946
-0.1809063 -0.18535016 -0.36790374 0.18838826 -0.15377249 0.15395819 0.21409507 -0.08421705
-0.20479235 -0.052228767 0.17723235 0.35508284 -0.22323887 -0.058933046 -0.10943634 0.29726306

res_blocks.0.bn1.running_mean f4 [64]
00000000: 0d96 97c0 e026 65c0 6e6d 9ac0 18f3 8cc0
00000010: c4ac 2fc0 c9d7 a2c0 cb00 8fc0 67f0 4ac0
00000020: cc23 e73f 7ddd d0be 8434 65c0 3d7b 6cc0
00000030: d885 bdbf 5683 1ec0 d076 7c3f 1f3b 7dc0
00000040: a80d 5d3f 2605 71c0 b542 36c0 2263 95c0
00000050: 3dba 6cc0 8fd1 89c0 8b8f 7cc0 2314 8ec0
00000060: 4623 c4bf 2bbb 7ec0 101a 8ec0 34d9 90c0
00000070: 10db 753f 2a70 9f3f 50cc 12c0 e2b0 6ec0
00000080: 9179 93c0 b0d8 8ec0 c767 99c0 6142 70c0
00000090: 421d a5c0 041b 67bf fb97 70c0 1a8a 6ac0
000000a0: 1374 b0c0 5c49 a3c0 470b 6bc0 ffd9 a740
000000b0: 15eb 573f cec2 98c0 b530 5ec0 a3c5 3bc0
000000c0: 34e4 ef3f 735c a940 5885 1a3d 5bb8 8cc0
000000d0: f979 b03e a422 69c0 aa26 86c0 075a 8ec0
000000e0: a095 76c0 7ced abbd 69e3 90c0 dd2f 94c0
000000f0: 7d34 b640 8912 b7be 9c6d 03c0 292e 8cc0
-4.7370667 -3.5804977 -4.825858 -4.4046745 -2.7449198 -5.088841 -4.468847 -3.170923
1.8057799 -0.40793982 -3.5813303 -3.6950219 -1.4806471 -2.476766 0.98618793 -3.9567335
0.8634896 -3.7659392 -2.8478215 -4.668351 -3.698867 -4.306831 -3.9462612 -4.439958
-1.5323265 -3.9801738 -4.4406815 -4.526514 0.9603739 1.2456105 -2.2937202 -3.729546
-4.6085896 -4.463951 -4.793918 -3.7540514 -5.1598215 -0.902756 -3.7592762 -3.664679
-5.514169 -5.102705 -3.6725633 5.245361 0.8434308 -4.77378 -3.4717228 -2.9339378
1.8741517 5.2925353 0.037724823 -4.3975043 0.34468058 -3.6427393 -4.1922197 -4.4484897
-3.8528824 -0.08394906 -4.52776 -4.6308427 5.6939073 -0.3575633 -2.053565 -4.380635

res_blocks.0.bn1.running_var f4 [64]
00000000: 86d7 c840 a7a8 9b41 086d 2a40 fbd9 9340
00000010: 4e35 5c41 ce1e 8440 a369 5e40 2a35 4e41
00000020: 92af f740 55cf 1741 fa0d 8040 0434 7f40
00000030: 0ad5 f540 b364 1941 2047 c340 b6f2 5640
00000040: 3cc3 0640 b1ae c340 81d4 5e40 12e8 e63f
00000050: 9e4b b83f af16 8a40 3f56 7040 b244 a540
00000060: c795 cd40 e2e9 5740 f305 fe3f 40f1 9340
00000070: cf90 5a41 5c11 6340 4ba4 eb40 5b34 1140
00000080: 2537 1140 e515 3640 0632 e93f 02b3 9840
00000090: 9085 1c40 47eb dd40 5b89 4540 3570 3940
000000a0: 52f2 2740 2c27 3740 830d 6d40 cf91 3c40
000000b0: 0455 1741 388b 5d40 ed78 8340 482e 2d40
000000c0: a7f6 7740 ce0b 4540 af9e 4840 5d61 bc40
000000d0: 5afe aa40 9e6f 6040 67d6 4a40 1d06 2840
000000e0: 4903 8e40 30d0 4841 fe26 ac40 8bef 8e40
000000f0: f23f 7840 0c2b 6841 96b0 6141 b27a 1d40
6.276309 19.45735 2.6629047 4.620359 13.763014 4.1287603 3.4751976 12.8879795
7.740182 9.488118 4.001706 3.9875498 7.6822557 9.587085 6.1024323 3.358564
2.1056662 6.1150746 3.4817202 1.8039572 1.4398077 4.315269 3.755264 5.1646357
6.4245334 3.37365 1.9845566 4.6231995 13.660354 3.5479345 7.3638053 2.2688205
2.2689908 2.8450863 1.8218391 4.7718515 2.445652 6.9349704 3.0865085 2.8974736
2.624165 2.8617659 3.7039497 2.9463995 9.458256 3.4616222 4.1085114 2.7059498
3.8744295 3.0788455 3.1346853 5.886885 5.343549 3.5068126 3.169336 2.6253731
4.437901 12.550827 5.37976 4.466741 3.878903 14.5105095 14.105612 2.4606137

res_blocks.0.linear2.weight f4 [64, 64]
00000000: 296e f53c af8e a23d c980 073d 7bd3 763d
00000010: 16f8 1c3d 4c6a 4c3d 59ad 47bd d410 d0bd
00000020: 71a7 7bbe b9e2 10be 8978 503d ec0d d03c
00000030: d62d 183e 74ea 873c ccf2 e6bd 2f7c 453c
00000040: 932d db3d f059 a5bc 3864 d03d f067 10be
00000050: b137 963d 54cb acbd 19f7 b8bd 6d58 62bb
00000060: a1a7 10bd 58de febc 8e5a 313c 22ed 5d3d
00000070: b5df 10be afab 3b3e c73f af3c 3415 313d
00000080: 3de7 0fbe 5eb2 793c 2652 68bc bba8 a13d
00000090: ee75 9e3c 9fd6 733d 109a b1bc fc3e 8e3d
000000a0: c5b2 69bd 2ac8 ccbc 8e6c c33d 13fb e53d
000000b0: 18c6 b93d bd9e cfbd 93c2 13be 3c53 4abd
000000c0: e693 4cbd 7d54 3abe ebbb c6bd 746f cb3d
000000d0: 7ca8 5cbe c9ab 0c3e c7b9 ef3c 8717 0cbe
000000e0: 2a3b 82bc 2e40 5ebd fbcd 64bc 99a6 2dbe
000000f0: 1325 67bb 69d9 3d3d 1697 033e 947d 21bd
00000100: 3ff6 89bd 20eb 22be 5158 133d 28e0 09be
00000110: 45ea 853b 81fa 8b3c 8103 bfbd 9020 dcbd
00000120: a684 683e 9be7 3fbd c911 2e3c af26 75bb
00000130: c886 f03d 6fa9 e9bd b248 103d cc5f c1bd
00000140: d651 873d 3791 213d f936 8dbc 1a70 193d
00000150: 6ba0 8c3d 2ee3 70bd 0eb6 1dbe ed52 d6bd
00000160: 53c4 cabc 085e 36bd 51ee 633e b4e4 a3bd
00000170: 9b8a 343e 85b1 3c3d 4acc d13c df9d 903d
00000180: 1a4a 963d 2e3c 363d b95b 673d e1d7 c1bd
00000190: 3aa0 0c3d 5926 19be deab 36bd 7eeb 2dbd
000001a0: ef07 3b3d d0e0 8ebd 7cc2 e0bd 6dc3 823c
000001b0: cfc3 fabd edec 69bc 4db0 0a3e 886e dabd
000001c0: 1412 68bd 9f73 873d aa90 823d 7762 dfbc
000001d0: 13ec 7b3e a92e 88bd 2c41 213d 7870 b23c
000001e0: 4f8d c13d 189c 3e3e 6a5d 9cbd b3a8 f73c
000001f0: 6b24 463e 4115 d93d 34bf dcbd 209b b7bb
00000200: 9544 083d 3b43 b6bc f102 a83c 7aed 353e
00000210: b3a6 edbd 21ff 863e 0d5a 813d 897c 3dbe
00000220: 014e 99bb 0790 d53c a895 59bd ca8e a9bd
00000230: f8e2 43bd f81a 13be c2cd 95bc 1f28 8cbd
00000240: 2698 273d 3e4d 093d 2328 2b3d b064 91bc
00000250: 87fe 5fbd d60d 91bd 653f ecbd 7532 613d
00000260: d6dc ad3d bdc2 c4bd 9b37 6abd 26c4 703d
00000270: 1e11 73bd ae3e dcbd 1bca 8a3d 3c56 023e
00000280: abfd 1bbd 1ed6 b13d a011 743d 15fb 083d
00000290: 3da3 c73d e1a7 c8bd b562 0a3e a778 20bd
000002a0: 2368 d4bd c32b b73d d5b8 ec3d 36c2 54be
000002b0: 6180 a23d 0eb0 63be 0489 30be 5589 36bc
000002c0: 7cb1 033e 6c5b a0be 7b08 2ebd 28a9 bebd
000002d0: e512 c4bd 86b1 1fbd 149f 29bd 9b80 afbc
000002e0: e40e dfbd bc7e db3c a1a8 17bd 3f94 5e3d
000002f0: 4a5d 513d e98b 89bc 9182 b6bd 283a a0bb
00000300: b48f 3abd a08f 51be 17b6 eabc b048 c3bb
00000310: 96e8 cbbc d815 003c ce51 b93d ffd5 f8bd
00000320: 9632 13bd c444 a13d 8ab3 283e 4039 27bd
00000330: cd83 233e a073 62be 4963 79bc fa73 8cbd
00000340: c4b1 3ebd 4a09 97bd bc90 7b3b 395a 92bd
00000350: e76a d0bc ea7e 0dbe cb27 023e 1b11 1bbd
00000360: 37d3 f23c 6411 3e3d 6970 8ebc 6c61 a7bc
00000370: 6847 713d 0865 23bb b232 4f3e 9b59 12be
00000380: f112 103d 0135 3a3d 4aa7 22be cb4c b63c
00000390: 7178 45bd 4147 4fbe cf8e 023d 9cc1 843b
000003a0: 795a bebd 2692 0dbe 8e40 afbd 1b77 80bc
000003b0: 05a3 0ebe abb9 513d 69aa c03c ab2c 32be
000003c0: 7e01 13be ca5b 4f3d 7294 79bd 7de3 aebd
000003d0: 0217 5a3d 0080 9bbd 9d13 90bd 8d2d 6c3b
000003e0: a23b 6dbd 1a3f 133e e15a a53d daa9 583d
000003f0: 62df fe3d b24f 143e 53c0 f2bd 16b4 babc
0.029959755 0.07937371 0.033081803 0.060260277 0.03832253 0.04990606 -0.0487493 -0.1015946
-0.24575593 -0.14148988 0.0508962 0.025397263 0.14861235 0.016591288 -0.112767786 0.012053533
0.10702052 -0.020184487 0.10175365 -0.14102149 0.07334841 -0.08437219 -0.09031505 -0.003453757
-0.035316113 -0.031111881 0.010824813 0.054181226 -0.14147837 0.18327211 0.021392716 0.04323311
-0.14053054 0.01524028 -0.014179742 0.07893511 0.019343343 0.05953085 -0.021679908 0.06945607
-0.057055254 -0.02499779 0.095421895 0.11229529 0.090709865 -0.10137699 -0.14429693 -0.049395785
-0.049945734 -0.18196292 -0.09703811 0.09933367 -0.21548647 0.13737406 0.02926339 -0.1368085
-0.015897352 -0.054260425 -0.013965125 -0.16958083 -0.00352699 0.046349917 0.12850603 -0.0394264
-0.06736421 -0.15910006 0.035972897 -0.13464415 0.004086765 0.017087223 -0.0932684 -0.10748398
0.22706851 -0.046851736 0.0106243575 -0.003740709 0.117444575 -0.1140927 0.035225578 -0.094421
0.06607406 0.03944513 -0.017238127 0.037460424 0.06866535 -0.058810405 -0.1540148 -0.104650356
-0.024751818 -0.04452327 0.22258879 -0.08002606 0.17630999 0.046067733 0.025610108 0.070613615
0.073383525 0.044490986 0.056483958 -0.09465004 0.03433249 -0.14956035 -0.0445975 -0.04246091
0.045661863 -0.06976473 -0.10974595 0.015962327 -0.12244379 -0.014277679 0.13543816 -0.106656134
-0.056657866 0.0661385 0.06375249 -0.027268631 0.24601774 -0.06649525 0.039368793 0.021782145
0.094507806 0.18614233 -0.07635005 0.03023181 0.1934983 0.10599757 -0.107786566 -0.005603209
0.03326853 -0.022248855 0.020509215 0.17766371 -0.11604061 0.26366523 0.06316004 -0.18504538
-0.0046784882 0.026069654 -0.05312124 -0.08279188 -0.047823876 -0.14365757 -0.01828659 -0.0684359
0.040916584 0.03352093 0.041786324 -0.017748207 -0.054686096 -0.07082717 -0.11535529 0.05497976
0.08489387 -0.09607456 -0.057181936 0.05878081 -0.059342496 -0.10754143 0.0677683 0.12728208
-0.038083714 0.08683418 0.05958712 0.033442575 0.09747932 -0.09797645 0.13514216 -0.039177563
-0.10371425 0.08943894 0.115586914 -0.2077721 0.079346426 -0.22235128 -0.17239767 -0.011141141
0.12860674 -0.3131975 -0.042488556 -0.09309608 -0.09573916 -0.03898766 -0.041411474 -0.021423629
-0.10891512 0.02679383 -0.03702605 0.054340597 0.051114358 -0.016790347 -0.08911622 -0.0048897453
-0.045547202 -0.20464945 -0.02865128 -0.0059595928 -0.024891179 0.007817708 0.09048806 -0.121501915
-0.035936914 0.07874444 0.16474739 -0.040826082 0.15968247 -0.2211442 -0.015221425 -0.06858058
-0.04655625 -0.073748186 0.003838583 -0.07146115 -0.0254416 -0.13817945 0.12710492 -0.03785811
0.02964173 0.046403304 -0.017387586 -0.020432197 0.05890599 -0.0024932045 0.20234182 -0.14291994
0.035174314 0.045460705 -0.15884128 0.022253415 -0.048210565 -0.20242025 0.031874474 0.0040514003
-0.092946 -0.13825282 -0.08557235 -0.015681794 -0.13929375 0.051202457 0.023518758 -0.17399852
-0.14356038 0.050624646 -0.060932584 -0.08539484 0.0532446 -0.075927734 -0.07034991 0.0036037893
-0.0579182 0.1437954 0.080739744 0.052896358 0.12444951 0.14483526 -0.11853089 -0.02279095

res_blocks.0.linear2.bias f4 [64]
00000000: 0bdc 3c3d a6db 1abe 31cc d33e 389b e4bd
00000010: ad36 823e 3a32 98bd b18f a2be 78b0 1ebe
00000020: 5c05 423e 551c 46bd 5695 c1bd e8e7 8a3d
00000030: 1fd6 683a dbb4 9b3d 5464 6dbd 3c2d dc3e
00000040: b684 003e 22e7 4cbe 43b7 31bb f845 1cbe
00000050: caf4 f7bb a1e4 adbe 93f5 77bd 7511 ad3d
00000060: cc72 76bd e37f f0bb a28d cc3b b439 72be
00000070: 6318 1e3e aca9 66bd 375e 483e e3f5 a93e
00000080: 58bb 98bd db61 2fbe 1d66 693e b681 e83d
00000090: 0082 56be 7de0 943d ecf1 df3c d824 923d
000000a0: 635f 1a3d adaa 4fbc 8692 983e 288d e4bd
000000b0: 3f7e 69be be0b 98be 76a1 4e3d 32b0 51bd
000000c0: fb5e 30be 4efa 133e 0d77 18bd c66e 08bc
000000d0: 8c9d fbbd 1db5 08bd 03b5 1ebd 34ee 50bd
000000e0: 66f7 053e 60c3 5e3d 0db6 05be 5408 393e
000000f0: a416 58be 0628 fabc 61f0 aebc d844 67be
0.046108287 -0.15122852 0.41366723 -0.11162418 0.2543234 -0.07431455 -0.31750253 -0.15497005
0.18947357 -0.048366863 -0.09452312 0.06782514 0.0008882004 0.07602855 -0.05795701 0.4300326
0.12550625 -0.20010045 -0.002711729 -0.15261066 -0.007567023 -0.33963493 -0.060536932 0.08450595
-0.060168073 -0.007339464 0.00624247 -0.23654824 0.1543899 -0.056314155 0.1956719 0.3319541
-0.07457608 -0.17127173 0.2279286 0.113528654 -0.20948029 0.0726938 0.027337037 0.07135934
0.037688624 -0.01267497 0.2979929 -0.11159736 -0.22802065 -0.2969646 0.05044695 -0.051193424
-0.17223732 0.14450952 -0.03722291 -0.008327192 -0.12285909 -0.033375848 -0.038746845 -0.05100842
0.13082656 0.054385543 -0.13057728 0.18069583 -0.21102387 -0.030536663 -0.021354856 -0.22584856

res_blocks.0.bn2.weight f4 [64]
00000000: b0dd e33f 60ff 0640 bf87 f83f fd4a f93f
00000010: ccc0 e43f 4b82 ef3f dd01 fb3f ae2e f33f
00000020: 06f9 0040 e896 f03f a342 f43f febc e63f
00000030: c042 f93f 5ad2 ec3f e663 ea3f 864d f03f
00000040: b095 f23f ad8b fd3f 1f47 0340 deb6 0240
00000050: f5e8 fd3f 0864 fb3f c94f eb3f 0946 f23f
00000060: 77df f13f b3ed f63f c409 ec3f 43f0 f63f
00000070: 1acd f33f 32a1 0040 fffc f43f c675 f93f
00000080: 6da2 f83f 8f3e f13f f0f3 f33f c977 f43f
00000090: 45d1 f03f 5f15 f03f 3aa8 f63f 1e57 f43f
000000a0: e970 f43f c4ee ed3f 619f fa3f 3c3b 0040
000000b0: ea5f f53f 61e1 f63f 8d37 f13f 3962 f83f
000000c0: 5971 ea3f 5e4c f43f cdd9 f33f 5176 f33f
000000d0: f593 f63f abe5 f83f f282 f03f c350 f03f
000000e0: fd56 ec3f db21 f33f 5b16 f73f c6e8 ec3f
000000f0: 4bc9 f53f f7a7 f23f 60cd fa3f ae98 f43f
1.7802029 2.1093369 1.9416426 1.947601 1.7871337 1.8711637 1.9609944 1.899862
2.0151992 1.8796053 1.9082836 1.8026426 1.9473495 1.8501694 1.8311737 1.8773658
1.8951931 1.9808251 2.051216 2.0424113 1.9836718 1.9639902 1.8383723 1.8927623
1.8896321 1.929129 1.844048 1.9292072 1.9046967 2.0098386 1.9139708 1.9489067
1.9424568 1.8847216 1.9058819 1.9099056 1.8813864 1.8756522 1.9270089 1.9089086
1.9096957 1.858849 1.9579889 2.0036154 1.9169896 1.928753 1.8845078 1.9404975
1.8315841 1.9085805 1.9050843 1.9020482 1.9263903 1.9445089 1.8789961 1.8774647
1.8464047 1.8994707 1.9303697 1.8508537 1.9202055 1.8957509 1.9593925 1.9109094

res_blocks.0.bn2.bias f4 [64]
00000000: 507d 753f 5785 803f 4f2f 873f d3b3 773f
00000010: 6a67 713f 0efb 7b3f fdc8 813f a8e2 763f
00000020: 9d21 803f 88ca 863f cb85 7f3f 1081 753f
00000030: 7579 7e3f 0627 743f 7197 813f 1de8 7f3f
00000040: 34f6 803f 1c2a 7c3f a367 7d3f 2a15 7e3f
00000050: b36b 803f 811f 8a3f 32df 763f ba27 853f
00000060: 473c 883f c214 823f abc3 843f 8244 833f
00000070: 5cd9 863f 8f91 853f f7a1 7e3f 6696 863f
00000080: 5e32 6d3f 8b86 7a3f 3ef5 813f fd87 803f
00000090: 2336 783f 3166 7c3f 511f 803f 09a9 7c3f
000000a0: a9a1 823f d877 723f 4e20 863f 1eb0 813f
000000b0: a89b 823f d070 743f 412c 713f 7117 763f
000000c0: bb91 7d3f ed4c 803f a42b 813f 257c 823f
000000d0: 995d 813f bc75 803f a17f 863f 4fbc 7c3f
000000e0: 9db6 623f 10f8 863f 2052 853f 2fa3 853f
000000f0: 1a96 7f3f 953f 7b3f 8105 703f aa18 7e3f
0.95894337 1.0040692 1.0561312 0.96758765 0.9429842 0.98429954 1.0139462 0.964396
1.0010258 1.0530558 0.99813527 0.9590006 0.9940408 0.95372045 1.0124341 0.9996355
1.0075135 0.98501754 0.9898626 0.99251044 1.0032867 1.0790864 0.9643432 1.0402749
1.0643395 1.0162585 1.0372213 1.0255282 1.0535083 1.0435046 0.9946589 1.0514648
0.9265498 0.97861546 1.0152967 1.00415 0.96957606 0.9859343 1.0009557 0.9869543
1.0205585 0.9471412 1.0478609 1.0131872 1.0203753 0.9548464 0.9420815 0.9612952
0.9905049 1.0023476 1.0091443 1.0194136 1.0106689 1.003593 1.0507699 0.98724836
0.88559896 1.0544453 1.0415688 1.0440425 0.9983841 0.98143893 0.937584 0.99256384

res_blocks.0.bn2.running_mean f4 [64]
00000000: 7df8 17be b48f 8bbe 5408 493e 8adb 2cbf
00000010: 8779 8d3e f108 cb3e faeb 42bf 4ed4 c1be
00000020: 7c37 a0be 3bb9 003d 0d49 86be 3e6d 123f
00000030: 3464 82bd b1af 1b3f db01 d4bd 50a3 333f
00000040: 9fe2 5d3f e8dd 19bf b012 0bbe 166f 02bf
00000050: 5f47 eebd 435c 863c df2d f0be 0019 83be
00000060: 5a96 04bf f67d 0b3f 53eb 8cbe 130b f1be
00000070: 8c2a e03e 2dd3 f0be e542 533e f01b b23f
00000080: 3eb4 c2be 0577 04bf e908 483e 1d02 a53e
00000090: a8d9 03bf efe0 06be f5a9 04be e1d3 053e
000000a0: 449f cabe 3b28 2a3e 4295 f13e 1dda 90bf
000000b0: 2078 0dbf 856b 82bf 5618 493f db8c 3abf
000000c0: 9a03 433f 7d70 163f b391 69be b37f 4f3f
000000d0: 5c88 bd3b 110d 34bf f5b2 973e 581d cbbe
000000e0: 9a24 6abe 332f 603f e0c7 6e3d c918 373f
000000f0: ddce ccbd 380a a7be 3e03 4fbf 1854 07be
-0.14840885 -0.27258074 0.19632083 -0.6752249 0.2763178 0.3965526 -0.7614132 -0.37857288
-0.3129233 0.03142665 -0.26227608 0.5719794 -0.063667685 0.6081496 -0.103519164 0.7017107
0.8667392 -0.6010423 -0.13581347 -0.50950754 -0.11634707 0.016401416 -0.46909997 -0.2560501
-0.5179192 0.54489076 -0.27523288 -0.4707876 0.4378246 -0.47036114 0.20630987 1.3914776
-0.3802814 -0.5174411 0.19534649 0.32228175 -0.5150399 -0.13171743 -0.12955458 0.13069107
-0.39574635 0.16616909 0.47184187 -1.1316563 -0.5526142 -1.0189062 0.7855276 -0.7287118
0.7617737 0.58765393 -0.22809486 0.8105423 0.0057840776 -0.7033244 0.2962872 -0.39670825
-0.22865525 0.8757202 0.058296084 0.71522194 -0.100003935 -0.32624984 -0.8086432 -0.13215673

res_blocks.0.bn2.running_var f4 [64]
00000000: 1e29 873e ae18 bf3e 8e4f 873e d0c0 233f
00000010: 9759 cf3e 3754 1a3e d017 ba3d 70e3 583f
00000020: 5d0e 8a3e 720d a93d 5f02 203e d886 2d3f
00000030: 0e7d ac3e 5a63 413e a964 713e fca7 b13e
00000040: 9e05 dd3d 5bf9 403e 472a cd3e 44d3 b63e
00000050: 8c58 113f b3a2 d73e b2bb 823f f513 693e
00000060: e77b 2a3e d759 023f 1be7 803e 1829 e33d
00000070: d000 af3e 0511 073e 632e 883d be94 973e
00000080: cc71 533f 2391 163f 825f 613e bb9f f43e
00000090: cd5f 6e3e cfdd 903e cbc6 933e 229b 193e
000000a0: f970 283f 0b77 413e a437 903d 10b0 2a3e
000000b0: 2155 323e 4441 173e fad6 f33e a541 f63d
000000c0: a7b4 893e f255 043f bf50 953e 8799 063e
000000d0: 02b2 493e 98f4 4d3e a630 853e 6f71 813e
000000e0: a69d b43f 3ece 0b3e b033 113d f4bb d33e
000000f0: 7d37 0a3f 1338 1a3f 4286 763e 65df 513f
0.26398557 0.37323517 0.26427883 0.63966084 0.4049804 0.15071188 0.09086573 0.8472204
0.26964083 0.082545176 0.15625905 0.6778388 0.3368916 0.18885556 0.23573555 0.34698474
0.10792087 0.18845122 0.40071318 0.35708058 0.56775737 0.42116317 1.021353 0.22761519
0.16648827 0.50918335 0.2517632 0.110918224 0.34180307 0.13190086 0.066494726 0.2960567
0.82595515 0.5881521 0.2200909 0.47778115 0.23278733 0.28294227 0.28862604 0.15000585
0.6579738 0.18893068 0.070418626 0.16668725 0.17415287 0.1477099 0.47624952 0.120242395
0.2689564 0.5169364 0.29163167 0.13144504 0.19696811 0.20112836 0.26013678 0.25281855
1.411061 0.13652894 0.035449684 0.41354334 0.5399092 0.6024181 0.24074653 0.819815

res_blocks.1.linear1.weight f4 [64, 64]
00000000: 16c7 fc3c b337 e6bd 56e4 1cbd 3da3 3b3d
00000010: 4c3a 2cbe 62b9 08bd c840 fbbd 3c80 b6bd
00000020: 4830 f93d 2126 14bd aa23 23be 12ef 10bd
00000030: ed9c 8dbc b3af 0bbe e021 52be df38 a6bd
00000040: 46dd 40bc cfef 4cbc 916e 673d 1dd6 ef3d
00000050: c729 edbc 313e 253d efe6 b3bd 1bdd cf3d
00000060: c9b3 693d aaec 713d 1de2 fa3d 56b9 91bd
00000070: 9861 34be 84c7 eebd f64b b53d 17bd e03d
00000080: 69b8 e13d 8f81 14bd d391 e4bd e0cb 8d3d
00000090: 6590 053e 6037 c4bb 065e 2c3d 38cf 1e3d
000000a0: 55e8 c5bc 1429 e4bd 24ee 72bb 229c 71bd
000000b0: 3330 e33d 2858 943c 16cb 77bc f32c cc3d
000000c0: f86b b63d a9dc 1ebd ce6d cebd 8c76 8d3c
000000d0: 4853 8f3d 6e4e c13d f38d 4cbc 8691 5b3d
000000e0: 526c b2bd e202 54bd 9988 0f3e 3280 11bd
000000f0: 2bc0 6ebd d30e 0b3e 3229 983d 544f 113d
00000100: f7a4 583d 806e dabd 88a6 c23d c1be c53d
00000110: 4720 4abd ed0c 393d 66c0 eb3b cba8 90bd
00000120: fee0 033d 6e44 a3be a455 943d 9ded ee3c
00000130: 907c 6abd 6a8f 533d 5120 a83d f2f0 cabd
00000140: 0a07 acbd 2f59 0f3d ffdc 6cbd f967 ff3d
00000150: 9ed0 3dbd f971 dfbb c4d4 a1bd d66d b3bd
00000160: 98f0 a23d 7e05 393c ed0d 1b3d ccb7 99bd
00000170: f4ca 0fbe 539a 3cbc 7c8a ea3d fcdb 173d
00000180: 22d5 823c efd1 bf3d 7a5b ea3c fdad 00be
00000190: cd99 963d 53d9 41bd 1e72 fa3c a556 673d
000001a0: dc06 da3c 33c0 dbbc 25c4 e53c 7d49 71bd
000001b0: 0e2f b4bc c329 e33c 1ef7 40bd 6dc8 a1bd
000001c0: 8b9c 78be 0396 a83d d33d 10bd 8398 573d
000001d0: df54 39bd 1a89 083c 7fa9 bdbe 9be9 7e3d
000001e0: 756f aa3d da33 0bbe 8ed7 8dbd c3e3 b2be
000001f0: 1a48 c6bc 3dae 92ba bdc7 12bd 6059 703c
00000200: 6968 ce3d c6d4 a33c 95d9 19bd 9f63 623d
00000210: 4631 58bd 9ca3 5a3d faae f4bd 2333 91bd
00000220: 7a20 313e 7e64 15be 6b9d c23d b00d 09bd
00000230: 4531 923c 4468 a1bd 3f68 84bc 8336 f03d
00000240: 2052 e6bd 919e 44bc 275f 2b3e 16f9 153d
00000250: c510 a9bc efca 6a3c 9379 f63d 9a34 2b3e
00000260: a4e2 6bbd effe 323e 6632 873d bb44 6d3e
00000270: a0a2 dbbb e253 84bc 2933 ddbd ca4a febd
00000280: 0ef1 fa3c 983e 543a 78fc 123c 3159 8fbd
00000290: ad83 c93d f4fc f8bd 2c70 0a3e 2b8e ed3d
000002a0: e723 8dbc cdff 07bd 0fe6 03bd 6620 663d
000002b0: 38db 18bd 79b5 9ebe b518 0fbd c0ac ddbd
000002c0: 88fe 5c3e d8fc 19bd e685 c8bd a0bc 7ebd
000002d0: 43ed 0dbd 611c 1cbd e173 85be df63 35be
000002e0: 856c f63d 9a42 c83c f9bc 3cbe d299 88bd
000002f0: 593b 9bbd 6e82 a8bd 1234 7dbd 64b0 813d
00000300: 6683 223e 39eb b93d 706b a43d e7b4 e73d
00000310: 6718 0c3e 5716 aabd aada e9bd 71eb 97bb
00000320: 0579 9e3d 7bab 28be 559f b83d b909 aebd
00000330: 2bf5 b1bc 89de 4abd 06d3 1d3d 14b3 0a3d
00000340: 1ca6 63bc 7951 0d3e 30f0 4b3d db46 933d
00000350: 6a12 e53b 8408 483d 39ab 523d 7b21 e3bd
00000360: d312 06bd 4a8a 10bd ac6b bfbd a8ef e6bd
00000370: 48ee 8b3d 910b fc3b 07d4 c1bd 6612 02bd
00000380: 23fa 4e3d 05f3 88bd 29aa 173e 4826 2c3e
00000390: 0fc1 babc 591c 133e 8f57 6b3c c304 67bd
000003a0: 3db8 103e 07c7 943b 01a2 32bd a92a 653d
000003b0: 04e2 37be d72a 643d a509 39bd 3089 87bd
000003c0: ad65 14be 5af2 953d 0fa4 0e3d daa7 723d
000003d0: 1a54 d2bd 8875 ab3a aa26 07be fa29 913d
000003e0: 83fd 933d 569c f5bd 12db 803b 3c29 77be
000003f0: aaaa b33c c36b 4cbd c7b9 013d 9d8f e03c
0.03085665 -0.112410925 -0.038303696 0.045809973 -0.16819113 -0.03337992 -0.122682154 -0.089111775
0.12167412 -0.036169175 -0.15931574 -0.035384245 -0.017286742 -0.13641243 -0.20520735 -0.08116316
-0.011771506 -0.012508347 0.05650193 0.11710761 -0.028950585 0.040342513 -0.087842815 0.101495944
0.057056222 0.05906359 0.12250159 -0.07115428 -0.17615354 -0.11659148 0.08852379 0.10973566
0.110215016 -0.03625637 -0.11160626 0.06923652 0.13043363 -0.0059880465 0.042081855 0.038771838
-0.024158636 -0.111406475 -0.0037068212 -0.05898679 0.11093178 0.018108442 -0.015124103 0.09969511
0.08907312 -0.038784657 -0.10079537 0.017268442 0.069983065 0.094387874 -0.012485015 0.05360558
-0.08712067 -0.05176056 0.14016952 -0.035522647 -0.058288734 0.13579874 0.074297324 0.035476044
0.052891698 -0.106656075 0.095044196 0.09655524 -0.04934719 0.045178343 0.0071945665 -0.07063445
0.03219699 -0.31888145 0.07242897 0.029166037 -0.0572477 0.051650442 0.08209289 -0.09909238
-0.0839978 0.03499716 -0.057827946 0.12471003 -0.04634153 -0.0068190065 -0.0790191 -0.08761184
0.07956046 0.011292813 0.037855078 -0.075057596 -0.14042264 -0.011511403 0.11452195 0.037075028
0.01597077 0.093662135 0.028608073 -0.12566371 0.07353554 -0.047326397 0.030571993 0.056479115
0.026614599 -0.026825046 0.02804763 -0.058907975 -0.021995094 0.027729874 -0.04711067 -0.07899556
-0.24278466 0.082317375 -0.03521521 0.05263568 -0.045246955 0.008333469 -0.37043378 0.062234502
0.0832204 -0.13593999 -0.069258794 -0.34939393 -0.024204303 -0.0011190843 -0.035835017 0.014669746
0.100785084 0.01999892 -0.037561018 0.055270787 -0.052781366 0.053378686 -0.11947437 -0.07089832
0.17297545 -0.14589116 0.09502681 -0.03346032 0.01784576 -0.07881215 -0.01616299 0.11729147
-0.11246133 -0.012000696 0.16735516 0.0366145 -0.02063788 0.01433061 0.12034907 0.16719285
-0.05758919 0.17480062 0.066014096 0.2317075 -0.006702736 -0.01615328 -0.10800774 -0.12416609
0.030632522 0.00080964854 0.008971326 -0.06999434 0.09839568 -0.12157622 0.13519353 0.11599382
-0.017229034 -0.033202935 -0.032201823 0.05618324 -0.03731844 -0.30997828 -0.03493567 -0.10823965
0.21581471 -0.037594646 -0.09791164 -0.062191606 -0.0346501 -0.038113 -0.2606497 -0.17713879
0.12032417 0.02444582 -0.18431462 -0.06669964 -0.07579679 -0.082280025 -0.061817236 0.06332472
0.15870437 0.09078068 0.080283046 0.11313801 0.13681184 -0.08305042 -0.1141866 -0.004636221
0.077379264 -0.16471665 0.09014765 -0.08497948 -0.02172335 -0.049528632 0.038531326 0.03386219
-0.013894584 0.1380061 0.049789608 0.07191249 0.0069907205 0.048836246 0.051432822 -0.1109037
-0.032732796 -0.035288133 -0.09346709 -0.112761796 0.06832558 0.0076918085 -0.09464269 -0.031755827
0.050531518 -0.06686977 0.14811005 0.16811478 -0.022797136 0.14366283 0.014364137 -0.056401026
0.14132781 0.0045403275 -0.04361153 0.055948887 -0.17957312 0.055704918 -0.045175213 -0.06617963
-0.14491911 0.073216155 0.034824427 0.059242107 -0.10269947 0.0013081292 -0.13198343 0.070880845
0.07226088 -0.11992709 0.003932365 -0.24136823 0.021931965 -0.049907457 0.03167131 0.02741223

res_blocks.1.linear1.bias f4 [64]
00000000: 566b 0d3e 3116 31bd e3d4 08bd bb86 8fbd
00000010: 5191 f4bd 6781 a2bd fd6b a73d 016b 823d
00000020: 8510 d7bd 4dac 1cbd 205c 5abd b1d5 c83b
00000030: edaf 733d 6267 993c cfc5 b4bd 602a 8bbd
00000040: 7ec8 e73d aae9 d13d 5a0e 2d3e 243e b2bd
00000050: d752 ddbc e755 7f3d 5515 6cbd 324d 623d
00000060: eca1 073e d1d3 a23d b0d2 fcbd f7c6 68bd
00000070: c785 013d 4455 1c3d 33f3 a9bd 2744 c0bd
00000080: 999c d33d c24e af3c a37c 3ebd 38bf 43bb
00000090: 65ae 66bc 5ce4 f8bd eb11 cd3d 44d4 a5bd
000000a0: 9fd5 a03c 8c4f 773c 3483 38bd 7e42 a7bd
000000b0: 9359 36bd bda9 f6bc 9fea 213e e97c 7b3d
000000c0: cf55 d8bd 5eed 3e3d 3625 c8bd faf3 a33d
000000d0: 9417 393e 8ab5 a03d d454 843c 9c3b 9dbd
000000e0: 771b a3bd 4770 05bd 1b8a b4bd 2ace 873d
000000f0: 86c7 aebb f477 793d 720f 30bd e5d8 c7bd
0.13810477 -0.043234054 -0.03340615 -0.0700812 -0.119417794 -0.07934838 0.08174894 0.063680656
-0.10501198 -0.038250256 -0.053310513 0.0061289896 0.059493948 0.018726055 -0.088267915 -0.06795192
0.11317538 0.10249646 0.16900006 -0.08703259 -0.02701704 0.062337782 -0.05763753 0.0552494
0.13245362 0.07950557 -0.12344873 -0.056830373 0.03162172 0.038167253 -0.0829834 -0.09387999
0.10332603 0.02139986 -0.04650558 -0.0029868614 -0.014079665 -0.12152931 0.10013183 -0.08097127
0.019633112 0.015094649 -0.045047 -0.08166979 -0.04451902 -0.030110234 0.15812157 0.06139842
-0.10563242 0.04661309 -0.097727224 0.08005519 0.180754 0.07847126 0.01615373 -0.07677385
-0.07964223 -0.03257778 -0.08815404 0.066311195 -0.0053338436 0.06090541 -0.04298348 -0.09758166
