model/linear_resnet_model_400epoch.pt (torch, 168448 bytes, 44 tensors)

input_layer.0.weight f4 [64, 118]
000000 87 1b c4 be 02 2f 1e 3e a4 4d d0 bd 29 c1 df 3d
       -0.38302252 0.1544762 -0.10171059 0.10925514
000010 7f 84 90 be 2f 41 e1 3d da 70 ab 3c 9f 97 fc bd
       -0.28226086 0.10998761 0.020927835 -0.12333607
000020 13 90 1a be 41 28 2b be 65 03 bf 3d 70 59 d5 bd
       -0.15094022 -0.16714574 0.09326819 -0.104174495
000030 50 f8 cd be e9 33 0f 3c a0 25 fd 3e bc 57 f0 bd
       -0.4022851 0.008740404 0.49442768 -0.11735484
000040 df f7 cc be 53 62 1d 3e 94 5f b0 be 1e 26 9c 3e
       -0.4003286 0.15369539 -0.3444792 0.3049783
000050 f6 54 20 3c b6 48 1b be 59 cb ee 3e 2b df e2 3b
       0.009785881 -0.15164456 0.46639517 0.0069235764
000060 f5 8e 9e 3d 41 bb b4 3c 4a b1 e6 be 1f 14 0a bd
       0.07742111 0.022061946 -0.45057136 -0.033710595
000070 8c 62 18 3e 17 24 34 3d aa 17 b0 3d af 11 c6 be
       0.14881343 0.04397973 0.085982636 -0.38685367
000080 75 d3 fb 3e c1 84 33 3e 2f 6e 82 bd 81 6f b9 3d
       0.49184766 0.1753111 -0.06368672 0.09054471
000090 61 aa 8f be 35 5b 92 3d d6 5e 16 3d 40 bf 13 be
       -0.28059676 0.071463026 0.036711536 -0.14428425
0000a0 79 e4 04 bd 6a ca 18 be b0 f2 16 3e a4 33 32 be
       -0.03244445 -0.14920965 0.14741015 -0.17402512
0000b0 28 6c d9 3d 28 8d 77 be 03 a1 79 3d 93 7f 56 bd
       0.10616332 -0.2417494 0.06094457 -0.052367758
0000c0 a6 81 46 3e 48 b7 77 be e5 77 d1 be 2e ff 0b 3e
       0.19385394 -0.2419101 -0.40911785 0.13671562
0000d0 4b b7 82 be e7 8f 4c 3e 2e 0e 1c 3e 5c 6f 30 bd
       -0.25530466 0.1997677 0.15239784 -0.04307495
0000e0 c6 bf fc 3e 68 bf 1f 3e b3 72 60 3c 5f 3f bf 3d
       0.49365062 0.1560036 0.013699221 0.09338259
0000f0 ee eb 0c bf 31 82 98 bc a0 9c 85 3d bc 2a c1 bd
       -0.550475 -0.018616768 0.065240145 -0.09431979
000100 80 a4 ac bd 25 b5 c6 3d 9a 10 b5 be 69 12 17 3e
       -0.084298134 0.09702519 -0.35364228 0.14753117
000110 91 c0 0d 3e ab d9 9e bc 95 11 f1 bc 44 f8 41 be
       0.1384299 -0.019390902 -0.02942733 -0.18942362
000120 91 ab 60 3d 01 27 e9 3d 10 30 51 be 00 57 c8 bd
       0.05485112 0.113843925 -0.2042849 -0.09782219
000130 5e 26 87 be 6c 48 1f 3e 08 aa 20 be c3 97 6b 3e
       -0.2639646 0.1555497 -0.15689862 0.23007111
000140 70 86 bc be 39 70 b1 3c 08 98 a8 bc d4 b9 e5 be
       -0.36821318 0.021659957 -0.020580307 -0.44868338
000150 a7 2d bb 3d 09 f0 b5 be 42 0d 77 3e 42 37 56 bc
       0.09139567 -0.35534695 0.24126151 -0.013074698
000160 47 64 a9 bd 1d 00 e1 3d 7f 4d bb 3e 78 f9 24 3e
       -0.082710795 0.1098635 0.36582562 0.1611079
000170 12 18 47 3b c9 f4 fe 3d 22 a4 7c 3e 48 1b ea be
       0.0030379337 0.12449033 0.24671987 -0.4572394
000180 1e 68 38 3c 2f bc c0 3d 91 cc e8 bd 4a 0e 8c 3d
       0.011255292 0.09410893 -0.11367143 0.06838663
000190 40 54 1d bd 69 26 c5 be 04 05 3b 3e bb 38 f5 bd
       -0.038410425 -0.38505867 0.18263632 -0.11973711
0001a0 a2 18 ae 3d 5b e6 86 be 55 e7 85 3d 7a 19 6e 3b
       0.08500792 -0.26347622 0.06538264 0.0036331103
0001b0 3b 0d 6b be 5c a0 d3 3d 8e 9e 33 be 34 be cd bd
       -0.22954266 0.103333205 -0.17540953 -0.10046044
0001c0 d6 89 f1 3d bb dd ba bc 11 14 95 be d8 b6 9e bb
       0.11793868 -0.022810807 -0.29116872 -0.004843574
0001d0 86 2f b5 bd a6 7e c7 be 07 4a 06 bd d1 1a 4c 3d
       -0.08846955 -0.38963813 -0.03278544 0.04983026
0001e0 f6 7e 2f 3e 78 d3 6f be 54 f9 9b 3e 27 6b f4 bd
       0.17138276 -0.23420513 0.3046366 -0.119345
0001f0 ca 0c 60 3e 88 bb 70 3d 03 97 a4 3d 18 60 16 3e
       0.21879879 0.058772594 0.08036616 0.14685094
000200 9a 14 32 3e f8 3d 18 3d 6a 17 47 3e c9 06 3a be
       0.17390671 0.037168473 0.19442526 -0.18166651
000210 9e ec 0b be e3 b6 8a 3e 59 16 5c bd c2 fb 92 bb
       -0.13664481 0.27092656 -0.05373225 -0.0044855783
000220 7d cd 1e 3e fd e2 f4 be f8 8c 90 bd 07 86 b6 3e
       0.15508075 -0.47829428 -0.07058138 0.3564913
000230 d1 e1 f3 3d c6 d3 72 3e 93 b1 54 3e f4 c0 6b 3d
       0.119083054 0.23713598 0.20770864 0.05755706
000240 87 68 40 be 7d 2f 51 3c 21 85 08 3f 72 fc df bc
       -0.18789874 0.01276767 0.5332814 -0.027342055
000250 75 75 20 3e 27 9f 9f 3d 88 c2 d9 bd 3e f8 ac 3c
       0.15669806 0.07794028 -0.10632807 0.021114465
000260 d9 3d de 3c dd 63 04 be d2 0e 78 3e 75 06 bf bd
       0.0271291 -0.1292872 0.24224404 -0.093274035
000270 39 40 1e 3e 6e f3 af 3d c9 1f 76 bc 36 a8 62 3e
       0.15454186 0.085913524 -0.015022227 0.2213448
000280 98 b5 df 3d d9 7b bc 3d cd 39 88 bd 60 37 43 3e
       0.10923308 0.092033096 -0.066516496 0.19064093
000290 69 1e d7 bd 8f cd 23 3e b3 19 40 be 02 99 88 3e
       -0.10503847 0.15996383 -0.18759803 0.26679236
0002a0 ae 46 c3 bd 85 03 8d 3d d4 98 1d 3e a4 64 bf be
       -0.095349655 0.06885437 0.1539033 -0.3738147
0002b0 01 10 f5 bd 2e 87 64 3e c0 bb f5 3d f5 7d 6f 3e
       -0.11965943 0.22317192 0.11998701 0.23387893
0002c0 a9 98 bd 3d 4d fa 09 3e 42 1b d8 bd 83 f4 87 3c
       0.09257633 0.13474388 -0.10552074 0.016596084
0002d0 b7 6b f5 3e 44 fd 71 3d 8e c0 53 3e 29 72 ca 3d
       0.47933742 0.059079424 0.20678923 0.098850556
0002e0 65 1d 91 3d 04 8e 9b bd 36 b7 97 3d a7 c7 c4 3d
       0.07085685 -0.07595447 0.074079916 0.09608393
0002f0 6b db 7d be 33 47 80 3e a8 3f f7 bd e0 3d 0a 3e
       -0.24790733 0.2505432 -0.12072688 0.13500166
000300 8f 0b 05 3e 05 7f 87 3d 20 39 8a 3e 26 5a 5b 3d
       0.1299269 0.06616024 0.26996708 0.05355277
000310 23 dd a8 3d fa ab 96 bd 92 60 d8 3d 8b 5a a8 bd
       0.082453035 -0.07357021 0.10565294 -0.08220395
000320 c0 5f 01 3e f3 a2 c9 bd a0 0c e7 3d ae 84 73 3d
       0.12634182 -0.09845533 0.11281705 0.059452705
000330 80 4c e3 be 40 26 4f be c0 50 96 3e 15 56 c8 be
       -0.44394302 -0.20229435 0.29358482 -0.39128175
000340 2f 0f 90 3d ad 72 49 3e e0 a1 f1 3d 41 15 6d 3d
       0.07034146 0.19672652 0.11798453 0.057881597
000350 8d 52 57 3d 26 3f 50 be f2 b1 98 3d 31 53 06 3f
       0.05256896 -0.20336589 0.074558154 0.5247069
000360 b7 41 5d bc 6e db 18 be f6 b9 4c 3d 82 a1 bd 3d
       -0.013504437 -0.14927456 0.049982034 0.09259321
000370 59 f3 5f 3d ca 4c 9c 3d cd 88 10 be 9e 51 a3 3e
       0.054675434 0.07631834 -0.14114685 0.31898206
000380 5c 00 85 be 42 3f 3d 3e 7c fb d9 bc 11 bd b3 3b
       -0.25976837 0.18481162 -0.026609175 0.005485185
000390 b6 35 0e bd 72 57 95 3e a3 e1 ca 3d 1f 0d f3 bc
       -0.03471919 0.29168278 0.09906318 -0.029669343
0003a0 ac d8 85 3d 64 a4 90 bd 0a b2 e2 3d 4e 2f ac bd
       0.065354675 -0.07062605 0.110691145 -0.0840746
0003b0 38 6b 74 3c 29 77 ae 3d 27 83 0e bd 64 78 86 be
       0.014918141 0.08518822 -0.034793045 -0.26263726
0003c0 f0 70 6f 3e 16 ec ac be 50 ea f9 3d e1 c8 a1 bd
       0.23382926 -0.3377387 0.12202895 -0.07899643
0003d0 f8 21 08 be b4 95 86 3e a9 4f 54 3d 2f 52 ae 3c
       -0.13294208 0.2628609 0.051833782 0.021279423
0003e0 95 52 4b 3e 29 97 2a be f1 92 90 be 61 ab 56 3e
       0.19855721 -0.16659226 -0.28237107 0.20963813
0003f0 b5 23 4c bd 1a 51 cb ba bb 78 69 3d 94 5a de be
       -0.04983874 -0.0015511841 0.056999903 -0.4342848

input_layer.0.bias f4 [64]
000000 0d 7c cf 3d 2f f7 ea 3e 22 7b 40 be 2b 76 bb 3e
       0.10131083 0.4589171 -0.18796971 0.36613593
000010 f5 56 cd bd 9d 0f 73 be 80 3d b4 3e aa 4d 05 3e
       -0.10026351 -0.23736425 0.3520317 0.13017908
000020 eb 1c b5 3e 62 01 82 be 92 94 56 3e ff e1 ce 3d
       0.35373625 -0.2539168 0.20955113 0.10101699
000030 0b bb 14 be fe d1 7a be 03 ce fe 3d dc 68 01 3c
       -0.14524476 -0.24494168 0.12441637 0.007898536
000040 ba 19 b2 3e 3e 1f 45 bd 31 c2 55 3e 7f b0 9a bd
       0.34785253 -0.048125498 0.2087486 -0.07553195
000050 9a 60 04 3f 25 28 8a 3d f7 04 79 bd 71 79 d5 3e
       0.517099 0.06745938 -0.06079575 0.41694215
000060 69 b3 88 3d c0 41 1d 3e 5c 59 18 bf 72 f2 06 be
       0.06674845 0.15357113 -0.5951135 -0.13178423
000070 e5 be be 3e 64 f9 9a be 3a 9d 9c be 92 5d 83 3d
       0.37255016 -0.30268395 -0.30588704 0.064143315
000080 e7 5c 20 3e b0 4f 54 bd 8c d5 a7 3e 19 ab 17 be
       0.1566044 -0.05183381 0.3278011 -0.14811362
000090 1c d1 19 3f bd 9a 41 3e 77 fa 52 be d3 91 99 3e
       0.600847 0.18906684 -0.20603357 0.29994068
0000a0 f3 01 75 3e a5 2d a8 3d e3 d3 4a 3e fb 0f 45 be
       0.23926525 0.08211831 0.19807391 -0.19244377
0000b0 85 26 ce 3d 37 31 c5 be f3 d7 b3 bd 8a 3c b2 3e
       0.10065941 -0.3851411 -0.087814234 0.34811813
0000c0 23 ad d7 3e 5d e1 db 3d 2b e8 53 3e 6c 2a ff 3e
       0.4212428 0.10736344 0.20694034 0.49837053
0000d0 10 ca 81 be 80 9f 82 be 58 d1 24 be 58 24 b5 bd
       -0.25349474 -0.25512314 -0.16095483 -0.08844823
0000e0 04 f6 05 be 23 a7 b5 be c7 03 ed 3e 09 2a 75 bd
       -0.13082129 -0.35479078 0.46291944 -0.05985454
0000f0 db 72 98 3e e6 77 7b bd d2 77 91 be 53 64 6f 3e
       0.29775128 -0.06139364 -0.28411728 0.23378114

input_layer.1.weight f4 [64]
000000 76 75 76 41 cd a5 6d 41 28 a6 78 41 27 97 5c 41
       15.403677 14.852979 15.5405655 13.786902
000010 e8 2f 52 41 bb 6c 68 41 35 15 49 41 60 e5 24 41
       13.136696 14.526546 12.5676775 10.306
000020 c2 f0 2a 41 0f 46 81 41 59 67 02 42 91 6b 15 41
       10.683779 16.159208 32.600925 9.338761
000030 9c 95 62 41 ad a6 86 41 b2 35 67 41 20 72 b0 41
       14.161526 16.831385 14.450609 22.055725
000040 e3 f7 e8 41 38 c5 5a 41 1d a3 88 41 79 b5 81 41
       29.121038 13.673149 17.079645 16.21361
000050 a7 12 5b 41 67 ed 85 41 57 ab 1f 41 5e f0 fa 41
       13.692054 16.74092 9.979331 31.367367
000060 5e c6 32 41 19 4c 8e 41 77 6a 62 41 1e de 05 42
       11.1734295 17.787157 14.150992 33.46691
000070 4c 15 4e 41 30 52 5b 41 b8 68 82 41 55 b6 92 41
       12.880199 13.707565 16.301132 18.33903
000080 32 66 00 42 98 a5 74 41 c2 95 77 41 f6 97 99 41
       32.0998 15.290428 15.474062 19.1992
000090 60 f5 80 41 78 43 83 41 e7 9d 67 41 7a d4 87 41
       16.119812 16.407944 14.47605 16.978748
0000a0 0d bc 67 41 92 81 f3 41 7d a9 5d 41 11 19 29 41
       14.483411 30.438267 13.853879 10.56862
0000b0 20 31 ee 41 59 77 36 41 16 32 2c 41 f4 44 20 41
       29.773987 11.404138 10.762228 10.016834
0000c0 a6 45 60 41 9f 98 78 41 9d df 26 41 6a fb c6 41
       14.017004 15.537261 10.429593 24.87276
0000d0 70 5c 48 41 87 6f 9d 41 42 06 94 41 46 44 26 41
       12.522568 19.679457 18.503056 10.391668
0000e0 e9 a6 7c 41 30 99 6d 41 8f ca 5a 41 08 98 00 42
       15.79075 14.849899 13.674453 32.148468
0000f0 0e 6a b5 41 10 87 9d 41 1d e8 ec 41 2d 4f 03 42
       22.676785 19.690948 29.613337 32.82732

input_layer.1.bias f4 [64]
000000 01 b3 d5 41 d5 0e f6 41 3f 2c e1 41 19 d5 d6 41
       26.712404 30.757242 28.146605 26.854052
000010 a1 82 c8 41 c7 2c f3 41 5e 0a af 41 d4 84 95 41
       25.063784 30.396864 21.880062 18.689857
000020 59 92 cb 41 a8 65 e9 41 6f 6e 0c 42 98 a1 94 41
       25.446459 29.174637 35.107845 18.578903
000030 16 01 f2 41 a6 b9 f9 41 0b e3 d8 41 b5 6e fb 41
       30.25053 31.215649 27.11086 31.429056
000040 31 67 04 42 c7 4a f0 41 13 55 01 42 6c 67 00 42
       33.100773 30.036512 32.33308 32.100998
000050 7c fd c3 41 78 bf f8 41 f3 0a ad 41 3c 1e 0f 42
       24.498772 31.09349 21.630346 35.779526
000060 1a 4e ca 41 42 d2 e6 41 af 4a e6 41 e6 5d 0f 42
       25.288136 28.852665 28.786467 35.841698
000070 47 e0 a4 41 0c 3e 0d 42 ce e0 fa 41 13 2f ed 41
       20.60951 35.310593 31.359768 29.647985
000080 8f 77 0c 42 9d e9 c1 41 f1 b2 d4 41 67 83 f1 41
       35.116756 24.239069 26.587374 30.189161
000090 53 88 e0 41 39 66 f6 41 d3 1c f1 41 16 68 fb 41
       28.066565 30.799913 30.139074 31.425823
0000a0 81 57 f6 41 c5 8c 0d 42 c1 0d eb 41 fb ed c2 41
       30.792727 35.38747 29.381716 24.366201
0000b0 73 37 0d 42 70 b9 d9 41 56 04 cb 41 67 b3 94 41
       35.30415 27.215546 25.377117 18.587599
0000c0 c4 53 c4 41 8e 13 f8 41 f3 8c 92 41 bc 35 09 42
       24.540901 31.009548 18.318823 34.302475
0000d0 9c 09 af 41 93 04 07 42 ea c0 05 42 4b a4 c1 41
       21.879692 33.754467 33.438393 24.205221
0000e0 a3 ef fa 41 3b 35 f7 41 38 81 e8 41 43 07 0c 42
       31.36701 30.900991 29.063095 35.00709
0000f0 09 d5 f8 41 c8 37 04 42 df 2b 0e 42 90 da 0d 42
       31.104021 33.054474 35.542843 35.46344

input_layer.1.running_mean f4 [64]
000000 d4 e9 d2 3d 56 e3 d3 3e 8c be 2d be 22 4e b0 3e
       0.102985054 0.4138438 -0.16967219 0.3443461
000010 a5 84 03 be f9 8c 7b be 96 57 b6 3e b2 14 12 3e
       -0.12843569 -0.24565496 0.35613698 0.14265707
000020 09 09 bb 3e 8e 05 83 be d1 a9 6d 3e 20 fe ff 3d
       0.3653033 -0.25590175 0.23209311 0.12499642
000030 93 e7 3d be 52 7b 81 be 84 fe fb 3d 0e bd a8 bb
       -0.1854537 -0.25289398 0.123044044 -0.00514949
000040 3b 49 b9 3e b5 f5 70 bd e0 55 56 3e fc f2 a9 bd
       0.36188683 -0.058828074 0.20931196 -0.08298299
000050 f3 28 06 3f 62 ab 9f 3d 30 a5 27 bd bb e9 c3 3e
       0.52406234 0.077963606 -0.04092902 0.3826426
000060 23 64 a0 3d 4b 78 14 3e 29 2e 1f bf 24 e7 08 be
       0.078315996 0.14499013 -0.6217981 -0.13369423
000070 1d cb bb 3e b1 47 b0 be e6 18 a6 be a4 36 b3 3d
       0.366784 -0.34429696 -0.3244087 0.08750656
000080 18 10 32 3e fd b8 6a bd 11 76 a3 3e d6 a9 1a be
       0.17388952 -0.057305325 0.31926015 -0.1510385
000090 7a 8a 18 3f 48 ed 2e 3e b2 74 5a be c9 32 a2 3e
       0.595863 0.17082703 -0.21333578 0.3167937
0000a0 96 a8 70 3e 9c b6 de 3d c5 1f 3b 3e de 65 38 be
       0.2350181 0.10874674 0.18273838 -0.18007609
0000b0 92 09 e7 3d 9f 6a c0 be 77 4d 91 bd 59 4b bb 3e
       0.11281122 -0.37581345 -0.07094853 0.36580923
0000c0 06 93 d2 3e 4e 79 cc 3d 7b 7f 67 3e 8a 97 f4 3e
       0.41127795 0.099840745 0.22607224 0.47771865
0000d0 58 19 80 be 49 05 8a be 59 7c 2f be 5c a0 93 bd
       -0.25019336 -0.26957157 -0.17137279 -0.072083205
0000e0 ed f0 0c be bf 3d b9 be bf b8 e3 3e 31 33 4c bd
       -0.13763781 -0.3617992 0.44476888 -0.049853507
0000f0 76 98 93 3e d3 3d 91 bd 00 bd 8e be fc fa 69 3e
       0.28827256 -0.0709187 -0.2787857 0.22849649

input_layer.1.running_var f4 [64]
000000 09 25 46 42 c4 9d 45 42 2a 5a 99 40 97 18 9a 41
       49.536167 49.404068 4.7922564 19.262007
000010 7b d2 d3 41 20 87 e6 41 f5 c0 2b 42 94 e9 46 42
       26.477774 28.815979 42.938435 49.728104
000020 be 1a 2c 42 58 f2 47 41 e8 61 27 42 14 19 52 42
       43.026115 12.496666 41.84561 52.52449
000030 4e 2b 38 42 b2 97 e0 41 9d f3 43 41 82 20 38 41
       46.04229 28.07407 12.246976 11.5079365
000040 cd ae 40 42 e9 d4 d0 41 b2 02 69 41 96 c0 a4 41
       48.170704 26.10396 14.563158 20.594036
000050 c9 74 21 42 28 2f 47 41 26 24 48 42 24 46 93 41
       40.364048 12.449013 50.0353 18.409248
000060 74 80 1f 42 87 6e 6e 41 d9 bf c8 41 b1 e0 bc 41
       39.875443 14.901984 25.093676 23.609713
000070 9a f7 57 41 83 3d 9d 41 bb ca 0e 42 03 21 62 40
       13.49795 19.655035 35.69798 3.5332649
000080 de 6d 2d 42 f8 2f 56 41 49 43 80 41 09 1b 23 41
       43.357292 13.386711 16.032854 10.1941
000090 c5 bc 80 41 8e 26 c8 41 65 3d c3 41 53 6b a1 42
       16.092173 25.018826 24.404978 80.70962
0000a0 61 44 1b 42 13 9a 5a 42 a5 c2 e9 41 f7 d9 30 42
       38.816776 54.650463 29.220041 44.212856
0000b0 35 5e 41 42 b9 a0 24 42 87 33 4a 42 67 98 51 42
       48.342 41.156956 50.55032 52.39883
0000c0 6b 23 69 41 27 c8 93 41 0b bb 4a 42 50 19 96 41
       14.571147 18.47273 50.68266 18.76236
0000d0 2f 81 32 42 01 94 ab 41 fb e5 a9 41 31 be 35 42
       44.626156 21.447268 21.237295 45.435734
0000e0 08 c9 0a 42 db e3 14 42 5f ae da 41 6c 11 2a 42
       34.69632 37.222515 27.335142 42.517014
0000f0 e1 5c 30 41 71 83 8a 41 fb b2 2c 42 ba 83 e1 41
       11.0226755 17.31418 43.174786 28.18932

res_blocks.0.linear1.weight f4 [64, 64]
000000 3a 26 0b bf 21 c0 3f bb cb ef 89 3d 0b fa 4e bd
       -0.54355204 -0.0029258805 0.0673519 -0.05053143
000010 7d 2e fb 3c 1f 56 bf bd 8e 6f 67 bf cf 7c c0 bf
       0.030661816 -0.09342598 -0.90404594 -1.5038089
000020 a3 2e 03 bf 42 65 e2 ba ea c7 62 3e cb 84 b8 bf
       -0.51243037 -0.0017272609 0.22146574 -1.4415525
000030 3b c6 a0 3c 91 db c9 bd 99 33 f8 bb 60 d5 47 bd
       0.019625774 -0.09856332 -0.0075745103 -0.048787475
000040 1a a2 d9 3e 02 e3 44 be 62 7c 4e 3d 8e 44 f2 3d
       0.42506486 -0.19227222 0.05041159 0.11829482
000050 a8 03 2a bf 1e 99 a2 bd 37 2e 5d bf 64 5d fd bd
       -0.6641183 -0.07939361 -0.86398643 -0.123713285
000060 a2 f1 20 bf 67 fe 78 3d 13 87 d2 bd 98 bb 35 3e
       -0.628687 0.060789492 -0.102796696 0.17747343
000070 38 dc 96 3d 75 b3 86 be a0 3a 09 bd 79 5e 80 bd
       0.07366222 -0.2630879 -0.033503175 -0.06268019
000080 66 a3 28 3e 6f a8 06 be 19 a0 e9 bd 13 dd 1e 3c
       0.16468582 -0.1315019 -0.11407489 0.009696263
000090 0b 69 0f be 87 87 f8 bc 8b 83 77 bd 56 e5 31 be
       -0.14004914 -0.030338062 -0.060428184 -0.17372641
0000a0 66 de 80 bd b8 d5 5c 3e 22 fd f1 bd b9 8c 12 bf
       -0.06292419 0.21565902 -0.118158594 -0.57245976
0000b0 0b 23 17 3e b4 1c 6e be 21 1f ac be 49 00 cb bf
       0.14759462 -0.23253137 -0.336175 -1.5859462
0000c0 e0 33 14 be 15 8b a8 3d 6b 80 ae bf 7f 0c e7 bd
       -0.14472914 0.08229653 -1.363294 -0.1128168
0000d0 2e 20 5f bf e3 f5 47 bd 1a 1b fe 3b 94 44 fd be
       -0.8715848 -0.04881848 0.0077546956 -0.49466383
0000e0 db c0 4d be 10 cb 99 be 06 e3 8b bd c5 a6 5a 3e
       -0.200931 -0.30037737 -0.06830411 0.2135268
0000f0 a5 bd 9f bd 47 f2 d7 3d 41 ff a1 3d 51 83 72 bc
       -0.07799844 0.105442576 0.07910014 -0.014801816
000100 ab 6b aa be 04 15 5e 3e eb 00 b9 bc 0f 41 32 3e
       -0.3328527 0.21687704 -0.022583446 0.1740763
000110 7a 8f 64 3e 5a 87 15 be ee fb f5 bd ea 29 90 be
       0.22320357 -0.14602414 -0.120109424 -0.28156978
000120 7e 11 de bd 98 64 11 3e b7 eb 2f 3d 46 40 72 bd
       -0.1084318 0.1419853 0.042949405 -0.059143327
000130 13 17 4a 3e ef b0 57 3d cc 07 c7 3d 48 c9 10 3e
       0.19735365 0.05265897 0.09718284 0.14139283
000140 5d 95 35 3e 16 3f 6f be b4 29 2f bc 73 b8 f3 3d
       0.17732759 -0.23363909 -0.010691095 0.11900415
000150 a0 42 00 be e5 9e fa bc 29 76 0f bd 70 b8 01 3e
       -0.12525415 -0.030593345 -0.035024796 0.12668014
000160 41 38 ad bd 22 98 28 3d a7 d1 09 3c be 85 61 3e
       -0.08457995 0.04116071 0.008411801 0.22023675
000170 1c a0 01 3e b8 cc c1 be a5 1c 28 3e cc cd 9a 3d
       0.12658733 -0.378515 0.16417177 0.07558784
000180 81 12 68 3e 9a ba 1c 3e ca 7d 2e 3e b2 88 fa 3d
       0.22663309 0.15305558 0.17040172 0.12233104
000190 23 ec 31 3e 4f 98 28 bd a7 76 44 3d f4 0b 01 bf
       0.17375235 -0.041160878 0.04796472 -0.50408864
0001a0 ba 97 39 be ba 2c 19 3e fa 63 06 3e c6 9e 0e be
       -0.18124285 0.14958468 0.13124076 -0.13927755
0001b0 45 7c 86 3e 91 62 53 be 8a 46 fa bd 4c d5 3a be
       0.26266685 -0.20643069 -0.122204855 -0.18245429
0001c0 ed c2 ca 3c a7 63 5f 3d 8e 73 b4 bd 69 35 9b bd
       0.024751151 0.054538395 -0.08811103 -0.075785466
0001d0 b4 f2 0b bd 3f 24 1b 3e 03 86 22 3e 4c 65 eb bd
       -0.034167007 0.15150546 0.15871434 -0.1149393
0001e0 1c fa 95 be 05 0a 6a be e3 20 0c 3e 37 22 0b 3e
       -0.2929238 -0.22855385 0.1368442 0.1358727
0001f0 e7 55 90 bc e6 ba fc 3c ea 95 72 3e 58 75 8c bd
       -0.017619086 0.030850839 0.2369 -0.06858319
000200 29 1a 1b bf fc 06 4f bc 94 bf 68 bc 42 e4 94 3c
       -0.6058679 -0.012635943 -0.014205832 0.018175248
000210 a6 be e5 bc 96 e3 74 be 75 94 87 bf 37 72 b3 bf
       -0.02804501 -0.23914942 -1.059218 -1.4019231
000220 72 13 68 be ef dd e1 3c 64 b4 71 3e ab 00 9c bf
       -0.22663668 0.027571646 0.2360397 -1.2187704
000230 a0 5d 66 be da 9f 6e bd a1 a4 93 bd e1 03 da 3d
       -0.22496653 -0.058257915 -0.07209135 0.10645271
000240 fb 13 b2 3e 52 3d 5f be 08 25 84 3d 38 06 97 3c
       0.3478087 -0.21800736 0.06452376 0.018435583
000250 fc 7e 37 bf cf 91 5a bd 33 fe 02 bf 13 ad 5a bd
       -0.7167814 -0.05336171 -0.5116913 -0.053387713
000260 c2 15 a5 be 63 5b 5b 3d e8 6f 09 bd ec 7f 73 3d
       -0.32243162 0.05355395 -0.033553988 0.059448168
000270 3a 8d 85 bd 14 90 e1 bd 3c db 04 be 05 3f fc 3b
       -0.065210775 -0.11013809 -0.12974256 0.007697942
000280 82 3c 77 3e c8 45 ab bd 61 cf 51 bd 1a a5 92 bd
       0.24144176 -0.08362919 -0.051223163 -0.07160397
000290 c2 7e 6c bd 7b 91 78 bd ac e0 02 bd ea 75 9d be
       -0.057738073 -0.060685616 -0.031952545 -0.30754024
0002a0 fd 9b 98 bd 6f d4 32 3e 02 d5 56 bd ea f5 a8 be
       -0.074516274 0.1746385 -0.052449234 -0.33000118
0002b0 c4 b3 75 3d 23 56 a9 be a5 d3 a5 be 45 9e ab bf
       0.05998589 -0.3307353 -0.32388034 -1.3407675
0002c0 92 98 ca 3c 58 63 f1 bd 13 bb c2 bf a6 18 b1 be
       0.024730954 -0.117865264 -1.521334 -0.34589118
0002d0 e8 3d 88 bf 5d 38 e6 3c 3e 77 5e bd 04 ad 08 bf
       -1.0643892 0.028103048 -0.054312937 -0.53389
0002e0 ff d7 8e be b3 c3 6a bd c8 1c 07 bd 77 65 28 3e
       -0.27899167 -0.05731554 -0.032986432 0.16444956
0002f0 37 22 41 3d 52 6b e2 bd c7 95 a7 3d 59 f6 c7 3c
       0.04715177 -0.11055626 0.08182865 0.02440946
000300 fc a6 6a be 4f d9 1a 3f 5e bb 76 3d f6 29 d2 3e
       -0.22915262 0.60487837 0.06023728 0.4104764
000310 90 c3 f1 3e c8 86 82 bd 10 00 bf 3e 4d 96 34 3e
       0.47219515 -0.06373364 0.37304735 0.1763546
000320 ea 36 f6 3d e3 c3 59 bc ac 44 b5 be 50 b1 50 3d
       0.12022193 -0.013291332 -0.35403955 0.05095035
000330 22 21 31 3f 26 9d cb bd 4c a1 5e bc bf b7 97 be
       0.6919118 -0.09942083 -0.013588261 -0.29632375
000340 93 e1 9f be 93 69 1e 3d 77 b8 8c be 57 ec 3c be
       -0.31226787 0.038674902 -0.27484486 -0.18449531
000350 20 19 a1 3e 06 1e 5d be 6b b2 90 3d 5f 19 6b 3c
       0.3146448 -0.21593484 0.070652805 0.014349311
000360 05 68 84 3d 51 26 61 be 72 74 d0 3e 57 d0 62 3e
       0.06465153 -0.21987273 0.4071384 0.22149788
000370 54 2f 8d 3e 1d 84 86 3e dc 6e 6d 3e c0 18 46 be
       0.2757517 0.2627267 0.23186821 -0.19345379
000380 f5 25 20 be 93 4a ac 3d 1f eb 8d 3c b5 5d c8 be
       -0.1563948 0.084126614 0.017324029 -0.39133993
000390 91 a7 61 be e3 6d 40 3d 04 ee fe 3d 48 bf 46 be
       -0.22036578 0.046979796 0.12447742 -0.19408906
0003a0 23 4d a2 ba 73 11 3b be fb 31 39 3e b3 68 45 3d
       -0.0012382608 -0.18268375 0.18085472 0.048195552
0003b0 d8 ab 66 be 0c 31 2f 3d a3 5d fd 3d 91 8c 15 3e
       -0.2252649 0.042771384 0.123713754 0.14604403
0003c0 ac e9 b2 3e f4 2e e1 3d b7 db 2d 3e 0b 54 1e 3e
       0.34943902 0.10995284 0.16978346 0.15461747
0003d0 28 06 a9 3e f4 f3 f5 3b cb 6e 72 bc 8f 72 11 3e
       0.3301251 0.007505888 -0.014796923 0.14203857
0003e0 92 48 28 3e 5b 1c 15 3e 35 6a b3 3e 4c 94 71 3d
       0.16433933 0.14561598 0.35041967 0.058979318
0003f0 a6 bf 1c be 07 9e 80 3c ce 5e 0e 3e 3f 33 9b bd
       -0.15307483 0.015700353 0.13903353 -0.07578134

res_blocks.0.linear1.bias f4 [64]
000000 96 23 f9 bd d7 d4 02 3f ae 5f c0 3e 20 25 52 3e
       -0.121649906 0.5110602 0.37572998 0.20521975
000010 b0 a4 4f 3d 8e ca 4d 3d c5 f1 00 3e 79 51 a1 3e
       0.050694168 0.050242 0.12592228 0.3150747
000020 c8 a9 62 3d 28 48 20 be ab d0 cc 3e 6b 27 95 be
       0.055337697 -0.15652525 0.4000295 -0.29131636
000030 42 fc 99 bb d8 8b 11 3e 34 94 8e bd b0 d0 2a bd
       -0.004699261 0.14213502 -0.06961861 -0.041702926
000040 b0 6a b4 b9 b8 93 af bc 26 9f 75 be a6 1c 7f 3e
       -0.00034411764 -0.021432742 -0.23986492 0.24913272
000050 81 66 3c 3e 79 c5 10 bd d1 4e b7 3e 5d ba 03 be
       0.18398477 -0.035344575 0.3580232 -0.1286406
000060 78 68 72 3e 18 e4 6a 3d bd e6 05 be 1f d7 54 3e
       0.23672664 0.057346433 -0.13076301 0.20785187
000070 bb ea 56 3e 7c 05 9d be cc c5 a3 bd 12 dc c7 bd
       0.2098798 -0.30668247 -0.07996711 -0.09758772
000080 9b 2c 5b 3e 02 5d 79 3d 83 d7 d5 bd 6a a3 0f 3d
       0.21403734 0.060879715 -0.10441496 0.035067953
000090 fc ed 8d be 89 d5 30 bd d3 d1 5c 3e df 5b 4b 3e
       -0.2772063 -0.043172393 0.21564417 0.19859265
0000a0 e0 c4 6d 3e af 30 7e 3e b3 89 b3 bd 23 42 01 3e
       0.23219633 0.24823259 -0.087664984 0.12622885
0000b0 49 5d 9e bd c1 fd d2 3e 0b 93 0a be 72 ef f0 bd
       -0.077326365 0.41209224 -0.13532655 -0.117644206
0000c0 21 34 8f be 7b 13 3e be 2c 91 e5 3d 67 13 47 3e
       -0.2796946 -0.18562119 0.1120933 0.19440995
0000d0 3b 26 9d 3c 48 3d bc 3e 8b 50 03 bc 6e 66 8b 3e
       0.019183269 0.36765504 -0.008014808 0.27226585
0000e0 c4 d7 5a 3e b1 88 62 3e a5 9f 44 3e 66 26 0b 3f
       0.2137137 0.22122456 0.19201525 0.54355466
0000f0 59 2d 1d 3c 6a 7f 9d 3e b8 01 03 3e 25 47 9a bd
       0.009593331 0.30761272 0.12793624 -0.07533101

res_blocks.0.bn1.weight f4 [64]
000000 a5 1a 2d 3f a3 88 29 3c 6e aa 21 3f 36 49 a3 3e
       0.6761878 0.010347518 0.6315068 0.31891793
000010 e2 b5 0a 3f e4 40 24 3f 29 5e c6 3e 61 92 6b 3e
       0.5418378 0.64161515 0.38743713 0.23005058
000020 54 ec 1d 3f b6 43 97 3e 88 fa 23 3f a1 ab 23 3f
       0.61688733 0.29543847 0.64054155 0.6393376
000030 c9 d3 12 3f ea 6d 3d 3f 60 ad 39 3f 60 9a 8d 3e
       0.5735441 0.7399584 0.72530174 0.2765684
000040 cb b3 19 3e 6e ec 1c 3f c8 90 d9 3e 52 55 17 3f
       0.15009992 0.61298263 0.42493272 0.59114563
000050 c6 50 2b 3f 9a f8 2a 3f 35 4f a0 3d ac c0 10 3f
       0.66920125 0.66785586 0.078276075 0.56543994
000060 8d dd 23 3f da 4e 44 3e a2 5b 85 3e f4 93 21 3f
       0.64009935 0.19170704 0.26046473 0.63116384
000070 ec db a1 3d d6 a2 28 3f 37 06 d9 3e 5d 5c 10 3f
       0.07903275 0.6587347 0.42387554 0.56390935
000080 5a 34 0f 3e 9b ac 0f 3f ad ab b9 3e 71 03 25 3f
       0.13984814 0.5612275 0.3626379 0.64458376
000090 57 70 15 3f 87 1f d5 3e 3b 44 3c 3d b0 4a 37 3e
       0.5837454 0.41625616 0.045963507 0.17899585
0000a0 ed 79 a8 3e 96 d7 6f 3e a3 6b ce 3b d6 60 8a 3e
       0.32905522 0.23422083 0.0062994524 0.27027005
0000b0 f2 38 2b 3f 28 67 15 3f b2 1f 80 3e 58 24 c3 3e
       0.66883767 0.5836053 0.25024182 0.38113666
0000c0 b9 be 77 3f 2d e6 d2 3e 58 72 0f 3f b8 bd 78 3e
       0.96775395 0.41191235 0.5603385 0.24291122
0000d0 ab 63 13 3f 3d b4 82 3e e0 81 35 bb 95 61 1a 3f
       0.57573956 0.25528136 -0.002769582 0.6030515
0000e0 b9 59 5f 3e 82 01 28 3f f0 61 1c 3f 44 ca 1e 3f
       0.2181157 0.656273 0.6108694 0.6202738
0000f0 1d f6 2d 3f c6 8f 20 3e e6 d5 09 3f cd f3 14 3f
       0.67953664 0.15679845 0.5384201 0.5818451

res_blocks.0.bn1.bias f4 [64]
000000 bb ba 75 bf 0e 5b 26 3f 76 9f 68 bf 9d d5 39 3e
       -0.95988053 0.6498269 -0.9086832 0.18147893
000010 f4 86 4a bf 28 8d 17 bf 48 2f 0e bf 5b 9c f2 be
       -0.7911217 -0.5919976 -0.55540895 -0.47384915
000020 e2 74 37 bf c8 a8 08 be ac 01 4b bf 34 5a 3d bf
       -0.71662724 -0.13345635 -0.79299426 -0.73965764
000030 e3 3f 29 bf ae ff 70 bf ef 73 4a bf 23 34 03 3f
       -0.6611311 -0.94140136 -0.7908315 0.5125143
000040 60 11 9b bd 31 81 2e bf 85 ae 06 bf a8 41 33 bf
       -0.075716734 -0.6816588 -0.52610046 -0.7002206
000050 25 f0 65 bf a6 ce 4a bf 96 74 79 be 85 20 88 bf
       -0.89819556 -0.7922157 -0.2436088 -1.0634924
000060 de da 41 bf a7 17 8d be d9 d4 81 be 23 d8 57 bf
       -0.7572459 -0.27557108 -0.25357702 -0.84314173
000070 6f 3a 79 be 04 f0 47 bf a3 d7 cb bd 04 a3 f3 be
       -0.24338697 -0.7810061 -0.09953239 -0.4758531
000080 10 fb 62 be 6d 4d 67 bf ce 8d 50 3f f1 8f 5e bf
       -0.22166085 -0.9035252 0.81466377 -0.8693839
000090 b7 78 32 bf fd 6f 2f bf 41 d0 44 be 3d d5 cf 3e
       -0.69715446 -0.68530256 -0.19220068 0.40592375
0000a0 e1 b4 b2 be e5 dd 65 be 94 26 80 3e 79 76 97 be
       -0.34903625 -0.22447927 0.25029433 -0.29582575
0000b0 85 2e 3d bf 4b e8 2c bf 23 84 41 3e d5 33 fb be
       -0.7389911 -0.6754195 0.18898062 -0.49062982
0000c0 75 5c a2 bf b1 23 0e bf 9c 74 3d 3f 68 2a ce be
       -1.2684466 -0.5552321 0.74006057 -0.40266728
0000d0 c8 e2 7b bf c5 c3 05 bf c4 7c e9 3d fe 3d 74 bf
       -0.98392916 -0.52251846 0.1140075 -0.9540709
0000e0 40 dc c8 be ab f9 46 bf 4c 0a 39 bf f2 ba 3f bf
       -0.39230537 -0.77724713 -0.72281337 -0.7489463
0000f0 11 7b 4d bf c5 d4 86 be 0f 6e 32 3f 95 57 30 bf
       -0.8026591 -0.26334205 0.69699186 -0.6888364

res_blocks.0.bn1.running_mean f4 [64]
000000 b2 12 8e c3 b5 45 00 42 24 8b 8d c3 89 a1 a4 42
       -284.14606 32.068073 -283.08704 82.3155
000010 a7 a5 85 c3 24 fb df c2 2e 4c 9b c3 48 1b d4 c2
       -267.29416 -111.99051 -310.59515 -106.05328
000020 dd 7d f9 c2 d5 0a 9c c2 cd 5f a3 c2 0f c2 5b c3
       -124.74583 -78.02116 -81.68711 -219.75804
000030 43 4a 3b c3 80 12 65 c3 00 41 73 c3 05 cb 71 43
       -187.29008 -229.07227 -243.2539 241.79305
000040 de 78 9c 42 b7 f3 53 c3 4c ef a4 c1 ef 5d 66 c3
       78.23607 -211.95201 -20.616844 -230.36693
000050 c6 a9 7a c3 1c 22 6e c3 66 c2 26 c3 27 26 8a c2
       -250.66318 -238.13324 -166.75937 -69.07452
000060 19 e7 46 c3 31 8c 42 c3 59 23 25 c2 7e d3 4a c3
       -198.90273 -194.54762 -41.28452 -202.82614
000070 c0 37 1c c3 b9 c1 72 c3 2e 32 5b 43 6f be 08 c3
       -156.21777 -242.75673 219.19601 -136.74388
000080 16 28 93 c3 0d 04 a1 c3 e0 62 8a 43 a5 fb 36 c3
       -294.31317 -322.03165 276.77246 -182.98299
000090 fa f3 55 c3 01 db 4e c3 92 f7 13 c3 de 99 2a c1
       -213.95303 -206.85548 -147.96707 -10.662565
0000a0 b0 24 77 c3 73 d3 1f c3 6c f4 f1 c2 de ce b8 c2
       -247.14331 -159.82597 -120.97739 -92.40404
0000b0 ee a3 5e c3 42 2e 5a c3 93 25 a7 43 f1 38 0a c3
       -222.64035 -218.1807 334.29355 -138.22243
0000c0 51 59 dc c2 88 a5 a6 c2 85 2c f1 42 3c c0 ef c2
       -110.174446 -83.3233 120.58695 -119.87546
0000d0 de f4 0b c3 d2 bc 45 c3 11 65 67 c2 8f 1c 9e c3
       -139.95651 -197.73758 -57.848698 -316.2231
0000e0 43 07 4f c3 e9 6e 51 c3 e3 4d 5e c3 f3 07 de c2
       -207.02837 -209.43324 -222.30424 -111.015526
0000f0 3f a1 60 c3 cb 80 87 42 b5 b0 54 42 a8 ba 0f c3
       -224.62987 67.75155 53.172565 -143.72913

res_blocks.0.bn1.running_var f4 [64]
000000 03 c5 04 46 7b b2 34 45 5b 31 04 46 bd 6f 2f 44
       8497.253 2891.155 8460.339 701.7459
000010 2a 9c 1b 46 ab e3 16 46 99 7c 3c 46 b8 2b b7 45
       9959.041 9656.917 12063.149 5861.465
000020 2f be da 45 f4 03 83 46 c1 c8 4c 44 60 9a 8e 46
       6999.773 16769.977 819.1368 18253.188
000030 c6 1f 2a 46 ed 79 8a 45 f1 41 4f 46 e6 eb da 44
       10887.943 4431.2407 13264.485 1751.3718
000040 53 e3 21 47 39 e3 2b 45 83 24 bf 46 ff d1 8d 46
       41443.324 2750.2014 24466.256 18152.998
000050 5c 7f 8f 45 29 db 85 46 6a e9 ae 44 ac 7d 9e 45
       4591.92 17133.58 1399.2942 5071.709
000060 5a 69 50 46 48 d4 65 46 96 26 f3 45 1e d2 5b 46
       13338.338 14709.07 7780.823 14068.529
000070 7e 5a 67 45 54 21 8c 46 c8 2c 97 46 3c 8a 23 45
       3701.6558 17936.664 19350.39 2616.6396
000080 80 71 e3 44 d3 7f 6a 46 8f 1b 00 46 c3 e6 19 46
       1819.5469 15007.956 8198.89 9849.69
000090 32 4c 72 46 b1 2e a7 46 46 62 4e 45 72 f4 66 45
       15507.049 21399.346 3302.142 3695.2778
0000a0 68 b5 24 46 4b e4 25 46 e3 3c 85 46 ef 02 04 46
       10541.352 10617.073 17054.443 8448.733
0000b0 59 d6 91 46 ca 7b 64 46 a3 86 05 45 40 b7 c5 45
       18667.174 14622.947 2136.4148 6326.9062
0000c0 e6 f5 8e 45 7f f9 cf 44 b9 b8 02 46 dc 2c 36 44
       4574.7373 1663.7968 8366.181 728.7009
0000d0 67 11 81 44 86 b8 3b 46 49 1b 80 45 5c d7 50 46
       1032.5438 12014.131 4099.4106 13365.84
0000e0 3b 1f aa 46 80 c5 71 46 99 2b 6c 46 d9 6c ea 44
       21775.615 15473.375 15114.899 1875.4015
0000f0 6e 52 84 46 ef b6 d5 43 49 76 b6 45 14 38 16 46
       16937.215 427.42917 5838.7856 9614.02

res_blocks.0.linear2.weight f4 [64, 64]
000000 9a 1e 05 bf c5 b2 e1 bd de 7b e7 be 87 e0 22 bd
       -0.5199982 -0.11020426 -0.4521169 -0.039764907
000010 8f dc 22 bf 63 15 3e 3c 42 c2 7a 3e 92 d6 7d 3d
       -0.63617796 0.011601779 0.24488166 0.06197221
000020 ac f8 ab 3d 24 25 1b 3d 2b 97 82 bf 90 5f 3b 3e
       0.0839704 0.037877217 -1.0202383 0.18298173
000030 35 dd 81 3e d4 e3 68 bf e7 58 45 3e de 9f 76 3d
       0.2536408 -0.9097264 0.19272195 0.060211055
000040 5a fe de 3d 43 0e 41 3e 59 f6 0b bd 86 c4 8a 3e
       0.108883575 0.18853097 -0.034170482 0.2710306
000050 07 e8 25 bf f8 6c 2f 3e 1a a1 12 3d 93 a1 7f bf
       -0.6480717 0.17131412 0.03579817 -0.9985592
000060 a5 18 0c 3e 74 d8 10 be 21 4b e9 3c a0 a8 2a bf
       0.13681276 -0.1414507 0.028478207 -0.6666355
000070 4e d8 f4 bb 5d 77 1d 3e 7d 77 13 3c d9 d7 9c ba
       -0.0074720746 0.15377565 0.009000656 -0.0011966183
000080 81 42 3f 3e 7b 84 a4 be bd e6 16 3d 3e 90 26 bf
       0.18677713 -0.32132325 0.036841143 -0.65063846
000090 66 c5 07 3e 41 7e b5 be 23 a7 4f 3d ba 48 0b bd
       0.13258895 -0.35447887 0.050696503 -0.034004904
0000a0 d5 80 18 3e 8e 40 3b be af 17 4c 3e 3b 14 3d 3e
       0.14892896 -0.18286344 0.1993091 0.18464749
0000b0 a5 a0 90 3e 28 4e 9b 3e 5a 54 61 be 3b b6 c3 bd
       0.28247562 0.30333066 -0.22004834 -0.09556242
0000c0 47 7c 37 be 6b 85 51 be f1 25 e4 bd 31 1c 46 3f
       -0.17918502 -0.20461051 -0.11140049 0.77386767
0000d0 a9 5e 75 3f 1c 62 d7 3d b0 9b 75 bd 3e 48 14 3e
       0.95847565 0.1051676 -0.05996293 0.14480683
0000e0 94 83 79 3d b9 f0 92 3e 59 5a 46 3e 77 c3 56 3e
       0.0609165 0.28699282 0.19370402 0.20973001
0000f0 76 ec 85 3e 7b be 17 3e d0 2a 01 3d f2 d3 a3 3e
       0.26156968 0.14818756 0.03153497 0.3199764
000100 05 51 d4 3c 87 70 13 3c ff 5b 79 bd 53 c2 3a 3c
       0.02591754 0.008998997 -0.06087875 0.01139887
000110 d1 31 3d bd b2 f6 58 bd 09 7e 8b 3c 38 63 b3 bc
       -0.046190087 -0.052969642 0.017027872 -0.021897897
000120 00 45 70 bd 66 21 5b bd 3e 41 40 3e ee a7 c9 bd
       -0.058659554 -0.053498648 0.18774888 -0.09846483
000130 5e f6 62 be cd e0 ef 3d de 91 cc bc d2 77 ba bd
       -0.22164294 0.11712799 -0.024971899 -0.09104885
000140 ab ee 7d 3d 37 4a 62 bd d3 85 a3 3d 21 0f d6 be
       0.06199519 -0.055246558 0.07984509 -0.41808417
000150 37 27 bb 3d 27 26 dd be 91 ee 08 3d 73 41 48 3d
       0.09138339 -0.4319317 0.03343064 0.048890542
000160 5a 1b e1 be 52 ee 65 3d 8f 1f 94 bd 24 f5 a2 3e
       -0.4396618 0.056135483 -0.07232582 0.31827652
000170 28 8f da 3c a5 bf 02 bf ae 12 cc 3c ea b2 97 bb
       0.02667959 -0.51073676 0.02491125 -0.0046294825
000180 34 22 c8 3c a2 c9 c0 bd 3f 40 86 be a4 6f b7 3e
       0.024430372 -0.094134584 -0.2622089 0.35827363
000190 ff 67 d6 be f6 22 03 be 43 92 8b 3d 6e 7d bc 3d
       -0.41876218 -0.12806305 0.068150066 0.09203611
0001a0 0f 44 08 bc 97 96 4b bb 8a 41 3b bd 37 72 20 bd
       -0.008317008 -0.00310651 -0.0457168 -0.039171424
0001b0 b0 66 10 be 69 17 db be a4 e2 b3 3d d8 01 df 3e
       -0.14101672 -0.42791298 0.08783463 0.43556094
0001c0 d7 95 7f 3f 45 5c 25 3e ec a9 10 3e 6b cb 6f be
       0.9983801 0.1614848 0.1412732 -0.23417442
0001d0 fc 58 24 be 6b 3d b0 bc ff ad 06 bd 52 a6 45 3c
       -0.1604957 -0.021513661 -0.03288078 0.01206358
0001e0 95 4b 9f bd 78 9a 07 bf 51 8c db be 9a b1 fc 3d
       -0.07778088 -0.52970076 -0.4288049 0.12338562
0001f0 d2 a7 12 bf 1d c7 c8 3c 73 62 f9 3d 40 22 3a bc
       -0.57287323 0.024509007 0.12176981 -0.011360705
000200 e1 ff f0 3d 63 b0 ef bc c0 88 d9 3c e8 0f 07 bd
       0.11767555 -0.029258912 0.026554465 -0.032974154
000210 b4 d1 e7 bc a8 aa a1 3d c5 bc 10 3d 86 2d d5 bb
       -0.028298236 0.07893878 0.035336275 -0.006505671
000220 6d 30 4f 3e ed d9 80 3d 7f 38 42 3e ad 88 c8 be
       0.20233317 0.06291566 0.18966864 -0.39166775
000230 85 ef 18 bd 43 04 33 3e 03 e6 a8 3d f3 e9 15 be
       -0.0373378 0.17482094 0.08246996 -0.14640026
000240 d4 33 60 be b7 3e b4 3c e9 21 c1 bd 33 b4 1e bf
       -0.21894771 0.022002561 -0.09430296 -0.6199371
000250 8c 87 09 3e c0 2b ff be d5 49 0c 3c c4 ca a4 3e
       0.13430613 -0.49838066 0.008562525 0.32185948
000260 b4 55 17 bf 32 3b 9f bd 6d 3b ee bd ae 7f a1 3f
       -0.5911515 -0.077749625 -0.11632428 1.261709
000270 f0 4d 22 3d df 4b 4b bf a9 f5 e4 bb f7 d6 4f 3d
       0.03962511 -0.79412645 -0.006987293 0.050742116
000280 0b 20 a3 bd 80 6e 22 bd 1b 55 48 be f8 eb 84 3f
       -0.07965096 -0.039656162 -0.19563715 1.0384512
000290 af c5 50 bf 62 55 9b 3d c1 6d ef bb bc 47 31 3d
       -0.8155164 0.07584645 -0.007306785 0.0432813
0002a0 c5 46 e9 bd 74 a1 aa bd 90 28 07 bc 60 99 28 bd
       -0.11390451 -0.08331576 -0.008249417 -0.041161895
0002b0 ac 55 66 be aa 22 ef be 77 e8 47 3d 13 69 dc 3e
       -0.22493619 -0.46706134 0.04880568 0.43048915
0002c0 22 60 4c 3f c1 f1 9f 3f 5c 6b 2a 3e 9b 4f 6b be
       0.7983419 1.2495652 0.16642517 -0.22979586
0002d0 cb 99 87 be 53 79 fd bd cf e7 c6 3c f0 49 b8 bd
       -0.26484522 -0.123766564 0.024280457 -0.089984775
0002e0 be 84 5d bd da fb 1c bf 9c 4f 2b bf 08 5b c6 3d
       -0.05408167 -0.61321795 -0.6691835 0.096853316
0002f0 9d 87 40 bf bd 56 43 bd 2b d8 25 3d 75 81 01 3e
       -0.7520693 -0.047690142 0.040489357 0.1264704
000300 c9 e6 0c 3d 11 40 b6 3c c4 33 0e 3d 37 da 7c bb
       0.03439978 0.022247346 0.034717336 -0.0038582215
000310 70 b4 b8 bd 47 f9 b8 bc ae 7a 29 bb 98 c4 c5 bb
       -0.09018791 -0.022579802 -0.0025860476 -0.0060353987
000320 69 32 24 3e 04 fd 99 bc d0 98 57 3e 2d 38 c6 be
       0.16034855 -0.018797405 0.21054387 -0.38714734
000330 f1 7b 52 3e 3a 29 8f 3e e2 37 53 3d 1b db ea bd
       0.20555092 0.2796114 0.051566966 -0.11467572
000340 c2 ca 0b be 7a 22 ba bd a1 a1 db bc 86 d8 dc be
       -0.13651565 -0.09088607 -0.02681047 -0.43133944
000350 20 40 d6 3d a9 0d 4d bf 1b 60 e0 3c 1b 2d d6 3e
       0.104614496 -0.8009897 0.027389577 0.41831288
000360 eb 67 0a bf ec 11 99 bc 2c 88 d5 3c 85 8d cc 3f
       -0.54064816 -0.018685304 0.026065908 1.5980688
000370 cf 8f 72 bc b3 7f 77 bf a0 6c 56 bd 0c d7 d4 3c
       -0.014804794 -0.9667923 -0.052349687 0.025981449
000380 b4 8f b8 bd 98 67 e7 bd dc 52 57 be aa d6 8f 3f
       -0.09011784 -0.11299056 -0.21027702 1.1237385
000390 13 c5 4f bf f7 2b 81 bd 06 1d c6 bb ea bf b6 3c
       -0.81160086 -0.06307214 -0.0060459403 0.022308309
0003a0 f3 29 f8 bd 1b 85 b1 bd 40 6f 7a bd 24 09 fd 3d
       -0.12117376 -0.08667966 -0.061141253 0.12355259
0003b0 e4 76 34 be 49 08 8c be 61 63 16 3d cd ea 0b 3f
       -0.17623478 -0.2735007 0.03671587 0.5465515
0003c0 6b 69 1c 3f 2a 10 a9 3f b3 45 2b 3e de 66 6d be
       0.61098355 1.3208058 0.16725807 -0.23183772
0003d0 35 8f 01 bf 53 a9 c2 bd f8 d6 9a bc b4 8d 53 3d
       -0.5060914 -0.09504952 -0.018901333 0.05164881
0003e0 30 8c e9 bd 5b e9 42 bf 70 22 1a bf 05 cc 04 3e
       -0.11403692 -0.7613732 -0.602088 0.12968452
0003f0 ec a2 55 bf c7 5f 9f bd 0e 15 71 3d 7d 31 51 3e
       -0.83451724 -0.0778194 0.05885797 0.20429035

res_blocks.0.linear2.bias f4 [64]
000000 01 72 05 c1 f1 01 bf 40 20 6e 1b 41 8c ff 1a 41
       -8.340333 5.968987 9.714386 9.687389
000010 79 0c 28 41 34 79 be c0 27 75 0a c1 3f 14 e0 c0
       10.503045 -5.9522953 -8.653602 -7.0024714
000020 78 e8 d3 c0 96 32 19 41 f7 f9 0f c1 51 d0 f2 c0
       -6.6221275 9.57485 -8.998527 -7.5879292
000030 27 48 94 40 c3 3c aa 40 be d5 c1 40 93 32 22 41
       4.6338077 5.319917 6.0573416 10.137347
000040 34 6d 03 c1 7f b8 b0 c0 b8 a3 e0 40 11 7b cf 40
       -8.214161 -5.5225215 7.019985 6.4837728
000050 7b 6d d6 c0 9c ee c6 40 f3 6e bb c0 b0 1e 14 c1
       -6.7008643 6.216627 -5.8572936 -9.257492
000060 e5 1b 0d c1 bd 47 05 41 39 f3 fc 40 aa c1 17 c1
       -8.81931 8.330014 7.9046903 -9.484781
000070 3a f2 11 c1 d0 11 13 41 ad 1b c7 40 ea 9e 00 41
       -9.121637 9.191849 6.2221284 8.038797
000080 a2 15 12 c1 93 95 1d c1 a8 85 12 41 f1 8f fc 40
       -9.130281 -9.849017 9.157631 7.892571
000090 ee 20 05 41 75 23 28 41 3f 84 b6 40 6d a5 ec c0
       8.320539 10.5086565 5.7036433 -7.3951936
0000a0 ed 25 cc c0 5d 5b 10 c1 31 7b bf 40 0b 6c d4 c0
       -6.3796296 -9.0223055 5.983788 -6.638189
0000b0 6f 70 02 c1 6b 2a d4 c0 07 6a bc c0 81 68 08 c1
       -8.15245 -6.630178 -5.887943 -8.525514
0000c0 41 f2 17 41 31 16 e3 40 ed a2 0b c1 85 c6 12 c1
       9.496644 7.096459 -8.727277 -9.173467
0000d0 d8 1a 19 c1 d5 25 07 41 2e 4e db 40 01 54 d5 c0
       -9.569054 8.446736 6.8532934 -6.6665044
0000e0 7b 7a c0 c0 97 5a b6 c0 b6 44 cb 40 52 bc 0e c1
       -6.014951 -5.6985583 6.3521376 -8.920977
0000f0 11 78 19 41 bd 94 16 41 71 82 14 c1 3e 1d f1 c0
       9.591813 9.411313 -9.281846 -7.5348196

res_blocks.0.bn2.weight f4 [64]
000000 9d 22 0e 42 0a af cf 41 e3 a9 12 42 d7 42 13 42
       35.533802 25.960468 36.665905 36.815273
000010 0f 39 12 42 aa 33 f0 41 38 ef 10 42 42 46 06 42
       36.55572 30.025227 36.233612 33.56861
000020 53 ca f0 41 e1 17 13 42 c5 f0 12 42 34 2d 0f 42
       30.098791 36.77332 36.735126 35.794144
000030 1b de ca 41 8e 77 e7 41 e9 8f cd 41 e6 31 13 42
       25.35845 28.933376 25.695269 36.79873
000040 30 78 10 42 6a 7f dd 41 ff 9c ed 41 ca ef d3 41
       36.11737 27.687214 29.701658 26.492085
000050 f4 05 06 42 bf 99 da 41 36 fd ef 41 32 fc 13 42
       33.505814 27.325071 29.998638 36.996284
000060 0a ed 12 42 e2 3f 0a 42 5d cb 0d 42 2a e8 13 42
       36.731483 34.562386 35.448597 36.976723
000070 8e c1 10 42 98 d8 0f 42 54 5d da 41 41 8b 0c 42
       36.18902 35.961517 27.29557 35.13599
000080 01 38 14 42 66 5f 12 42 5a 22 13 42 08 72 10 42
       37.05469 36.593163 36.783546 36.11136
000090 98 ff 12 42 36 8c 13 42 57 2f cd 41 b6 98 0d 42
       36.749603 36.886925 25.648115 35.39913
0000a0 22 b0 f3 41 c5 6e 13 42 ec c1 c2 41 c4 0b 05 42
       30.461002 36.858173 24.344688 33.26149
0000b0 a2 f4 12 42 be fd 00 42 49 79 e7 41 c7 0d 10 42
       36.7389 32.247795 28.934221 36.013454
0000c0 ad af 11 42 70 d9 f6 41 c5 b6 13 42 ac ef 12 42
       36.42156 30.85617 36.928486 36.734055
0000d0 e1 25 14 42 fb 18 13 42 82 2b 02 42 f1 c9 09 42
       37.03699 36.774395 32.54249 34.44721
0000e0 80 38 e6 41 01 7e df 41 db 0c d3 41 3b 03 11 42
       28.777588 27.936525 26.381277 36.253155
0000f0 4a a1 12 42 d5 40 13 42 ac 05 14 42 0a bd 0f 42
       36.65751 36.813313 37.00554 35.93461

res_blocks.0.bn2.bias f4 [64]
000000 d4 7c 10 42 53 11 0c 42 df ea 11 42 09 61 12 42
       36.121902 35.01692 36.479366 36.59476
000010 a0 ac 11 42 54 c2 0f 42 ce 4c 11 42 bc 39 11 42
       36.41858 35.939774 36.325005 36.30638
000020 94 86 0f 42 ce 2c 12 42 60 04 12 42 60 1f 12 42
       35.881424 36.543755 36.504272 36.53064
000030 1b b5 0b 42 1b 00 0f 42 c6 18 0c 42 7a 42 12 42
       34.92686 35.750103 35.024193 36.56492
000040 64 f9 10 42 73 ca 0d 42 c6 d1 0f 42 8c b8 0c 42
       36.243546 35.447704 35.954857 35.18022
000050 e5 00 11 42 3d c4 0d 42 23 78 0f 42 7c 28 12 42
       36.250874 35.44164 35.86732 36.539536
000060 9e 25 12 42 fb dd 10 42 cf 9b 10 42 5e 51 12 42
       36.536736 36.216778 36.152157 36.57946
000070 b1 cd 10 42 1e 09 12 42 fe 3d 0d 42 d9 1b 11 42
       36.20087 36.508904 35.31054 36.277195
000080 82 4c 12 42 fb 9a 11 42 d0 f8 11 42 ce fa 10 42
       36.574715 36.40135 36.49298 36.244926
000090 87 35 12 42 9c 6b 12 42 29 ec 0b 42 79 ac 11 42
       36.552273 36.605087 34.980625 36.41843
0000a0 04 de 0f 42 e6 fa 11 42 58 8e 0a 42 ae 1b 11 42
       35.966812 36.495018 34.639008 36.27703
0000b0 d3 09 12 42 e9 b3 10 42 e7 04 0f 42 75 39 12 42
       36.509594 36.175694 35.754787 36.55611
0000c0 f7 6f 11 42 5e 6f 10 42 77 34 12 42 fb c8 11 42
       36.35934 36.108757 36.551235 36.44627
0000d0 d5 6d 12 42 2c 53 12 42 2f f8 10 42 63 bf 11 42
       36.607258 36.581223 36.242367 36.4369
0000e0 c4 a8 0e 42 e7 25 0e 42 42 88 0c 42 ed 5b 11 42
       35.66481 35.537014 35.133064 36.33977
0000f0 e8 ed 11 42 bb 29 12 42 1d 37 12 42 c9 f0 10 42
       36.48233 36.540752 36.55382 36.23514

res_blocks.0.bn2.running_mean f4 [64]
000000 78 10 09 c1 d6 ff bb 40 55 37 19 41 53 13 19 41
       -8.566521 5.87498 9.576009 9.567218
000010 e1 93 27 41 f3 8b c6 c0 ab 74 0a c1 39 28 e5 c0
       10.473603 -6.2045836 -8.653483 -7.16116
000020 e2 47 dd c0 41 56 17 41 cb 6e 12 c1 f4 e8 f4 c0
       -6.9150248 9.458558 -9.152049 -7.6534367
000030 a5 c7 90 40 7e c9 a5 40 b8 5f bd 40 e9 41 20 41
       4.5243707 5.180846 5.9179344 10.016091
000040 14 d5 08 c1 c5 44 bc c0 0f bc dc 40 56 b8 ca 40
       -8.552021 -5.8833947 6.8979564 6.335002
000050 af 28 da c0 3e 14 c4 40 ed 20 c1 c0 50 6f 17 c1
       -6.8174663 6.127471 -6.0352693 -9.464676
000060 37 f6 0d c1 8e e1 02 41 6c d1 fa 40 78 63 1a c1
       -8.872611 8.180067 7.838064 -9.649284
000070 37 50 13 c1 58 2d 18 41 21 ad c2 40 15 b3 f9 40
       -9.207084 9.51107 6.083634 7.8031106
000080 46 b9 17 c1 7b 0a 1e c1 80 0c 11 41 29 3c fa 40
       -9.482733 -9.877559 9.065552 7.819844
000090 9e d4 03 41 64 fb 26 41 a5 a3 b0 40 ae f6 f2 c0
       8.2394085 10.436375 5.519976 -7.5926123
0000a0 7b 66 d6 c0 8c 94 12 c1 50 70 bc 40 36 2c d9 c0
       -6.70001 -9.161266 5.88871 -6.786647
0000b0 b7 6e 04 c1 9b 8d da c0 7f fe c3 c0 c1 59 09 c1
       -8.27703 -6.829786 -6.1248164 -8.584413
0000c0 63 1f 18 41 c4 50 de 40 c0 d9 09 c1 27 dd 14 c1
       9.507663 6.947359 -8.615662 -9.303992
0000d0 e5 b8 1a c1 77 e7 05 41 5d 66 d6 40 16 49 db c0
       -9.67014 8.36901 6.6999955 -6.8526716
0000e0 03 61 ca c0 4a 28 c1 c0 c6 a5 c7 40 e9 01 13 c1
       -6.3243423 -6.036168 6.238986 -9.187966
0000f0 28 5e 17 41 7f 85 16 41 31 11 17 c1 5a 55 f9 c0
       9.460487 9.407592 -9.441697 -7.791669

res_blocks.0.bn2.running_var f4 [64]
000000 7a 22 ea 3e 26 bb d3 3d 71 d9 9a 3d 7a 5b 9e 3d
       0.4572943 0.1033843 0.07561005 0.077322915
000010 04 3a c2 3d 20 81 63 3f 4b b8 a8 3e 41 a6 39 3f
       0.09483722 0.88868904 0.32953104 0.7251931
000020 79 c3 5f 3f e2 78 b5 3d 04 36 8a 3e 7e c8 18 3f
       0.8740764 0.08860947 0.26994336 0.59680927
000030 ad 63 b7 3d a5 85 9c 3d 48 87 97 3d d1 34 a5 3d
       0.089545585 0.07642678 0.0739885 0.080667146
000040 63 ec 03 3f 55 93 66 3f c1 1f 87 3d f4 e4 85 3d
       0.5153257 0.9006856 0.065978535 0.0653781
000050 ef ba 2d 3f 3c 9c 6a 3d 6c 1c 52 3f 33 f4 d0 3d
       0.67863363 0.057277903 0.8207462 0.10202827
000060 e1 d2 22 3e 5c 52 3c 3d 54 31 d7 3d 77 8d 0c 3e
       0.15900756 0.04597698 0.105074555 0.1372584
000070 cb f7 fd 3d f6 6f af 3d 19 f1 a2 3d 04 d5 fe 3c
       0.124007784 0.08566277 0.07956142 0.031107433
000080 9b 02 12 3e 60 ac ae 3d bb 87 a8 3d de 77 15 3e
       0.14258806 0.08528972 0.082290135 0.14596507
000090 1b 1b 0f 3e fd cc 87 3d b2 a6 83 3d ac 72 16 3f
       0.13975184 0.06630895 0.06428279 0.58768725
0000a0 c7 d9 5d 3f 8d de de 3d a6 76 a5 3d 2e b1 34 3f
       0.86660427 0.10882292 0.08079271 0.70582855
0000b0 13 51 7f 3e f6 b0 6c 3f 83 e8 74 3f 40 39 f7 3e
       0.24933271 0.9245752 0.95667285 0.48285866
0000c0 f0 8b 06 3e 0b 09 8d 3d b6 b8 97 3d 9b 10 ad 3d
       0.1313932 0.068864904 0.07408278 0.08450433
0000d0 92 02 f8 3d 75 1e 23 3d 21 d1 70 3d 0f ee 51 3f
       0.12109865 0.039823968 0.05879319 0.82003874
0000e0 76 85 4a 3f fc fc 55 3f 6b 01 a0 3d 28 ad b0 3e
       0.79109895 0.8358915 0.078127705 0.34507108
0000f0 54 88 c0 3d 7b 58 8b 3d b7 da 05 3e ab ac d8 3e
       0.094010025 0.06803986 0.13071714 0.42319235
