model/linear_resnet_model_400epoch128hidden.pt (torch, 515567 bytes, 44 tensors)

input_layer.0.weight f4 [128, 118]
00000000: fc08 b23e 36df 2abf 92c1 41be 5bfe 98be
00000010: 17b7 8dbd a919 a8be d6eb 8bbd 9120 023e
00000020: 527b 2b3e 2009 10bc c701 76bd d8e8 82be
00000030: 3b19 753e 92b3 6dbe 33bf 1abe 7b98 03bf
00000040: ba25 c23e be3c babb 5df6 c63d 8681 08be
00000050: a837 83bc 4a20 4abd b7a2 bdbd 4341 91be
00000060: 01ac e0bd 99b6 ee3d f191 dd3e 7434 85be
00000070: 8202 3ebe e952 933e daeb 3a3d a260 3c3e
00000080: f176 5cbe b1a8 1fbf db52 51be a0e9 83be
00000090: 1419 97bc 027f 7cbe 6227 403c a517 eb3b
000000a0: 318a 903d f546 66bd 6ff4 4bbe 3690 2dbe
000000b0: 80bb df3d 4e9c 803e 7090 48be cb36 0ebf
000000c0: 9e14 28be 6797 c23e c79c be3e 8c92 b0bd
000000d0: ad67 603e 1c8e dd3a 4468 bb3d c042 98bc
000000e0: bbdf 79bc 6262 b8be 1a3b 0cbe 3dbc 7c3e
000000f0: 29e1 d63e a7d7 87be c5ae 04be a3ab 4c3e
00000100: f313 723b 48ff 81bd 0f44 3c3e acd2 343e
00000110: 1920 28bf 0703 0bbe c86d 9dbe 6232 183c
00000120: 30ac 94be 13a6 cebc 88bd b33d 9fc7 b03d
00000130: ef7a 0a3d c802 08be 6c7e 4fbe 7d14 26be
00000140: a5d8 083e 1717 9bbe 10c8 fcbe d471 b23e
00000150: e610 803d 2160 353e aacf 47bd d1da c03d
00000160: 1b1a fabc 3a7e c2bd 1136 d43c f69d d8be
00000170: fae1 3fbe 16eb 653e 4c7a 813c 4d46 e03e
00000180: a095 c8bd ef31 57be 07ee 8e3e 4462 223e
00000190: 5903 f2bd b9fd 623e 39b4 34bf 27b3 68be
000001a0: d86b 66be fb4a e1bc 893a 8cbe 6254 fbbc
000001b0: efa0 043e 6d6d 723d fd71 c83d 42e3 473d
000001c0: fb28 86bd c163 84be 02ad 943e e43b 84be
000001d0: 54f9 f6be 2f4b b53e e5f2 8b3e 3c95 34bf
000001e0: 4e14 ebbd 829c 72be 19dc bb3d 1d99 91be
000001f0: d1d1 e2bd d853 083e 9625 053d 69b3 0abc
00000200: 81b2 56be 257f 15be 6489 9e3e 94bb 7cbe
00000210: 4e11 43be 3424 07bf 89b4 ca3e b7cd 64bd
00000220: b16f d53d 82e3 63bb c410 f23c 957c a23c
00000230: 727d ca3a 5ff1 9cbe 9158 1ebe db29 ea3d
00000240: db64 023f 1950 19be 6cbf 4fbe 11ec 2e3e
00000250: 36f0 4a3d 5092 593e f791 0ebe 675a 2cbf
00000260: d9ae 15be 15db babe 205c 07bd 8267 9dbe
00000270: 15ef 00be 772e 2c3e 2802 a83d 6a3d d13a
00000280: ad80 41bd 5aea 60be 2e8f 003e 9432 283e
00000290: bc76 02be 0037 fdbe 8374 17bd 4eeb c43e
000002a0: 2ffc 953e 9f1e 7cbb f019 c93d bd4d 21be
000002b0: eddd 693d a9c3 c73d 801c ecbd 9939 ccbe
000002c0: 48fe 1fbe 565a ee3d b13c 043f 0f76 75be
000002d0: b3f9 ebbd 9004 673e 2ed0 56bd 083c acbd
000002e0: b492 643e d1c2 3d3e 4b4c 25bf 3ab6 20be
000002f0: 1fb1 bebe 61e1 683d 25bd cbbe f342 77bd
00000300: 3f74 4b3c a97e 673c a31e a63d c85e aabd
00000310: c8d9 89be 72f7 d4bd b1ab 693e 5f78 09be
00000320: c05a 0abf 074b 903e 602f 93bc 295c 493e
00000330: 3b51 fcbd 0da3 193e d55a 753d 398d 03bd
00000340: 865d 5abb 8a03 c3be be78 4ebe 4d57 933e
00000350: 52e7 fcbd 9b27 e13e 9752 43be ee75 51be
00000360: d84b 763e f65c 163e e87b a4bd ac9d 8a3e
00000370: 5b0d 1fbf 2d4a cebd 5368 b1be 3755 bbbc
00000380: aa9e 89be 349f e0bd d0eb e03d 96ff f83d
00000390: 6dba 193d cd5a 2b3d cff1 8cbd e63e 83be
000003a0: 6fe9 8d3e 01f5 8bbe c4a8 0abf 282f c03e
000003b0: ac72 323e 2029 11bf de37 6fbe 4f49 bebe
000003c0: 4444 ffbb 3671 2bbe 1889 8e3d 2eb5 143c
000003d0: 8890 0a3c e88b 3bbc a5ea 2ebe af09 98be
000003e0: ffcb 903e c161 81be d6d6 9cbe 09b9 d6be
000003f0: 4782 8b3e 1d20 75bd 5aa9 293e f3f0 a83c
0.3477248 -0.6674684 -0.18921497 -0.29881558 -0.06919687 -0.32832077 -0.068320915 0.12707736
0.16746262 -0.008791238 -0.06006029 -0.2556827 0.23935406 -0.23213032 -0.15111999 -0.5140454
0.37919408 -0.0056835106 0.09714959 -0.1333066 -0.01601775 -0.0493472 -0.09259551 -0.28370103
-0.10970307 0.116559215 0.43275407 -0.2601658 -0.18555644 0.28774193 0.04563508 0.18396237
-0.21529748 -0.6236678 -0.20441763 -0.2576418 -0.018444575 -0.24657825 0.01172814 0.0071744495
0.07057608 -0.056220014 -0.19917463 -0.16949543 0.10924435 0.2511925 -0.19586349 -0.5555236
-0.16414115 0.38006136 0.37228987 -0.086217016 0.21914549 0.0016903314 0.091507465 -0.018586516
-0.015251095 -0.3601256 -0.1369442 0.24681182 0.4196866 -0.26531717 -0.12957294 0.19987349
0.003693816 -0.06347519 0.18385337 0.1765849 -0.6567398 -0.13575374 -0.3074782 0.009289356
-0.2903762 -0.025225675 0.087763846 0.08631825 0.033808645 -0.13282311 -0.2026307 -0.16218753
0.13363893 -0.30291054 -0.49371386 0.3485247 0.06253223 0.17712452 -0.04878203 0.09416736
-0.030530026 -0.09496732 0.025904687 -0.42308015 -0.18738547 0.2245296 0.015805386 0.43803635
-0.09794164 -0.21015142 0.27915975 0.15857798 -0.11817045 0.221671 -0.705875 -0.22724591
-0.22502077 -0.027501574 -0.2738841 -0.030679885 0.12952016 0.059186388 0.097873665 0.048800714
-0.06550785 -0.25857356 0.29038244 -0.25826943 -0.48237097 0.35408923 0.2733375 -0.70540214
-0.11478482 -0.23692515 0.0917284 -0.2843713 -0.110751756 0.13313234 0.032506548 -0.008465626
-0.20966531 -0.14599283 0.30964196 -0.2468093 -0.1904957 -0.52789617 0.39590862 -0.055860247
0.10421694 -0.0034773056 0.02954901 0.019834796 0.0015448763 -0.30652902 -0.15463473 0.114337645
0.50935143 -0.14971961 -0.20287865 0.1708224 0.04954549 0.2124722 -0.13922869 -0.67325443
-0.1461748 -0.3649527 -0.03304684 -0.30743033 -0.12591203 0.168146 0.08203536 0.0015963737
-0.047241855 -0.21964398 0.12554619 0.16425544 -0.12740606 -0.49456024 -0.03697635 0.38460773
0.29293963 -0.00384704 0.098194 -0.15752311 0.05709641 0.09754116 -0.115288734 -0.39887694
-0.15624344 0.11638324 0.5165511 -0.23970817 -0.11522236 0.22560334 -0.05244463 -0.084098876
0.22321588 0.18531348 -0.6456954 -0.15694514 -0.37244508 0.056855563 -0.39792743 -0.060366582
0.012417852 0.014129319 0.08111312 -0.08318859 -0.26923966 -0.10398759 0.22819401 -0.13424824
-0.54044724 0.2818224 -0.017966926 0.19664063 -0.12320181 0.15003605 0.059901077 -0.032117102
-0.0033319904 -0.38088638 -0.20163247 0.28777543 -0.12348808 0.4397553 -0.19074474 -0.20455143
0.2405237 0.146839 -0.08031446 0.2707342 -0.62129754 -0.10072742 -0.34649906 -0.022867782
-0.26878864 -0.109678656 0.10982478 0.12158124 0.037531305 0.04183464 -0.06882059 -0.25633925
0.27717158 -0.2733536 -0.54163766 0.37535977 0.17426556 -0.56703377 -0.23361155 -0.37165305
-0.0077901203 -0.16742405 0.06959742 0.0090764 0.0084573105 -0.0114469305 -0.17081697 -0.29694888
0.28280637 -0.25269893 -0.30632657 -0.41938046 0.2724783 -0.05984508 0.16568509 0.020622706

input_layer.0.bias f4 [128]
00000000: 6284 973e 3f91 1fbd 6dc3 dd3d 1ca8 69be
00000010: a224 b0be 3c9f 8fbe 901a d0bd bca9 4ebe
00000020: 7ea4 09be c47b bebe 54ca 1dbf 8f79 b3bd
00000030: 1baf 90be 73b9 db3e bdb4 823e 8e6b 7f3e
00000040: b733 a83c 5349 bfbe c077 513e 494e c7be
00000050: d3fa 8ebe 7a6b 15bf 15fe bc3e 5c7d 3d3e
00000060: cfec d13c df6d 783e 1882 efbe 6dfb 893d
00000070: 0f8e dfbe 9658 c7bd 2323 443e 0081 213d
00000080: 7601 2c3f 5da6 98be 51fd de3e 76d4 bb3e
00000090: 8d96 9f3e 327b 48be 55e7 253c b007 11bf
000000a0: f0b7 1c3e 434b 29be e0bb f7be e6c0 8c3d
000000b0: b56f c5bd 1335 3f3e e501 f6be 1fc5 9f3d
000000c0: 0792 903d c426 81be 4475 49be 8c3d 59be
000000d0: 13cc b03e ffff f8be 6302 2e3e 6e2e 4c3e
000000e0: f355 2a3e e245 f0bd 3a68 fdbc 7087 f43e
000000f0: 7d82 4fbf 7d94 e33d ed76 1dbd 739f 973f
00000100: 0011 58be a532 e5bd 9e48 d03d b10d f93c
00000110: 1a5d 26bf 3197 243d 11e3 fdbe 9c3a 973e
00000120: 3449 8a3d 6335 0d3f d967 073f f065 513c
00000130: de35 80be 28f1 ba3e 18c6 a3be 3b81 483e
00000140: 3a2a 073e cf86 09bf fc2e e33e fd91 943e
00000150: c0e2 c0be acd7 85bd e32f 943e 75cc bebd
00000160: 0e32 273e d515 fcbd 511a 293e 8ece 3b3f
00000170: ea81 8ebe 47f4 18be a73d be3e 14f6 fe3d
00000180: 2b20 0d3d 49ce 963e b67e 323d 5e09 c63e
00000190: 9234 27bf 25e1 d1bc 7012 a13e 9195 b43e
000001a0: 5690 ec3d b74f febd db3e 5e3e 5568 8abe
000001b0: 0f68 39be 15cd 2abe cb7e 09bf cb89 233e
000001c0: efea 5a3e 8f17 c03e 29b3 bcbe a190 0e3e
000001d0: aa45 b73e a0b0 cabc c448 1ebe 6711 163f
000001e0: fffb 82be 5f86 f23e 6501 833e f5a9 5ebe
000001f0: 0597 9c3c eb59 453e df98 c23d 8959 c9be
0.29593188 -0.038956877 0.1082829 -0.22818035 -0.3440295 -0.28051174 -0.101613164 -0.20181936
-0.13441655 -0.372038 -0.61636853 -0.0876342 -0.28258595 0.42914924 0.25528517 0.24943373
0.020532472 -0.3736063 0.20455837 -0.38926914 -0.2792574 -0.5836712 0.369126 0.18504852
0.025625614 0.24260662 -0.4677894 0.06737409 -0.4366307 -0.09733693 0.19154029 0.039429665
0.6718973 -0.29814425 0.4355264 0.36685532 0.3116955 -0.19578245 0.010125955 -0.56652355
0.15304542 -0.16532616 -0.48385525 0.0687273 -0.09640447 0.1867259 -0.4804832 0.0780127
0.070591025 -0.25224888 -0.1967364 -0.21214885 0.34530696 -0.4863281 0.16993098 0.19939587
0.1663435 -0.11732079 -0.030933488 0.4775958 -0.81058484 0.11112306 -0.038443495 1.1845535
-0.21100235 -0.111913 0.10170101 0.030402036 -0.6498581 0.04018325 -0.495873 0.29536903
0.06752244 0.55159587 0.52892834 0.012780651 -0.25041097 0.36512113 -0.3198707 0.19580548
0.13199702 -0.53721327 0.44371784 0.2901763 -0.37672997 -0.06535277 0.28942785 -0.09316341
0.16327688 -0.12308852 0.16513945 0.7336205 -0.27833492 -0.14936934 0.37156412 0.124492794
0.034454506 0.29454258 0.043577872 0.38679022 -0.6531459 -0.025620053 0.3145938 0.3527036
0.115509674 -0.12417548 0.21703665 -0.27032724 -0.18106101 -0.16679795 -0.53709096 0.15970533
0.21378683 0.37517974 -0.36855438 0.13922359 0.35795337 -0.024742424 -0.15457445 0.58620304
-0.25582883 0.47368142 0.25587 -0.21744521 0.01911498 0.19272582 0.09501814 -0.39326122

input_layer.1.weight f4 [128]
00000000: 811b 2641 b3a0 1d41 b208 4541 4c21 3d41
00000010: d731 3541 0e28 2f41 252a 7641 d64f 9741
00000020: 7cc5 9541 f0a2 2b41 26d9 2b41 e4c2 5a41
00000030: 381f 7c41 7ee4 3e41 b4ea 9641 9aa7 6841
00000040: 5b03 8041 e92c 3a41 b160 7641 5c7f 3c41
00000050: 003f 4a41 d46c 4041 41af 9c41 f432 2041
00000060: 0c68 1a41 4d28 3941 c9a2 2b41 fb0a 2c41
00000070: 3d26 7341 5536 5041 7c1b 5941 5b47 6141
00000080: c0da 9341 146c 5841 e74a 3641 9149 7741
00000090: 15a1 a841 86d2 2c41 be7e 4941 7ac7 4041
000000a0: c188 4b41 95dc 3c41 c071 2e41 3fe5 6641
000000b0: 093e 3441 86a4 8041 bb23 4f41 883c 2341
000000c0: 22d7 3d41 d2d3 a141 2b2b 4d41 3afc 1041
000000d0: 495a 3c41 da2d 3441 a6ec 9141 7c2e 3241
000000e0: 108d 5c41 34a8 3141 3095 4a41 c8ac b041
000000f0: 190a 8f41 820f 9a41 fd17 6541 a2c6 a941
00000100: 911c 3741 5804 2041 2677 6f41 a61d 3541
00000110: 3909 8041 0a66 3041 24f7 2741 da29 1541
00000120: f943 4641 7f54 bb41 c61b 7541 6117 a541
00000130: 3b1b 4141 624b 2141 31af 3041 759e 5841
00000140: 75dd 3e41 e24f 8e41 e10c 2141 bfea a641
00000150: 0cd7 4741 19ab 3a41 e816 6241 d74b 1e41
00000160: c0b8 3e41 7f8b 3541 d731 3f41 d67d 9a41
00000170: b381 9141 08e1 8e41 0fac 3a41 9f4f 9c41
00000180: 931e 3a41 e017 7641 f471 a041 1e4c 7741
00000190: bc53 9641 ad01 b141 35ed 2241 3255 2541
000001a0: a35a 9f41 b73e 1d41 5290 9141 4077 a041
000001b0: 6af7 1f41 41f2 9241 4565 2d41 81d9 1941
000001c0: d5df 7541 0d2d 3541 090b 8f41 1e15 2941
000001d0: 3664 9841 a415 2f41 d2f3 3d41 19b3 6e41
000001e0: 456f 5541 841a 6b41 adc5 8141 389b 1741
000001f0: 2b9f 2741 4562 1d41 2567 2a41 fafd 2c41
10.381715 9.851733 12.314623 11.820629 11.324668 10.947279 15.385289 18.913982
18.721428 10.72728 10.740515 13.672581 15.757622 11.930784 18.864601 14.540918
16.001638 11.635964 15.398606 11.781094 12.640381 12.026569 19.585573 10.01244
9.650402 11.572339 10.727242 10.752681 15.1968355 13.013265 13.56921 14.079921
18.481812 13.526386 11.393287 15.455461 21.078653 10.801397 12.593443 12.0487
12.720887 11.803853 10.902771 14.430968 11.265145 16.080334 12.946223 10.202278
11.865023 20.228428 12.823039 9.061579 11.772042 11.261194 18.240551 11.136349
13.784439 11.103565 12.661423 22.084366 17.87993 19.257572 14.3183565 21.221989
11.444474 10.0010605 14.966589 11.319738 16.004503 11.024912 10.497837 9.322718
12.391595 23.416258 15.319281 20.636415 12.069148 10.080904 11.042771 13.538686
11.929067 17.789005 10.065644 20.864622 12.490002 11.666772 14.130592 9.893516
11.920105 11.346557 11.949668 19.311443 18.18833 17.859879 11.6670065 19.538877
11.632464 15.380829 20.055641 15.456083 18.790886 22.125818 10.182912 10.3333
19.919256 9.827811 18.195469 20.058228 9.997904 18.368288 10.837224 9.615602
15.3671465 11.323499 17.880388 10.567656 19.048931 10.942783 11.872026 14.918725
13.339665 14.693974 16.221521 9.475395 10.476359 9.836492 10.650182 10.812006

input_layer.1.bias f4 [128]
00000000: e9c5 9041 fbe0 8b41 3d78 a341 2b41 a841
00000010: a63a 9141 64b9 a341 ff97 af41 6ebb bd41
00000020: 8f82 b741 2dba 9441 afd8 9841 0aae ac41
00000030: 5de0 af41 1cbd 9e41 85a7 ba41 9eeb b141
00000040: e630 b841 8de6 9e41 e161 b541 1f16 9c41
00000050: 4816 a241 dfda 9f41 ae13 bb41 d3a4 9d41
00000060: 66af 8a41 77db a841 d5e7 a541 fc71 9b41
00000070: 163e b541 446b a941 dc72 ab41 bbd0 af41
00000080: 23a7 b941 bd5d a841 14cf 9b41 26f3 b341
00000090: da9f bf41 74af a241 d42e a641 566f a141
000000a0: 0931 a641 71b9 a841 126f 8b41 18f1 af41
000000b0: bff8 9641 97e4 b141 8ae7 a341 d93f 8f41
000000c0: 984c a041 e6a1 bf41 222b a341 fc3c 9641
000000d0: 20e1 9a41 9338 9541 aded b941 4a7e a741
000000e0: e23d ae41 2a5a 9941 abc1 b641 ef1a c041
000000f0: 916b b941 16d6 bb41 4355 b041 e146 c041
00000100: d752 9d41 025f 9d41 031e b341 7c12 9c41
00000110: c0e7 b141 1b93 9941 b09e 9641 11d5 8b41
00000120: 6b35 a741 17f3 c141 ecac b541 b584 c041
00000130: 3f88 9f41 2f83 9141 c000 9741 0683 aa41
00000140: c8b1 9d41 6e9f ba41 f9a9 8e41 cef4 be41
00000150: 6b9a a541 52cf a841 20ff b341 71d0 a141
00000160: c50b a141 9e32 9741 2669 a941 ff87 bc41
00000170: ac51 b341 01bc b841 723f a741 ca97 bd41
00000180: 2a3f 9b41 2532 b641 f782 bc41 69ba b541
00000190: f1fa bd41 0e91 bf41 4b22 9641 ac5b a141
000001a0: e120 be41 125b 8b41 7be6 b341 cf1b be41
000001b0: 4090 9e41 865a ba41 e763 a541 518a 9b41
000001c0: 2960 b641 da54 9b41 521d b541 d8bc 9241
000001d0: d0dd bc41 fedd 9541 be2e ac41 db4d b241
000001e0: 82c9 aa41 742b b141 1e47 b241 b744 9941
000001f0: d5d0 9241 8c52 8f41 1469 9641 8111 9a41
18.096636 17.484854 20.43371 21.03182 18.153637 20.465523 21.949217 23.716518
22.93875 18.590906 19.105803 21.58498 21.984552 19.842339 23.331797 22.240047
23.023876 19.862574 22.672792 19.510801 20.26088 19.98187 23.38461 19.70548
17.335644 21.10716 20.7382 19.430656 22.655315 21.177376 21.431084 21.97692
23.20661 21.04577 19.476112 22.493725 23.953053 20.33567 20.772865 20.179363
20.773943 21.090548 17.429234 21.992722 18.871458 22.236616 20.488056 17.906176
20.0374 23.954052 20.39606 18.779778 19.359924 18.652624 23.241053 20.936665
21.780216 19.169025 22.844564 24.013151 23.177523 23.479534 22.041632 24.034609
19.66545 19.67139 22.389654 19.509026 22.23816 19.196829 18.827484 17.479036
20.901083 24.243696 22.709435 24.064798 19.941526 18.189054 18.875366 21.313976
19.711807 23.327847 17.832994 23.869534 20.7004 21.10123 22.499573 20.226778
20.130747 18.899715 21.176342 23.566404 22.414879 23.091799 20.90598 23.699116
19.405842 22.774485 23.563948 22.71602 23.74753 23.945827 18.766745 20.169762
23.766054 17.419468 22.48754 23.763578 19.820435 23.2942 20.67378 19.442537
22.796953 19.416431 22.639317 18.342209 23.608307 18.733395 21.522823 22.288015
21.348392 22.146217 22.284725 19.158552 18.351969 17.915306 18.801308 19.258547

input_layer.1.running_mean f4 [128]
00000000: eb85 b63e 6370 c33b 11e2 213e 5477 92be
00000010: 63aa f0be cfd0 c7be 882c 413e e67e 7a3e
00000020: 1d43 60be 0eba 9fbe 4cbf 18bf 2e9b 77bc
00000030: f874 bb3b 7134 ff3e cc60 083f 5094 b53e
00000040: ebd0 38bd dcf2 f9be e5ec cf3d dc5c 8ebe
00000050: 5bfb 1ebe 4e1b 03bf 122a 8e3e a13b 693d
00000060: 540a 233d 8036 163e 239a 15bf c2ae d33d
00000070: e288 10bf f1d8 04bd 6712 923d 6912 27bd
00000080: 952c 243f 0d6f e2be 2106 f93e 9de0 553e
00000090: 8970 dc3e aae6 9cbe d116 933d 3165 fcbe
000000a0: 6788 5b3e 7761 87be b3bd 18bf 727a 3b3e
000000b0: b13d 933b 099c f03e 0270 22bf ff60 053e
000000c0: ab00 f03d b3be b6be 2332 b2be 1547 b2be
000000d0: c316 e03e bf95 18bf fc6c ef3e 94ee f33d
000000e0: 2ce1 a63d f3e5 88bd bd2f 77bd 428e 0d3f
000000f0: 631b fbbe 83a5 ba3e e8e5 14be 8977 a53f
00000100: b932 41be 653c 3bbe 69b5 493e c309 663d
00000110: 4a94 bdbe a0b5 523d 9da6 f4be b635 a33e
00000120: 3721 09bc 0527 263f ccb9 d73e bcb5 3abd
00000130: 5b03 37be 6263 c93e c09e 7fbe 99e3 7c3e
00000140: 4db3 4f3e 79f6 c6be 4d29 f83e 0462 003f
00000150: 3aec a2be cb02 26be 10cd 5a3e a267 81be
00000160: 8ce5 3c3e 2eed 86be 1064 173d 485d 3c3f
00000170: c115 cebe 2a97 243e a290 793e ce7e d63e
00000180: f2e9 98bd 7507 363e 1a0a 6abd b73b 9a3e
00000190: de21 35bf f0e5 aa3d fd99 ae3e d7e9 763e
000001a0: 3853 be3e 4549 9bbd f710 b03d fdc7 babe
000001b0: 06d2 84be e342 0b3e 8704 22bf e837 cf3c
000001c0: b6ed 033e cbc3 ce3e 98da f5be 1f62 423e
000001d0: 7a30 4b3f 2c54 863c 3874 71be 76bd 353f
000001e0: 0fe6 3dbe 1fa8 a83e 0a6a 0c3f a5d0 92be
000001f0: 9b77 813d 23ab 503e 71f9 103e 64c6 fcbe
0.35649046 0.0059643253 0.15808894 -0.28606665 -0.47004995 -0.39026496 0.18864644 0.2446247
-0.21900602 -0.31196636 -0.59666896 -0.015112681 0.005720731 0.49844697 0.532727 0.35464716
-0.045121115 -0.488181 0.10152606 -0.2780522 -0.15525572 -0.5121354 0.27766472 0.056941632
0.03980477 0.14669228 -0.5843832 0.10336067 -0.56458867 -0.032433454 0.07132416 -0.04078904
0.64130527 -0.4422535 0.48637488 0.20886464 0.43054608 -0.30644733 0.07182086 -0.49295953
0.21438752 -0.26441547 -0.5966446 0.18308428 0.004493438 0.46994045 -0.6345216 0.13025282
0.117188774 -0.35692367 -0.34803876 -0.34819856 0.43767366 -0.59603494 0.46762836 0.119107395
0.08148417 -0.06684484 -0.06034826 0.55295193 -0.49044332 0.364544 -0.14540827 1.2927104
-0.18867005 -0.18284757 0.19698109 0.056161653 -0.37027198 0.051442742 -0.47783366 0.31876916
-0.008369735 0.6490329 0.4213394 -0.04558347 -0.17872374 0.39333636 -0.24962902 0.24696197
0.20283242 -0.3885992 0.4846901 0.5014956 -0.31820852 -0.16212003 0.21367288 -0.25274378
0.1844694 -0.2635283 0.03696066 0.73579836 -0.40250972 0.1607329 0.2437158 0.4189362
-0.074664965 0.17776282 -0.05713854 0.30123684 -0.707548 0.08344638 0.3410186 0.2411264
0.37172866 -0.075823344 0.08596986 -0.36480704 -0.25941485 0.13599734 -0.6328816 0.025295213
0.12883648 0.40383753 -0.48018336 0.18982743 0.79370844 0.016397558 -0.2357949 0.7099222
-0.18544792 0.32940766 0.548493 -0.28674808 0.06321641 0.20377783 0.14157654 -0.4937011

input_layer.1.running_var f4 [128]
00000000: 6567 8242 5517 8b42 3e96 5842 7d7f 1342
00000010: 4e30 9242 94d5 7c42 b4a7 9e42 23eb 1043
00000020: dae9 d841 f2d5 8242 66d3 5742 72db 8942
00000030: 8e4b 9c42 4f4f 8742 d358 9242 01dc 9742
00000040: 7fc6 1b42 d9ce 6842 a9a4 5e42 a314 a842
00000050: 5a3a a842 8e32 8b42 5e34 f441 24ea 8442
00000060: 57cf 6142 75bd 6a42 d9ac 6442 3fb0 5142
00000070: d927 9142 80d8 8b42 d829 7e42 467f 4642
00000080: abd4 8041 68d8 8042 2b0a 6642 8e19 6142
00000090: b47b 3d42 4571 7542 9916 8242 7bae 8b42
000000a0: 53b0 8042 1487 4042 88d7 8942 75f4 8242
000000b0: 18c7 a042 8a96 9c42 ff4d 9342 1180 8042
000000c0: 7824 8142 5694 c741 44c0 8342 88e6 8842
000000d0: 23a6 9b42 ee14 8042 2ac0 9c42 9b9a 3942
000000e0: 3ab5 4542 d289 7642 c6a5 b941 131f 0142
000000f0: f18a ae42 7409 8e42 f60e 4d42 a038 2a41
00000100: c0aa 6242 4748 2a42 b38b 8342 8c7b 5c42
00000110: 78e4 9d42 da99 4e42 e842 5a42 3522 5742
00000120: 4fb7 3c42 a348 2642 ca9b 5642 d121 8f41
00000130: 642c 8842 a9bd 4442 ed81 8d42 e7e6 5442
00000140: cc67 9242 c333 8242 a25a 7b42 7072 6a42
00000150: fe09 7142 b577 6d42 a325 1f42 672b a342
00000160: b6c3 5742 23c6 9742 6006 7842 2e69 0941
00000170: c34e 1642 7528 a642 164d 7b42 053e 9642
00000180: 8902 7f42 e96b 8342 c99c dc41 cb1f 3d42
00000190: 461b a941 f17a 2c42 ee9d 5242 f57f 7142
000001a0: 88e3 8c42 19f6 8c42 f839 3142 630f fc41
000001b0: 90c8 2942 56be a842 982a 4c42 eac0 7e42
000001c0: 694d 4542 86f5 4e42 eb84 2742 6516 8442
000001d0: b2dd 0743 99d7 7742 8744 1842 4f02 a242
000001e0: 1cc5 8542 7e1f 6942 9d45 a242 141d 2342
000001f0: 11f3 6742 043a 4542 3cbd 6d42 2bb2 7842
65.20194 69.54557 54.14672 36.8745 73.094345 63.208572 79.327545 144.9185
27.114185 65.41786 53.956444 68.928604 78.14757 67.6549 73.173485 75.929695
38.943844 58.202 55.6608 84.040306 84.11397 69.59874 30.52557 66.457306
56.45248 58.685017 57.168797 52.422115 72.57783 69.92285 63.540863 49.62429
16.103842 64.42267 57.50993 56.274956 47.370804 61.360615 65.044136 69.84078
64.34438 48.131912 68.92096 65.477455 80.388855 78.29402 73.652336 64.25013
64.57123 24.94743 65.87552 68.45026 77.824486 64.04088 78.37532 46.40098
49.42698 61.63459 23.205944 32.280346 87.27137 71.01846 51.26461 10.638824
56.666748 42.570583 65.77285 55.12065 78.94623 51.650246 54.56534 53.783405
47.179012 41.570934 53.652138 17.891512 68.0867 49.185215 70.75376 53.22549
73.20273 65.1011 62.83851 58.611755 60.259758 59.3669 39.786755 81.58477
53.941124 75.886986 62.006226 8.588179 37.576916 83.07902 62.82528 75.12113
63.752476 65.71076 27.576555 47.281048 21.138317 43.12006 52.65423 60.374958
70.4444 70.48066 44.30661 31.507513 42.44586 84.37175 51.041595 63.688393
49.325596 51.73977 41.879803 66.04374 135.866 61.960545 38.06692 81.00451
66.88498 58.280754 81.13596 40.778397 57.98737 49.306656 59.4348 62.173992

res_blocks.0.linear1.weight f4 [128, 128]
00000000: 0cb4 653e 544e 653e e3c8 203e f1a6 c6be
00000010: 0365 41bf 2bae 08bf d6d8 3b3e d371 d2bc
00000020: 9242 9b3e 6394 513e 490e f23d db99 2a3e
00000030: 0e3a 013e 219b 023e 4965 7e3d 1367 1d3e
00000040: db80 15be a15e 21bf 4e47 bdbe e74d 043e
00000050: 9009 243e c890 313e 977a be3e 48c5 09bf
00000060: c02c f93d 24d6 0dbf 20f7 dbbe ac1e a03d
00000070: 6b4c 6bbe 5ba0 6b3d afc4 babe 7edf d2be
00000080: 148a cd3e e827 e3be 40c6 d33d ee31 d43d
00000090: 7835 ba3d b5ad 2abf b3a9 343e 2f00 293e
000000a0: ad3b b63d ae63 e4be f1fc 67bf 538e 2abd
000000b0: a38c 113e 6c59 ab3d 0645 d4be e7a8 fb3d
000000c0: 6349 c73d 92cb 7d3e 5d9a 0abf 5190 dabe
000000d0: 415c e63d 8e76 4cbf e9ce e93c 5e22 bbbe
000000e0: 4387 ebbe 6c67 0b3e c66d 64be 4045 e13d
000000f0: e880 ca3d aa48 793e 0d70 b6be cdd6 f93d
00000100: 49a6 2b3e af9e d7be 35ba e43d e9ec 243e
00000110: 5797 713e e315 2e3e 8520 a13d 2bf0 0f3e
00000120: 6a04 08bf ec89 953d 03dd 52be 3be5 c93c
00000130: cfa9 083e b694 2f3c 0bd5 043e 6e0a 283e
00000140: 7a86 1b3e bfdb 033e 0f94 073e eeb4 683e
00000150: 710f 1c3e e323 dfbe 9b3c 88be 5d88 96be
00000160: 82d1 053e 9aa6 21bf 6b4b 00bf 888f 573d
00000170: 261d f83e 8d2f ef3d a3b0 10bf a77d 973d
00000180: ad6a 30bf 2f35 30be 4d6d b43e 0549 86be
00000190: 4bd1 c33c abcb a83d 5e2d 203d af32 f8be
000001a0: b37a 183e 99cb 823e f58f ee3e b14d 8c3e
000001b0: 7087 a1be 5af0 0b3e 75ea fdbe 3e35 cabe
000001c0: 4fe1 5abe 5ce1 9a3d 474f 8a3e b600 9f3d
000001d0: ce0d c33d 284d 213e 507c 90be b01b 243e
000001e0: 82c4 283e 8e23 91be 5573 303e 2d7d 91be
000001f0: f916 c03d 64c3 003e 8286 c33d a02a 01bf
00000200: 4077 4f3d 66c5 143e dcfb e1bd fe00 88be
00000210: 9d25 7ebd 94ce 6abe c5f0 2e3e 091e 7b3e
00000220: 2861 1abe f7ea 8b3d f484 13bf a78e a23d
00000230: e941 6b3e 8488 023e c7af 573e 012c f93c
00000240: 9dce 05be 28a2 5ebe e6a2 15be fd3b e93d
00000250: 3c82 b83c e3df 083e 0566 1dbe a031 39be
00000260: cc59 3bbe e68a bfbe 940c c1be eb26 02bf
00000270: c198 55be d670 ac3c 60cc e9bd a255 60bd
00000280: e8b4 393d 237b 57be f85a 9bbd c50f 4abe
00000290: e103 e83d ad21 67be df0c 91bd bda7 5a3d
000002a0: 0109 023c 1594 afbe e2d1 97bd 3dce cdbd
000002b0: 60c2 db3c f929 983e 3475 11be 0cf3 fd3d
000002c0: 7c6c 7f3d 62b2 f3bd 4b4b 03be 806c a8be
000002d0: da08 353d c29b 8dbe 8774 573e 7ddf eebe
000002e0: 9644 c3bd 89bd 13be efc6 26be c57a 3e3d
000002f0: 3b8b 673e f71a 883e aa01 87be 2179 2cbd
00000300: 0957 1dbf 9834 a5be fcd3 3c3d e4ba 2fbe
00000310: a1de a53d 7969 44be 7dc4 11bf 772a e6bd
00000320: c4b7 1cbe df6f 603e ec3e cfbd 7e1d 2e3d
00000330: 6817 4a3d e5d7 18be 67f1 533e e1d8 b23d
00000340: 5917 5f3e 2821 2b3d 7ac2 a0bd a76b 603e
00000350: 9241 0abe 211a 50be 54aa 0ebe 8fe2 93be
00000360: 9764 a5be da10 d8bd dd84 89be 7cdc c73c
00000370: 1ec5 d7bd 53a6 8a3e 2938 48be 5381 5b3e
00000380: 50bb 20be 12bf 92be e070 b1bc f95b fcbd
00000390: dbfa 72bd a0e9 5b3e 4c23 edbe 719b 9dbe
000003a0: 5d4c 583e a001 e63c 9e56 05bd 3559 2f3d
000003b0: 3a6a 81be 5217 923e 59d5 95be 5780 b3be
000003c0: a247 3bbe c567 b33c 785b e1bd 7ca6 473d
000003d0: 0733 903e ec84 0b3e 7764 a8be beb1 c63d
000003e0: dddc e6bc 1c45 29be 5b6e 873e 3102 71be
000003f0: 4a9b 3bbe 4ab2 0dbe fef4 6bbe 232f 51be
0.22431964 0.22393161 0.15701632 -0.3879924 -0.75544757 -0.5339076 0.18344435 -0.025689041
0.30324227 0.20466761 0.11819131 0.16660254 0.12619802 0.1275449 0.06210831 0.15371351
-0.14599936 -0.6303502 -0.36968464 0.12920342 0.16019273 0.17340386 0.37202904 -0.5381665
0.121667385 -0.5540488 -0.4296198 0.0781835 -0.2297837 0.057525974 -0.36478183 -0.41186136
0.40144408 -0.44366384 0.103405476 0.10361086 0.090922296 -0.66671306 0.1764286 0.16503976
0.08898101 -0.446073 -0.9062033 -0.041639637 0.14213805 0.08366665 -0.4145891 0.12288075
0.09730794 0.24784687 -0.5414179 -0.4268823 0.11248065 -0.798684 0.028541045 -0.36549658
-0.46001634 0.13613671 -0.223075 0.109995365 0.09887868 0.24344125 -0.35632363 0.12199173
0.16762652 -0.42113253 0.11168329 0.16105999 0.23592888 0.17000537 0.07867531 0.1405646
-0.53131735 0.07301697 -0.20592122 0.024645438 0.13346027 0.010716608 0.12971894 0.16410229
0.15188017 0.12876795 0.13240074 0.22725269 0.15240265 -0.43582067 -0.26608738 -0.29400912
0.13068202 -0.6314484 -0.5011508 0.052627116 0.48459738 0.116789915 -0.56519526 0.07397013
-0.68912774 -0.17207788 0.3523964 -0.26227584 0.02390351 0.082419716 0.039105766 -0.4847617
0.14890556 0.25545958 0.46594205 0.27403024 -0.31548643 0.13665906 -0.4959294 -0.39493746
-0.21375011 0.07562515 0.2701361 0.077638075 0.095241174 0.15752089 -0.28219843 0.16026187
0.16481212 -0.2834744 0.17231496 -0.28415814 0.09379382 0.12574536 0.0954714 -0.50455666
0.050650835 0.14528427 -0.110343665 -0.26563257 -0.06204759 -0.22930366 0.17084034 0.24523176
-0.15076125 0.06831925 -0.57624745 0.07937365 0.22974361 0.12747389 0.21063147 0.03041649
-0.13067098 -0.21741545 -0.14612922 0.11388395 0.022523038 0.13366656 -0.15370949 -0.18085337
-0.18295974 -0.3741066 -0.3770491 -0.50840634 -0.20859052 0.021049898 -0.114159346 -0.054769166
0.04533854 -0.21043067 -0.0758571 -0.19732578 0.11328865 -0.2257144 -0.07082533 0.053382624
0.007936717 -0.34292665 -0.07413079 -0.100491025 0.026826084 0.29719523 -0.14204866 0.12399873
0.062359318 -0.11899258 -0.1282169 -0.3289528 0.044197895 -0.27657896 0.21040545 -0.46654883
-0.09534566 -0.1442777 -0.16286825 0.0465038 0.22611706 0.26583073 -0.26368457 -0.042107705
-0.6146093 -0.32266688 0.0461006 -0.17161137 0.08099104 -0.1918086 -0.5694044 -0.11238568
-0.15304476 0.21917675 -0.10119423 0.042508595 0.04933873 -0.14926107 0.20697556 0.087327726
0.2178625 0.041779667 -0.078495935 0.21916066 -0.13501576 -0.20322467 -0.13932163 -0.28883788
-0.32303306 -0.10550089 -0.2685918 0.024397127 -0.10535644 0.2708002 -0.19552673 0.21436052
-0.15696454 -0.286614 -0.021660268 -0.1232223 -0.059321266 0.2147584 -0.46315992 -0.30782655
0.2112288 0.028076947 -0.032553308 0.042809684 -0.25276357 0.28533417 -0.29264334 -0.35058853
-0.18289044 0.021900067 -0.110037744 0.048742756 0.2816393 0.13624924 -0.3288915 0.097018704
-0.028181488 -0.1653027 0.26451382 -0.23535992 -0.18320957 -0.13837543 -0.23042676 -0.20428137

res_blocks.0.linear1.bias f4 [128]
00000000: 43db 7ebe ad27 a83d 27ca c33e a1b0 e33e
00000010: 8f73 2a3d 5bea 243e f73f a23d 9128 b13e
00000020: cfbe e3bd 69db 893c 1ab5 a53e f443 77bc
00000030: a45b be3e a9e3 593e 20b4 a63d dfa9 0e3e
00000040: 3041 abbe 50b6 a53d b65d 913e 71fb ba3e
00000050: 4a78 1f3d 6299 8b3d fe7e bb3e a15e fdbd
00000060: 014b c83d 2ca5 35bd f361 9f3e daf2 943e
00000070: f140 87bd 6e34 8ebd 2c45 31bd f1a5 f1bd
00000080: 9f79 edbe 756e 83bd 23b3 3bbe 1e3b 013e
00000090: 5604 3ebe ffcc a03e 1404 083f cfc3 7d3e
000000a0: 192f 40bd 503b 553e fb50 1bbe 5e94 963e
000000b0: 5034 8a3e 4b5c d13d c0e2 423c 4ba5 593e
000000c0: 3372 eb3d 810a 6f3e 13a5 923e 8309 b6bd
000000d0: fdf7 e73d d24d 90bd d169 98bd a941 8c3d
000000e0: 7d1d 66be 4d69 bcbd 9c73 26be 4b97 663e
000000f0: e2dd f63d b066 1c3e 8c41 ff3d 9d6f debe
00000100: 425c c13e e319 963c fc31 e73d 9776 593c
00000110: 31fa 9e3e 758a 10be 2e5b 503d 45eb e53b
00000120: 1620 9dba b2cd d6bd 9223 3cbe c41e bd3e
00000130: b6d2 20be 03e7 91bc 7d3b 723e 4309 1e3e
00000140: 667e ab3e e56a bb3b 6ef6 b5bc 567f 413e
00000150: 0d55 563e 2dba 21be 041f 8d3d 2906 84be
00000160: 8760 4a3d e36d 4ebe 6284 fbbc d922 2d3d
00000170: a373 0b3e c0ee 903e 0621 833e 6fed cb3d
00000180: 11ee 17bf 420a bc3d ecf5 d73e 7550 78be
00000190: 2b22 bcbc 7bf5 9a3c 713d 773d fb78 5a3d
000001a0: 5b08 f33d 904e 833d 6fbe 0f3f 339c 9a3e
000001b0: 06ac dcbb 927d b4bd 74bc 953c ba3b 873e
000001c0: cff3 a1be 70ae dc3e eaeb 0a3e 32bc 823e
000001d0: d930 053e 47c3 313e d6f4 983e 167c abbd
000001e0: e75a 7bbe 38a7 88be 29fd 353e 269d 383d
000001f0: bd1e ac3d 0594 33be 3ab3 aa3e 387e 553d
-0.24888329 0.082106926 0.38240167 0.44470695 0.04161411 0.16105025 0.079223566 0.34601262
-0.11120378 0.016828256 0.32364732 -0.015091885 0.3717929 0.21278252 0.08139825 0.13931988
-0.33448172 0.08091414 0.28391808 0.3651996 0.038933076 0.06816365 0.36620325 -0.12371565
0.09779931 -0.044346973 0.31129417 0.2909153 -0.066041835 -0.06943594 -0.043278858 -0.11799229
-0.46381852 -0.064175524 -0.18330054 0.12620208 -0.18556342 0.314064 0.5313122 0.24781726
-0.046919916 0.20823407 -0.1516761 0.2941007 0.26993036 0.102226816 0.011894882 0.2125446
0.11496391 0.2334385 0.28641567 -0.08888533 0.11326597 -0.07046093 -0.07442058 0.06848461
-0.22472186 -0.09199772 -0.16255039 0.22518651 0.120540395 0.15273547 0.12463674 -0.4344453
0.377657 0.01832289 0.11288831 0.013272903 0.31050256 -0.14115317 0.050868206 0.0070165717
-0.0011987712 -0.10488452 -0.18372944 0.36937535 -0.1570538 -0.01781035 0.23655505 0.1543322
0.33494872 0.00571953 -0.022212233 0.18896231 0.20930882 -0.15793677 0.068906814 -0.2578595
0.049408462 -0.20159106 -0.030702773 0.04226956 0.1361833 0.28307152 0.25611132 0.09957396
-0.59347636 0.09181644 0.4217981 -0.24249442 -0.022965511 0.018915882 0.06036133 0.053338032
0.11866828 0.06411469 0.56149954 0.30197296 -0.006734374 -0.08813013 0.018278338 0.26412755
-0.31631324 0.43101835 0.13566557 0.25534207 0.13006915 0.17359649 0.29874295 -0.08373277
-0.24546395 -0.26690078 0.17772354 0.045071743 0.084043 -0.17536934 0.33339864 0.052122325

res_blocks.0.bn1.weight f4 [128]
00000000: 9c37 3b3f 0510 8d3e 7d1d 373f 5677 3f3f
00000010: 121e d63e 1ba1 433e 725f 453f 8318 e73e
00000020: d0b7 283f 29e8 b23e 5eca 403f c685 003d
00000030: a68f eb3e 797a 803f 411e 3f3f eadb ae3e
00000040: a31b 1f3f d21b b43e 0d70 f93e b12a fc3e
00000050: bf22 1f3f 315e 293f 4894 183f f24e 453f
00000060: a49a 153f 3dac 0c3f bbbd 333f 4fd4 a23e
00000070: 8bae ef3e 0d37 f73e f7d3 2a3f dbb3 113f
00000080: 5432 333f 6704 0e3f aa18 e53e c10a 023f
00000090: 8a37 243f 2f28 173f d9de ea3e 9f00 e63e
000000a0: 02be 8b3e 83df b13e 0651 633f 7a2e d83e
000000b0: 51dd e63e 9a0e e93e 7af0 363f bdfd ab3e
000000c0: 20c4 933e 32fe 133f be82 5a3f 9905 143f
000000d0: 2aee 313f 0423 2e3f a901 0b3f 6c0a 8b3e
000000e0: e0b6 b23e f66a e03e 7dca 253f 2332 413f
000000f0: 9f48 323e a389 803e 877d f93e 7c74 ff3e
00000100: 8c17 f13e 3bfd ee3e f192 253f 00a4 6c3b
00000110: 108c 193f 33ee df3e fe11 8e3e 155d f33e
00000120: 5b26 a23e 0016 103f f93d 313f 760d dc3e
00000130: 2a6f 9f3e d15d 2f3f 91dd 783e ca6d 293f
00000140: 764a 1c3f 3f3f 263f 8cad 2e3f f4cc 023f
00000150: 1bca 123f 7d26 233f 0803 123f 3b5b 173f
00000160: 96a6 e63d 61d1 af3e dc00 153f b4e6 953d
00000170: b893 d63e 7150 ca3e 6ac2 3a3f bd0f 353f
00000180: 1b2e 3e3f b9cd 2c3e 6e3c c03e 09bc 0c3f
00000190: a795 093f fc4a 1f3f 9b5a eb3e dfed e73e
000001a0: 4706 0d3f d548 253f 31bb 733f 173d 9b3e
000001b0: c671 df3e 3c32 1f3f a444 083f 38b1 cd3e
000001c0: 8c76 193f 872e 123f b161 b43e 8626 e13e
000001d0: 62ec 133f 4f4f e53e 5482 1d3f cc8e a43e
000001e0: e7e8 0c3f 2aec 043f 13c1 1c3f f109 2f3f
000001f0: 5877 6f3e c534 243f 04b8 393f b355 023f
0.7313173 0.27551284 0.7152937 0.7479147 0.41819817 0.19104426 0.77098763 0.45135888
0.65905476 0.3494275 0.7530879 0.031377576 0.46008033 1.0037376 0.7465554 0.34152156
0.62151545 0.35177475 0.487183 0.4925132 0.62162393 0.6615935 0.5960126 0.77073586
0.5843909 0.54950315 0.7021138 0.31802604 0.46812853 0.48284188 0.6672968 0.5691506
0.6999867 0.5547547 0.4474538 0.5079766 0.64147246 0.5904569 0.45873144 0.4492235
0.27293402 0.34740838 0.88795507 0.4222296 0.45090726 0.45518953 0.7146069 0.33592024
0.2886057 0.57809746 0.85355747 0.5782104 0.69504035 0.6802218 0.5429941 0.2715639
0.34905148 0.43831605 0.647621 0.7546713 0.17410515 0.25105008 0.48728582 0.49893558
0.47088277 0.46677575 0.6467734 0.0036108494 0.59979343 0.4373642 0.27748102 0.47531953
0.31669888 0.5628357 0.6923519 0.4297902 0.311395 0.6850253 0.24303271 0.6618315
0.6105112 0.64940256 0.6823356 0.51093984 0.5733964 0.63730603 0.57035875 0.5912358
0.112622425 0.3433943 0.58204436 0.07319394 0.41909575 0.39514497 0.729529 0.7072714
0.742891 0.16875352 0.37546104 0.5497442 0.53743976 0.6222379 0.45967564 0.4529867
0.55087703 0.6456426 0.95207506 0.30320045 0.4364149 0.62186027 0.5322974 0.4017427
0.59946513 0.57102245 0.35230783 0.43974704 0.57782567 0.4478707 0.6152699 0.32140195
0.5504288 0.5192286 0.6123211 0.68374544 0.2338537 0.6414302 0.7254641 0.50912017

res_blocks.0.bn1.bias f4 [128]
00000000: 0d33 5abf 10ec e2be f99d 50bf 33cf 5ebf
00000010: 989d 8bbe ecbc f53e 97a0 63bf 95e7 66bf
00000020: 7e8c 7bbf 80c1 60bf 6d7c 83bf 4433 b93e
00000030: c7a3 19bf 37aa 7bbf 8cd4 85bf c001 72bf
00000040: 1b52 3dbf a129 2abf 3a78 5abf d0ba 78bf
00000050: e5c6 adbe 427f 48bf 88ad 35bf 9f9c 67bf
00000060: e168 64bf 9446 55bf 0ecf 87bf 429d 323e
00000070: b2ad 32bf 8887 31bf 1067 86bf 9ed1 5abf
00000080: 6d9d 71bf 2ad1 09bf 112a 63bf 0bcd 25bf
00000090: 897c 69bf 8f29 6abf ab2b 11bf a5d1 56bf
000000a0: fbcd 6b3e def1 b1be 1ba1 5fbf 7ffd 3ebf
000000b0: 99c2 25bf 3fe9 4ebf cf1e 38bf 30b8 2dbf
000000c0: ed56 fabe 4bcc 36bf b5e7 9bbf 630c 63bf
000000d0: 201b 76bf 2e50 80bf 732b 15bf d939 7c3e
000000e0: 46a3 dabe 4576 5cbf 14ea 6bbf 281c 82bf
000000f0: cc5c b2be df87 d1be 1147 4ebf 7fa4 61bf
00000100: 7898 5cbf c2f5 19bf d3d7 51bf 042c a63e
00000110: c4ee 70bf 77ba 50bf 9f68 00bf f231 fdbe
00000120: 1606 b2be 593e 44bf ceb4 76bf d84f 4bbf
00000130: 5d1e d1be b0f1 76bf a07f b0be 45da 64bf
00000140: 911b 56bf eea1 57bf 07cc 41bf afd3 61bf
00000150: ab88 21bf e9c2 4fbf 631f 0ebf b0e4 43bf
00000160: 289c 55be d757 56bd b1e7 61bf ef7a 8fbe
00000170: c961 9bbe 7c48 31bf b1ee 5abf a911 6abf
00000180: 7fc9 4abf 5300 a0be 8730 e0be 4269 52bf
00000190: dd22 06bf 5bda 75bf e404 11bf 6976 45bf
000001a0: 6541 74bf 07dc 43bf 243c 5ebf c0cd 043f
000001b0: a024 5ebf 7b24 73bf b985 5dbf 8d3e 243f
000001c0: d73d 33bf 8b2a 61bf 3810 1cbe 22d8 55bf
000001d0: 69ee 5fbf 7978 39bf faae 5ebf 6e34 08bf
000001e0: 1814 60bf 679c 66bf ca7b 2fbf 7bfc 46bf
000001f0: 8230 c6be f829 34bf c3f0 8abf b21d 60bf
-0.8523415 -0.44320726 -0.8149105 -0.8703491 -0.27268672 0.47995698 -0.88916916 -0.90197116
-0.9826125 -0.8779526 -1.0272347 0.36171925 -0.6001553 -0.983066 -1.0455489 -0.9453392
-0.7395341 -0.6646977 -0.853397 -0.97160053 -0.33940807 -0.7831918 -0.7096791 -0.9047336
-0.8922253 -0.8331082 -1.0610063 0.17442802 -0.6979629 -0.6934743 -1.0500202 -0.854761
-0.9438084 -0.53834784 -0.88736063 -0.64765996 -0.9120565 -0.91469663 -0.5670726 -0.8391364
0.23027794 -0.34754843 -0.873552 -0.74605554 -0.6475006 -0.80824655 -0.7192201 -0.6785917
-0.48894444 -0.71405476 -1.2180086 -0.88690776 -0.9613514 -1.0024469 -0.58269423 0.24631442
-0.42702693 -0.86117965 -0.9215405 -1.0164843 -0.34836423 -0.40923974 -0.8057719 -0.88141626
-0.8617015 -0.6014062 -0.81969947 0.32455456 -0.9411433 -0.8153452 -0.5015964 -0.49452168
-0.34770268 -0.76657635 -0.96369636 -0.79418707 -0.40843478 -0.96462536 -0.3447237 -0.8939555
-0.83635813 -0.8423146 -0.75701946 -0.8821363 -0.63099164 -0.81156784 -0.5551664 -0.76520824
-0.2086035 -0.052329864 -0.8824416 -0.28023478 -0.30348042 -0.6925123 -0.85520464 -0.914332
-0.7921371 -0.31250247 -0.43787023 -0.8219186 -0.5239695 -0.9603631 -0.5664809 -0.77133805
-0.95412284 -0.7650761 -0.8681052 0.5187645 -0.86774635 -0.9497754 -0.8653217 0.64157945
-0.70016235 -0.8795554 -0.15240562 -0.8353292 -0.8747316 -0.7244945 -0.86985743 -0.53205
-0.8753066 -0.900824 -0.6854826 -0.77729005 -0.38708884 -0.7037654 -1.0854725 -0.8754531

res_blocks.0.bn1.running_mean f4 [128]
00000000: e041 01c3 c54c 2ec3 8346 07c3 36a0 02c3
00000010: 2027 f5c3 b787 0cc4 6932 0ac3 ae21 82c3
00000020: 0fab 24c4 e766 2bc4 e08c aac3 6010 df42
00000030: 644d e2c2 17b5 35c3 df42 13c2 1252 00c4
00000040: a5c4 a0c2 edcc 43c3 188a 42c4 0a44 a8c3
00000050: 00be 8643 14ea bac2 9a9e 0bc1 90ef fbc2
00000060: f720 3ac4 bcd2 3bc4 1e0d 2fc4 1a97 53c3
00000070: d2ca 2fc1 c11c f942 99a3 47c4 1498 23c4
00000080: 3574 8cc3 2cdf 3fc3 7b78 80c3 04e5 cdc3
00000090: 2e96 0bc4 1e37 e541 accb 83c3 ea40 e3c2
000000a0: bd94 d643 6625 8343 2ed9 13c3 4c20 56c3
000000b0: 5e79 d2c3 05fd 14c4 6709 1dc3 2f90 6bc3
000000c0: 0908 35c3 1b00 95c3 4e98 833f 78a9 3ec4
000000d0: 4c12 c1c3 4ee4 27c4 850c 6ac3 e016 2943
000000e0: 2b6f 7d40 ccfd 7cc3 5eb1 08c4 91e6 b6c3
000000f0: e9df 86c3 77bb 2942 eaa3 33c4 44df e4c3
00000100: 2b17 3ec4 8bea 06c3 04d6 9fc3 4dd1 ff42
00000110: 673a 49c4 3291 dec3 ba90 bec3 32df 5dc2
00000120: 3069 2fc3 2a03 c441 e68e cdc3 149a 44c4
00000130: b980 5ec3 8701 b2c3 f08c e5c3 eb28 cac3
00000140: 2f40 dfc3 796e 3ac2 7d66 7cc3 6222 c9c3
00000150: bcd1 b3c3 0d47 04c0 f87d 92c3 2172 5fc3
00000160: c407 e1c3 9ef3 b7c2 89c2 36c4 bf80 d742
00000170: 883e ccc3 b565 b2c3 f276 d9c2 28ee 7dc0
00000180: d12e bbc2 e027 8fc3 95e6 f9c3 90e2 3bc4
00000190: bc3a a1c3 d495 32c4 efed ebc0 150f 5ec3
000001a0: d39c c2c3 66bc bec2 bb15 e0c1 1e9e c4c3
000001b0: cfd1 68c3 730e 38c4 1934 2dc4 1a4c b9c3
000001c0: 67e9 4ac3 32ee 48c4 950d b543 fd5e 70c3
000001d0: e05c 31c4 6ddc 89c3 fc78 27c4 d104 d2c3
000001e0: 2ca1 3ec4 fa0f 31c4 0ad0 c7c2 061f 61c3
000001f0: b08d 3443 c32e 8bc0 efca 24c4 2572 2fc4
-129.25732 -174.29988 -135.27544 -130.62582 -490.30566 -562.12054 -138.19691 -260.26312
-658.6728 -685.60785 -341.1006 111.53198 -113.15115 -181.70738 -36.815304 -513.28235
-80.38407 -195.80049 -778.1577 -336.53156 269.48438 -93.457184 -8.726221 -125.967896
-744.5151 -751.2927 -700.20496 -211.59024 -10.987017 124.55616 -798.5562 -654.3762
-280.90787 -191.87177 -256.94125 -411.78918 -558.34656 28.651913 -263.5912 -113.626785
429.16202 262.29218 -147.84836 -214.12616 -420.94818 -595.9534 -157.03673 -235.56322
-181.03139 -298.00082 1.0280855 -762.64795 -386.14294 -671.56726 -234.0489 169.08936
3.9599102 -252.9914 -546.77136 -365.8013 -269.7493 42.43307 -718.56116 -457.74426
-760.362 -134.91618 -319.672 127.90879 -804.91254 -445.13434 -381.13068 -55.467964
-175.41089 24.501545 -411.1164 -786.4075 -222.50282 -356.01193 -459.10107 -404.31967
-446.50143 -46.607883 -252.40034 -402.26862 -359.63855 -2.0668366 -292.98413 -223.44582
-450.06067 -91.975815 -731.0396 107.75146 -408.48853 -356.7946 -108.732315 -3.967661
-93.59144 -286.31152 -499.80142 -751.54004 -322.45886 -714.34106 -7.3727946 -222.05891
-389.2252 -95.367966 -28.01061 -393.2353 -232.81956 -736.22577 -692.814 -370.59454
-202.91173 -803.7218 362.1061 -240.37105 -709.4512 -275.72208 -669.8904 -420.03763
-762.5183 -708.24963 -99.90633 -225.12119 180.55347 -4.349458 -659.17084 -701.7835

res_blocks.0.bn1.running_var f4 [128]
00000000: 82f5 6f47 8921 bf46 74c8 6847 40e5 7b47
00000010: 25d6 3746 2d75 0245 0c49 6347 c0ef e746
00000020: a335 d047 46eb 6047 ebb8 4147 7b15 4947
00000030: 143f c546 c2ff 9a47 f75a 1f46 d393 7147
00000040: 44b1 7947 377c 0246 d365 9047 ad0a 8545
00000050: 09e8 8747 da59 6a47 c212 6b47 90f1 7f47
00000060: 1f3a 1148 3a9d 1248 1da0 e447 a2df 8d45
00000070: 9a29 1547 c833 d845 95a0 0848 5947 ee47
00000080: 21e2 ad47 4f29 8647 eb7c 0e47 adb2 3247
00000090: 3a39 a147 c5ad 3c46 0124 4646 d5de f045
000000a0: 44e6 7746 5029 7f47 3587 8d47 2a7a d545
000000b0: 3887 1545 b1a8 c947 fffa 2147 7649 1a46
000000c0: 09d4 ac46 d25c 1047 f123 c446 05c1 f247
000000d0: e541 5747 af80 cb47 6e36 1d47 8da1 ff46
000000e0: ec05 7947 b89e 2247 7194 b647 c657 5347
000000f0: 6b22 da45 8cef 7747 edf8 0348 3f87 5947
00000100: ab51 f846 a8ea c847 ff60 f746 bfd4 4b47
00000110: 5160 1148 55fd a647 8eb6 b146 d6ae 1a47
00000120: 6de3 ca46 5012 9e46 210e a847 2459 0a48
00000130: dd56 dc47 b798 5347 06e2 9c46 cca0 6647
00000140: d8d4 4747 a685 1247 7f2d 7e47 5697 1547
00000150: 84e3 0847 60a8 8a45 f0a0 e547 f2fc 6c47
00000160: 0421 8744 0bf1 6b47 03de 0348 11d7 5946
00000170: 08b4 0047 4568 0147 6666 7b47 0b5b e545
00000180: bea6 6d47 edcc e545 736c fc45 6578 0348
00000190: ac4f 0b47 4d8f bd47 3357 8044 7c58 4246
000001a0: 13a6 4846 8be2 3e47 ef72 0646 1e7d 6d45
000001b0: e5af 0e47 cf75 d947 1879 fc47 587b 6746
000001c0: c4b0 6e47 e2f6 f147 7386 0c47 8d3f 0647
000001d0: f79d d247 9ca7 2e46 3f44 a147 0e94 1447
000001e0: 0729 0948 f45c c647 928f 2147 bc19 8c45
000001f0: cbda ca45 e963 4a46 93ee d947 30c7 a347
61429.508 24464.768 59592.453 64485.25 11765.536 2087.3235 58185.047 29687.875
106603.27 57579.273 49592.918 51477.48 25247.54 79359.516 10198.741 61843.824
63921.266 8351.054 73931.65 4257.3345 69584.07 59993.85 60178.758 65521.562
148712.48 150132.9 117056.23 4539.954 38185.6 6918.4727 139906.33 121998.695
89028.26 68690.62 36476.918 45746.676 82546.45 12075.442 12681.001 7707.854
15865.566 65321.312 72462.414 6831.2705 2392.4512 103249.38 41466.996 9874.365
22122.018 36956.82 25105.97 124290.04 55105.895 104193.37 40246.43 32720.775
63749.92 41630.72 93480.88 54103.773 6980.3022 63471.547 135139.7 55687.246
31784.834 102869.31 31664.498 52180.746 148865.27 85498.664 22747.277 39598.836
25969.713 20233.156 86044.26 141668.56 112813.73 54168.715 20081.012 59040.797
51156.844 37509.65 65069.496 38295.336 35043.516 4437.047 117569.875 60668.945
1081.0317 60401.043 135032.05 13941.767 32948.03 33128.27 64358.4 7339.3804
60838.742 7353.6157 8077.556 134625.58 35663.67 97054.6 1026.725 12438.121
12841.519 48866.543 8604.733 3799.8198 36527.895 111339.62 129266.19 14814.836
61104.766 123885.766 35974.45 34367.55 107835.93 11177.902 82568.49 38036.055
140452.11 101561.91 41359.57 4483.217 6491.349 12952.978 111581.15 83854.375

res_blocks.0.linear2.weight f4 [128, 128]
00000000: 8f1a f7bb 4170 ffbd 30e2 1039 488e 70bd
00000010: 2399 6f3d e81e c93d b716 8cbd f741 36bd
00000020: 56fd 61bf 0826 14bf 178b 4f3d 1651 86be
00000030: b1db f1bc d7fe f83c 2422 4ebe 09fe a7bd
00000040: ac1e cdbc 2c24 573d ec47 13bf 012b 563d
00000050: b920 e8bc d8ac aabc f23c a3bd be9a 4bbd
00000060: e986 8ebf a7a3 91bf 0db9 64bf c6ac 863d
00000070: 85fb f93d 188c 21be efa8 24bf fecf 65bf
00000080: d724 f43c bbf0 c93d 33d0 8a3d 3d31 043e
00000090: 67e0 54bf d8a2 2fbe 2de1 cf3c 7fa5 a83c
000000a0: 384c 35be 3768 5cbe 48c4 7d3c c5bd 733d
000000b0: 25ce 85bd aea4 5e3f edaf ab3d 9839 db3c
000000c0: 1160 423c ae76 f23b 1e6d 0abe 76e4 71bf
000000d0: eff9 c13d cf04 36bf 721e b63d 89d5 743c
000000e0: dd0f 4fbe 9ada debd 5437 87bf 4f90 e43d
000000f0: a2aa 1abe ed8f f7bd 34fa 08bf 4d86 7a3f
00000100: 9297 07bf 87e0 b3bd 4e33 dabd 6754 59bd
00000110: 1d20 49bf 1a37 313f 0353 44bc a574 7c3f
00000120: 129b f6bb 4cab d03e fbe1 64bd 1356 e43e
00000130: f00e 04be 5386 1c3d 3882 e93c aff0 eb3d
00000140: 9a66 203d c016 d6bd 6a44 0e3d 06fa f23e
00000150: 5d70 963d 3b12 c5bd f7eb 9cbd 486a 0a3e
00000160: 7ea8 d33d 368d 48bd b477 70bf ad4d c8bd
00000170: 2cfb d23d 8b85 b8bd 589f 5e3d 955d 18be
00000180: 618d a83d 663f 1e3d b92a a43c bc7c 52bf
00000190: 6c85 a5bd e0d7 48bf 2bc9 48bd a046 da3d
000001a0: 4e22 d8bd 0f55 963d d348 a73f ee01 69bd
000001b0: 9484 b6bc 2c71 30bf 8f5c a7be 9558 13bc
000001c0: b307 6a3c 5c3c 31bf 272e 78bd fdf9 1ebc
000001d0: e4be 20bf 3ab5 2e3c 16df afbe 44db 80bd
000001e0: 2c38 7dbf 49e6 a13e 159f eabc 1cff 57bd
000001f0: 7b16 e0bd 9863 073f 7346 78bf 9cbf 1cbe
00000200: dac2 6c3d 1f95 dcbd 2cbd 97bd 1639 4e3d
00000210: b2d0 053d 1643 323e cb31 a5bd d673 c0bd
00000220: 9169 5abf 9fa8 0ebf b650 f43c ca0a 8ebe
00000230: 060f ff3b 195d 1d3d c194 31be fdc0 2fbe
00000240: fa46 e13b 1d55 b43a 2a5c 1dbf 9965 973d
00000250: 6c2e 4fbd 9f9a 813d 39be dabd 0643 5bba
00000260: 19e5 90bf e41b 9dbf 9683 71bf b9c5 b93d
00000270: f3db 073e ce5e a2bd c074 31bf fa77 6ebf
00000280: b878 cebd a3dd 8fbc a188 9abd a720 bf3d
00000290: e3a0 5ebf 5f0d 34be 7b53 88bd 597a eebc
000002a0: d914 30be 41b5 f6bd f9c6 6d3d 07ff 7f3c
000002b0: bb83 e73c bff3 433f 6489 e83d 583a fcbc
000002c0: badf 80bb ed68 803d 89e4 b2bd 1315 66bf
000002d0: 4381 a83d ca84 50bf 82e8 bf3d a595 0dbc
000002e0: 2ced cebd b51d 63bd f4d9 90bf 6470 8d3c
000002f0: d043 a7bd c9fa 42be e740 28bf 7ba9 563f
00000300: ae84 13bf f661 d8bd 2e3f f1bc c056 0dbd
00000310: dfe6 75bf dd90 2e3f 0d0b 8dbd c32b 8c3f
00000320: c897 fcbc c46b bb3e 9be2 93bc 0488 c43e
00000330: 3059 40bd b94b e8bc 76c7 0bbc 6b92 0a3e
00000340: debf b13d ca28 d9bd a13b ca3d 0062 b53e
00000350: 264c 803d 6656 0f3d 3181 0cbd f3db 21bc
00000360: 0a0b 453a 8f6c ebbd b81d 85bf eaa7 293b
00000370: c0f7 f73d 7c5a c5ba 7c97 8ebd 0cb6 f3bd
00000380: ddb3 cd3d 9710 123b c656 193c a524 49bf
00000390: f0ac 8cbb 11d0 39bf 38ec 46bd 1eca f63d
000003a0: d8c2 8abd 7ec7 43bd d407 a13f 7029 90bd
000003b0: 5283 f3bd 7af8 1fbf dab2 cfbe 96a9 2abd
000003c0: acce 973c db4e 34bf 5875 fbbc 2c20 0c3d
000003d0: 4ed5 37bf f2bd 673d ad46 85be 399d 033b
000003e0: b42e 88bf 6296 e23d e2e0 45bc 398a 06bc
000003f0: f492 8ebd 190a ee3e 2613 88bf aa9f 5bbe
-0.007541008 -0.124725826 0.00013817172 -0.05872944 0.058495652 0.09820348 -0.0684027 -0.044496503
-0.88277185 -0.5787053 0.050669756 -0.2623374 -0.029523702 0.030394955 -0.20130211 -0.0820275
-0.02503904 0.05252473 -0.5753162 0.052287105 -0.028335916 -0.020834371 -0.07970609 -0.04970812
-1.1134921 -1.1378068 -0.89344865 0.06575923 0.12206177 -0.15776098 -0.6432027 -0.89770496
0.029802723 0.09860369 0.06777992 0.12909408 -0.8315491 -0.17151964 0.025375927 0.020586727
-0.17704856 -0.2152413 0.015488692 0.05950715 -0.065334596 0.8697003 0.083831646 0.026760861
0.011863724 0.0073994016 -0.13518187 -0.9448923 0.09471499 -0.7110109 0.08892526 0.014943489
-0.20220895 -0.10881539 -1.056376 0.11160337 -0.15104154 -0.120879985 -0.5350678 0.97861177
-0.5296565 -0.087830596 -0.10654317 -0.053059008 -0.78564626 0.69224703 -0.011982682 0.98615485
-0.00752581 0.4075569 -0.055879574 0.4459692 -0.12896323 0.03821404 0.028504476 0.11520516
0.03916035 -0.10453558 0.034733213 0.47456378 0.0734565 -0.09622618 -0.07662194 0.13517106
0.10334872 -0.048962794 -0.9393265 -0.097804405 0.103018135 -0.09009846 0.05435118 -0.14879449
0.08230091 0.03863468 0.020039903 -0.8222158 -0.08082089 -0.784544 -0.049019974 0.10658002
-0.10553418 0.073404424 1.3069099 -0.056886606 -0.022280015 -0.68922687 -0.32687804 -0.008993288
0.014284062 -0.69232726 -0.06059089 -0.009703157 -0.62791276 0.010663325 -0.3434989 -0.062918216
-0.98913836 0.31621006 -0.02864031 -0.052733526 -0.10941788 0.52886343 -0.96982497 -0.15307468
0.057803012 -0.1077063 -0.074091285 0.05034741 0.03266973 0.17408404 -0.08066138 -0.09397094
-0.8531733 -0.55726045 0.029823642 -0.27742606 0.0077837734 0.038418863 -0.17341901 -0.17163463
0.006874916 0.0013758276 -0.61468756 0.07392425 -0.05058138 0.0632832 -0.10680813 -0.0008364174
-1.1319915 -1.2274137 -0.9434141 0.09070916 0.13267498 -0.07928239 -0.6931877 -0.9315182
-0.10081619 -0.01756174 -0.07545591 0.093324 -0.86964244 -0.17583226 -0.06656548 -0.029111074
-0.17195453 -0.1204629 0.058051083 0.015624768 0.028261056 0.765438 0.1135433 -0.03078954
-0.0039329203 0.06270013 -0.08734996 -0.89875907 0.0822778 -0.8145262 0.09370519 -0.008641635
-0.10103831 -0.055448253 -1.1316514 0.017265506 -0.08167231 -0.1904098 -0.65724033 0.83852357
-0.5762433 -0.105655596 -0.029449072 -0.03450656 -0.96055406 0.68189794 -0.068868734 1.0950855
-0.030834094 0.36605656 -0.01805239 0.38385022 -0.046960056 -0.02835642 -0.008531442 0.13532417
0.08679174 -0.10603483 0.098746546 0.3542633 0.06264524 0.034994505 -0.034302894 -0.0098791
0.00075165986 -0.11495315 -1.0399694 0.0025887438 0.121078014 -0.0015056874 -0.06962487 -0.11899957
0.10044072 0.002228772 0.009359067 -0.7857154 -0.0042930767 -0.7258311 -0.04856512 0.120502695
-0.06775445 -0.047797672 1.2580514 -0.070391536 -0.11890282 -0.6248852 -0.4056614 -0.041665636
0.018531166 -0.70432824 -0.030695602 0.03421037 -0.7180985 0.05657763 -0.26030484 0.0020082726
-1.0639253 0.110638395 -0.012077542 -0.008211666 -0.06961623 0.4649208 -1.0630844 -0.21447626
