model/linear_resnet_model_400epoch54output.pt (torch, 162360 bytes, 44 tensors)

input_layer.0.weight f4 [64, 118]
000000 d7 76 2d 3d 49 e0 f0 3c 39 4e e1 3d ff f3 a6 bd
       0.042349663 0.029403822 0.11001248 -0.08152007
000010 da d3 bf 3c 6b 0d 9d 3d bd 81 d3 3c 47 a4 26 bd
       0.023416448 0.07668575 0.0258187 -0.04068401
000020 3d 12 e7 3d 82 e7 9a bd f6 f5 45 3d e2 64 3a 3b
       0.112827756 -0.07563688 0.04833027 0.0028441478
000030 e9 13 d1 bc ab 5e b0 3d af 2a de bd 6f 39 dd bd
       -0.02552219 0.086118065 -0.10847985 -0.1080197
000040 11 e4 e9 3c 4b 48 3f 3d ca d3 f9 3d 9c 6e be 3d
       0.028551133 0.046699803 0.12198599 0.09298441
000050 34 53 a4 bc 7f 1b bf 37 1f 82 2e 3c ae 95 ca 3d
       -0.020059206 2.2781778e-05 0.0106511405 0.098918304
000060 92 32 33 3d d5 64 c4 bb b5 55 d7 3c 7f 4c 9c bd
       0.0437494 -0.0059934654 0.026285985 -0.07631778
000070 bf e3 2d 3e 73 d7 8d bc bd 32 ae 3c 5e f5 dd bd
       0.1698141 -0.017314648 0.021264428 -0.10837816
000080 d8 4e 95 bd a3 4e 6a bd dd df 04 3e e1 b8 ba bd
       -0.07290429 -0.0572039 0.12976022 -0.09117294
000090 f5 c5 80 3d a3 d6 89 3c 30 b8 da bc 2d 82 e0 39
       0.06287757 0.01682598 -0.026699156 0.00042821598
0000a0 48 8a cf 3c a9 69 5e bd a9 2a 38 bd fb d6 09 be
       0.025334492 -0.054299984 -0.04496256 -0.13460915
0000b0 3f 58 6d bd 5b c9 69 3d 0c 9d 19 bd f1 5a 80 3c
       -0.057945486 0.057076793 -0.037503287 0.015668364
0000c0 59 f4 be bd 74 42 25 bb b0 12 19 bd 00 11 ba 3d
       -0.09323949 -0.002521661 -0.037371337 0.09085274
0000d0 3a 8c 9e 3d f4 13 15 bd 12 78 2e 3c 6c 43 22 3d
       0.0774159 -0.036395982 0.010648744 0.03961508
0000e0 6d 6a 8b 3d da 57 82 3d dc e4 43 3d a3 6d 07 bd
       0.068074085 0.063644126 0.04782568 -0.033063542
0000f0 30 98 91 3d f0 9c 17 bd f5 8f 01 3e 4b d4 b5 3d
       0.071091056 -0.0370149 0.12652571 0.08878382
000100 0f 03 4e 3c 82 3b 90 bc e4 65 b6 bc c4 5b 22 be
       0.012573971 -0.0176065 -0.022265382 -0.15855318
000110 d4 14 97 bc f9 08 14 3d b7 72 d1 bd 38 ae 7e 3d
       -0.018442549 0.03614137 -0.10226958 0.062177867
000120 f7 49 a0 3d 47 3c d4 3d 86 e3 a9 39 1e a8 b4 3d
       0.07826608 0.103630595 0.0003240371 0.08821128
000130 e9 50 15 bd 76 76 3f 3d 39 0c 28 bb 59 48 d7 bd
       -0.036454115 0.046743833 -0.002564205 -0.10511846
000140 1d f6 86 3c 2c b7 69 bd ec a2 f2 bd e2 6d 02 3d
       0.016474778 -0.057059452 -0.11847481 0.031843074
000150 21 e9 27 3d c5 3e e0 ba e5 e7 02 bd 1a 6b 82 3d
       0.040993813 -0.001710855 -0.031959433 0.06368084
000160 0e 4c f6 3d 84 09 02 be 5b a3 f9 3d 5f 4f 44 3e
       0.12026225 -0.12698942 0.12189361 0.19170903
000170 a7 79 dc 3c 6a 04 d8 3c d6 34 ec 3c d8 3a ab bd
       0.026913477 0.026369292 0.028833788 -0.08360833
000180 e5 1f a4 bd 1e a5 32 3d 4e 9a ba 3d 19 a5 f9 bd
       -0.08013896 0.0436145 0.091114625 -0.12189693
000190 0a ea 62 bd f4 8b ce bd f7 b3 a9 3d 8f e7 24 bc
       -0.05539898 -0.10085288 0.08286279 -0.0100649735
0001a0 fb 58 c6 bd fc 1e af 3d 6a 87 ab bc 80 2a 52 bd
       -0.096849404 0.08550832 -0.020938594 -0.051310062
0001b0 11 8c ad bc 32 dc 01 be 89 82 1b 3c b7 69 01 3d
       -0.021184953 -0.12681654 0.009491571 0.03159496
0001c0 06 dc e5 3c 55 71 f5 bc 42 c6 7c bd ed cc 39 bd
       0.028059017 -0.029961267 -0.06171251 -0.045361448
0001d0 43 0a b3 bd af eb 2a bd 6a 3f 20 3d 53 66 d4 3c
       -0.08742192 -0.04172867 0.039122976 0.025927698
0001e0 63 4c d5 bd 78 8a 53 3d d2 b6 54 bd 40 5e ac 3d
       -0.1041496 0.051645726 -0.051932164 0.08416414
0001f0 44 ed 3c bd 35 20 61 3e 40 8c c8 bd d9 35 eb bc
       -0.04612471 0.21984942 -0.097923756 -0.0287122
000200 7c 94 f6 3d 78 36 2e 3d 35 e5 9a bc 56 f7 a2 bd
       0.1204004 0.042532414 -0.018908123 -0.07957332
000210 b1 9c 8f bd b8 37 be 3d 19 f0 07 3d f6 6b 5f bc
       -0.070123084 0.09287971 0.03318796 -0.01363658
000220 7b fc 41 bc 33 5b 04 bd 56 ee a2 3d 84 4b 03 be
       -0.011839981 -0.032313537 0.07955615 -0.12821776
000230 79 ef 84 3b c3 19 26 be 2a de 0f 3e 32 d7 bb 3d
       0.0040568677 -0.16220765 0.14049593 0.091719046
000240 32 d7 3a 3e bf c9 8b 3d 57 eb 63 be 70 f5 35 bd
       0.18246153 0.068255894 -0.22257744 -0.04442352
000250 d2 8e c7 3d 91 f7 a2 3d 28 dd 88 bd b8 55 1c 3d
       0.09744038 0.07957376 -0.06682807 0.038167685
000260 58 08 3c bd 69 6c 12 3e 37 53 c2 bd 88 55 86 3c
       -0.045906395 0.14299168 -0.09488528 0.016398206
000270 6c 7a bc bd c4 2f 48 3d 35 ed 13 3d b3 68 f4 bb
       -0.092030376 0.048873678 0.03611489 -0.00745877
000280 56 30 d5 3c 09 2f fd 3d 79 c4 3e be 94 17 88 bc
       0.026024025 0.12362487 -0.18629636 -0.016612805
000290 89 9d 8c bb d5 b5 df 3d 9f cf 3e bd 87 94 9f bd
       -0.0042912406 0.109233536 -0.04658472 -0.07792001
0002a0 fd 78 03 3d 6a 34 fe bd c5 f6 90 3d af 8d 13 3d
       0.032097805 -0.12412341 0.070783176 0.036023792
0002b0 1e d8 bb 3d 42 b8 05 be fc e6 11 3d 54 67 a3 bd
       0.091720805 -0.1305857 0.035620674 -0.07978693
0002c0 29 21 29 3d 10 e6 83 3d 99 aa 16 3e ae 0d 27 bc
       0.04129139 0.06440365 0.14713515 -0.010196133
0002d0 44 aa 36 be dd 81 27 be d1 bc 76 3d 04 12 03 be
       -0.17838389 -0.16358133 0.060238663 -0.12799841
0002e0 2f d7 ba 3d 75 56 0e be 1f e4 fa 3d ec 6a c7 bd
       0.09123074 -0.13900168 0.12250542 -0.097371906
0002f0 c0 60 fe 39 a9 7b 2b bc d0 49 9e 3d be f6 89 3d
       0.0004851874 -0.010466495 0.07728922 0.067365155
000300 d1 46 a9 3d 74 73 07 3d 58 35 e8 3d a2 f8 2d 3d
       0.0826546 0.03306909 0.113382995 0.042473443
000310 c8 2b d2 3d f9 df 45 bc 9c e5 0a bd 0e 55 5e 3d
       0.10262257 -0.012077325 -0.03391038 0.054280333
000320 8a ea 96 3c 6f 85 46 3d 83 f8 8f bc 92 1f 90 bd
       0.018422384 0.048467096 -0.017574554 -0.070372716
000330 4c d5 bb 3d 06 50 fc bc 10 4e 25 bd aa a5 8f 3c
       0.091715425 -0.030799877 -0.04035765 0.01753505
000340 0d c1 29 3d c3 2c f8 bd 36 87 8c 3d 88 c5 a2 3d
       0.041443873 -0.121179126 0.06861727 0.07947832
000350 58 f9 01 be 32 f9 79 3d d9 e1 cb bd 3c d1 5c be
       -0.12692773 0.061028667 -0.099551864 -0.21564192
000360 aa cc 12 be d6 41 50 bd 8a 26 e0 3d 8f 94 89 3c
       -0.14335886 -0.050844036 0.10944851 0.016794471
000370 b0 a5 10 3e 01 87 9f bc e9 b5 0a 3e b2 2c 3e bd
       0.14125705 -0.019473555 0.13545956 -0.046429344
000380 c0 9f 23 bd d1 fe e9 bc db 8f 15 3e fa 84 b2 bd
       -0.03994727 -0.028563889 0.14605658 -0.087167695
000390 43 29 c6 bc a5 d2 06 3d ba 25 df 3d 5a a8 08 bd
       -0.024189597 0.03291573 0.10895868 -0.033363678
0003a0 f0 d8 b1 bd c3 d2 6a bd 82 45 34 bc 0b d8 ea 3d
       -0.08683956 -0.057329904 -0.0110029 0.11466988
0003b0 9a cf 39 3c 21 91 bf 3b 9c 12 cb 3d fd dc 80 bd
       0.011341 0.005846158 0.09915659 -0.0629215
0003c0 fe b2 08 3e f5 b5 3f 3d e8 9b 5d 3d f6 a9 ee ba
       0.1334953 0.046804387 0.054103762 -0.0018208611
0003d0 ed 67 1c bd b5 69 84 3d 00 79 38 3d 23 9f 05 3e
       -0.03818505 0.064654745 0.04503727 0.13048987
0003e0 0f 46 5b bd 01 dd ad bc d1 7a 46 3c 02 3a 52 bc
       -0.05353361 -0.021223547 0.012114243 -0.012831213
0003f0 26 d1 f3 bd cb 2f 17 be 1b ad ab 3d b9 06 38 3c
       -0.11905126 -0.14764325 0.083826266 0.011232072

input_layer.0.bias f4 [64]
000000 f1 38 b0 bd 1e 38 18 3e 68 02 4d bd 6a 29 6b 3d
       -0.08604611 0.14865157 -0.050051123 0.057412542
000010 eb 42 3e bd 5e 54 cb bd 22 2a a8 bc 62 e2 99 bc
       -0.046450537 -0.09928201 -0.020527903 -0.018784706
000020 73 d9 c8 bc c0 69 23 be e0 92 00 3b 19 2c 48 bc
       -0.02451775 -0.15958309 0.0019618794 -0.012217545
000030 cd 76 9c bd e6 f0 f2 bd e2 5d fa bc 41 1c cd bd
       -0.07639847 -0.11862354 -0.030562345 -0.10015155
000040 95 4d ce 3b 67 06 7e bd 29 0d be 3c 6f f9 b3 bd
       0.0062958696 -0.062017825 0.023199635 -0.0878781
000050 8b 34 1d 3d 1d f2 19 3d 56 02 3d bd 1b c6 90 3c
       0.038380187 0.037584413 -0.046144806 0.017672589
000060 7e b8 8d bd 98 8d 7f 3c 39 6c 52 3c 4c 30 f4 3d
       -0.06919955 0.015597723 0.012843185 0.119232744
000070 50 12 2f bb 86 bc 19 3e 74 b1 fd 3c d4 08 8f 3d
       -0.0026713796 0.15013322 0.030968405 0.06984106
000080 27 46 79 bc 2f 27 0a 3d 56 9d 8b bd 16 cd 87 bd
       -0.0152144795 0.033728775 -0.06817119 -0.06630914
000090 fe 9a eb 3d 7c b3 92 3d aa 31 1e bd ac 91 91 bd
       0.11504172 0.0716314 -0.038621582 -0.07107863
0000a0 aa 0f 0b 3e f0 f9 81 3d 21 40 16 bd fe 46 77 bd
       0.13580194 0.063465 -0.03668225 -0.060370438
0000b0 52 44 a8 3d 04 3a 09 bd 5c 48 40 3d 2b c4 1c be
       0.08216156 -0.033502594 0.046944007 -0.15309207
0000c0 30 4a 03 bd 6a ae 05 3e 45 eb 53 bc 41 75 b5 bc
       -0.032053173 0.13054815 -0.012934511 -0.022150638
0000d0 8d 4e 80 3d 48 f7 39 bd 29 e4 32 bc 02 00 63 3d
       0.06264982 -0.04540184 -0.010918655 0.05541993
0000e0 a4 d3 74 3c 0a 8b e4 3b ae 93 b7 3c ca 03 bb 3d
       0.014943037 0.0069745826 0.022409286 0.09131582
0000f0 6e 60 dd 3d ec 95 25 bd 1f 5e 3f 3c b5 86 72 bd
       0.10809408 -0.04042618 0.011680155 -0.059210498

input_layer.1.weight f4 [64]
000000 e6 89 ef 3f 5b dd fe 3f 42 e9 ea 3f c5 3b ec 3f
       1.8713958 1.9911302 1.8352435 1.845574
000010 98 80 01 40 09 a5 fb 3f 79 25 f6 3f 15 4a f6 3f
       2.0234737 1.965974 1.9230186 1.9241358
000020 12 39 cd 3f d7 9e f1 3f d2 1e ea 3f ed 55 00 40
       1.6033041 1.8876599 1.8290656 2.0052445
000030 f2 e9 fc 3f d7 bd f1 3f 5c db ed 3f 25 8c ee 3f
       1.9758894 1.888606 1.8582568 1.8636519
000040 f7 1b 00 40 9a ec 03 40 3c d6 04 40 9e 10 ce 3f
       2.0017068 2.061316 2.0755758 1.6098821
000050 d2 3a f2 3f e2 4b ec 3f 0e 60 ec 3f e5 0f f0 3f
       1.89242 1.8460658 1.8466814 1.8754851
000060 04 ac f1 3f da 68 eb 3f b9 df ef 3f 2c a1 eb 3f
       1.888062 1.8391373 1.874015 1.8408561
000070 c9 54 ef 3f e3 ea b4 3f e0 2d f2 3f c3 9f eb 3f
       1.8697749 1.4134182 1.892025 1.840813
000080 15 91 e9 3f c5 36 f5 3f 1f 00 f0 3f fa bb d5 3f
       1.82474 1.9157339 1.8750037 1.6697991
000090 a9 02 fb 3f e6 c4 f4 3f cd e4 d2 3f bd c5 f0 3f
       1.9610187 1.9122589 1.6476074 1.8810345
0000a0 a3 bb e8 3f 95 06 f1 3f d2 4e ed 3f 65 ce fe 3f
       1.8182262 1.8830134 1.8539679 1.9906737
0000b0 0c ed ea 3f 92 ee f2 3f 16 f5 f7 3f 40 68 f1 3f
       1.8353591 1.8979056 1.9371669 1.885994
0000c0 57 ba f6 3f 21 9b f5 3f 2e ce d8 3f 4e f2 ea 3f
       1.9275616 1.9187967 1.6937921 1.8355196
0000d0 32 e4 02 40 41 cd ee 3f 1f 28 00 40 0f 91 f9 3f
       2.045178 1.8656389 2.0024488 1.9497393
0000e0 36 fb ee 3f d4 38 fb 3f 4c 09 e9 3f 8b b6 fd 3f
       1.8670413 1.9626718 1.8205962 1.9821333
0000f0 f1 4f ee 3f fe 16 fd 3f 39 3a d0 3f 68 de f4 3f
       1.8618146 1.9772642 1.6267768 1.9130373

input_layer.1.bias f4 [64]
000000 bc b5 6c 3f c3 89 84 3f 64 4c 67 3f 1a 5d 83 3f
       0.92464805 1.0354542 0.9035094 1.0262787
000010 2f 7d 84 3f 23 1a 79 3f 69 f1 86 3f a8 e0 82 3f
       1.0350703 0.97305506 1.0542423 1.022481
000020 75 35 6d 3e 83 4c 7d 3f 63 f1 5a 3f 45 06 7e 3f
       0.23164923 0.9894487 0.85524577 0.99228317
000030 9f a8 6e 3f 2c 2f 7b 3f bc c2 77 3f 6f 62 6a 3f
       0.93226045 0.98118854 0.96781516 0.9155645
000040 0f da 78 3f 0b 0d 81 3f c5 8a 28 3f 48 19 f8 3e
       0.9720773 1.0082105 0.65836746 0.48456788
000050 dd 31 7d 3f a3 d9 6a 3f 7b 2d 77 3f f0 5c 76 3f
       0.9890421 0.9173834 0.9655377 0.9623556
000060 c0 bc 79 3f 61 87 76 3f 1c e9 78 3f 4e ed 74 3f
       0.97553635 0.9630032 0.97230697 0.956746
000070 56 35 75 3f 59 93 ae 3e cf 23 7c 3f 08 63 68 3f
       0.9578451 0.34096792 0.9849214 0.9077611
000080 7b a5 6b 3f c7 ca 80 3f c7 19 7c 3f 8a 59 ec 3e
       0.9204938 1.0061883 0.98476833 0.46162063
000090 a0 b8 7b 3f f1 6a 7e 3f 8d 42 d3 3e 32 da 79 3f
       0.9832859 0.9938193 0.41261712 0.97598565
0000a0 27 9d 76 3f 4e 1a 86 3f 6d 66 6e 3f c9 40 84 3f
       0.96333545 1.0476778 0.9312504 1.0332271
0000b0 8c 87 69 3f 1e 25 80 3f ee 5e 76 3f 48 e1 82 3f
       0.91222453 1.0011327 0.962386 1.0225
0000c0 c7 77 80 3f 89 ad 83 3f 6f cc 5a 3f 5e 0e 71 3f
       1.0036553 1.0287334 0.8546819 0.9416255
0000d0 37 7a 7f 3f bf 2d 83 3f 59 a7 7c 3f 9c 7f 80 3f
       0.9979586 1.0248336 0.9869285 1.0038943
0000e0 f4 3e 7d 3f 3c 5b 81 3f 60 7b 77 3f aa 45 82 3f
       0.98924184 1.0105968 0.9667263 1.017751
0000f0 78 b1 73 3f cc 6b 86 3f e7 b3 ab 3e 50 fc 7f 3f
       0.9519267 1.0501647 0.33535692 0.99994373

input_layer.1.running_mean f4 [64]
000000 9c 9d 91 bd 11 42 37 3e 70 a2 d9 bb 3d 3a f9 3d
       -0.0711014 0.17896296 -0.0066416785 0.12169311
000010 37 16 92 bd 81 63 1d be 6c 30 68 3b 87 29 81 bd
       -0.071331434 -0.15369989 0.0035429252 -0.06306749
000020 c5 bb 84 bd 46 14 fa bd c4 3e b4 3d 08 21 54 bd
       -0.06481127 -0.12210898 0.08801034 -0.051789314
000030 ce 70 0e be 79 99 8e bd 81 aa a5 3c cb 5b 54 bd
       -0.13910219 -0.06962866 0.020222904 -0.051845353
000040 d6 bc 41 bd d9 c8 00 be 55 0b 93 bc 43 96 c2 bd
       -0.04729923 -0.12576617 -0.01794974 -0.095013164
000050 a1 eb 99 3d 36 69 00 3e 98 54 68 3c be 0d 88 3d
       0.07515646 0.12540135 0.014180325 0.06643246
000060 23 32 18 bd ca 62 b1 3d a6 8a 7f bd b9 e5 39 3e
       -0.03715719 0.08661421 -0.062388085 0.18154038
000070 a3 ec d8 3c 9c cf 37 3d 1d 49 b7 3d 19 a3 e2 3d
       0.026480025 0.044875726 0.08949492 0.11066265
000080 67 e3 67 3d a4 9d d1 3d fc 88 c1 bc 8e dd bb 3c
       0.056613352 0.10235146 -0.02362489 0.022932794
000090 8c 61 24 3e c5 ab 07 3e 0b 92 3f 3c 26 88 c5 bd
       0.16052836 0.13249119 0.011692534 -0.09645109
0000a0 01 53 56 3e b3 b3 b9 3a a1 f5 e6 3c b9 8f c0 bd
       0.20930101 0.0014167934 0.028193297 -0.09402413
0000b0 8f 9e 13 3e c5 f5 00 3c 50 59 0e bd 1c 99 59 be
       0.14415954 0.007871096 -0.034753144 -0.21249813
0000c0 22 39 e3 bd 26 e5 23 3e 3c 70 29 bd 17 57 b1 3b
       -0.110948816 0.16005382 -0.0413668 0.0054119932
0000d0 f4 e6 ba 3d ec 84 12 be 7c 8e 0d bd 9f d1 e7 3c
       0.09126082 -0.14308518 -0.03455971 0.028298197
0000e0 41 e4 40 3c 7e 0b eb bc 51 0b 96 3d 89 53 90 3d
       0.01177317 -0.028692003 0.07326377 0.07047183
0000f0 cc ee 2a 3e c7 37 c3 bd ac b3 eb bc ca 30 02 bb
       0.16692656 -0.09532123 -0.028772198 -0.0019865506

input_layer.1.running_var f4 [64]
000000 8e 2f 2d 40 9c ae eb 3f 85 05 26 40 06 78 86 40
       2.7060275 1.8412662 2.594087 4.2021513
000010 38 63 8f 40 4c 8f d9 40 32 78 05 3f b4 8a 52 41
       4.4808617 6.7987423 0.5213653 13.158863
000020 48 19 5b 41 03 11 c3 3e 7a 47 3d 41 74 50 46 41
       13.693672 0.38098916 11.82995 12.394642
000030 af 09 99 40 1b 2e 58 3f 31 42 8f 40 f9 e0 2c 40
       4.782432 0.8444535 4.47683 2.7012312
000040 52 45 5b 41 e5 53 35 40 cf 29 10 41 d5 12 2a 41
       13.704424 2.8332455 9.010207 10.629598
000050 33 04 7a 3f 7a 19 1b 41 a0 2d 84 3f ff 01 a1 40
       0.9766266 9.69372 1.0326424 5.0314937
000060 0c a4 13 3f 91 71 0f 41 8f 2c 0b 41 b1 33 80 40
       0.5767219 8.965226 8.698379 4.00631
000070 18 40 b2 40 e0 fb 3e 41 6b 6c bc 40 5b 24 29 3f
       5.570324 11.936493 5.8882346 0.660711
000080 7e c8 39 40 2c bc 82 41 da f3 07 3f 23 85 de 40
       2.902862 16.34188 0.5310646 6.953752
000090 f9 a2 24 41 c0 c9 4f 3f 06 ed 61 40 b0 80 84 3f
       10.289788 0.8116722 3.5300918 1.0351772
0000a0 26 ae 28 41 d4 28 2d 40 2a 6c 26 40 68 6b e0 40
       10.542517 2.705617 2.6003518 7.013111
0000b0 ef 2d a8 40 8c 8c be 3f b3 42 39 41 d2 16 34 41
       5.255607 1.4886642 11.578784 11.255571
0000c0 e2 09 66 41 c7 f8 09 40 09 e5 da 40 0b 20 35 40
       14.377413 2.1558092 6.8404584 2.8300807
0000d0 fe aa a2 40 b8 99 2e 41 39 f1 1c 40 8e 4e 34 40
       5.083373 10.912529 2.452223 2.8172946
0000e0 d2 64 fd 3f 3e e3 00 41 a1 21 32 41 18 30 ec 40
       1.9796393 8.055479 11.13321 7.380871
0000f0 7d 9a 2c 3f ee 28 34 40 75 ea 64 41 e1 c5 2e 40
       0.6742323 2.8149981 14.3072405 2.7308276

res_blocks.0.linear1.weight f4 [64, 64]
000000 69 cb d1 bc 7e 7e 07 be d7 59 cf 3c 62 0c 7a bd
       -0.025609689 -0.13231847 0.025311394 -0.061046965
000010 3a a9 24 bd c0 b5 f6 3d 9c 38 c9 bd e4 f2 1e 3d
       -0.04020045 0.12046385 -0.098252505 0.038805857
000020 c4 dc 80 3d 5b 2e a4 3d 4f 1e 97 bd f5 b9 ce 3d
       0.06292108 0.08016654 -0.07378828 0.10094062
000030 b8 41 4a 3d 75 d9 4b bc 8a 89 4b bd 20 2c 01 be
       0.04937908 -0.0124419825 -0.049691714 -0.12614489
000040 87 51 85 3d 3f 4b e3 bc 91 07 ca bd 40 cc 28 3e
       0.06509691 -0.027745841 -0.098647244 0.16484165
000050 8b 6c 09 bd a3 d9 b5 3d df e7 17 be 55 31 36 be
       -0.03355078 0.088794015 -0.14834546 -0.17792256
000060 8b ba 72 bd ff f8 cf bc a2 36 c6 3d a7 d2 20 bd
       -0.059259932 -0.025387285 0.09678389 -0.039263394
000070 a4 76 63 bd da 2d d4 bd 8b 35 a2 3c 47 22 c6 bc
       -0.055533066 -0.10360308 0.019800922 -0.024186267
000080 39 b3 3d bd 2c 0c 0a be 24 98 1a be 3e bc bc bc
       -0.0463135 -0.13481206 -0.150971 -0.02303898
000090 6b d5 16 bc 31 5d 3c bc 45 4f 96 bd b2 6e 38 be
       -0.009206156 -0.011496828 -0.07339338 -0.18010977
0000a0 49 a8 8d bd ed 4c 5d 3c 9e b1 7a bc e8 b0 08 3e
       -0.069168635 0.01350711 -0.015301136 0.13348734
0000b0 e1 21 a9 bd 93 32 cc bc 3e 14 cf 3d c8 18 0d 3e
       -0.08258415 -0.02492646 0.10111283 0.13778985
0000c0 ca a2 94 3d 4a e6 fe 3c 79 eb 75 bc 43 c3 0a 3d
       0.07257612 0.03111567 -0.015009754 0.033877622
0000d0 1a cd b6 bd ab a2 49 3d 8f bf 36 3d 66 f9 0b 3e
       -0.08925839 0.049227398 0.04461628 0.13669357
0000e0 35 90 21 3c 31 85 5e bd c6 62 29 bd f7 33 ea 3d
       0.009861042 -0.05432624 -0.041353963 0.11435693
0000f0 a0 ca 8e bd 2a 21 80 bd 1b 5a 3a 3d 23 cf 21 be
       -0.069722414 -0.062563255 0.045496088 -0.15801673
000100 5a 78 44 3d 43 07 99 3d 90 16 52 3d 17 6e b8 3d
       0.04796634 0.07472088 0.05129105 0.09005373
000110 be a8 2d be 6a 63 30 be 43 e3 03 3e bd 3d 53 bc
       -0.16958901 -0.17225423 0.12879662 -0.0128931375
000120 0e 55 90 bd fe eb 1d bd 44 d7 ae 3d ec 9b b8 3c
       -0.07047473 -0.038555138 0.085371524 0.022535287
000130 10 cc ce 3d 6f ad 29 3d 6d a7 a7 bc 50 5f 33 bc
       0.100975156 0.041425165 -0.020465577 -0.010948017
000140 e6 4c 8a bc 67 d5 79 3c 23 c4 bb bd 15 d2 b7 3d
       -0.016882371 0.015248633 -0.091682695 0.08975617
000150 e4 48 d3 3d 73 89 78 bd 81 24 16 3e a0 ba 8d 3d
       0.10316637 -0.060677957 0.14662363 0.069203615
000160 4e c0 b9 3d 41 f6 ac bb 04 3b 35 be 98 0f 41 bd
       0.09069882 -0.005278379 -0.17698294 -0.047134012
000170 3f 17 42 3d 40 57 c3 3d 82 8e c9 3d 7a 24 8e 3c
       0.04738545 0.09538126 0.09841634 0.017351378
000180 78 8a d1 3d 64 24 ce 3d a3 58 6d 3e 8b 3a 20 3d
       0.10231489 0.10065535 0.23178343 0.03911833
000190 6d 51 a5 3d f2 58 e4 3d 41 70 8f 3c 6b 40 82 bd
       0.08072171 0.111497775 0.017509582 -0.06359943
0001a0 fa 40 24 3d 0e 82 d3 bc dd b6 1c bd 37 ba 86 bd
       0.04010103 -0.02581885 -0.03826033 -0.065784864
0001b0 93 ee b5 3c 4f c9 9c 3d 04 af 83 bd ed d6 e7 3c
       0.022208488 0.07655584 -0.06429866 0.028300727
0001c0 e8 06 85 3c 51 71 c2 3c cb b1 0b be db 7d 7e 3d
       0.016238645 0.023735674 -0.13642041 0.062131744
0001d0 13 06 d0 3d d9 ed f1 3c fc 83 98 bc 9a 48 d0 bb
       0.101574086 0.02953236 -0.018617623 -0.006356311
0001e0 c7 12 10 bd c2 90 14 bd 19 86 92 bb ea 83 90 bb
       -0.035174157 -0.036270864 -0.004471552 -0.0044102566
0001f0 4d 7a cb 3d fd 7e c9 bd 19 d4 cc 3d 05 90 54 3d
       0.099354364 -0.09838674 0.10001392 0.05189516
000200 ef 38 96 bd 37 31 19 bd c5 a0 8a bd 16 80 d8 bd
       -0.07335078 -0.03740045 -0.067689456 -0.105713055
000210 36 3a eb bc 1c a4 b3 bd 06 ac 7b 3c 67 3a d0 bd
       -0.02871428 -0.08771536 0.015360838 -0.10167389
000220 10 48 9c be a1 ea ff bb 1a 67 c0 bd ba 0f e3 bc
       -0.3052373 -0.0078099524 -0.09394665 -0.02771746
000230 68 cb 01 bd 92 6f 05 bc 6d 45 a0 3d 46 5b 61 3d
       -0.031688124 -0.008144276 0.07825742 0.055018686
000240 96 bd fe 3c c9 e0 31 be d4 5a 1b be b0 af 49 be
       0.031096261 -0.17370905 -0.15171367 -0.19695926
000250 1a 10 70 3d f7 a1 81 bd fe df 82 3d 64 7c bc bd
       0.058609106 -0.063297205 0.06390379 -0.09203413
000260 88 7f 2d 3c 37 7b 62 bd 63 c7 01 3d e8 14 d0 bd
       0.010589488 -0.055293288 0.03168429 -0.101602376
000270 b3 08 09 be de e2 5c be 9e c6 86 bd c8 59 0f bc
       -0.13382225 -0.21570918 -0.06580852 -0.008749433
000280 01 8f 26 bd f9 3d c1 bd dd 37 01 3d 3b e1 ac bd
       -0.040663723 -0.094356485 0.031547416 -0.08441397
000290 a6 91 0a be 6e 08 83 3d bc 56 98 bd 24 91 1b bb
       -0.13532123 0.06398092 -0.07438418 -0.0023737634
0002a0 45 17 0c bd 2c 0e 39 bd a8 f1 31 bc 5c 99 47 bd
       -0.03420188 -0.04517953 -0.010860838 -0.04873024
0002b0 2c ef 76 3d ea f6 c8 3d d7 70 19 bc be 03 8b bd
       0.060286686 0.0981272 -0.009365282 -0.06787823
0002c0 21 83 9b bd f1 2f 61 bc 12 bb c4 bc 1d 59 19 3d
       -0.0759337 -0.01374434 -0.024014983 0.0374385
0002d0 39 94 b8 3d 8d 45 e6 bd c5 e7 21 bc 2b 06 1c 3e
       0.09012646 -0.112437345 -0.009881918 0.15236728
0002e0 d9 80 4c bc 10 31 e8 bc b3 ff ea bd 1b 56 8d 3d
       -0.012481892 -0.028343707 -0.11474552 0.06901189
0002f0 9e 8b b5 3d 01 bf ec 3a c6 53 a7 be 69 15 e6 3d
       0.088645205 0.0018062295 -0.32681102 0.112345524
000300 32 bb e8 bd 15 08 f7 bc db e4 10 3e 9b de 07 3d
       -0.1136383 -0.030155221 0.14149801 0.033171277
000310 f7 76 20 be d1 7a d1 bc 01 f6 bc 3d 37 2f 54 be
       -0.15670381 -0.025571259 0.09226609 -0.20721136
000320 d3 90 99 3e c2 f5 00 3d e7 c2 1a 3c 1c 89 26 bd
       0.29993305 0.031484373 0.009445882 -0.0406581
000330 03 f4 aa bd 0d b1 6b 3c 6e 4b 05 3d 69 96 02 3e
       -0.08347323 0.014385474 0.03254264 0.1275269
000340 1c 37 ce 3c 87 d6 04 be 0d c4 0a 3d a2 d2 54 3e
       0.025172763 -0.1297246 0.033878375 0.20783475
000350 30 81 76 3d 9a a9 b1 3d f6 fc 03 bd ee e6 98 bd
       0.060181797 0.08674927 -0.032223664 -0.07465921
000360 3f 60 9b bd 87 4b 60 3c 5e 7c 32 be 9d fb 79 bd
       -0.07586717 0.013689882 -0.17430255 -0.061030973
000370 84 fe 09 bd 5d a5 a3 3d 73 b9 e5 bd 67 52 88 bd
       -0.03368999 0.07990525 -0.11217012 -0.06656342
000380 e3 7e 20 bd 17 84 76 3d b7 42 e1 3d 48 77 72 bc
       -0.03918351 0.060184564 0.10999053 -0.014798947
000390 79 95 27 3d 3b 48 03 bc 37 5f 10 3e e4 c6 d8 3d
       0.040914033 -0.008012827 0.14098822 0.105848104
0003a0 d1 59 c7 bd 23 4e d7 bd 22 15 d1 3d 80 f1 9f be
       -0.09733928 -0.1051295 0.10209109 -0.31238937
0003b0 23 fc 04 3e be c8 97 3d 08 7d b0 bc 29 b5 e8 bd
       0.12986808 0.074113354 -0.021543995 -0.113626786
0003c0 af 15 d0 bd 96 a2 cd bc 1a 94 15 3d 49 8c d8 3d
       -0.10160386 -0.025101941 0.036518194 0.10573632
0003d0 ba 76 ad 3c b7 a1 4e be b5 c5 65 3d 41 71 03 bc
       0.021174777 -0.20178877 0.05609675 -0.008022607
0003e0 b4 cc dc bd be a5 a9 bd bc c3 c2 bd 20 77 95 bd
       -0.107812315 -0.08283566 -0.095099896 -0.07298112
0003f0 a0 86 96 3c 69 2c 0c 3d df 97 42 3e 26 52 08 bd
       0.018374741 0.03422204 0.19003247 -0.033281468

res_blocks.0.linear1.bias f4 [64]
000000 1a f7 53 bd 7c e5 4c 3c a1 35 10 3e 28 3e 74 3c
       -0.051749326 0.012505885 0.14082958 0.014907397
000010 d9 0c a9 3d 60 2e c8 3c f0 3f 13 be c5 f6 95 bd
       0.082544036 0.024436176 -0.14379859 -0.07322458
000020 ab bb b6 bd 89 8b 0b 3d 97 09 94 3d a2 7c 5f 3d
       -0.089225136 0.034068618 0.072283916 0.05456222
000030 ea 98 8c bd 89 7b ea bc 00 33 0a 3d bd aa 96 bd
       -0.068651035 -0.02862336 0.033740044 -0.073567845
000040 6d cc 54 bd 90 e9 bb 3d bd 67 18 3d b3 a9 54 bd
       -0.051952768 0.09175408 0.037208308 -0.05191965
000050 88 cc ea 3d 98 f1 1f be b4 1a e0 3d 8b c2 04 3d
       0.114647925 -0.15619504 0.10942593 0.032412093
000060 9a 35 84 3d f6 73 1d 3c fc 28 bd bd 83 88 57 bd
       0.06455536 0.009610167 -0.09236333 -0.052620422
000070 d9 e8 86 bd b3 26 24 3d 3a 2c ee 3c 56 11 24 bd
       -0.06587381 0.04007597 0.029073823 -0.040055595
000080 2b eb 98 3c a1 d2 d6 bd 3c 36 12 be dc bc 21 bd
       0.018666824 -0.10489393 -0.14278501 -0.03948675
000090 a9 8a 26 bd 6a 39 14 3d fb 44 dc 3d 47 cd 9c 3d
       -0.04065958 0.036187567 0.107553445 0.07656341
0000a0 25 70 b7 3d 2f d4 7c 3d a6 42 ae bd 27 69 6d 3c
       0.08956937 0.06172579 -0.08508806 0.014490402
0000b0 8a 43 67 bc 6d 18 8b bc ed be 72 bd 14 1b 1a be
       -0.014115224 -0.01697942 -0.059264112 -0.15049392
0000c0 9b 5e 92 3d 10 d6 8c bd 1f 74 bb bc c2 9d c6 3d
       0.07146951 -0.06876767 -0.02288252 0.09698059
0000d0 02 1b 9a 3d 97 0a 1d be 40 d7 03 3e 04 86 e1 bd
       0.075246826 -0.15336071 0.1287508 -0.110118896
0000e0 b7 12 f5 bc 3b f5 21 be 3d 64 03 3e be e9 de 3d
       -0.02991615 -0.15816204 0.12831207 0.108844265
0000f0 a0 5e 9c bd fe 7e 0f 3e 1b 3e a7 3d 57 ea 4b 3e
       -0.07635236 0.14013287 0.081661426 0.19913612

res_blocks.0.bn1.weight f4 [64]
000000 0c 79 83 3f 9e 45 6c 3f 65 39 75 3f 34 0f 7a 3f
       1.0271316 0.9229373 0.957907 0.9767945
000010 04 b8 5c 3f 7e 64 78 3f de 99 75 3f 5e cb 6c 3f
       0.86218286 0.9702834 0.9593791 0.92497814
000020 4a 0a 22 3f f6 a2 49 3f 7d 3b 77 3f a8 63 4e 3f
       0.6329695 0.78764284 0.96575147 0.80620813
000030 cf 60 83 3f a6 aa 69 3f 09 8f 6c 3f 84 3e 8b 3f
       1.0263919 0.91276014 0.92405754 1.0878453
000040 1e 83 7a 3f e0 0d 82 3f e0 37 36 3f e7 0a 46 3f
       0.9785632 1.0160484 0.7117901 0.77360386
000050 f8 cd 72 3f a4 f2 80 3f 51 f5 69 3f d8 60 70 3f
       0.94845533 1.0074048 0.9138995 0.9389777
000060 c6 95 65 3f 7e 34 73 3f d3 8a 6b 3f 80 a5 6c 3f
       0.8968166 0.9500197 0.92008704 0.9244003
000070 c8 ba 3b 3f 98 10 46 3f d6 a1 86 3f 5e 9b 74 3f
       0.7333188 0.7736907 1.0518138 0.9554957
000080 71 5d 61 3f 33 61 7b 3f 4b 06 7e 3f b5 22 52 3f
       0.88033205 0.9819519 0.9922835 0.8208421
000090 c8 e6 75 3f ee ee 83 3f 0d b5 7c 3f a6 3b 86 3f
       0.9605527 1.030729 0.9871376 1.0486953
0000a0 45 99 80 3f 5f 05 77 3f f9 34 65 3f 32 4f 77 3f
       1.0046774 0.9649257 0.89533955 0.9660522
0000b0 35 f9 81 3f e6 56 63 3f 9b 60 2b 3f 62 7a 8b 3f
       1.0154177 0.8880447 0.66944283 1.0896723
0000c0 ba 15 79 3f f3 e7 6c 3f 58 c5 80 3f e2 f4 83 3f
       0.9729878 0.92541426 1.0060225 1.0309107
0000d0 f2 33 36 3f a9 c4 56 3f ae 39 78 3f 8c d7 83 3f
       0.7117301 0.8389383 0.9696301 1.0300155
0000e0 40 bb 7c 3f 93 99 4d 3f 27 36 50 3f 36 1d 86 3f
       0.9872322 0.8031246 0.8133263 1.0477664
0000f0 29 72 6f 3f f0 d6 41 3f 3c 44 47 3f d9 c7 6b 3f
       0.9353357 0.75718594 0.7783849 0.9210182

res_blocks.0.bn1.bias f4 [64]
000000 a7 b1 bb bd d1 93 bb bd 5d f0 49 3e c9 e2 96 be
       -0.09164744 -0.09159053 0.19720598 -0.29469898
000010 57 a8 b5 3e 89 64 e5 bd db 7c 1e be 86 78 84 be
       0.35479996 -0.11200816 -0.15477316 -0.25873202
000020 98 b6 cd 3e 3a 3b 6e 3e 9b c4 68 bc 89 af c1 3e
       0.4017837 0.2326478 -0.014207031 0.37829235
000030 21 08 77 be 71 e3 6a 3e b8 c7 0a 3e b3 e2 76 bd
       -0.24124195 0.22938325 0.13552749 -0.06027479
000040 cc 4a e8 3d 94 8c 75 bd 56 f4 b7 3e bd 13 9a 3e
       0.11342391 -0.05994852 0.359286 0.30093184
000050 75 76 16 be 4e 00 bb be 58 dc 62 bc 79 dd 28 3e
       -0.14693625 -0.3652367 -0.013846479 0.16490735
000060 06 6b 5c 3d 64 40 c2 3e 3e e0 e5 be f6 de 79 3e
       0.053813003 0.3793975 -0.44897646 0.24401459
000070 90 89 a6 3e c0 44 10 3f 6a 99 69 be b2 98 7d 3e
       0.32526827 0.56354904 -0.22812429 0.2476528
000080 bb 3d cc 3e c4 82 62 3e 94 05 b6 bd b3 98 ed 3e
       0.39890847 0.22120196 -0.08887783 0.46405563
000090 11 95 47 be 0a d8 db bd 80 a8 6f bd 67 67 33 be
       -0.19490458 -0.107345656 -0.058510303 -0.17519914
0000a0 d1 08 43 3e 17 6e 32 3b 75 dc 12 3e 2d 96 3c be
       0.19046332 0.0027226263 0.1434191 -0.18416663
0000b0 d2 0a 44 3c e8 83 91 3e 2a 25 05 3f c1 a8 f1 bc
       0.01196547 0.2842095 0.5200983 -0.029499413
0000c0 0c 48 4e bd e9 27 84 3d 74 4f 46 be 30 92 15 be
       -0.050361678 0.06452925 -0.19366246 -0.14606547
0000d0 e9 61 10 3f 6d f8 a7 3e 21 fd f6 bd d3 7b 98 bd
       0.563994 0.3280672 -0.12059999 -0.074454926
0000e0 01 ed 37 be d9 36 95 3e 04 79 ac 3e 39 98 b3 bc
       -0.17961504 0.29143408 0.33686078 -0.021923171
0000f0 c2 6b 10 3e 62 d6 e1 3e 6c 48 2e 3f ea 7b 8c be
       0.14103606 0.44108874 0.68079257 -0.2743829

res_blocks.0.bn1.running_mean f4 [64]
000000 90 e0 89 bf 54 85 bc 3f 65 1e 23 c0 54 20 8e bf
       -1.0771656 1.4728189 -2.5487301 -1.1103616
000010 65 2a 68 c0 45 75 90 c0 00 51 42 40 05 64 6b 40
       -3.6275876 -4.514315 3.0361938 3.6779797
000020 a4 96 54 c0 b1 a5 8e c0 08 54 d2 3e 44 e8 0e c0
       -3.3216944 -4.457726 0.41079736 -2.2329264
000030 c8 60 3c c0 0b 04 84 c0 70 e6 a0 40 d0 c3 89 40
       -2.943407 -4.1254935 5.0281296 4.305153
000040 94 2b db bf 48 4f a3 3f 31 56 5b c0 91 d1 94 c0
       -1.7122674 1.275857 -3.4271357 -4.650582
000050 25 39 80 40 b2 6a 5f bf 2e 38 23 c0 9a 44 7b c0
       4.0069757 -0.8727218 -2.550304 -3.926062
000060 78 d6 7b c0 e7 ce 5a c0 c2 4a 8b 40 45 c7 7a c0
       -3.9349651 -3.4188783 4.3528757 -3.9184124
000070 80 54 81 c0 20 51 6d c0 26 74 23 c0 c1 fa 3d c0
       -4.041565 -3.7080765 -2.5539641 -2.9684298
000080 07 c5 83 c0 2c 85 53 c0 02 dc a3 c0 60 05 67 c0
       -4.117801 -3.3050032 -5.1206064 -3.609703
000090 ee 55 8f 40 9c 19 07 c0 24 3f 4c bf 4a db 37 c0
       4.4792395 -2.110938 -0.79783845 -2.8727593
0000a0 28 ba 5f c0 1e ae 8d c0 e8 b4 ec bf 0b bf 93 c0
       -3.495737 -4.4275045 -1.8492708 -4.6170707
0000b0 74 44 50 bf eb bb 80 c0 bf 64 61 c0 58 2e 41 40
       -0.8135445 -4.022939 -3.521774 3.0184536
0000c0 33 96 c3 be 98 5a 4c c0 10 41 4e 40 97 8f 57 3f
       -0.3820053 -3.1930294 3.222721 0.84203476
0000d0 67 4d 83 c0 eb 62 6a c0 55 48 b7 bf 5b dc 8c 40
       -4.1031985 -3.6622875 -1.4318949 4.401899
0000e0 1f e2 19 40 45 1b 87 c0 40 a6 60 c0 d2 71 06 40
       2.4044263 -4.222079 -3.510147 2.100697
0000f0 b8 44 3d 40 74 87 9e c0 b5 8e 9d c0 3e 04 9a 40
       2.9573193 -4.954035 -4.9236703 4.813018

res_blocks.0.bn1.running_var f4 [64]
000000 1c 8f 70 41 90 29 1b 41 6c 72 04 40 c9 89 72 40
       15.034939 9.697647 2.0694838 3.7896597
000010 af d9 85 40 0d 16 4d 40 60 02 9d 40 78 37 c3 40
       4.1828227 3.2044709 4.90654 6.100521
000020 ff ef 88 40 52 77 a4 40 24 ee 68 40 38 a4 29 40
       4.2792964 5.1395655 3.639535 2.650648
000030 7a 20 ce 3f 7a 75 27 41 c5 44 23 40 a2 2c 0a 40
       1.6103661 10.466181 2.5510724 2.1589742
000040 b7 84 bd 3f bb ac 50 40 88 a0 fd 40 6f e3 f1 40
       1.4806126 3.2605426 7.925846 7.559013
000050 a8 32 da 3f ea 4d 27 41 dc 0b c8 40 99 29 76 41
       1.7046709 10.456522 6.2514477 15.385156
000060 93 8f 49 40 7d b4 41 40 a0 da 1f 40 f6 42 f5 3f
       3.149388 3.0266411 2.4977188 1.916106
000070 4d 82 ed 3f 9d 07 ee 3f 43 43 14 40 b1 bb 09 41
       1.855539 1.8596073 2.3166053 8.608323
000080 4a ff 66 40 f5 0b 2c 40 8c 31 39 40 48 d2 dd 3f
       3.6093316 2.6882298 2.893649 1.7329798
000090 c6 c7 2e 41 e9 a3 1d 41 15 e6 0d 41 54 f7 30 40
       10.923773 9.852517 8.868672 2.7650957
0000a0 a9 84 cf 3f 0c 79 12 41 95 c8 3b 40 9a ef 17 40
       1.621236 9.154552 2.9341176 2.373999
0000b0 c4 9d 1a 41 5b 19 42 41 2f 09 ed 40 11 0c 78 40
       9.663517 12.13119 7.407371 3.8757365
0000c0 e0 5c ba 40 25 8f f4 40 1e 16 2b 40 be dc 00 41
       5.8238373 7.6424737 2.673225 8.053892
0000d0 4e 64 21 41 de 40 78 40 d7 45 22 40 20 96 09 40
       10.086988 3.8789592 2.5355127 2.149788
0000e0 8f 9d 41 40 ee 95 f4 3f b1 86 50 40 66 8c ce 40
       3.0252416 1.9108255 3.258221 6.4546385
0000f0 d3 ef fe 3f 38 af 8f 40 bc 88 2d 40 87 0b 27 40
       1.9916939 4.490139 2.7114706 2.6100786

res_blocks.0.linear2.weight f4 [64, 64]
000000 cf e7 c1 3c 62 5b 02 3d 45 55 67 bd 4c c8 e4 3c
       0.023670105 0.03182543 -0.056477804 0.02792754
000010 38 48 2e 3e 1d af 93 bd ba c2 8d bd a7 c0 bf bd
       0.17019737 -0.072111346 -0.06921907 -0.093629174
000020 5d 52 d0 bb 59 c0 3b 3d c6 00 8c bd 2d d8 c0 bd
       -0.0063574747 0.045837734 -0.06836085 -0.09416232
000030 27 7d 02 3e ef 55 60 bc 34 eb 34 bb 49 65 4d bd
       0.12743054 -0.013692363 -0.0027606012 -0.05014542
000040 8f d0 a8 bd d4 38 21 3d 2d b7 ec 3c ac d0 f6 3c
       -0.082429044 0.039360836 0.028895939 0.0301288
000050 4a f2 05 be b7 83 a6 bc c7 dd 46 3c 81 14 9c bb
       -0.13080707 -0.020326478 0.012137837 -0.0047631864
000060 3f c9 b2 bd 69 9b 93 3d 37 05 e5 3c fc 02 80 3d
       -0.08729791 0.072073765 0.027956588 0.06250569
000070 e2 98 ba 3d 18 6b 24 3d 19 ab a4 bd 37 89 8c bb
       0.09111191 0.040141195 -0.08040447 -0.004288818
000080 41 03 90 3c cb e7 24 3e a7 df 07 be 59 27 bb bc
       0.017579677 0.16104047 -0.1326891 -0.02284591
000090 31 4f 87 bc 61 ac 67 bb f2 7e 99 bc 1a 8f 0f 3d
       -0.016517254 -0.0035350549 -0.01873729 0.03504858
0000a0 e5 47 4a be 93 46 4d bd e5 28 d0 bb 0e 65 19 bc
       -0.19753988 -0.050116133 -0.0063525313 -0.009362472
0000b0 c5 b9 ea 3d eb 46 d1 bb 65 e8 c7 3d 65 11 00 3e
       0.11461214 -0.006386628 0.097611226 0.12506635
0000c0 8d c3 93 bc 21 93 53 bd 91 c5 e0 bd 8e 06 b0 bd
       -0.018037582 -0.051653985 -0.10975183 -0.08595
0000d0 bf 28 cf bd 67 bf ce 3d e9 41 24 3d 9e 4f 31 be
       -0.101151936 0.10095101 0.04010192 -0.17315528
0000e0 9b 1a 0d bd 9f 2e 46 bd 11 c4 88 3d 52 f8 d5 3d
       -0.0344492 -0.048384305 0.06678022 0.10447754
0000f0 66 ed f2 3c a2 5e dd bd d8 d7 c4 3d df 3b 4e bd
       0.029654216 -0.108090654 0.096114814 -0.050350066
000100 ef 40 90 bd 65 77 65 3d 6f 0b 47 bd ed d6 3b 3d
       -0.07043635 0.056022067 -0.04859489 0.045859266
000110 f8 9d 9c bd 27 a5 7b be 68 e7 bf bd a0 4f a9 3d
       -0.07647318 -0.2457472 -0.09370309 0.082671404
000120 d6 46 84 bd 26 09 01 3e 69 28 b1 3d 33 fb 34 3d
       -0.064588234 0.12601146 0.08650286 0.044184875
000130 dc 1e 42 be ec 5e 49 bd 06 89 10 3c 25 01 9a 3d
       -0.18957084 -0.04916279 0.008821731 0.075197496
000140 79 12 de bc e8 b2 ba 3b a8 97 9a bb a5 e0 b3 3d
       -0.027108418 0.005697597 -0.004717786 0.08783082
000150 7c 01 c1 3d 11 72 22 3d 7f b6 7a bd 47 af 4e 3c
       0.09424111 0.039659563 -0.061209198 0.012615032
000160 49 65 cf 3d 24 08 26 bd ab 7e 24 be 8a 5e 96 bc
       0.101267405 -0.040535107 -0.16063945 -0.018355627
000170 39 a3 62 be 1b 42 93 bd 72 fe 6d be 3a 6a 13 3c
       -0.22132577 -0.07190343 -0.23241594 0.008997494
000180 75 1e 56 be 79 a5 0b be c5 21 0e 3e 62 92 ec bd
       -0.20910056 -0.13637342 0.1388007 -0.11551358
000190 94 28 e6 3d 9c 78 b7 3c 38 7a e4 bb 81 9d e0 bd
       0.112382084 0.022396378 -0.0069725774 -0.109675415
0001a0 27 b1 0d bd b4 e4 40 bd c4 2b 55 3d a8 39 30 bc
       -0.034592774 -0.04709311 0.05204369 -0.010755934
0001b0 f7 ec 53 3d e2 62 95 3d 36 a0 9d bb e9 9d 17 3d
       0.05173966 0.07294251 -0.0048103584 0.03701583
0001c0 4f 39 0c be 2a ce 94 bb 19 74 2a 3d ed 38 c2 3d
       -0.13693736 -0.0045411782 0.041614626 0.09483514
0001d0 c6 da 33 be 14 09 a9 bd 69 e4 fd bd cb b9 96 bd
       -0.17563924 -0.08253685 -0.123970814 -0.07359656
0001e0 fe d1 b7 3c e3 e8 e4 3c 15 83 bf bd cf a1 b6 bd
       0.022439 0.02794308 -0.09351174 -0.08917581
0001f0 c7 3c 4a bd 30 b5 9e 3c fa 0e b4 bd be 40 0c be
       -0.049374368 0.019373506 -0.08791919 -0.13696572
000200 2c af 45 be 96 95 c5 bd 8f c3 96 3d 8f dd cf bc
       -0.19305104 -0.09647672 0.073615186 -0.025374202
000210 f2 53 ce 3d 97 c0 99 3d c0 b2 e5 bd 30 85 bd 3d
       0.10074605 0.07507437 -0.112157345 0.09253919
000220 a5 a3 9d 3c 07 47 48 3d 77 c1 9d bd 92 37 e0 3d
       0.01924307 0.048895862 -0.07702916 0.10948099
000230 35 9f f8 3d ca d3 53 3d 0c 91 75 3d 9f 5b 9f 3d
       0.12139741 0.05171565 0.05995278 0.07781147
000240 8a e1 b9 3c 99 fb 32 be 76 db 7d 3d f2 2d f1 bd
       0.022690553 -0.1747879 0.061976872 -0.117763415
000250 bc 4d a9 3d 09 21 1d 3d 24 e3 49 3d f0 68 9b bd
       0.0826678 0.038361583 0.049288884 -0.075883746
000260 c8 81 bc 3d ee 21 89 3c 86 1e ce 3d 42 1a b5 3d
       0.09204441 0.016739812 0.10064416 0.08842899
000270 5c 4d 08 3d 15 d1 7e 3d df 95 e2 3c e5 de b9 bd
       0.0332769 0.062211115 0.027659355 -0.09075717
000280 08 17 bd bd 73 b3 8e 3d ca 36 b7 3c c1 6f 35 3e
       -0.092329085 0.06967821 0.022364993 0.17718412
000290 95 82 16 bd 44 a0 f7 3c 44 33 df 3c 43 43 9b bd
       -0.036745626 0.030227788 0.027246125 -0.075811885
0002a0 eb 92 4e 3d 0c 87 0d 3c f2 7f ef 3d bc 0f 59 bd
       0.05043308 0.008638155 0.116943255 -0.05299352
0002b0 ad 41 7f be 29 b4 f1 bd 26 26 e3 3d 8d 6f 35 be
       -0.24927397 -0.11801941 0.110912606 -0.17718334
0002c0 d7 8b 12 bc 87 fd e3 bc 83 28 c0 3d e0 95 a8 be
       -0.008944473 -0.027830852 0.09382727 -0.32926846
0002d0 e0 26 e0 bc d3 e9 c2 bd b4 59 10 3d 16 f0 e9 3d
       -0.027362287 -0.09517255 0.035241798 0.11422746
0002e0 81 c8 59 be d4 31 33 3d bb f6 6a 3c 5d fb a3 bd
       -0.21267892 0.04374869 0.014341052 -0.08006928
0002f0 43 2a f6 3d 3b 8b b5 3d 0d fc c2 3d b7 05 8a bc
       0.120197795 0.08864447 0.09520731 -0.016848428
000300 b3 2b a6 bd c9 d4 dd 3c c7 22 e7 3d b0 b4 d7 bb
       -0.08113804 0.027079003 0.1128593 -0.006582819
000310 d6 3b a8 bc 7d 6f 17 3e 33 88 a9 bd 9d 15 8d bc
       -0.020536344 0.14788623 -0.08277931 -0.01722222
000320 8e 3e 04 3e 91 4c 7f 3d b8 94 3a bb 98 91 56 3e
       0.12914488 0.06232888 -0.002846999 0.20953977
000330 98 ca 3f 3b 68 9c 8f bd b6 8c 32 3e f8 fd a0 3c
       0.0029265042 -0.07012254 0.1743649 0.019652352
000340 6b 27 c3 3d 8c d9 bb bc 27 1d 4c 3e fc 32 1c bd
       0.09529003 -0.022930883 0.19932996 -0.03813456
000350 3f 2b b4 bb f4 21 90 3d 74 c2 1e be 4f 7f b9 bc
       -0.0054983194 0.07037726 -0.15503865 -0.022643713
000360 3f 55 de 3d 9c 94 44 bd 19 1e b1 3d 81 7f 0f bd
       0.10856103 -0.047993287 0.08648319 -0.035033707
000370 0b 2a a8 3d bf 2e 19 3d 72 2a 3a 3d 80 96 f2 3c
       0.08211144 0.037398096 0.045450635 0.02961278
000380 aa 20 c6 3c 55 fe 5e bc 8e 9b 7b bc cc bf 30 bd
       0.024185497 -0.013610442 -0.015356911 -0.04315166
000390 a1 e5 81 bd d3 b4 38 3c f0 ef 06 bd d6 e7 80 3c
       -0.06342626 0.011273581 -0.032943666 0.015735548
0003a0 d4 25 bb 3d a8 10 c6 bd 98 e4 32 bd 91 2b 0e ba
       0.091380745 -0.09671146 -0.043675035 -0.0005423362
0003b0 4c 6a 35 3c b5 ad af bd 60 8b 12 bc af c6 64 be
       0.011072706 -0.08578054 -0.008944362 -0.22341417
0003c0 dd bd a7 3d 67 2a e2 bd c9 d3 6d bd 15 c5 3e be
       0.081905104 -0.11043244 -0.058063302 -0.18629868
0003d0 e7 08 15 3e 72 a4 86 bd 24 ae fb 3d 54 a6 ad 3d
       0.14554177 -0.06574334 0.12289074 0.0847899
0003e0 79 dd 5d bd 81 c7 88 bd 3b 03 45 3d ab 8e 4b 3c
       -0.05416629 -0.06678677 0.048098784 0.012424151
0003f0 e7 6f c9 3d ae c1 24 3c b4 42 02 3e 17 a5 33 3c
       0.09835797 0.010055942 0.12720758 0.010964653

res_blocks.0.linear2.bias f4 [64]
000000 06 16 99 3e 28 f4 fe be 07 aa 2f 3e 91 1d 6e 3e
       0.29899615 -0.4979565 0.17154704 0.23253466
000010 c9 29 ee bd 8d f3 46 be 47 3d 16 3d fb a0 52 be
       -0.11629064 -0.19428845 0.036679532 -0.20569222
000020 a7 54 5d 3d aa bc 94 3e f1 12 67 3e 5a 6b e2 3d
       0.05403581 0.2905019 0.2256582 0.11055632
000030 f1 5b 52 bd 2c 70 25 3e 6e 06 af 3d 7b 96 2c 3e
       -0.051357213 0.16156071 0.08546148 0.16854279
000040 c3 c7 b1 be b6 34 97 be 6f f4 ef bd 1f cb df bd
       -0.3472272 -0.29532403 -0.11716544 -0.10927414
000050 68 6b 42 3e 7a 8b 19 3e ee 0e 8f bd 97 6d 57 3e
       0.18986285 0.14994612 -0.069852695 0.21037899
000060 ad 56 95 3e 76 1d df 3d bb 75 2f be 30 78 61 3e
       0.2916769 0.10894291 -0.17134754 0.22018504
000070 e1 1e 09 bd 1c 5d 56 3e 76 03 1c 3d 7a 41 3a 3e
       -0.033476714 0.20933956 0.038089238 0.1818904
000080 66 a4 2d 3e 1e b2 08 3e 6a 02 ea 3e 72 b5 4e 3e
       0.16957244 0.13349196 0.45704967 0.20186403
000090 ce 96 21 bd 2a 79 cb bc 79 41 90 3e ec 61 dc 3d
       -0.03945046 -0.024838049 0.28174952 0.107608646
0000a0 b6 98 cf 3d 8f 72 4d bd 66 f7 84 3e 5f 14 19 be
       0.10136549 -0.05015808 0.2597 -0.14949177
0000b0 63 33 f2 3d 46 32 87 bd 31 1d 55 be 12 e8 bf be
       0.118262075 -0.06601386 -0.20811917 -0.37481743
0000c0 64 36 21 bd 86 6b 15 3e f7 f5 a5 3e 27 e8 01 3f
       -0.03935851 0.14591798 0.3241422 0.5074486
0000d0 6b 01 b5 be 7c fc 45 3e fe 63 43 be a4 96 53 be
       -0.35352644 0.19334596 -0.19081113 -0.20662934
0000e0 45 6a 92 3e c2 f8 a4 be 3a a8 cc bb 03 0f e3 bd
       0.28596702 -0.32221037 -0.00624564 -0.11086848
0000f0 41 c2 01 3e 80 7f 66 3e 6c 9a e6 3e 23 bd d5 3c
       0.12671758 0.22509575 0.4503969 0.026091164

res_blocks.0.bn2.weight f4 [64]
000000 7c ca e9 3f ec b6 00 40 c6 2c e9 3f 1a ee f3 3f
       1.8264918 2.0111647 1.8216789 1.9057038
000010 41 9c 02 40 9f fb fe 3f d3 e4 f0 3f dc 29 f8 3f
       2.040787 1.9920539 1.8819832 1.9387774
000020 df 26 f9 3f 49 d9 ef 3f 55 90 f3 3f 8e e4 00 40
       1.9464988 1.8738185 1.9028422 2.0139499
000030 03 1a 00 40 0e 94 f1 3f 93 f6 ea 3f 98 22 f2 3f
       2.0015876 1.8873308 1.8356498 1.8916807
000040 e3 0b fd 3f 7a 49 06 40 c9 0e 03 40 36 70 f1 3f
       1.9769253 2.0982347 2.0477774 1.8862369
000050 ad 0a f4 3f 20 6e ef 3f b8 9a e9 3f 09 9e f1 3f
       1.9065758 1.8705482 1.8250341 1.8876354
000060 1c 27 f5 3f b5 6a e7 3f 53 22 f3 3f e8 5d f0 3f
       1.915256 1.8079439 1.899485 1.8778658
000070 eb 19 f5 3f 5b 26 f4 3f 0a bc f4 3f 28 b2 ea 3f
       1.9148535 1.9074205 1.9119885 1.8335619
000080 55 1d e8 3f 06 7d f6 3f 6d b1 f2 3f e8 c0 f4 3f
       1.8133951 1.9256904 1.8960396 1.912137
000090 df ef fa 3f ee 7b ee 3f f1 64 f9 3f e3 3a ef 3f
       1.9604453 1.863157 1.948393 1.8689846
0000a0 64 d7 f7 3f f1 7a ef 3f 7e 96 ea 3f 0a 4d 00 40
       1.9362607 1.8709394 1.8327177 2.004702
0000b0 c3 92 eb 3f 3f 6d fb 3f a2 16 f8 3f 4d 7f f7 3f
       1.8404163 1.9642714 1.9381907 1.9335724
0000c0 2d 2f f7 3f ec 70 ee 3f 4b 48 fa 3f 59 25 f4 3f
       1.9311272 1.8628211 1.9553312 1.9073898
0000d0 36 1e fd 3f e5 76 f1 3f 36 f1 02 40 e8 48 fa 3f
       1.9774845 1.8864409 2.0459723 1.9553499
0000e0 e7 a9 f4 3f e2 c0 fd 3f 34 31 f3 3f 64 92 fd 3f
       1.911435 1.9824488 1.8999391 1.98103
0000f0 8c e9 ee 3f ef ab f0 3f 09 9c f7 3f 85 f3 f6 3f
       1.8665023 1.880247 1.9344493 1.9293066

res_blocks.0.bn2.bias f4 [64]
000000 55 9b 86 3f 08 27 80 3f 73 5d 69 3f 38 2d 81 3f
       1.0516154 1.0011911 0.9115822 1.0091925
000010 dd 0f 85 3f 7e 02 81 3f 8d 64 86 3f cb 08 86 3f
       1.0395466 1.0078886 1.0499436 1.0471433
000020 b3 1f 88 3f f4 16 81 3f 1a 48 87 3f 8f f0 80 3f
       1.0634674 1.008513 1.0568879 1.0073413
000030 f2 27 81 3f 8d 68 77 3f 83 d8 7f 3f 1f 97 83 3f
       1.0090315 0.96643907 0.99939746 1.0280493
000040 ef 41 7f 3f 1d b7 85 3f 87 f6 82 3f 3b 92 8d 3f
       0.9970998 1.0446507 1.0231484 1.1060251
000050 70 43 85 3f 17 37 72 3f 32 35 80 3f cc c8 75 3f
       1.0411205 0.9461531 1.0016234 0.96009517
000060 92 5c 83 3f 68 68 81 3f fb 96 78 3f e5 58 84 3f
       1.0262625 1.0109987 0.9710538 1.0339628
000070 99 85 81 3f fa bc 8b 3f b2 8d 84 3f 9b 03 74 3f
       1.0118896 1.0917046 1.0355742 0.95318
000080 a1 51 75 3f 05 60 86 3f dd 9d 7e 3f 1f 69 87 3f
       0.9582768 1.0498053 0.9945963 1.0578955
000090 53 34 79 3f e9 7c 84 3f 5b 0e 89 3f 3c d0 83 3f
       0.97345465 1.035062 1.0707506 1.0297923
0000a0 27 6c 82 3f 04 f3 84 3f 23 4f 6d 3f 77 52 84 3f
       1.0189255 1.0386662 0.9269888 1.0337666
0000b0 e3 17 6f 3f 7a 9a 84 3f 40 3e 83 3f 48 be 86 3f
       0.93395823 1.0359643 1.0253372 1.0526819
0000c0 82 47 82 3f 08 d6 85 3f 2e 93 87 3f bc b8 7f 3f
       1.0178072 1.0455942 1.0591791 0.9989126
0000d0 c6 51 7a 3f 92 bd 83 3f 64 68 81 3f c8 2c 82 3f
       0.97781026 1.0292227 1.0109982 1.0169916
0000e0 89 b2 84 3f 13 ad 85 3f 5b fc 80 3f fe 3b 81 3f
       1.0366985 1.0443443 1.0077013 1.0096433
0000f0 64 78 80 3f 16 38 88 3f 76 7d 83 3f 03 ad 82 3f
       1.003674 1.0642116 1.0272663 1.0209049

res_blocks.0.bn2.running_mean f4 [64]
000000 bf 21 92 3e a9 60 af bf fb 38 b3 3e 5f de 28 3f
       0.2854137 -1.3701373 0.3500441 0.6596431
000010 ee 87 8c bf 54 a7 92 bd 84 44 50 3d dc ba 51 be
       -1.0978982 -0.071608216 0.05084659 -0.20481437
000020 14 0f 0d 3f 91 44 31 3f 81 15 89 3e dc d9 86 bd
       0.5510113 0.6924525 0.2677422 -0.06584522
000030 a1 f3 83 be c7 e0 4d 3f f8 aa 86 3e ac 05 85 3f
       -0.25771812 0.8042111 0.26302314 1.0392356
000040 ee e3 b4 bf c5 32 cc be 4b a8 82 bf 5d 90 66 bf
       -1.4132059 -0.39882484 -1.0207609 -0.9006403
000050 7d 34 39 3f 92 de 08 3f 52 5b d7 bc ea 9c 97 3e
       0.72345716 0.53464615 -0.026288662 0.29611903
000060 66 15 30 3f 49 18 87 3e 8b b0 36 bf 76 57 56 3f
       0.6878265 0.26385716 -0.71363133 0.83727205
000070 68 f1 33 be 75 5f a9 be 37 ad 60 3e d5 b2 4f 3d
       -0.17572558 -0.3308064 0.21941076 0.050707657
000080 dd c4 4c 3f 86 ce 0a 3f 2f 25 e7 3e f6 b4 8a 3f
       0.7998789 0.5422138 0.45145556 1.0836475
000090 9c 94 9c be 71 99 dc be 5c 6d 89 3e 1f f7 50 3f
       -0.3058213 -0.43085817 0.26841247 0.81627077
0000a0 f7 cd 78 3f b9 5d a4 3c 0d 80 27 3e 86 b7 9f bf
       0.9718928 0.020064222 0.16357441 -1.2477882
0000b0 b3 c7 af 3f 7f 30 9b be 7b 9f 16 bf 92 db 27 bf
       1.3732818 -0.30310437 -0.588371 -0.6556941
0000c0 d9 e6 c9 be 08 ce 90 bc ea 0b 0c 3f 91 c0 e4 3f
       -0.39433935 -0.017676368 0.5470568 1.7871267
0000d0 9a 79 99 bf 46 55 61 3f 99 08 1e bf a3 ed 58 bf
       -1.1990235 0.8802074 -0.6173187 -0.84737605
0000e0 96 44 4c 3f 92 02 4a bf ac 94 b3 3e 3e b9 27 bf
       0.79792154 -0.7891017 0.35074365 -0.6551703
0000f0 fe f6 c2 bd 16 35 a8 3e 8e ab bb 3f a6 63 7c 3f
       -0.09519766 0.32853 1.4661729 0.9858955

res_blocks.0.bn2.running_var f4 [64]
000000 d7 88 87 3e 0a ea a1 3e 6f d3 cb 3f e4 73 e8 3e
       0.26471588 0.3162387 1.59239 0.45400918
000010 de 8d 90 3e 38 4d 03 3f 09 cb 40 3e cf d5 b9 3e
       0.28233236 0.512897 0.18827452 0.36295936
000020 fa 02 a4 3d b4 bd 33 3f d9 fb 79 3e eb 82 21 3f
       0.0800838 0.7021134 0.24412479 0.6309039
000030 dd 59 1c 3e d0 2e 0c 3f 4c 14 a9 3e 34 ae 63 3f
       0.15268655 0.5475893 0.33023298 0.8893769
000040 4a ff 39 3f 55 26 84 3f ba 94 27 3e f2 63 32 3e
       0.72655165 1.0324198 0.16365328 0.17420939
000050 ea b0 ac 3e df 66 ea 3e f5 9a 82 3e ec c9 e2 3d
       0.33728725 0.4578161 0.25508848 0.1107367
000060 1f 47 25 3e 05 df 90 3e 62 7c f5 3d 81 39 6a 3e
       0.16140412 0.2829515 0.11986615 0.22873498
000070 47 ed 1a 3f b7 7a d5 3d 01 a3 1e 3f dc 40 14 3e
       0.60518306 0.104237966 0.61967474 0.14477867
000080 9d 86 b3 3e 61 87 e8 3e 7b a7 fc 3e 58 a4 bc 3e
       0.3506364 0.45415786 0.49346527 0.36844134
000090 72 10 11 3f 62 d3 20 3e b9 1a 70 3e ae bf 2c 3e
       0.5666572 0.15705636 0.23447694 0.16869995
0000a0 c6 9b b6 3e 49 ea e1 3e 3a 3a 0e 3e bb 65 91 3e
       0.3566572 0.44124058 0.13889399 0.28397927
0000b0 02 5b c0 3e 2c ff 24 3f 73 c0 4e 3e 89 59 27 3e
       0.37569433 0.6445186 0.20190601 0.16342749
0000c0 b0 da 9b 3e 9d 66 8f 3e 1c d4 09 3e 33 ba 23 3e
       0.30440283 0.28007975 0.1345982 0.15988998
0000d0 4a c0 db 3e 8a 89 c4 3d b8 f4 c7 3e 3d db c8 3d
       0.42920142 0.09596546 0.39053893 0.098074414
0000e0 76 ec 3a 3f e1 ce 82 3e 28 06 20 3e f5 2e 49 3f
       0.7301706 0.2554846 0.15627348 0.78587276
0000f0 b5 39 5f 3e 0d 8b c2 3e 50 81 1d 3e 5b 23 ad 3e
       0.21799357 0.37996712 0.1538136 0.33816037
