model/linear_resnet_model_100epoch.pt (torch, 168448 bytes, 44 tensors)

input_layer.0.weight f4 [64, 118]
000000 a4 4b 89 3d 8c 76 89 3d ce ab 89 3d 84 dd f3 3b
       0.067038804 0.06712064 0.06722222 0.007442178
000010 99 69 39 3c 9d 29 18 3d f3 d5 68 bd 55 26 9f 3d
       0.01131668 0.03714906 -0.056844663 0.07770983
000020 49 ef 0d bd d5 9b e8 3d 18 c9 5a 3d 81 58 33 bc
       -0.03465203 0.113578476 0.053414434 -0.010946394
000030 13 16 b7 3c 07 65 89 3d eb 0a 99 3d db 12 66 bc
       0.022349393 0.067087226 0.074727856 -0.014042581
000040 a3 45 16 be 9e 2b e4 3d a0 7b 85 bd cf 82 d1 bb
       -0.14675002 0.11141132 -0.0651772 -0.0063937674
000050 83 d3 b8 3b f7 86 b2 3d 70 98 73 3c eb 66 d3 3d
       0.0056404485 0.08717149 0.014867887 0.103223644
000060 ab 2f 6d bd 78 8f c0 3d e5 97 26 be 7e f7 8f 3d
       -0.057906788 0.094023645 -0.1626888 0.07029627
000070 af 2e 88 3b ec d6 3b 3d 9d 91 9f 3d 5f f1 eb 3c
       0.0041559557 0.045859262 0.077914454 0.028801618
000080 cc 30 24 bb 61 93 8b 3d c7 d9 9d bc ad f7 dd bd
       -0.00250535 0.0681522 -0.019268883 -0.10838256
000090 77 63 a8 3c 95 d4 b5 bb 6f 63 82 3d 48 dd 0f bd
       0.020555241 -0.0055490234 0.06366622 -0.03512314
0000a0 cf ba 9e bd 63 ad e3 3d 6d 4d 09 3e f6 0e 22 3d
       -0.07750475 0.11117055 0.13408442 0.03956505
0000b0 1a cd 58 3e a9 91 85 bc 0a 41 17 3c a5 af af 3c
       0.2117199 -0.016304808 0.009231815 0.021446059
0000c0 a6 e0 c4 3c 02 32 94 3d 60 3b 11 be 43 85 9b 3d
       0.024032902 0.07236101 -0.14182806 0.07593777
0000d0 3a 2f a3 bb b7 b2 ab bd 12 43 87 bd 86 1d bb 3d
       -0.004979995 -0.083836965 -0.066045895 0.091364905
0000e0 49 11 80 3d c5 71 f2 3d 37 ce a1 3d 58 9e bc 3b
       0.06253297 0.11838106 0.079006605 0.0057561807
0000f0 41 23 e2 bd da e7 4d ba 78 31 fb 3d 30 bd 31 3d
       -0.110418804 -0.0007854678 0.12265295 0.043393314
000100 07 08 b0 3d c5 b8 c3 3d 96 41 82 bd 6d a0 b1 3d
       0.08595281 0.09556726 -0.06360166 0.08673177
000110 f7 5e c6 bd ae 7a 41 bd 13 e0 39 bd 84 17 b5 3c
       -0.09686082 -0.047236137 -0.04537971 0.02210594
000120 4f 6a 80 bd c7 68 9d 3d 6e 57 45 bd 5a 0d 19 3c
       -0.06270277 0.07686 -0.048179083 0.009341562
000130 b6 68 79 3d 16 ca 71 3c 23 52 8d 3d 02 a7 9a 3d
       0.060890876 0.014757654 0.06900432 0.075513855
000140 f6 96 67 bd a5 58 87 bc b7 a0 a5 3c d3 00 0b bd
       -0.056540452 -0.016521761 0.020218236 -0.033936333
000150 17 0d f4 bc 63 bf 63 3d 9b 10 6f bd 35 e2 c3 bb
       -0.029791398 0.055602442 -0.058365446 -0.0059778937
000160 c6 d4 c1 3d 50 da e1 3d 2b 60 45 bc 23 4d 96 3d
       0.094644114 0.11027968 -0.012046854 0.073389314
000170 57 19 44 bd 06 1d 91 3d 87 1d 9d 3c 9a 67 2c be
       -0.04787573 0.07085614 0.019179119 -0.16836396
000180 ba eb 8e 3d e1 2c b2 3d 1c e1 65 bc ac 12 d4 3d
       0.06978555 0.08699966 -0.014030721 0.10355124
000190 78 a6 da 3c 1d 09 e6 bc cf a7 b8 bd 05 1e 70 3d
       0.026690707 -0.028080517 -0.09016382 0.05862238
0001a0 3c fe 97 ba 38 a4 1f 3e 38 58 ec 3c 17 17 d1 3d
       -0.0011596153 0.15589988 0.02885066 0.10209482
0001b0 ee 6c 68 bd 10 81 24 3e b4 b1 62 bd 25 4c e2 bc
       -0.05674451 0.16064858 -0.055345252 -0.0276242
0001c0 de 7c 22 3d 29 c0 a2 3b 5c 48 c1 3a 51 02 46 bc
       0.039669864 0.004966755 0.0014746296 -0.012085513
0001d0 96 01 59 bd ba d3 06 bd 0b 60 66 bd 44 ab 9b bd
       -0.052980028 -0.032916762 -0.056243937 -0.07601026
0001e0 b2 70 f6 bd e8 7c be bd 5e 09 9b bc 0e bc 01 bb
       -0.12033214 -0.09301168 -0.018925365 -0.0019795927
0001f0 32 42 c2 bd 62 56 5e bd 2b 5b a4 bd 1e d4 84 bd
       -0.09485282 -0.0542816 -0.080252014 -0.06485771
000200 9f 04 f6 bd f0 2c e5 bd 3f 0d 85 bd 05 9a 60 bc
       -0.120126 -0.11190212 -0.06496667 -0.013708596
000210 91 98 80 bc 0d b0 55 bd 14 c7 16 bd a1 63 dc 3c
       -0.01569775 -0.05216985 -0.03681095 0.026902976
000220 06 75 04 be 41 68 7a 3d b8 1a 14 3d a6 48 a7 bd
       -0.12935266 0.06113458 0.036158293 -0.081681535
000230 9d ee 85 bd d7 39 c2 bd cf 9f 13 3c 95 1b 85 bd
       -0.065396525 -0.09483688 0.009010269 -0.064994015
000240 50 34 ac 3c 81 5f 3c 3c 02 01 2d 3d fd 33 7d bd
       0.021021038 0.011497379 0.04223729 -0.061817158
000250 c0 54 5f be be 70 08 3b 02 ff 35 bd 95 eb ad bd
       -0.21809673 0.0020819153 -0.044432648 -0.08492199
000260 f6 b2 13 bd c8 33 9b bd 15 79 a0 bd b1 d3 a0 bd
       -0.036059342 -0.07578236 -0.078355946 -0.07852877
000270 68 96 d7 bc 6d 0b c2 bd 0f 77 26 3d 6d 30 c4 3c
       -0.026316836 -0.094748355 0.040640887 0.023948872
000280 e8 39 27 be f1 4d b4 39 4a f9 a4 3c 60 71 0c 3c
       -0.16330683 0.00034390346 0.020138402 0.008571953
000290 89 69 9f 3d fd 06 fc bd fc 04 cb bd 77 95 be 3c
       0.07783801 -0.123060204 -0.0991306 0.02326463
0002a0 2a 00 1a bd b8 bd 92 bd 3c a7 1d bd 2b 0f 3b bd
       -0.037597813 -0.07165092 -0.038489565 -0.045668762
0002b0 e2 52 a9 3b 49 a6 d6 bc 32 77 41 bd d5 42 91 bc
       0.005167351 -0.026202338 -0.047232814 -0.017732063
0002c0 2a d1 a3 bd d0 81 3c bd ea e0 6c bc de 5d 85 bd
       -0.07998879 -0.046022236 -0.014457921 -0.06512044
0002d0 f0 73 94 3d 3a 4a 91 bd 2d f9 44 be 02 1d f3 bb
       0.07248676 -0.07094236 -0.19235678 -0.0074192295
0002e0 93 aa 79 3d 14 2c 4f bd 24 c9 8b 3c 12 e7 8d bd
       0.060953688 -0.050579146 0.017063685 -0.06928839
0002f0 52 89 4a 3d 5a e9 c4 bc fe 95 76 bd a7 dd db bd
       0.049447365 -0.024037052 -0.060201637 -0.10735636
000300 9a 46 fb bd 8d e7 5c 3d 79 87 5f bd c2 ee ee bd
       -0.122693256 0.05393176 -0.054572556 -0.11666633
000310 d8 80 04 bd cb a6 b9 bc 95 35 3f 3c 9a 66 80 3d
       -0.032349437 -0.02266254 0.01167049 0.0626957
000320 db 27 fa 3b e4 ad 30 3d 32 e5 a2 bd 77 97 a2 bd
       0.0076341457 0.043134585 -0.07953872 -0.07939046
000330 74 c0 c3 3c d5 68 39 3c a2 e1 41 bd 41 3b 30 3d
       0.02389548 0.011316498 -0.04733432 0.04302526
000340 50 a5 8f 3c bb 6a de bd b1 69 2f bd 14 7c b2 3c
       0.017534882 -0.10860201 -0.042825405 0.02178768
000350 f0 22 a5 bc 03 1d 02 bc 84 de 61 3d 9c 16 ef 3b
       -0.020158261 -0.007941487 0.055143848 0.0072963964
000360 6f af 26 3d a6 dd c4 3b 19 49 f1 bd 31 5f 1a bd
       0.04069465 0.006007868 -0.117815204 -0.037688438
000370 87 88 20 be f6 31 fa 3c 87 c8 b1 bc 47 1c c9 bd
       -0.15677081 0.030541401 -0.021702064 -0.098198466
000380 a5 c2 80 bd fa 74 af bd 6f 3a 86 bc ba 46 32 bd
       -0.062871255 -0.085672334 -0.016385285 -0.04352448
000390 5a e1 8f 3c d8 8a aa bd e3 73 a2 bd 97 41 39 3d
       0.01756351 -0.083272636 -0.0793226 0.045228567
0003a0 dc 68 70 3d fd 7a 63 bd bb c2 9e bc 88 a1 5e bd
       0.05869375 -0.055537213 -0.019379964 -0.054353267
0003b0 bf 4f 7f bd 85 b1 4e bd 84 58 dc bd 35 ce 8c bd
       -0.06233191 -0.050462265 -0.107590705 -0.06875268
0003c0 d4 db 52 3d 22 1a 8a 3c 6e f5 e9 3d ee 51 1d 3d
       0.051479176 0.016858164 0.11423765 0.038408212
0003d0 86 86 7c 3d 08 71 8d 3d 03 af fb bc 5d 27 f3 3c
       0.06165173 0.069063246 -0.0307231 0.029681856
0003e0 f8 19 14 3d f7 24 14 3c db 3e bf 3c c7 96 a0 bd
       0.03615758 0.009042016 0.023345402 -0.078412585
0003f0 6e 0c 5f 3d f4 b4 b1 3d af 29 c9 3a b4 76 1a 3d
       0.054455213 0.08677092 0.0015347506 0.03771086

input_layer.0.bias f4 [64]
000000 89 63 02 bd b4 82 01 bd dd d3 01 b9 32 8c 06 be
       -0.031833205 -0.03161879 -0.00012381324 -0.13139418
000010 98 21 d6 3c 9d e5 a9 3d 60 4e 8b bd e0 e2 a4 bd
       0.026139066 0.082957484 -0.06802058 -0.080510855
000020 49 48 a5 bd 09 9e cf bd b7 86 ca 3c 41 30 fd bb
       -0.08070428 -0.10137565 0.02472244 -0.0077266996
000030 00 29 6c 3d 17 23 c8 3c d2 e0 c7 3b a0 6f 96 bc
       0.05765629 0.024430795 0.0060997987 -0.018363774
000040 12 8e e7 39 01 08 f5 bb bd 1b d8 bd 18 c9 17 3e
       0.00044165604 -0.007477761 -0.10552166 0.14822805
000050 4f 87 0b 3d 3c ac 37 bd f8 6c 81 3d ad 43 3d 3c
       0.034064587 -0.04484199 0.06319612 0.01155178
000060 58 e0 a9 3d 96 e2 b9 3d 4a 8c dd bc 10 cd db 3d
       0.08294743 0.09076421 -0.027044434 0.10732472
000070 ce 3f d5 3d 76 ca 24 3d f2 c3 bd bc 0f 8a 6d bb
       0.104125604 0.040232144 -0.023164723 -0.003624562
000080 f8 31 82 3c ea cd 06 3d 9d 71 28 bb 23 5f c7 39
       0.015892968 0.03291122 -0.0025702484 0.0003802712
000090 3e 9a b3 3c 24 b7 4f 3d ba 7a 45 3d 90 59 b8 3c
       0.021924134 0.050711766 0.048212744 0.022503644
0000a0 8f ef e2 3d a8 52 ab 3d 7d c0 bb 3d d7 b3 1b bd
       0.110808484 0.08365375 0.091675736 -0.038013306
0000b0 5c fd 3d 3d fc b9 5a 3d 92 3e 5e bd b9 ef 87 3d
       0.0463842 0.053400025 -0.05425889 0.0663752
0000c0 18 af 15 3e f0 44 5e bd ba 23 0c 3e 99 4c 15 be
       0.14617574 -0.054264963 0.13685504 -0.14580001
0000d0 71 a4 08 3e 92 c8 7b bd 72 87 41 bd c3 b9 d0 3d
       0.1334398 -0.061470576 -0.04724831 0.10191681
0000e0 0b 2d cd 3d 07 e3 1f 3e 04 9a bf 3d c6 8a 34 3d
       0.10018357 0.15613948 0.09355548 0.044077657
0000f0 50 b5 9a bd 58 bd 88 bd 6e 25 cd 3d f1 f5 1e be
       -0.07554114 -0.066767395 0.10016905 -0.15523507

input_layer.1.weight f4 [64]
000000 2d b5 ec 3f c2 63 fd 3f ec fe f7 3f 49 ca e9 3f
       1.849279 1.9796069 1.9374671 1.8264858
000010 2e 67 01 40 02 d4 eb 3f 5a 3d c2 3f 5e ae ed 3f
       2.0219226 1.8424075 1.5174973 1.8568838
000020 94 74 03 40 c4 17 f2 3f 09 8d f4 3f 70 99 f5 3f
       2.0539904 1.8913503 1.910554 1.918745
000030 70 cd f6 3f d2 b5 ed 3f ab 6d e7 3f 56 2c f7 3f
       1.9281445 1.8571112 1.8080343 1.9310405
000040 a1 f7 00 40 0d 7a ed 3f 49 d2 ef 3f e3 be f7 3f
       2.015114 1.8552872 1.8736049 1.9355129
000050 a3 ac f3 3f 86 a4 fa 3f 85 5f f5 3f f7 a4 ea 3f
       1.903706 1.9581459 1.9169775 1.8331593
000060 15 d0 ec 3f 81 ad fa 3f c3 45 f2 3f 0d 7a ef 3f
       1.8501002 1.9584199 1.892754 1.8709122
000070 a6 f8 ed 3f 50 ce 96 3f 37 69 03 40 5d 09 ea 3f
       1.8591506 1.1781712 2.0532968 1.8284107
000080 b8 e3 cf 3f c2 9b 02 40 41 9d f2 3f 78 c0 00 40
       1.6241369 2.0407567 1.895424 2.0117474
000090 59 a6 f1 3f a3 be f1 3f 42 ee eb 3f 18 0e ef 3f
       1.887889 1.8886303 1.8432086 1.8676176
0000a0 aa 2a ef 3f 15 c0 eb 3f 45 80 ed 3f b4 d3 f2 3f
       1.8684895 1.8417994 1.855477 1.8970857
0000b0 fb 10 01 40 6c 92 ff 3f ba 2e f5 3f 91 1a f0 3f
       2.0166614 1.996656 1.9154885 1.8758107
0000c0 2a 04 08 40 c2 b7 db 3f ed d9 f0 3f 8c 25 ef 3f
       2.1252542 1.7165453 1.8816506 1.8683333
0000d0 5d 6b ef 3f 3a f5 fd 3f 55 1e ee 3f 39 68 f8 3f
       1.870464 1.9840462 1.8603007 1.9406806
0000e0 43 3d e9 3f cd e0 ef 3f 3e 1b 02 40 64 51 ed 3f
       1.822182 1.8740479 2.0329127 1.8540463
0000f0 6c c0 ec 3f cf 23 eb 3f d4 d5 ef 3f a9 d0 f8 3f
       1.8496222 1.8370303 1.873713 1.9438678

input_layer.1.bias f4 [64]
000000 04 48 81 3f 2d fc 81 3f 67 09 88 3f ab 85 79 3f
       1.0100102 1.0155083 1.0627869 0.97469586
000010 a1 26 7b 3f 5a ed 70 3f 08 46 ce 3e cc 72 74 3f
       0.9810582 0.9411217 0.40287805 0.95487666
000020 1a 56 63 3f 59 3f 84 3f 09 27 74 3f fa f9 80 3f
       0.88803256 1.0331832 0.9537206 1.0076287
000030 e5 8d 83 3f b0 97 76 3f 88 69 83 3f 40 3f 75 3f
       1.0277678 0.96325207 1.026658 0.95799637
000040 b7 ec 81 3f e0 be 71 3f 62 2f 7e 3f bc f0 85 3f
       1.0150365 0.9443188 0.9929105 1.0464091
000050 09 68 80 3f c3 39 82 3f 05 9b 82 3f 14 f8 87 3f
       1.0031749 1.0173877 1.0203558 1.0622582
000060 24 61 76 3f 36 78 76 3f 18 90 75 3f 5a 5f 83 3f
       0.96241975 0.9627718 0.95922995 1.0263474
000070 ed 5e 84 3f 35 a0 8e be 76 b6 81 3f 88 07 61 3f
       1.0341469 -0.27856603 1.0133808 0.87902117
000080 6d 64 15 3f 1f 33 74 3f 9d 3a 7a 3f 03 57 7c 3f
       0.5835636 0.95390505 0.97745687 0.9857027
000090 b3 f8 7d 3f ce c4 75 3f 4c 4e 81 3f 8e 13 7d 3f
       0.9920761 0.96003425 1.0102019 0.98857963
0000a0 3a 29 7a 3f f7 a7 6a 3f 92 c0 7d 3f df 43 75 3f
       0.97719157 0.91662544 0.99121964 0.9580669
0000b0 7c ef 46 3f 4b b6 73 3f d3 fb 7f 3f 04 97 7d 3f
       0.77709174 0.9520003 0.9999363 0.99058557
0000c0 5a 32 59 3f f8 b1 87 3f 0e b6 80 3f f0 c1 7e 3f
       0.84842455 1.0601187 1.0055559 0.99514675
0000d0 e3 b2 80 3f 74 b6 81 3f 4c 11 81 3f 47 28 76 3f
       1.0054592 1.0133805 1.0083404 0.9615521
0000e0 a5 0e 6c 3f f5 c7 74 3f a7 7f 82 3f 94 f8 74 3f
       0.92209846 0.9561761 1.0195206 0.956918
0000f0 61 7c 7f 3f 80 99 75 3f b7 19 8e 3f 8e 90 81 3f
       0.9979916 0.9593735 1.1101598 1.012224

input_layer.1.running_mean f4 [64]
000000 78 e2 c2 bc 5a ef 0d bd 05 04 89 3c fc 84 f8 bd
       -0.02378963 -0.03465209 0.01672555 -0.1213474
000010 de 09 d3 3c c2 50 97 3d 06 97 ad bd 69 13 95 bd
       0.025761541 0.0738845 -0.08476071 -0.07279093
000020 b0 6b 9e bd d8 ec cb bd 18 87 1e 3c 50 f2 af bc
       -0.077353835 -0.09957284 0.009675764 -0.021477848
000030 fb de 91 3d 03 78 83 3c 59 fe d6 3c ca eb 81 bc
       0.07122608 0.016048437 0.02624433 -0.015859503
000040 5c 32 1d bc 1c 73 41 bd 96 dc c1 bd 44 e8 11 3e
       -0.009594526 -0.047228917 -0.094659016 0.14248759
000050 7e 7d 97 3c ef 5b 1e bd c6 ee 76 3d 7a 98 17 bc
       0.018492457 -0.038661893 0.060286306 -0.009252662
000060 6f 5b aa 3d 99 d9 b8 3d 6d b3 d8 bc 9a bd 06 3e
       0.08318221 0.090258785 -0.026452744 0.13158265
000070 87 f6 d9 3d dd 73 42 3d 63 47 a9 bc 01 cb 9c b9
       0.106427245 0.047473777 -0.020663923 -0.00029905888
000080 84 2d e2 bb 6f b2 af 3c 3c 6c 58 3b c2 20 29 3d
       -0.0069023985 0.021447388 0.0033023497 0.041291006
000090 66 53 90 3c 6c 94 80 3d 85 48 41 3d a7 a8 1f 3c
       0.017617892 0.06278309 0.0471883 0.0097448
0000a0 e4 01 e5 3d bd f7 c3 3d 48 66 aa 3d 9c 18 5c bd
       0.11182001 0.09568737 0.0832029 -0.053734407
0000b0 db 7b de 3c 04 fe 59 3d d4 a4 a8 bd 3e 3b 82 3d
       0.027158668 0.053220764 -0.082345635 0.06358956
0000c0 c5 78 11 3e 4b 2e 90 bd 4d 2c f6 3d 16 0d 09 be
       0.14206226 -0.0704008 0.120201685 -0.13383898
0000d0 a5 de 0b 3e 67 03 6c bd f4 93 83 bd 06 8c d5 3d
       0.13659151 -0.057620432 -0.06424704 0.10427098
0000e0 fc 49 c4 3d b6 5b 2f 3e 25 f2 c2 3d 3f 20 a6 3c
       0.09584424 0.17124829 0.09518842 0.020279048
0000f0 41 ae 99 bd f6 48 72 bd 6f 14 a6 3d 39 ed 23 be
       -0.075039394 -0.059151612 0.08109366 -0.16008462

input_layer.1.running_var f4 [64]
000000 55 d5 d1 3f 18 85 60 41 fd 06 68 40 0e 41 0a 40
       1.6393229 14.032494 3.6254265 2.1602206
000010 a7 df 2a 41 51 e4 68 40 97 4d d3 40 03 d6 a8 3f
       10.679603 3.6389353 6.6032214 1.3190311
000020 24 87 1d 40 7d f5 24 41 ad 68 16 40 b2 f6 58 41
       2.4613733 10.309934 2.350139 13.560228
000030 d0 4f 68 40 dd 1e 37 41 d1 ac 49 41 9b ae cd 40
       3.6298714 11.445035 12.6046915 6.427564
000040 cc 8a 3c 41 fe c4 47 40 0b 2b fa 3f d0 47 27 3f
       11.783886 3.1213984 1.9544386 0.6534395
000050 41 26 27 41 2b ec 58 3f 1c fe 5c 40 3c 4f 2f 41
       10.446839 0.84735364 3.4530096 10.956844
000060 1f 9c ed 40 18 b8 3c 40 62 15 16 40 08 14 af 3f
       7.4253078 2.9487362 2.345055 1.3677988
000070 59 58 05 40 5b fa b3 41 78 ae 7f 40 18 74 37 41
       2.0835173 22.497244 3.9950237 11.465843
000080 ab 34 91 40 cc 9a 29 41 48 89 74 41 04 0a dd 3f
       4.537679 10.600292 15.283516 1.7268682
000090 8f 7a 06 3f 63 ee 6f 41 cb f2 c7 40 f3 f4 c8 40
       0.5253076 14.9957 6.248388 6.279901
0000a0 5d 7a 7f 40 b8 d0 0a 41 36 2c c8 40 71 0e 85 3f
       3.9918435 8.675957 6.255397 1.0395032
0000b0 99 01 ba 40 27 8b 7e 41 60 af 9e 40 48 6d 8d 41
       5.812695 15.908973 4.958908 17.67836
0000c0 b3 60 52 41 4f e7 b9 40 3e 74 59 41 0b 95 05 41
       13.148608 5.809486 13.590879 8.348887
0000d0 de 89 1c 41 fe 9d 0b 41 d0 05 94 40 8c 87 14 41
       9.783659 8.726072 4.6257095 9.2830925
0000e0 bc 51 fa 3f 27 84 98 3f 9f 30 c9 40 98 33 a9 40
       1.9556193 1.191533 6.287185 5.287548
0000f0 74 31 ed 40 4e 18 19 40 66 c2 8b 3f 33 2a 50 3f
       7.4122868 2.3921084 1.0918701 0.8131439

res_blocks.0.linear1.weight f4 [64, 64]
000000 c7 61 eb ba 24 00 27 be 32 dd 7c be 15 2e 81 bd
       -0.0017958217 -0.16308647 -0.24693754 -0.063076176
000010 99 b1 5a 3c 7c 70 f2 3a ba 44 3c be 51 6b bb bd
       0.013348007 0.0018496658 -0.18385592 -0.09151328
000020 36 46 01 be 94 9a c6 bc 6c 9d 0c 3e bd 42 8c bc
       -0.1262444 -0.02424363 0.13731927 -0.017121667
000030 04 21 d7 bd 7a d9 b3 bd 59 29 17 bd 33 41 8a bd
       -0.10504344 -0.08781715 -0.036904667 -0.06750717
000040 85 b3 d4 3c fc 90 82 bd 66 cf 8a bd 0c 77 e8 bd
       0.025964508 -0.0637531 -0.06777839 -0.113508314
000050 15 6c c7 bd 91 8c c5 3d 74 54 cb bd ff f1 a1 bd
       -0.09737412 0.096459515 -0.099282175 -0.07907485
000060 a6 57 25 be 7c 2d 89 bd 48 39 be bd 3c 53 85 bd
       -0.16146716 -0.066981286 -0.09288269 -0.06510016
000070 29 1c 0a be af b2 ba 3d d2 0b 15 3c 68 74 85 3d
       -0.13487305 0.091161124 0.009097056 0.06516343
000080 c8 17 fc 3c 71 d9 33 3d 33 4b 1b be 21 0d 09 be
       0.030773059 0.04390854 -0.15165405 -0.13383915
000090 ec d9 d4 3d d7 2d 90 3d b6 94 28 be 3d 52 36 bb
       0.10393128 0.07039993 -0.16462979 -0.0027820014
0000a0 0a e8 e6 bc 31 24 e9 3c ff db 49 bd f1 36 f3 bd
       -0.028186817 0.02845964 -0.04928207 -0.118757136
0000b0 77 67 10 be 34 45 ed bd 39 6f 91 bd 9c 16 a8 bd
       -0.14101969 -0.11585465 -0.07101292 -0.082074374
0000c0 75 38 dd bd 3b 54 4d 3d a0 61 bf bd 38 06 18 be
       -0.10801784 0.050129157 -0.09344792 -0.14846122
0000d0 ed 35 da bd 54 31 31 be 18 ad e7 3c 3e 9a 48 3c
       -0.10654817 -0.17303973 0.02828078 0.012243805
0000e0 59 f5 bc bc 7e 83 20 bd c3 64 98 3c 42 87 80 3d
       -0.02306621 -0.0391879 0.018602734 0.062757984
0000f0 d9 20 65 3c 44 64 0d be 5d 66 c0 bb 3d e4 c5 bd
       0.013984882 -0.1380778 -0.0058715777 -0.096626736
000100 09 20 0a be 20 ed eb bc e4 91 12 3e a8 ca d3 3c
       -0.13488783 -0.028799593 0.14313465 0.02585347
000110 aa d3 35 3d b2 3f 0b bd 1e 4f 9d bd d1 83 88 3d
       0.04439131 -0.03399629 -0.07681106 0.06665767
000120 1b 17 9a bc cf 7c 1d be df 19 e2 bd 84 bb d4 bd
       -0.018809846 -0.15379642 -0.11040091 -0.10387328
000130 57 b5 c8 bd d9 ee 8e bd 1f 8b 48 bd 64 01 86 bc
       -0.09800213 -0.0697915 -0.0489608 -0.016358085
000140 5a f8 20 bd 73 5e 7a 3d ff cc b4 3c a8 8d 36 3e
       -0.039299347 0.06112523 0.022070406 0.17827475
000150 42 3b 79 3d cf 9a 95 bd ea 7a 09 be 85 51 3e 3d
       0.06084753 -0.07304918 -0.13425794 0.04646446
000160 c7 12 49 3d 2a d7 ea bd b7 d4 a9 3d f5 f3 01 be
       0.049090173 -0.114668205 0.08292525 -0.12690718
000170 0f f1 b5 3c 3a d1 b7 be 48 6e 0b be 83 bf d4 bd
       0.022209672 -0.35901815 -0.13616288 -0.103880905
000180 e7 26 dd 3d 7f ef 50 bd 7d b2 91 bd 83 55 74 be
       0.10798436 -0.05100965 -0.07114122 -0.23860745
000190 84 06 a7 bc a1 53 0a bd 52 e5 5b bc 4b 9b a4 bc
       -0.02038885 -0.03377116 -0.013421373 -0.02009358
0001a0 04 4a 43 3d 7d 6a f1 3c c2 c6 a1 3d ea 9e b4 bc
       0.04767801 0.029469723 0.07899238 -0.022048432
0001b0 a1 e9 1f bd 62 f1 13 be 53 57 67 3d e2 8b 9f bc
       -0.039041165 -0.14447549 0.056479763 -0.019475881
0001c0 02 99 ae 3d 89 2b 2a bd 24 ea ca bb 61 54 10 bd
       0.08525278 -0.041545425 -0.0061924625 -0.03523672
0001d0 ec 54 0f be 5f 7b c2 bb ad 07 b7 bd ff 29 b8 bc
       -0.13997239 -0.005935117 -0.08937011 -0.022480963
0001e0 fa 44 f1 bc 50 eb c9 bd 33 20 73 bd 14 4e 82 bd
       -0.029451836 -0.098593354 -0.05935688 -0.063625485
0001f0 f3 f8 97 bc 7d 9b 91 3d e1 0b 76 bd 2c 1b 92 bd
       -0.018551325 0.07109735 -0.060069922 -0.07134089
000200 93 30 c0 bc 81 34 b6 bd 03 3d 11 be b9 71 d0 3c
       -0.023460662 -0.08896733 -0.1418343 0.025444852
000210 e6 38 b1 bb 16 95 1f bd d2 8b 9a 3d 23 02 89 3d
       -0.005408394 -0.03896054 0.075462 0.06689861
000220 84 a0 02 bc 99 6c 2b bd 48 2a 82 3b c5 46 86 bd
       -0.00797284 -0.041851614 0.0039723255 -0.06556467
000230 44 bf b0 3d bf be 94 bb 25 39 ca bb c4 0c 75 bd
       0.08630231 -0.0045393403 -0.006171363 -0.059826627
000240 ed bc dc bd 37 60 b3 3a 2c 9b 4f bd 75 b5 83 bd
       -0.10778222 0.001368529 -0.050685093 -0.064310946
000250 12 66 d1 3c bc fa 4e 3d 4f 1d 1a bd cf f4 89 bd
       0.025561366 0.050532088 -0.037625607 -0.06736147
000260 ef 18 ce bd 59 52 b1 3b d9 9e 9b bd 95 1c 72 3c
       -0.100633495 0.005411428 -0.07598657 0.014777322
000270 6f 67 f2 3c eb 21 c8 be dc c3 1b bb 19 af 98 bd
       0.029590337 -0.39088377 -0.0023767864 -0.07455272
000280 f9 1f 78 bc ba dd 97 bd e9 a8 1d be 90 7a 19 bb
       -0.015144342 -0.07415338 -0.15396465 -0.0023419
000290 db 08 c8 3d 9c 7d 58 be 96 52 4f 3d b2 c5 4a 3c
       0.09767314 -0.21141666 0.05061587 0.012376236
0002a0 67 dd 46 3d d5 39 27 be 18 e1 87 bc 31 8c 72 bd
       0.04855099 -0.16330655 -0.016586825 -0.05921573
0002b0 74 87 4b be 4f e1 50 bd 33 e9 a7 3c 9f dd 4a be
       -0.1987589 -0.05099612 0.02049694 -0.19811104
0002c0 ad 49 9e bd b4 b8 9a bd e9 ab 2d be 55 35 20 bd
       -0.07728896 -0.075547606 -0.1696011 -0.03911336
0002d0 91 32 91 bd fd da c6 3c 15 a7 82 bd 45 28 80 3d
       -0.07089723 0.024274344 -0.063795246 0.06257681
0002e0 4d 86 43 bd d9 2a b7 bc 2d 72 d7 bd 69 11 00 be
       -0.0477355 -0.022359299 -0.10519824 -0.12506641
0002f0 57 6e 14 3c 4e de 01 3d 34 46 69 3c d9 43 73 bd
       0.00905951 0.031706147 0.014237929 -0.059390876
000300 75 17 34 be 8c 1a 8c bc e8 1e aa bd f4 40 19 bc
       -0.17587073 -0.017102502 -0.08306676 -0.009353865
000310 b7 dc 55 bd 40 e3 4f 3d 99 f8 cb bd ab 92 38 bc
       -0.052212443 0.050753832 -0.099595256 -0.011265437
000320 a7 c8 49 be 5e 0c e3 bd be 3d 2e be ac 73 2d bc
       -0.19705449 -0.11086343 -0.1701574 -0.01058666
000330 e8 4b 25 bc d3 da cc 3d 27 0e 1b be 0a 1a 1d be
       -0.010088898 0.10002675 -0.15142117 -0.15341964
000340 e3 45 10 bd b3 1d ec bc 51 c0 84 3d 7e 08 d7 3c
       -0.0352229 -0.028822755 0.06481994 0.026249167
000350 92 02 cd bd 1b a3 95 bc 4a 02 d0 bd 3f 42 a0 3c
       -0.10010256 -0.018266251 -0.101566866 0.019562839
000360 51 93 79 3d e3 37 a8 b8 8a 07 79 bd c4 ab 20 bd
       0.060931507 -8.021274e-05 -0.060798205 -0.03922631
000370 96 f8 26 3d 87 c4 8d be 4c 3a bc bd 3b bc 9a bd
       0.040764414 -0.27689 -0.09190807 -0.07555433
000380 2f 1c 6e bc c7 9f 5b bd 55 21 fe bd d7 f2 0a 3c
       -0.014533087 -0.053619172 -0.12408701 0.008480749
000390 23 ee 50 bd af 59 09 be 7e 2b 72 bd a0 14 3d 3b
       -0.051008355 -0.13413118 -0.05912351 0.0028851405
0003a0 9d 6e 4c 3d de 3c 10 be 62 d0 d2 3d 6d 4b 20 be
       0.049910177 -0.14085719 0.10293652 -0.15653773
0003b0 5f 57 6a b9 fb b9 f6 bd 12 b2 00 be c2 60 42 be
       -0.00022348527 -0.12047192 -0.12567928 -0.18982223
0003c0 e4 30 54 bd 7b 86 87 bd 34 f8 0a be 71 0b 72 bd
       -0.05180444 -0.06617447 -0.13571244 -0.059092943
0003d0 3b 99 2d be 3b c2 ba bd 51 8e 9f bc cd ed 88 3d
       -0.16952984 -0.09119078 -0.019477041 0.06685982
0003e0 91 a1 2f be 06 91 33 be 97 b5 36 3d 9a c3 90 3c
       -0.17151476 -0.17535791 0.04460677 0.017671395
0003f0 8f 70 1a be f0 1d 87 3d 04 b9 81 3d 0b 8a 8c 3d
       -0.15082 0.06597507 0.06334117 0.06862267

res_blocks.0.linear1.bias f4 [64]
000000 c6 e7 f7 3d a5 1a 50 3d 9d 8d c7 3d be b4 31 ba
       0.12104754 0.05080666 0.097438075 -0.0006778947
000010 8b 1e 5b bd f0 cd ff bb d8 37 b0 3c 0c ca f3 bd
       -0.053495925 -0.007806532 0.021511003 -0.11903772
000020 06 c2 c5 3d 53 08 e1 3b 7b 63 be 3c d7 d4 83 bd
       0.09656148 0.0068674474 0.023240795 -0.0643708
000030 94 67 df bb 15 be 81 3d 4d fa 80 3b ca ce 15 be
       -0.0068177674 0.063350834 0.003936088 -0.14629665
000040 9b c3 3f be 2c 69 1c 3e 9c c1 5f bd cc 2d 3f bd
       -0.18726961 0.15274495 -0.054628 -0.046674535
000050 d0 f6 ad bc ab 06 19 3e 89 e1 62 bc fa 08 c7 3d
       -0.021235853 0.1494395 -0.013847717 0.09718509
000060 51 84 27 3e ac 86 86 3d 54 9a a1 3c ff ac e8 bd
       0.16359068 0.06568655 0.01972691 -0.113611214
000070 bf be 83 3d 24 df de bc d9 1d 8e bd 75 06 f8 bd
       0.06432866 -0.027206011 -0.06939287 -0.121106066
000080 66 3a 7b bd 6e 02 1d 3d 58 7e 13 bc 12 9e a0 3c
       -0.06133499 0.038332395 -0.009002291 0.019606624
000090 80 1d a3 bc a5 d7 dd bc 84 44 81 3d 47 54 16 bd
       -0.019911528 -0.027080366 0.063118964 -0.036701467
0000a0 5c 63 9f 3d c4 12 1f bc da 67 b4 3d 50 a7 ee 3d
       0.07782623 -0.009709064 0.088088706 0.11653006
0000b0 c5 01 b7 bc 59 a1 96 3d bf 45 83 bc 3c 03 b1 bd
       -0.022339711 0.073549934 -0.016024468 -0.08643195
0000c0 74 62 c4 bc d2 de 1b 3e b9 9f cc bc be f6 c5 bc
       -0.023972727 0.15221718 -0.024978505 -0.024165507
0000d0 99 12 1f bd 36 e1 82 3d 21 1d 37 bd 14 06 db 3c
       -0.038836095 0.06390612 -0.044705514 0.026736297
0000e0 35 08 7b 3d d1 fd a0 3c 48 04 69 bd bc 78 9e bd
       0.061287124 0.01965228 -0.05688885 -0.07737872
0000f0 0f a3 cd 3c d1 2b 2c be 03 1b 5a 3d 4d fc 98 bd
       0.025102166 -0.1681359 0.053248417 -0.074699976

res_blocks.0.bn1.weight f4 [64]
000000 2d d1 58 3f 8b 2e 4c 3f 67 b7 67 3f 46 fa 7e 3f
       0.84694177 0.7975852 0.90514225 0.99600637
000010 f0 9d 89 3f e4 9e 5b 3f 13 8a 42 3f 8b 0d 43 3f
       1.0751324 0.8578932 0.75991935 0.7619254
000020 97 71 6c 3f 39 dd 88 3f 4d 97 6b 3f 6b b3 85 3f
       0.92360824 1.0692512 0.9202774 1.0445379
000030 69 48 81 3f 77 83 5c 3f c5 14 73 3f bc 3e 57 3f
       1.0100223 0.861381 0.94953567 0.840801
000040 82 25 64 3f 51 77 72 3f 3b cd 52 3f 76 cb 65 3f
       0.8911973 0.9471331 0.82344407 0.8976358
000050 cd 79 7c 3f fe 8b 86 3f 2d 2e 80 3f f5 a2 84 3f
       0.98623353 1.0511472 1.0014092 1.036223
000060 d5 c2 75 3f 5f 98 91 3f 68 79 50 3f 12 f1 78 3f
       0.96000415 1.1374625 0.8143525 0.97242844
000070 27 55 68 3f c2 ff 84 3f 11 d9 73 3f ac 5b 6d 3f
       0.9075493 1.0390551 0.9525309 0.92718005
000080 a4 11 57 3f 0b 22 69 3f 55 39 68 3f ca 8e 82 3f
       0.8401129 0.9106757 0.9071248 1.0199826
000090 f4 93 69 3f 51 e9 6c 3f 30 d8 79 3f 53 6f 45 3f
       0.91241384 0.9254351 0.975955 0.7712299
0000a0 f6 c2 54 3f 43 04 4c 3f e8 81 6e 3f bf 41 75 3f
       0.83109987 0.79694 0.9316697 0.95803446
0000b0 88 78 82 3f cd a1 86 3f 26 36 48 3f 64 45 44 3f
       1.0193033 1.0518128 0.78207624 0.7666838
0000c0 64 70 52 3f a1 dd 8a 3f 67 5b 36 3f b5 a6 3f 3f
       0.82202744 1.0848886 0.7123322 0.7486375
0000d0 d6 3f 7c 3f dd f4 50 3f 6b fa 81 3f cf 18 75 3f
       0.98534906 0.8162363 1.0154546 0.9574098
0000e0 da 5d 76 3f bc 3c 4c 3f 46 94 6f 3f f2 8c 71 3f
       0.96236956 0.79780173 0.9358562 0.9435569
0000f0 7d 77 77 3f 4d 85 4d 3f aa ba 88 3f 78 9a 68 3f
       0.966667 0.80281526 1.0681965 0.908607

res_blocks.0.bn1.bias f4 [64]
000000 ec 50 ac 3e da ec b2 3e c7 22 59 3e fd a7 88 be
       0.33655488 0.34946328 0.21204673 -0.26690665
000010 fe a3 91 be f0 82 93 3e e5 c6 11 3f fe 48 c6 3e
       -0.2844543 0.28810835 0.56944114 0.38727564
000020 da a3 94 3e eb ff 5e be b3 9f d8 3e 57 b1 e4 bc
       0.2903126 -0.21777312 0.4230934 -0.027916593
000030 70 3a 34 3d 38 5f 31 3e 6f 36 af be a0 42 b1 3e
       0.044001043 0.1732148 -0.34221217 0.34621143
000040 a1 fc 92 3e 76 92 71 3d ef bb 03 3c ca 54 a0 3e
       0.28708366 0.058977567 0.008040412 0.3131469
000050 cc c6 13 bd b1 bd 49 be 6f 72 70 be 4a be 5a be
       -0.03607826 -0.19701268 -0.23481153 -0.21361652
000060 a3 90 85 be 02 52 fb bd ec 1a d5 3e 3f 01 05 bc
       -0.26086912 -0.12271501 0.41622102 -0.008117973
000070 81 53 ba be 1b b5 37 bd 25 8f 09 3d 8f ac cf 3e
       -0.36391833 -0.04485045 0.03358378 0.4056134
000080 56 23 ad 3c 5f b0 22 bc f0 d3 8d 3e a9 d0 6a be
       0.021135014 -0.009929745 0.27700758 -0.2293116
000090 f8 09 0b 3d 39 24 90 bd a1 1d 6f be 16 bc 10 3f
       0.033945054 -0.07038159 -0.23351146 0.56536996
0000a0 40 a2 76 3e 1a da cf 3e 7a 11 95 be 44 9a 10 bc
       0.24085331 0.40596086 -0.29114896 -0.008825842
0000b0 39 3a 7c bd 35 23 8d be b6 9b 11 3f 33 c8 c9 3e
       -0.061578963 -0.27565923 0.5687822 0.39410552
0000c0 a9 6c f3 3e 99 3c 01 be 4a e6 f0 3e 35 9d ef 3e
       0.4754384 -0.12620772 0.47050697 0.46799627
0000d0 f4 be 3d be ad bf e3 3e 5f ed 48 be f8 e1 20 3e
       -0.18529874 0.44482175 -0.196218 0.157112
0000e0 41 23 15 3d 82 58 c5 3e 49 ef 86 3d de 80 28 3e
       0.036410574 0.3854409 0.06588609 0.16455409
0000f0 39 49 98 3d c5 d2 bd 3d fc 6f 87 be 6a f2 d2 3e
       0.07435841 0.09268717 -0.26452625 0.41200572

res_blocks.0.bn1.running_mean f4 [64]
000000 0f de 8e c0 c4 fc 1d c0 5c f9 48 c0 29 7f 8a c0
       -4.464607 -2.4685526 -3.1402197 -4.3280225
000010 26 84 b2 40 ac cb 6c c0 97 ad 87 c0 8f 4b b1 c0
       5.5786314 -3.6999311 -4.23994 -5.5404735
000020 70 f0 81 c0 d5 50 70 40 8b c1 8b c0 c6 15 1c c0
       -4.0606003 3.7549336 -4.367376 -2.438829
000030 db 14 15 40 eb d1 6d c0 79 8a 92 c0 dd 30 89 c0
       2.329398 -3.7159374 -4.5794034 -4.2872148
000040 96 d3 8b c0 57 2a a5 bf 12 87 52 3f df 98 65 c0
       -4.3695784 -1.2903546 0.8223735 -3.5874555
000050 5f b7 6e 3e d1 40 9c 40 a0 e4 54 c0 18 e3 84 c0
       0.23312138 4.882912 -3.3264542 -4.1527214
000060 f2 81 6f c0 bb 3c 64 40 88 b8 81 c0 bb 00 9b 3c
       -3.7423062 3.5662067 -4.053776 0.018921247
000070 2d e3 71 c0 8d e5 57 40 a9 de 8b c0 30 20 8a c0
       -3.7794907 3.3733857 -4.37093 -4.316429
000080 64 09 56 c0 4a fb 53 c0 a8 2a 58 c0 1b e2 90 c0
       -3.3443232 -3.3122125 -3.3776035 -4.527601
000090 86 af 93 c0 80 3d 83 c0 cd 75 51 c0 24 bd 9b c0
       -4.615176 -4.1012573 -3.272815 -4.8668385
0000a0 dd 73 82 c0 57 c8 82 c0 de 05 66 c0 51 10 08 c0
       -4.0766435 -4.0869555 -3.594108 -2.1259959
0000b0 4d e1 64 c0 5e 4d 9a 3f 41 97 88 c0 ea dd 92 c0
       -3.5762513 1.205486 -4.2684636 -4.589589
0000c0 e8 c0 b3 c0 7c 89 b1 be 89 e3 53 c0 6f 2a 64 c0
       -5.617298 -0.34675205 -3.3107626 -3.56509
0000d0 e3 95 24 c0 dd e8 6c c0 af 80 4d c0 c1 6c b6 bf
       -2.5716484 -3.7017128 -3.2109792 -1.4251939
0000e0 1b a7 7e c0 84 6e 5a c0 d4 55 6b c0 c1 2d d1 bf
       -3.9789493 -3.4129953 -3.6771135 -1.6342088
0000f0 3e 26 19 c0 db b5 96 c0 01 61 6e c0 59 c8 54 c0
       -2.392959 -4.709699 -3.7246706 -3.3247283

res_blocks.0.bn1.running_var f4 [64]
000000 e3 b4 f9 3f 57 4f ea 3f 1d a9 92 40 a2 b7 ca 40
       1.9508327 1.8305463 4.5831437 6.334916
000010 10 e6 4b 40 0d 2e 0f 40 c1 95 2f 40 4c f4 0d 41
       3.185917 2.2371857 2.7435153 8.872143
000020 12 fb 85 40 30 a7 ac 40 ce a3 52 41 61 28 28 41
       4.186898 5.3954086 13.164991 10.509858
000030 2d c1 c9 40 01 1c 7c 40 9c 8f 00 40 b5 83 36 40
       6.304831 3.9392092 2.0087652 2.8517888
000040 8f 53 96 40 f9 9a 00 41 83 28 c1 3f 5c 96 5d 40
       4.6977 8.037835 1.5090488 3.4623022
000050 60 26 17 41 37 50 1b 40 e5 31 33 40 51 c7 52 40
       9.446869 2.426771 2.7999203 3.2934153
000060 4c a3 ee 3f 8e 5d ff 40 7a 1b 2b 40 4d 8f 18 41
       1.8643584 7.9801702 2.673552 9.534986
000070 2a 54 a1 40 3a a4 30 40 a3 e9 b9 40 c5 25 13 40
       5.041524 2.7600236 5.80977 2.2991803
000080 d8 ca 89 40 a6 39 cd 3f c6 35 f4 3f d2 fe 1a 41
       4.306011 1.6033218 1.907891 9.687212
000090 50 be 52 40 c1 b5 dc 3f 64 76 b0 40 e4 1a 10 41
       3.2928658 1.7242967 5.514452 9.006565
0000a0 46 0c 04 40 ca e2 8e 40 40 d5 99 40 01 6e 8a 40
       2.063249 4.465184 4.8072815 4.325928
0000b0 7c b7 5e 40 e4 3b 9e 41 79 ea 6b 40 01 3a ec 3f
       3.479949 19.779243 3.686186 1.8455201
0000c0 a9 7e fa 40 2f fe 6a 41 43 e0 0e 40 5a c2 10 40
       7.8279614 14.687057 2.2324378 2.2618623
0000d0 97 a6 e7 3f 3b d3 79 40 76 41 20 40 a0 82 de 40
       1.8097714 3.9035175 2.5039954 6.9534454
0000e0 62 cc a7 40 c5 21 bb 40 5f f6 0f 40 5b f1 c2 40
       5.243699 5.8478723 2.2494123 6.0919623
0000f0 d8 da 22 41 9c 4e 4f 40 bd cc 74 40 35 89 09 40
       10.178429 3.239173 3.8249962 2.1489995

res_blocks.0.linear2.weight f4 [64, 64]
000000 a2 a9 02 bc 9a 64 b3 3d ba 72 45 3d 8e 48 5c bd
       -0.007975014 0.087594226 0.048205115 -0.05378013
000010 a1 10 e5 3d f4 b4 75 3d 98 01 5d 3d 74 65 76 3b
       0.11184812 0.059987023 0.053956598 0.0037597092
000020 61 df c5 3c 8c 36 39 bd 08 39 94 3d bf 6a b5 3c
       0.024154367 -0.045218036 0.0723744 0.022145627
000030 9c 72 27 bc 2c a8 eb bd 41 22 25 be d8 dc f4 3d
       -0.010220196 -0.115066856 -0.16126348 0.11956185
000040 5f f0 b7 bd 46 aa f8 3c 88 78 93 bd d0 bf 03 be
       -0.08981394 0.03035463 -0.07200724 -0.1286614
000050 d8 42 a2 3d 2f a0 d4 bb ca ed b1 bd d9 bd a1 bd
       0.07922906 -0.006488822 -0.08687933 -0.07897539
000060 70 4c 21 3d e6 69 3d be 5d ca 21 3c 45 a7 c4 3d
       0.039379537 -0.18497428 0.009874907 0.09602217
000070 5e e8 5c 3d 6f fe 65 3d 91 b5 81 3c 54 97 6d 3e
       0.05393254 0.05615085 0.015833648 0.23202258
000080 2c 40 05 3e c7 37 6f bd cf 79 87 39 87 3e da bd
       0.13012761 -0.058402803 0.0002583996 -0.106564574
000090 78 e4 09 3d 8b a0 02 be 5c 11 b7 3c 02 7e a3 3c
       0.03366515 -0.12756555 0.022347145 0.019957546
0000a0 14 3b 81 3d 39 ec 71 ba 17 98 36 bd a7 c7 f2 bd
       0.063100964 -0.00092286203 -0.044578638 -0.11854487
0000b0 d0 d8 60 3d 41 7f 1b 3c b1 6d 5d 3d 62 69 a5 3d
       0.05489427 0.009490789 0.054059688 0.08076741
0000c0 35 26 89 3d 69 2d 16 be 99 e7 41 3e ad 9a ec 3d
       0.066967405 -0.1466576 0.18936004 0.115529396
0000d0 5a 1f d4 bd 43 cc 29 3d c5 ad f9 3d 95 89 eb bd
       -0.10357542 0.041454565 0.12191347 -0.11500851
0000e0 b5 f2 e9 bd 21 7d cd bd 5e a2 e0 bc af 7e 8a 3c
       -0.11423246 -0.10033632 -0.027421173 0.01690611
0000f0 d2 ca c3 3d 6f bb 92 3d 34 17 9b bd cf d4 12 3d
       0.09560169 0.07164656 -0.07572785 0.03584748
000100 f8 fb e3 bc 69 e3 dd bc ca 72 ed bc 71 cc 60 3d
       -0.027830109 -0.027085977 -0.0289854 0.05488247
000110 6f 0a 0e bc ac 02 eb bd 96 cb dc bd 41 cf ab bd
       -0.00866948 -0.11475119 -0.107810184 -0.0838914
000120 a1 06 a4 bd ef bd 88 3e d3 bd 98 bd 04 df 19 be
       -0.08009077 0.26707408 -0.07458081 -0.1502648
000130 60 6e 10 3e 02 e6 22 3d 2c eb 8f bc f4 2c 00 bd
       0.14104605 0.039770134 -0.017568193 -0.03129287
000140 c1 f9 09 bd 1e e4 80 bd 15 d4 d2 3c f6 27 db bb
       -0.03368545 -0.0629351 0.025735894 -0.0066881133
000150 cf ef 34 3e 12 fd dd 3d 15 f9 6c 3c f2 60 85 bc
       0.17669605 0.10839285 0.014463683 -0.016281579
000160 2b 8a 4d bc bb 01 46 3d 20 bd 1e bd 1f 96 b3 bd
       -0.012545149 0.048341494 -0.038754582 -0.08768868
000170 5f 9d 9e bb bf a9 50 bd 2e 43 1a bd 5a 2c 30 bd
       -0.0048405374 -0.050943132 -0.037661724 -0.043011047
000180 29 76 20 bd 3e 08 5e 3d c9 f9 66 bc 48 cc 81 bc
       -0.039175186 0.05420708 -0.014097639 -0.01584448
000190 9f c0 e4 bc 0d 6b 13 3d 32 f0 c4 bd 7d 42 39 bd
       -0.02792388 0.035990763 -0.09616126 -0.045229424
0001a0 96 3c c1 bd ca d4 90 3c 6e d2 8b 3d 9a 8d 91 bc
       -0.09435384 0.01767959 0.06827246 -0.017767716
0001b0 f7 7d aa 3d 9e d5 a7 be 07 34 95 3d 16 ae 77 3d
       0.08324807 -0.32780164 0.07285314 0.060468756
0001c0 74 03 f3 3d 08 66 eb bd eb 50 fe bc aa b9 ad bd
       0.11865893 -0.1149407 -0.031044444 -0.08482678
0001d0 dc dd 55 bc 89 a4 19 bd 21 11 c5 3c 90 be 3b 3e
       -0.013053384 -0.03751043 0.02405602 0.18334413
0001e0 eb 18 cd bc 4a 38 f0 3d 40 4b 45 be 44 3b 1e be
       -0.025036296 0.11729486 -0.19266987 -0.15452296
0001f0 4d db 8d bd eb 2b 1b 3d 7d 40 3b 3c 1e 86 8c 3c
       -0.06926594 0.03788368 0.011428949 0.017153796
000200 61 9e 4c 3d e5 04 ed 3b 2f 6a 82 bd 69 7e 07 3e
       0.04995573 0.0072332495 -0.06367909 0.13231815
000210 bb 43 5b 3e 4e a4 8c 3c 93 d8 cf bd 61 36 ff bd
       0.21412556 0.01716819 -0.1014873 -0.12461544
000220 33 51 1b 3e 94 0f 46 be 40 f6 45 bc e6 ca 09 bd
       0.15167694 -0.1934188 -0.012082636 -0.033640765
000230 4a b1 a6 bd 36 3a 5e bd 83 24 d7 bd 58 0a 23 3e
       -0.08139284 -0.054254733 -0.10505011 0.15921915
000240 41 7d c8 3d 69 9c 55 bc 18 c8 25 3e 96 9c 14 3c
       0.09789515 -0.013037779 0.16189611 0.009070536
000250 2b c7 5b 3a a1 91 9c 3d f7 4d 05 3e ae ed 28 3d
       0.00083838654 0.07644964 0.13018022 0.041242294
000260 bc f6 e4 3c 4e b0 ed bd 18 0a 2c 3d a1 95 bf 3d
       0.027949683 -0.11605893 0.042001814 0.09354711
000270 61 df 9d 3d 22 ab 22 3e bc b1 d5 3d 2e a3 5d 3e
       0.07708622 0.15885594 0.10434291 0.2164428
000280 f1 76 1a 3c 65 b0 08 3e fd 71 2c 3c 21 c7 61 bd
       0.009427772 0.13348539 0.010525224 -0.055121545
000290 85 15 ec bc a6 2a 4d be bb ff 72 3d fd 0f e5 3d
       -0.028818855 -0.200358 0.059325915 0.1118469
0002a0 10 c0 37 3d 8c d1 bc 3c a3 6c 80 3d 26 0c 1b bd
       0.0448609 0.023049138 0.06270721 -0.037853383
0002b0 31 19 ff 3d 68 fb 36 bc 50 97 7d bd 1c 23 0d 3e
       0.12455977 -0.011168338 -0.06191188 0.13782924
0002c0 db c0 05 bd 65 ed 19 bd 37 af d9 3a 7a 78 84 3c
       -0.032654624 -0.037579913 0.0016608004 0.016170729
0002d0 37 82 b0 3c ab 7d c4 bd 7a cc 1f 3e 14 2d 2e 3d
       0.021546466 -0.09594282 0.15605345 0.04252346
0002e0 9a ff 80 bc be 55 46 3d 5c 47 97 3d 24 a3 eb 3d
       -0.01574688 0.048421614 0.073866576 0.11505726
0002f0 4b e1 1c 3e 82 d2 2e 3d 97 cd dd 3c e6 d0 e8 3c
       0.15320317 0.042681225 0.027075572 0.028419923
000300 7b 36 2f 3d 51 96 dc 3d 43 ba 81 3d cf 49 9a bd
       0.042776566 0.10770858 0.06334355 -0.07533609
000310 09 6f 17 be 24 0e 01 be 62 60 d2 3b 1a 7a d5 bd
       -0.1478845 -0.1260305 0.006420181 -0.1042368
000320 be 5f c3 bb 1a 93 78 3c bd 54 0b 3e 0a bb 36 3e
       -0.005962341 0.0151717905 0.13606544 0.17844787
000330 a9 9f 1d 3c 1b 75 a0 3c 53 6a b6 3c e9 80 9e bb
       0.0096205855 0.01958709 0.022267496 -0.0048371446
000340 52 20 c4 3d 8d 77 d4 bd 0b 1e 0b 3d 6a 53 10 3e
       0.09576477 -0.10374365 0.033964198 0.1409432
000350 95 9d 4c 3b 0f 9f 88 3d 41 48 f1 3d 70 a2 53 3e
       0.0031221856 0.06670963 0.117813595 0.20667434
000360 62 06 18 bd fa 5a fb bd e2 5a a4 bd 98 f6 99 bd
       -0.037115462 -0.12273212 -0.08025147 -0.07517737
000370 3a a1 5c bd 9e fe f9 bd cb 9a ab 3d 8b fb 8b bd
       -0.053864695 -0.122067675 0.08379134 -0.068350874
000380 55 45 b0 3d 5a bd 8e 3d 5e 60 c5 bc 8a f6 25 3e
       0.08606974 0.0696971 -0.024093803 0.16207328
000390 ec d6 ae bd 47 c6 ed bc 37 ce 13 3e 08 34 cc 3d
       -0.08537087 -0.02902521 0.14434133 0.09970862
0003a0 11 c9 a2 bc 2e 59 e1 bc c0 a2 fb 3d 25 1f 59 bd
       -0.019871267 -0.027508345 0.122869015 -0.053008217
0003b0 89 17 6d 3d 60 bf 91 bd 7d 4d 82 3b a6 c4 64 bd
       0.057883773 -0.0711658 0.0039765225 -0.0558516
0003c0 00 9f c8 bc 2e e6 03 3d c9 79 5a bd 9d 97 68 3c
       -0.02448988 0.03220194 -0.0533388 0.014196304
0003d0 4b 78 8f 3d ba 02 a2 bd 70 8c d1 3d 98 75 94 bd
       0.07005366 -0.07910676 0.102318645 -0.07248992
0003e0 3c 9a 4e bd d1 9e 87 bd 12 1c 1d be 8e 1e 8b bd
       -0.050440058 -0.06622089 -0.15342739 -0.06792937
0003f0 18 c2 41 be 99 58 80 3d 5b 96 9c 3d 75 37 35 3e
       -0.18921697 0.06266899 0.076458655 0.17696936

res_blocks.0.linear2.bias f4 [64]
000000 47 f8 a1 3e 50 9c 7e be 5f 97 03 3e 77 29 09 bd
       0.31634733 -0.24864316 0.12850712 -0.03348681
000010 59 72 60 bd 48 18 c2 be 7b cb 42 3e f9 b4 1d 3e
       -0.05479655 -0.3790915 0.19022934 0.15401067
000020 cf 20 85 be f9 b2 bb 3e d7 a2 b3 3e 3e c8 50 3e
       -0.26001593 0.36659983 0.35085174 0.20388886
000030 c4 10 c4 3e d6 2a 88 be 27 79 34 3e 1b c3 ef bc
       0.3829404 -0.2659518 0.17624341 -0.029267838
000040 9f 0b f3 bb d4 2c c5 3e 35 5f 81 3e d3 8e 55 3e
       -0.007417157 0.38510764 0.2526795 0.20855264
000050 13 4b 8c 3d dc d5 25 3e b3 c1 d0 be 00 ea 1b 3e
       0.06850257 0.16194862 -0.4077278 0.15225983
000060 61 b5 24 3d 2d 54 36 3d e9 e3 a4 bd 88 9c 12 3e
       0.04021204 0.04451387 -0.08051283 0.14317524
000070 2d d7 b6 3c 4e 3f 6d bc 32 bc 55 3e aa fd d3 3c
       0.0223194 -0.014480425 0.20872572 0.025877792
000080 35 51 57 3e 73 72 96 be 4e 81 90 bd 94 8c 80 be
       0.21027072 -0.29384193 -0.07055913 -0.25107253
000090 c8 4e 84 3e e0 48 86 3e 1d 37 d7 3d bd 13 69 bc
       0.25841355 0.26227474 0.10508559 -0.014225897
0000a0 1c 9a 65 3e 30 cd c9 3e 85 2b 77 3e 1f 66 b7 3e
       0.2242207 0.39414358 0.24137695 0.358201
0000b0 48 d2 8b be ae 92 a6 be 02 5d a1 3e f4 46 16 3e
       -0.2730887 -0.32533783 0.31516272 0.14675504
0000c0 ab 6b 52 be 48 d6 4d 3c c0 f1 ee 3d be 53 00 3d
       -0.20548885 0.012563296 0.11667204 0.031329863
0000d0 15 21 d7 3d 48 5b 22 be 60 21 a3 3e ed e0 1a be
       0.10504357 -0.15855134 0.318614 -0.15124865
0000e0 1f e6 ea 3e fb 0b 14 3e 7c 2a 30 bd 68 f1 9c 3e
       0.45878693 0.14457695 -0.043009266 0.30652928
0000f0 62 85 8d 3e 89 37 38 3e 67 2d cb be e9 e7 06 3e
       0.27640826 0.17989935 -0.39683077 0.13174404

res_blocks.0.bn2.weight f4 [64]
000000 9e 44 f8 3f d6 8b fb 3f 13 69 f6 3f 56 ed f0 3f
       1.939594 1.965205 1.9250816 1.8822429
000010 b7 9a fa 3f 3c 69 f1 3f 6c 0a fa 3f 03 c6 ee 3f
       1.9578465 1.886024 1.953443 1.8654178
000020 5b 7b f8 3f ff 1d f8 3f 59 1e f2 3f a5 ae f4 3f
       1.9412645 1.9384154 1.8915511 1.9115797
000030 f5 94 f6 3f 43 8d ed 3f 27 d2 f9 3f d7 3d f6 3f
       1.9264208 1.8558735 1.9517258 1.9237622
000040 3d 5b fe 3f fd 58 ee 3f 4d d3 f0 3f b9 cf fc 3f
       1.9871594 1.8620907 1.8814484 1.9750892
000050 36 b9 f1 3f 04 1a f5 3f 13 72 fa 3f e7 39 f6 3f
       1.8884647 1.9148564 1.9566063 1.923642
000060 55 79 e9 3f 1d 40 f6 3f 3c 67 f2 3f 6f ff f0 3f
       1.8240153 1.9238316 1.8937755 1.8827952
000070 cf e1 f4 3f df f9 fc 3f 73 6e 01 40 fc 92 eb 3f
       1.9131411 1.9763755 2.0223663 1.8404231
000080 58 de f7 3f 5c 65 02 40 3f 8d f4 3f 19 3f fc 3f
       1.9364729 2.0374365 1.9105605 1.9706756
000090 b5 6e f5 3f c6 5c f5 3f d8 b1 f9 3f f5 d1 f6 3f
       1.917441 1.9168937 1.9507399 1.9282824
0000a0 fa 91 ef 3f ed 67 ee 3f b6 94 f1 3f ad 14 f2 3f
       1.8716424 1.8625466 1.8873508 1.891256
0000b0 c5 db 00 40 36 e3 ff 3f db 79 f5 3f 70 8e f3 3f
       2.0134137 1.9991214 1.9177812 1.9027843
0000c0 76 73 08 40 31 85 fe 3f b3 c5 f4 3f 35 74 f1 3f
       2.1320472 1.9884397 1.9122833 1.8863589
0000d0 73 a8 f1 3f 3b 6c f6 3f 72 ce f4 3f c0 d1 f6 3f
       1.8879532 1.9251779 1.9125502 1.9282761
0000e0 89 57 eb 3f f4 a8 f0 3f b0 21 fe 3f 53 22 ee 3f
       1.8386089 1.880156 1.9854031 1.8604225
0000f0 ec 70 f3 3f 39 72 ee 3f 94 16 fb 3f 61 98 f5 3f
       1.9018836 1.8628608 1.9616265 1.9187127

res_blocks.0.bn2.bias f4 [64]
000000 ad 4b 84 3f 56 f6 82 3f a5 34 88 3f 8a f0 84 3f
       1.0335594 1.0231426 1.0641066 1.0385907
000010 0a 3f 81 3f bc 68 73 3f d6 f5 81 3f 59 4f 7c 3f
       1.0097363 0.95081687 1.0153148 0.98558575
000020 4a 00 79 3f 0d f2 83 3f 63 15 83 3f 04 e9 85 3f
       0.97266066 1.0308243 1.0240902 1.0461736
000030 ca bd 7f 3f f5 e2 78 3f d6 86 84 3f f9 c4 7a 3f
       0.9989897 0.9722131 1.0353649 0.97956806
000040 7b 3a 82 3f b5 d3 75 3f 08 17 86 3f 3c e0 84 3f
       1.0174097 0.96026164 1.0475779 1.0380931
000050 72 64 82 3f b0 c1 83 3f 57 ad 83 3f a4 4f 89 3f
       1.0186903 1.0293484 1.0287274 1.0727429
000060 3d 58 7a 3f 7e 11 79 3f 67 68 7c 3f 7b b4 86 3f
       0.9779089 0.97292316 0.98596805 1.0523828
000070 94 f1 89 3f 5b 70 82 3f ed 3f 81 3f d6 bc 6b 3f
       1.0776849 1.0190538 1.0097634 0.92085016
000080 40 ec 88 3f 83 5a 7d 3f 26 25 82 3f 1f 30 80 3f
       1.0697098 0.98966235 1.0167587 1.0014685
000090 58 86 82 3f 41 42 85 3f 05 2f 82 3f 1b 4a 84 3f
       1.0197248 1.0410844 1.0170599 1.0335115
0000a0 1a 6e 7c 3f 09 bf 72 3f 23 c1 80 3f 96 ca 80 3f
       0.986055 0.94822747 1.0058941 1.0061824
0000b0 22 17 7d 3f ec 23 81 3f 0d 0c 81 3f 6f 84 81 3f
       0.9886342 1.0089087 1.0081803 1.011854
0000c0 06 1f 79 3f 59 a1 83 3f 9b c7 83 3f bf dc 80 3f
       0.97312963 1.0283614 1.029529 1.0067366
0000d0 6f f0 81 3f 9a 2a 84 3f 2a 2b 83 3f 25 cf 80 3f
       1.01515 1.0325501 1.0247548 1.0063215
0000e0 d3 86 75 3f 04 35 7d 3f b6 d2 83 3f af cf 6f 3f
       0.9590885 0.9890902 1.0298679 0.93676275
0000f0 a1 be 83 3f ff 49 7a 3f 90 28 92 3f 89 e5 84 3f
       1.029255 0.9776916 1.1418629 1.0382549

res_blocks.0.bn2.running_mean f4 [64]
000000 75 3e 2d 3f 4c 75 24 bf e5 f3 65 3f d4 3b 95 3d
       0.67673427 -0.6424148 0.8982528 0.07286802
000010 a0 3d 39 bf f8 90 58 bf 69 8e 41 3f e0 72 08 3f
       -0.7235966 -0.84596205 0.75607926 0.53300285
000020 92 ca 90 bf 57 3d 7c 3f 17 bd 92 3f 6b 22 89 3e
       -1.131182 0.985311 1.1463956 0.2678407
000030 b5 bd 41 3f 18 5e e3 3b 0d 33 97 3f c0 a8 9d bf
       0.75680095 0.006938707 1.1812454 -1.2317123
000040 51 d1 27 bf de ed 35 3f ef 14 b5 be 87 5b 62 3f
       -0.65553766 0.7106608 -0.35367534 0.8842091
000050 9e e9 84 3e 0b cf 02 3f 2c 7f 80 bf 04 c8 5e 3d
       0.25959486 0.5109717 -1.003881 0.05438997
000060 4e 25 0d 3f 70 e5 1d bf 2a dc f0 3e 69 8b f1 3d
       0.5513505 -0.6167822 0.47042972 0.117941685
000070 0a 34 3d 3f 7e 98 35 3c df e7 42 bd 6b 2d e1 3e
       0.7390753 0.01108372 -0.04758441 0.43979964
000080 2b 6c 03 3e 63 c9 e4 be 10 7e 2e 3b 3b 12 8f bf
       0.12834232 -0.44684896 0.0026625432 -1.1177438
000090 36 79 6c 3f d6 d9 4d 3f d6 92 bb be 7e d1 08 3f
       0.92372453 0.80410516 -0.36635464 0.5344466
0000a0 4b 26 d8 3d ad a6 b6 3f 47 8b 4c 3f 8f b7 b2 3f
       0.10554179 1.4269615 0.7990002 1.3962268
0000b0 97 0a 39 bf 35 b2 45 bf 90 2b b0 3f f9 7e 0c 3f
       -0.72281784 -0.7722505 1.3763294 0.54881245
0000c0 c4 ee 81 3c 80 c6 3a bf 86 e9 0f be c4 86 71 3f
       0.015860923 -0.72959137 -0.14053926 0.9434626
0000d0 81 dd 45 3f 10 7d c4 be 6e b2 81 3f 74 c0 f3 be
       0.77291113 -0.38376665 1.0132577 -0.47607768
0000e0 b5 a7 bd 3f f2 e4 1d 3f 1f 6c 3d bf 39 5a 16 3f
       1.4816805 0.6167747 -0.73993105 0.5873142
0000f0 a2 75 9f 3f 07 b1 61 3d 9f ef 67 bf 69 4f 1e 3f
       1.2457774 0.055100467 -0.9060001 0.6183992

res_blocks.0.bn2.running_var f4 [64]
000000 20 e1 26 3e c0 97 c8 3e 2d d1 05 3e e8 23 4e 3e
       0.16296816 0.39178276 0.13068075 0.20130885
000010 43 68 c9 3e c1 62 ab 3d ef 67 a9 3d 50 9b ca 3e
       0.39337358 0.08368445 0.08271777 0.3957162
000020 eb e1 a2 3e f5 e6 35 3e 41 05 28 3e 10 8a a3 3e
       0.31812987 0.17763884 0.16408254 0.3194127
000030 61 5d f2 3e 52 86 6c 3e 25 49 c7 3e db 70 87 3f
       0.47336867 0.23098114 0.38922992 1.0581316
000040 01 ad bc 3e 4d e6 5f 3e fb 7a 2b 3e 2c b7 86 3f
       0.36850742 0.21865197 0.16746132 1.052465
000050 09 d6 2f 3e 9c 6c ab 3e 6d 01 4a 3d 97 8f 7b 3e
       0.17171492 0.334813 0.049317766 0.24566494
000060 b8 15 91 3e 0f f9 8e 3e fc 1e b4 3e f0 4e 51 3e
       0.28336883 0.27924392 0.3517989 0.20440269
000070 c7 22 a1 3e 3d 31 d9 3d df 45 ff 3e d3 bf 42 3f
       0.31471846 0.106050946 0.49857995 0.7607395
000080 3f 8d 12 3e 21 a9 18 3e 71 06 07 3f e1 93 88 3d
       0.14311694 0.14908268 0.52744204 0.06668831
000090 bb 3a 21 3e 3d 98 f4 3e 76 c6 e2 3d cf 22 80 3e
       0.1574506 0.477724 0.1107301 0.25026557
0000a0 00 91 cd 3d 9d bf 11 3f 96 49 06 3e 48 a4 68 3e
       0.10037422 0.56933004 0.13114008 0.22718918
0000b0 e5 16 76 3d c2 05 5d 3e 4d c5 20 3f 19 aa 46 3e
       0.060080428 0.21584228 0.6280106 0.19400825
0000c0 6b 8d 15 3f fa a2 d6 3d b9 7b b4 3e 11 05 5f 3e
       0.5841891 0.10480304 0.35250643 0.21779276
0000d0 43 57 09 3f c3 1f d5 3e 96 51 7d 3e c3 76 04 3f
       0.53648776 0.41625795 0.24738154 0.51743716
0000e0 ec 20 1b 3f 21 8e d2 3e 39 1e 06 3f 18 fd b0 3e
       0.6059711 0.4112406 0.52389866 0.34568095
0000f0 92 dd d5 3e 40 ac 53 3e 05 1f ec 3d 7a 34 46 3f
       0.41770607 0.20671177 0.11529354 0.7742382
