model/linear_resnet_model_400epoch5res.pt (torch, 249156 bytes, 68 tensors)

input_layer.0.weight f4 [64, 118]
000000 df 7d 16 be 61 78 4f 3d d3 1c 78 3e 87 8e ef bd
       -0.14696454 0.05065191 0.24229746 -0.11697107
000010 7a a8 e9 3e 19 c9 b7 3c 37 fd f5 3d 45 20 81 3e
       0.4563635 0.022434758 0.120111875 0.25219932
000020 79 91 dc 3e 48 56 96 3e ba 30 8b 3e ac 34 d7 3d
       0.43079737 0.29362702 0.27185613 0.10508093
000030 54 bc 5d 3c 91 c6 1a 3d 02 2d 00 be 39 ba 01 be
       0.01353367 0.037787024 -0.12517169 -0.12668695
000040 d6 6e 55 be 98 0d 52 3e 56 03 2c 3d 7c 37 84 be
       -0.20843062 0.20512998 0.04199537 -0.2582358
000050 41 39 be 3e 58 19 51 3e d0 bd fb 3d 44 30 10 3f
       0.37153056 0.20419824 0.12292063 0.5632365
000060 ac e9 f2 3e 68 c9 85 3c 61 6f c4 be 18 78 86 3e
       0.47443902 0.01633139 -0.38366225 0.262635
000070 44 d3 30 3f 23 2e 71 3d 5b 60 73 3e 07 73 55 be
       0.69072366 0.05888189 0.23767225 -0.2084466
000080 24 77 89 be 2a 55 b5 3d da 95 7e 3e 98 4d 08 be
       -0.2684871 0.088541344 0.24861851 -0.1331085
000090 a4 e6 d8 3e 17 4b 6d 3d bf a3 33 3c 6f bc 22 3e
       0.42363465 0.05793294 0.010964333 0.15892194
0000a0 da 99 d2 3e 00 bf a5 3e 38 c4 8f 3e 19 1e 05 3e
       0.41133004 0.32372284 0.2807939 0.12999763
0000b0 a3 d6 69 be d3 5b 30 3d ef 96 96 3d bd 36 06 be
       -0.22835784 0.04305632 0.07353007 -0.13106818
0000c0 1b b5 a3 be d3 74 5b be a6 d4 5a be 93 a9 81 3e
       -0.3197411 -0.21431284 -0.21370181 0.25324687
0000d0 8e 82 a2 3d 5b 34 7b be 45 0b bc 3e f1 c6 83 3e
       0.079350576 -0.24531691 0.36727348 0.25737718
0000e0 09 b7 f7 3d 6e 48 e2 3e 69 18 fc 3e 24 c0 53 bd
       0.12095458 0.44195884 0.49237373 -0.05169691
0000f0 2f 83 c6 be bb d8 83 3e d0 4e 42 3f 3b 43 56 3d
       -0.3877196 0.2575129 0.7590151 0.05231021
000100 35 33 bc 3d 15 ec 1f be c4 bd a8 bd a4 06 48 be
       0.091894545 -0.15617402 -0.0823932 -0.19533783
000110 ec f8 3a 3e 41 eb 97 3e 38 25 04 be 2c 0f a8 3e
       0.18259019 0.29671672 -0.12904823 0.32824075
000120 28 2b ab bb c2 4f 46 3d ad 9a 44 3e 13 d8 ca 3e
       -0.0052236505 0.048415907 0.19199629 0.39617977
000130 60 c3 b7 3e ba 1e 8b 3e e5 11 02 3d 3f b6 6b be
       0.35891247 0.2717188 0.031755347 -0.2301874
000140 f6 da 79 bd ae a7 0a 3d 0f 07 2a be 24 6a 19 be
       -0.060999833 0.033851318 -0.16604255 -0.14981896
000150 ff 30 13 3e 71 25 97 3d 53 1d 36 be 42 07 c4 3e
       0.1437416 0.07380188 -0.17784624 0.38286787
000160 bd b8 8b 3e b3 ec 0d bf 8b c2 5c 3d 2a 86 0d 3f
       0.27289382 -0.554393 0.053896468 0.55282843
000170 fa 34 ca 3e 89 df c4 bb 8c bf 0f be 99 7a b7 be
       0.39493543 -0.006008093 -0.14037913 -0.35835722
000180 43 db 05 3e 17 36 2f 3f 42 c9 12 3e c7 1e 96 bd
       0.13071923 0.6844191 0.14334586 -0.07330089
000190 c3 68 40 3e a8 42 55 be 69 b5 0c 3e c6 b1 a4 3e
       0.18789963 -0.20826209 0.13741077 0.3216688
0001a0 57 fa 1f be 73 f8 e8 3e 4a 0b 19 3d 80 ac 8a 3c
       -0.15622841 0.45502052 0.03736428 0.016927958
0001b0 5f fe 0f 3e 22 d3 9c be 50 ba d4 3e 7c f6 a7 3e
       0.14061879 -0.30629832 0.41548395 0.3280524
0001c0 ca a4 99 3e f0 11 08 3e 64 bb 5e ba 2d 96 12 3e
       0.30008537 0.13288093 -0.00084965513 0.143151
0001d0 bf f3 09 be cd d4 69 bd 8c 75 d1 bd f4 e1 32 3e
       -0.13471888 -0.05708771 -0.102274984 0.17469007
0001e0 b9 00 15 3e fd ef 4f be 16 b4 c0 3e cb cf c8 3d
       0.14551057 -0.20306392 0.37637395 0.09805258
0001f0 f5 bf a2 3d 00 27 4b 3e 67 07 8a 3e 58 84 03 3f
       0.07946769 0.19839096 0.26958773 0.51373816
000200 bd 72 d8 3e ab a6 4b 3d 4c bb 51 3d 4a 54 77 3e
       0.42275038 0.049719494 0.05120401 0.24153247
000210 c8 12 82 be f5 98 3a bd 37 65 74 bd 2d 50 ea 3c
       -0.25404954 -0.045556027 -0.05966684 0.028602684
000220 3a f4 c3 bd 5b 8e 67 be dc 75 2a 3e 18 71 b1 3e
       -0.09568067 -0.22612898 0.16646522 0.34656596
000230 e0 f7 3d 3e 32 ad ff 3e 15 1a a4 3e 56 24 ac 3c
       0.18551588 0.49936825 0.3205115 0.02101342
000240 a5 88 cf be 39 5b 81 3e 8e 45 4a 3f dd bc 6a bd
       -0.4053394 0.2526491 0.7901238 -0.05730902
000250 36 7b 73 3e 6f ed 8c bd 4e 09 d5 bd 58 8a 0a 3e
       0.2377747 -0.06881224 -0.10402165 0.13529336
000260 86 89 d6 3d 3d bc b2 bd 95 3b a5 3e ab 80 67 3d
       0.10475449 -0.0872731 0.3227202 0.05651919
000270 71 1d 08 ba cf 88 46 3e f2 d1 88 3e 19 be ec 3e
       -0.00051923754 0.19388126 0.26722676 0.46238783
000280 11 d0 a6 3e 00 c6 a5 3d ee 81 9c be 15 36 31 3e
       0.32580617 0.08094406 -0.30567878 0.17305787
000290 63 cd 89 3e 58 36 53 ba 4a 8b ce be 75 45 cd bd
       0.2691451 -0.0008057109 -0.40340644 -0.100230135
0002a0 af 5a 2b be 36 0a 45 3b 19 67 ad bc c5 83 b4 bd
       -0.16733812 0.00300659 -0.021167325 -0.088141955
0002b0 66 93 33 3e 46 12 85 3e 6c 4b 02 3e f3 22 cd 3e
       0.17536697 0.25990504 0.12724084 0.40065727
0002c0 fa fb 8b 3e eb 57 11 be 1f 15 c7 be 83 bd 92 3e
       0.2734068 -0.14193694 -0.38883302 0.2866021
0002d0 16 8f 2b 3f 98 f0 bd 3b a7 9b 4c 3e de 64 54 be
       0.67015207 0.0057965033 0.19981252 -0.20741603
0002e0 d9 76 16 be a1 a4 56 be e8 d3 36 3e a1 a6 ec 3d
       -0.14693774 -0.20961238 0.17854273 0.115552194
0002f0 ab 25 7b be ca c3 e9 3e 31 b8 02 3e b9 b3 c2 3d
       -0.24526088 0.45657188 0.12765576 0.095069356
000300 14 77 1d 3e de cd a6 3e 1f 98 dd 3e 0b 9c 8d 3e
       0.15377456 0.3257894 0.43280122 0.27658114
000310 59 1a f3 3c f1 c8 ab be 94 2a 52 3d 63 84 0d 3e
       0.02967565 -0.33551744 0.051310137 0.13820033
000320 27 1e 87 bd f2 df e3 bd 1a 9c 4d 3a ec 6b d9 bd
       -0.06597548 -0.111266986 0.00078433903 -0.106162876
000330 b0 a9 55 be 20 95 08 3e 39 2a 5b 3e 2d cf 28 bf
       -0.20865512 0.13338137 0.21402825 -0.65941125
000340 ec 8b e0 3d 8b e1 ca 3e f1 c1 8e 3e 54 4e d7 bc
       0.10964188 0.396252 0.2788234 -0.026282467
000350 35 8b 61 be e2 cc d7 be a8 e5 af 3e 03 96 4f 3f
       -0.2202576 -0.421485 0.343549 0.81088275
000360 b0 08 98 3c ba a8 09 bd 13 51 9b 3e 62 68 b6 bd
       0.01855883 -0.033608176 0.30335292 -0.08906628
000370 4c fb bd 3d bf e0 ef 3d c2 44 e9 bd 39 6a ec 3e
       0.09276447 0.11712789 -0.11390068 0.4617479
000380 cc 56 b4 bc e7 27 12 3d c8 a5 ba 3d a6 d0 45 be
       -0.022014044 0.035682585 0.091136515 -0.19317874
000390 fc 00 7a 3e 3a 1d e6 3e e2 1c af 3e 02 f1 fd 3d
       0.24414438 0.44944173 0.34201723 0.12399484
0003a0 7a cc 09 3e 99 f2 6e 3e 03 77 e9 bc 15 b8 b7 bd
       0.13456908 0.23334731 -0.028499132 -0.08970658
0003b0 21 e9 23 bc 7e b1 b1 3d bf 73 06 3f bf fc 65 be
       -0.010004313 0.08676432 0.52520365 -0.22459696
0003c0 b3 aa ea 3e 2b 44 a5 3c 57 5d 04 bc 84 4a 8a 3e
       0.45833358 0.020174107 -0.008078895 0.27009976
0003d0 22 77 bb 3e 80 d1 93 3e 8e 6d b4 3e 86 a8 25 3e
       0.3661433 0.28870773 0.35239834 0.16177568
0003e0 ff 3c c5 3d cc f5 46 3d 1d 6c 65 be 18 1b 88 bd
       0.09630775 0.048574254 -0.22404523 -0.06645793
0003f0 91 2b 6a 3d 15 84 87 3e e7 33 20 3d 5d e3 c5 be
       0.057170454 0.26467958 0.039111998 -0.38650027

input_layer.0.bias f4 [64]
000000 d7 18 00 3f e3 61 8f 3d f6 e8 86 3e 69 ff bc 3d
       0.500379 0.07001092 0.2634961 0.09228403
000010 d6 d8 77 3e d1 26 3f bd fc 6c a9 3e 8f e4 05 3e
       0.2420381 -0.046667878 0.3309096 0.1307547
000020 31 03 09 bb 96 26 5e 3e b9 d5 12 be db e9 cd 3d
       -0.0020906443 0.21694407 -0.14339341 0.1005437
000030 18 88 d7 bd 5c 7c b2 3e 63 90 01 bd f9 d6 53 be
       -0.10524005 0.34860504 -0.03163184 -0.20687474
000040 a4 b2 a2 3d 11 f0 a9 bd d5 f7 ae bd 3b 3e 39 bd
       0.07944229 -0.08297742 -0.08543364 -0.045225363
000050 a6 ae c1 3e 88 5b 94 bd 0c 84 83 be 0a 89 e1 be
       0.3782856 -0.07244021 -0.2568668 -0.44049865
000060 d9 d4 41 3e f8 0d e2 bd b9 a2 17 3e 24 a4 27 bc
       0.18928851 -0.110378206 0.14808168 -0.010232005
000070 58 19 32 3e 5a d8 10 3e c5 c9 2d 3c e0 18 b5 bd
       0.1739248 0.14145032 0.010607188 -0.08842635
000080 5c 92 e8 be 6f f3 67 3e 63 65 c3 bd 4a a8 25 3f
       -0.45424163 0.22651456 -0.09540822 0.64709914
000090 29 44 8b 3d 26 51 55 3e 62 02 9f bd df 9c 70 3e
       0.0680011 0.20831737 -0.07764126 0.23497342
0000a0 77 d2 ee be 3e 56 45 3d 55 f4 51 3d ee 49 69 3e
       -0.46644947 0.04817795 0.051258404 0.22782108
0000b0 07 04 17 bf 2c d6 43 3e c4 e8 90 be 1f 0a 0d be
       -0.5899052 0.19124669 -0.28302586 -0.13773392
0000c0 ba 56 12 be c5 45 bd 3e 63 44 a1 3d 54 06 06 be
       -0.14290896 0.36967292 0.07874372 -0.13088351
0000d0 7d d2 19 3d d8 df 1a 3e 1b fb a1 be bb 29 e2 3e
       0.037554253 0.15124452 -0.3163689 0.44172463
0000e0 a0 37 1d 3d d9 b9 b4 bc ec 78 7c 3d 2f cb c7 be
       0.038383126 -0.022061275 0.061638758 -0.39022204
0000f0 c9 1e c5 3c 63 78 ae 3a 85 1d 8d 3d ea 2a ba 3e
       0.024062531 0.0013311025 0.06890396 0.36360866

input_layer.1.weight f4 [64]
000000 45 b8 c7 40 8a ca c6 40 16 96 2a 41 3f 2a 56 41
       6.241244 6.212224 10.661642 13.385314
000010 2b 9f 73 40 fa 01 ba 40 d4 31 96 40 0f c3 32 41
       3.8065898 5.8127413 4.6935825 11.172622
000020 6a 46 b9 40 6b 5f 2b 41 58 72 b6 40 29 15 f3 40
       5.7898455 10.710795 5.701458 7.596333
000030 21 c2 d9 40 5b 39 0e 41 46 bb a0 40 10 46 eb 40
       6.8049474 8.889003 5.0228605 7.3523026
000040 e0 a0 a2 40 68 0e 2c 41 88 ab bb 40 f6 40 c5 40
       5.082138 10.753517 5.864689 6.16418
000050 c8 a9 2b 41 85 1a bc 40 87 69 b5 40 b0 78 3f 41
       10.7289505 5.8782372 5.6691318 11.966965
000060 84 05 bb 40 0a 66 fe 40 03 1a a6 40 68 3f 49 41
       5.8444233 7.949956 5.1906753 12.57798
000070 34 e1 cb 40 ee e8 96 40 93 b6 c2 40 aa 5c 66 41
       6.3712406 4.715934 6.084787 14.397623
000080 2e 69 34 41 c8 d6 bb 40 f4 ad 8f 40 aa 71 11 41
       11.275679 5.8699684 4.4899845 9.09025
000090 ea 86 b6 40 26 7f 28 41 8a d4 10 41 42 65 a1 40
       5.703969 10.531042 9.051889 5.0436106
0000a0 8e 12 36 41 5d 91 16 41 fd 9d 27 41 c7 2b f9 40
       11.37953 9.410489 10.476071 7.786594
0000b0 1a 31 20 41 c6 79 10 41 35 c1 0c 41 b7 62 22 41
       10.011988 9.02973 8.79717 10.1491
0000c0 b4 e4 55 41 9a 5a 3f 41 f7 8e 66 41 42 b2 d1 40
       13.368336 11.9596195 14.409904 6.55301
0000d0 ab e4 42 41 6b 0c d1 40 f1 fe d5 40 49 22 5c 41
       12.180827 6.532766 6.687371 13.75837
0000e0 bd 8f f6 40 be f1 9c 40 ea 1c 67 41 ff 03 ea 40
       7.705046 4.9045095 14.444559 7.312988
0000f0 7b a1 14 41 9d 89 15 41 a2 58 f5 40 82 25 de 40
       9.289424 9.346097 7.6670694 6.9420786

input_layer.1.bias f4 [64]
000000 5e 1d 32 41 66 4c 38 41 4d 55 b9 41 69 3e a4 41
       11.13217 11.518652 23.16665 20.530474
000010 c4 80 bc 41 cf 51 57 41 aa 57 02 41 cd 27 90 41
       23.562874 13.457473 8.146402 18.019434
000020 0f f8 41 41 a7 a3 47 41 63 e1 31 41 7c 70 8c 41
       12.123061 12.477454 11.117526 17.554924
000030 0a a5 c3 41 ca 76 b9 41 be dd 68 41 82 34 85 41
       24.455585 23.183002 14.554136 16.650639
000040 f9 0b 0e 41 a2 23 a6 41 9c f6 44 41 50 34 18 41
       8.877923 20.767399 12.310207 9.512772
000050 6c 45 a4 41 4d d8 43 41 d5 fa 38 41 e1 a9 9d 41
       20.533897 12.240308 11.561238 19.707949
000060 b2 48 22 41 77 8a 90 41 4c c5 34 41 bc af e0 41
       10.142748 18.06761 11.298168 28.085808
000070 81 c0 32 41 c1 84 f3 40 f2 02 cf 41 33 10 ac 41
       11.171998 7.6099553 25.876438 21.50791
000080 c1 c4 cf 41 09 41 74 41 0b 7e 0c 41 ff b8 98 41
       25.971071 15.265878 8.780772 19.09033
000090 ff e6 2e 41 a4 42 d4 41 a7 fb 96 41 f6 cd 21 41
       10.931396 26.53254 18.872877 10.112783
0000a0 e8 d9 7f 41 2f eb 2c 41 a9 53 a3 41 44 03 82 41
       15.9907 10.807418 20.41585 16.251595
0000b0 ca 89 82 41 8b 7c 90 41 bc 50 3d 41 96 fe a2 41
       16.31728 18.060812 11.832211 20.37431
0000c0 fc 1a d2 41 4d 08 af 41 26 cd e0 41 33 c6 b7 41
       26.263176 21.879053 28.10017 22.971777
0000d0 16 2a b4 41 be e6 8c 41 bd fc 8b 41 fd 6e d2 41
       22.52055 17.612667 17.498407 26.304193
0000e0 de b2 34 41 9f 0f 0f 41 e0 dd e0 41 8b 4a 88 41
       11.293669 8.941314 28.108337 17.036398
0000f0 cb e1 b3 41 23 98 ba 41 db 36 7c 41 a8 fa d3 41
       22.48525 23.324286 15.763392 26.49739

input_layer.1.running_mean f4 [64]
000000 6c f8 91 3e b2 ef 32 be 85 33 5b 3d 51 de 67 bd
       0.28509843 -0.17474249 0.05351593 -0.0566085
000010 02 02 04 3d f5 af 83 3d a7 0c b5 3d 5b a2 04 be
       0.032228477 0.064300455 0.08840304 -0.12952559
000020 a2 d8 ee 3d b4 ec 8b 3d 42 e5 c4 be 28 3e 1c 3e
       0.11662413 0.06832257 -0.3845616 0.15258086
000030 e9 34 d8 be be 01 ee 3e a0 70 9e be 03 a1 d3 bd
       -0.42227867 0.46485704 -0.309453 -0.10333445
000040 ee 3c 3a be ec be 4e 3d ea 16 41 3d c2 b6 96 be
       -0.18187305 0.050475046 0.047140993 -0.29436308
000050 27 23 06 3f 2c 05 da be 0d 10 06 bf b9 a8 2a bf
       0.5239739 -0.4258207 -0.5236824 -0.666637
000060 c3 fd a9 bc 6e 15 e8 bc be 23 88 3e 14 2b fd 3d
       -0.020750886 -0.028330531 0.2658977 0.12361732
000070 f6 2f 9a bd 7e 26 e9 bd ee a0 25 be ca a2 6b be
       -0.07528679 -0.11384295 -0.16174671 -0.23011318
000080 da 9b 12 be d3 31 18 bd d2 b2 af be 05 6c 3f 3f
       -0.14317265 -0.03715689 -0.34316117 0.747742
000090 d0 70 78 be 35 43 02 3f 88 c4 a5 3c 30 e4 aa bc
       -0.24261785 0.508838 0.020235315 -0.020860761
0000a0 05 e5 29 bf a7 24 c4 bd c9 9e 4d 3e aa 8a bf bd
       -0.6636508 -0.095773034 0.20080103 -0.0935262
0000b0 db 4c 59 bf 36 3c a6 3e da a8 8e be 24 58 8a bc
       -0.848829 0.32467812 -0.278632 -0.016887732
0000c0 04 54 9f bb 0e 55 04 3f 69 b6 57 3e 42 24 dd be
       -0.0048623104 0.51692283 0.21065678 -0.43191725
0000d0 3b c3 4b 3e 3f 64 47 be ba e0 27 bf 94 cf 18 3f
       0.19898693 -0.19471835 -0.6557728 0.5969174
0000e0 c7 9b 29 be 82 89 97 be c7 e4 4e 3e 72 40 9d be
       -0.1656333 -0.29597098 0.20204459 -0.3071323
0000f0 23 10 9a 3c fa 38 9b 3e dd b0 4f 3e 2f fc 86 3e
       0.018806523 0.30316907 0.20282312 0.26364276

input_layer.1.running_var f4 [64]
000000 3d aa 53 43 85 6a 48 43 60 04 61 43 2d bd 0d 43
       211.665 200.41609 225.01709 141.73897
000010 b2 77 5e 43 1c a5 47 43 82 56 63 43 02 16 83 43
       222.46756 199.64496 227.33792 262.17194
000020 2a af 49 43 13 44 3a 43 92 43 6e 43 85 35 1e 43
       201.68423 186.26591 238.26395 158.20906
000030 69 06 b0 43 e1 e6 48 43 b0 b9 95 43 8f db 50 43
       352.05008 200.90187 299.45068 208.85765
000040 c9 3f 83 43 a1 b4 6f 43 9c 04 67 43 1d 26 6d 43
       262.49832 239.70558 231.018 237.14888
000050 88 f7 7e 43 90 0a c7 43 b1 3a 86 43 a0 4d 62 43
       254.96692 398.08252 268.45853 226.30322
000060 a5 4c 47 43 99 a2 37 43 57 22 59 43 15 01 5f 43
       199.2994 183.63515 217.13414 223.00423
000070 2c 4a 7f 43 1c 56 5f 43 b5 34 3f 43 3a a3 1a 43
       255.28973 223.33636 191.20589 154.6376
000080 c1 3f b3 42 59 54 73 43 a6 2a 74 43 70 6c 4c 43
       89.62452 243.32948 244.1666 204.42358
000090 0c 05 9f 43 0d 92 a4 42 f7 bd 4e 43 6c fe 78 43
       318.03943 82.285255 206.74205 248.99384
0000a0 83 ed 55 43 07 03 36 43 2b 16 83 43 a3 43 b6 43
       213.92778 182.01183 262.1732 364.5284
0000b0 2e d9 80 43 18 57 6f 43 96 43 aa 42 dd c0 72 43
       257.69672 239.34021 85.132 242.75337
0000c0 42 73 81 43 e3 36 83 43 3e 53 5f 43 33 a4 9b 43
       258.90045 262.4288 223.32516 311.2828
0000d0 11 7b 85 43 e8 90 c6 43 38 70 b5 43 ec 3e 8a 43
       266.96146 397.13208 362.8767 276.49158
0000e0 33 50 80 43 4b d2 7e 43 ae fa 6b 43 91 21 39 43
       256.62656 254.82146 235.97922 185.13112
0000f0 dd a9 d1 42 e3 6c 9f 42 46 ba 79 43 c4 9d f5 42
       104.831764 79.71267 249.72763 122.808136

res_blocks.0.linear1.weight f4 [64, 64]
000000 f4 17 b8 bc 8f 54 b3 bc 37 2a de 3c 68 a8 59 3b
       -0.02247236 -0.021890907 0.027119739 0.003321195
000010 f8 56 4a be 46 d3 42 bf 3d 83 8f bc 03 4a 18 3d
       -0.19759738 -0.7610363 -0.017518634 0.037179958
000020 df 28 8d bf a8 a1 aa bd e6 c2 c9 bc c1 63 15 bf
       -1.1028098 -0.08331615 -0.024629068 -0.5835534
000030 a8 ef 42 be 87 85 03 be fe 57 d6 bd ea 08 b4 be
       -0.19036734 -0.12843905 -0.10466002 -0.3516305
000040 de 63 03 be 18 b1 3c bf 55 82 8b bf 32 26 38 be
       -0.12831065 -0.73707724 -1.0899149 -0.1798332
000050 e5 04 2d bf d5 68 5c bd a3 c3 88 bd 05 a0 05 3e
       -0.67585593 -0.053810913 -0.0667794 0.13049324
000060 5f 27 18 3d 2e 26 e0 be 89 e0 96 bf 5a 02 dd bc
       0.037146922 -0.4377913 -1.1787273 -0.02697866
000070 00 85 df 3c be 4b ca bd c5 a8 ea bc 06 a1 85 bd
       0.027285099 -0.09877728 -0.028644929 -0.065248534
000080 4e 4c a6 bd c1 a3 9d bd 93 bb e9 bd 82 5e 35 bf
       -0.08120023 -0.07697249 -0.1141273 -0.7084733
000090 43 eb 09 3d c9 82 aa bd d8 a1 0f bf fa df 2a be
       0.03367163 -0.083257265 -0.5610633 -0.16687003
0000a0 4a 78 f9 bd 84 7b 27 be df be 4e bf 03 c1 3b bd
       -0.121811464 -0.16355711 -0.80759996 -0.045838367
0000b0 db 28 c6 3d f1 84 51 bf f1 c2 e5 bd 2d 07 05 bf
       0.09675761 -0.8184348 -0.11218823 -0.51964074
0000c0 7b 0c db be b2 84 30 bf bc 9e 31 be 89 98 a1 be
       -0.4278296 -0.68952477 -0.17345709 -0.31561688
0000d0 56 af 62 bf 31 f3 79 bb c0 cd a0 bc 08 c2 e6 be
       -0.8854879 -0.0038139338 -0.01962936 -0.4506991
0000e0 9e b8 50 3d de 26 4b bd e1 9a 82 be b3 c5 d6 be
       0.050957315 -0.049597614 -0.25508788 -0.41947708
0000f0 f3 d6 7c be 80 41 d4 bc d3 f6 4f bf 84 61 b5 bd
       -0.24691372 -0.02591014 -0.81236 -0.0885649
000100 5e 01 f1 bd bc 4e f7 be 0b 3c a5 3c 66 9a cd bd
       -0.11767839 -0.48302257 0.020170232 -0.10039215
000110 86 13 b1 be 17 6e 4d 3e 7b 50 dc be eb 1c d8 bd
       -0.34585208 0.20061527 -0.43030152 -0.10552391
000120 8e ec 29 3e 9f cc 38 be b4 f1 9b be be ef 61 3e
       0.16594145 -0.18046807 -0.30457842 0.2206411
000130 84 b7 1c be 88 27 37 3e dc 50 6d be 2b a3 37 bb
       -0.1530438 0.17886174 -0.23175377 -0.002802084
000140 b8 58 a7 be f7 00 30 bd d7 b1 1a bd 7a b8 a3 be
       -0.32684875 -0.04296967 -0.037767258 -0.31976682
000150 5d 2a b7 bd b6 99 2f be 62 9c 1a be 5f 16 99 3c
       -0.08943627 -0.1714848 -0.15098718 0.018687425
000160 da 7c 9c be 49 1b 65 3e 8d 9e 6f 3c 5c d9 15 be
       -0.30564004 0.2237369 0.014625204 -0.14633697
000170 a5 c6 9e be bc e4 f9 be 35 40 d2 be 22 75 af be
       -0.3101093 -0.48807323 -0.4106461 -0.34269053
000180 84 f8 5f bd 3d 4e be be 76 bd af be f5 15 86 3e
       -0.054680362 -0.37169066 -0.34324235 0.26188627
000190 0e c7 3f be a1 5a fc bd 48 b0 be bc 50 be d5 be
       -0.18728277 -0.123219736 -0.023277417 -0.4174676
0001a0 35 3d 98 bd dd 5f 70 be dc 06 41 be 0a bc 54 be
       -0.07433549 -0.23474069 -0.18850273 -0.20774856
0001b0 6e ad 16 be 51 3c 38 3e 0f 0f a9 3d 60 ac 07 be
       -0.14714596 0.17991759 0.08254825 -0.1324935
0001c0 b8 2c 5d be 6e 15 b9 3c 89 eb 52 be 0d 36 16 be
       -0.2159909 0.022593226 -0.20597662 -0.14669056
0001d0 5e 0a 1f be df c3 f2 be a0 af ae be b2 59 0c be
       -0.15531299 -0.47415063 -0.34118366 -0.13706091
0001e0 da 27 53 be d7 cf e6 be 5e 14 11 be d3 cb 2f 3e
       -0.20620671 -0.45080444 -0.14167926 0.17167597
0001f0 5a 5a 00 3e e2 87 ad 3e b9 44 21 bd 68 e7 90 bc
       0.12534466 0.33892733 -0.03937218 -0.017688468
000200 35 57 93 bd 63 7b 40 bd e3 a0 9e 3c 2d 77 09 3e
       -0.07194368 -0.04699267 0.019363826 0.13424368
000210 30 6e df bd af cb 47 bf e0 da f4 bd 98 9b b4 bd
       -0.109096885 -0.7804517 -0.119558096 -0.0881874
000220 b4 4b 83 bf 0e fb e5 3c 4a ba 4a bd 69 cc 0e bf
       -1.0257478 0.028073814 -0.049494065 -0.55780655
000230 96 d1 62 be 4a 4e 12 be 21 a0 e5 bd 88 56 cd be
       -0.22150263 -0.14287677 -0.11212183 -0.4010508
000240 26 92 8e bd c2 5d 15 bf 31 5e 88 bf bb 24 89 bd
       -0.06961469 -0.5834619 -1.0653745 -0.06696459
000250 b9 3e 4d bf 9e af 06 3e e4 33 13 3d 5b 90 87 3d
       -0.8017383 0.1315293 0.03593816 0.066193305
000260 fd 27 06 3c e7 07 0c bf 41 c5 7d bf cf 3b 39 3e
       0.008188245 -0.5469956 -0.9912911 0.18089221
000270 40 00 03 be 9d 64 44 be 37 24 64 be 0e a2 46 bd
       -0.12793064 -0.19179006 -0.2227944 -0.04849439
000280 0b 24 c9 bb a5 31 33 be f6 3b 4d 3c ab b0 59 bf
       -0.00613833 -0.17499407 0.012526503 -0.850352
000290 33 4a d9 bc 78 a1 d9 bd cf cd 12 bf 3f df 33 bd
       -0.026524639 -0.10626501 -0.5734529 -0.043914076
0002a0 e4 7f 00 be 81 cc f1 3d 9b 24 45 bf d1 7e f3 bc
       -0.12548786 0.11806584 -0.7700898 -0.029723557
0002b0 9d 71 27 3b 5b c0 71 bf 31 0a ed bd 2e 6d 27 bf
       0.0025549897 -0.94434136 -0.115742095 -0.6540097
0002c0 3c b9 af be 4d 95 2e bf 71 99 3b bd 18 1f 5c bd
       -0.3432101 -0.68196565 -0.04580063 -0.05374059
0002d0 71 31 37 bf f9 1d 4d bd 0e 44 e9 3c 23 42 99 be
       -0.71559817 -0.050077412 0.028474834 -0.2993327
0002e0 4e e9 24 be f1 e5 8b bd 0c ce 82 be 7f 18 13 bf
       -0.16104624 -0.06830967 -0.25547826 -0.57459253
0002f0 3f ca 47 be a9 e7 5e 3d 6f aa 75 bf f9 6b 06 be
       -0.19510745 0.054420147 -0.95963186 -0.13127126
000300 5d d6 7d 3e 10 47 25 3e e5 c0 fb 3d 96 af 20 3e
       0.24788804 0.1614039 0.12292651 0.1569198
000310 6b cc 5e be 99 68 be be 56 a8 6e 3e 37 6e db 3d
       -0.21757667 -0.37189177 0.23306403 0.10714381
000320 02 a6 d3 be 86 c4 c6 3e b0 2a 56 3e 39 96 05 be
       -0.4133759 0.3882181 0.20914721 -0.13045587
000330 70 61 01 3e 05 31 4b bd c5 75 1b 3e 7b 35 86 be
       0.12634826 -0.049607296 0.15181644 -0.26212677
000340 08 1b da 3d 56 da db bd bc d2 83 be 4b e8 1e 3e
       0.10649687 -0.10735004 -0.25746715 0.155183
000350 fd 75 86 be 6d 78 41 3e 45 6a 09 3e c6 04 d2 3d
       -0.26261893 0.18893595 0.13419445 0.10254817
000360 b5 cd f4 3d db 10 37 bd 38 64 d4 be a0 35 c6 bd
       0.11953298 -0.04469381 -0.4148271 -0.09678197
000370 2d 3f 21 3e b6 f0 49 3e 76 ea a2 3c 56 28 d0 3d
       0.15746756 0.1972073 0.01988719 0.101639435
000380 34 d7 8e 3c 51 71 f7 3b cf 5b fe 3c fe 04 ab be
       0.017436601 0.00755135 0.031049637 -0.33402246
000390 f8 50 81 3e c0 8d 3c 3e 76 b2 70 be f6 4f 44 3e
       0.25257087 0.18413448 -0.23505577 0.19171128
0003a0 8e 08 ff 3d d6 28 72 3d bf a9 7c be 98 b6 b9 3e
       0.124528036 0.059120975 -0.24674128 0.3627212
0003b0 e9 42 b5 3d 1a ee 4f be fc 6c 9b 3d 0a 51 58 be
       0.08850653 -0.20305672 0.075891465 -0.21124664
0003c0 dc 3c 30 be 00 f3 a6 bd ab 97 48 be 24 f9 01 bd
       -0.17210716 -0.08151817 -0.19589107 -0.03173174
0003d0 93 4b 86 be 15 47 18 3e a8 88 23 3e 64 85 7b be
       -0.26229534 0.14870866 0.15970099 -0.24562603
0003e0 03 66 aa 3e d2 88 94 3d b3 d3 84 be 6d 99 04 be
       0.33280954 0.07252659 -0.25942764 -0.12949152
0003f0 b4 60 72 3c f8 f9 32 3e 69 62 cf be 32 38 f3 bd
       0.014793564 0.17478168 -0.40504768 -0.11875953

res_blocks.0.linear1.bias f4 [64]
000000 20 ac 9c be 85 04 bb be 59 cf e2 3e 69 c8 99 be
       -0.3060007 -0.36526886 0.4429882 -0.30035713
000010 20 07 aa 3e 24 5e d4 3d b9 bd d4 3d 75 ff de be
       0.3320856 0.103695184 0.10387749 -0.43554273
000020 2c 7b 32 3e 8b 81 af 3e e9 d5 94 3d 0b eb a8 3e
       0.17429799 0.3427852 0.072673626 0.32991824
000030 e4 b2 85 bd 03 5f 49 3e 25 2f 06 3f c0 6d bc be
       -0.06528261 0.1966515 0.52415687 -0.36802483
000040 90 ea 78 be 80 cc 54 3d e1 e8 73 3d b8 e0 29 be
       -0.24308228 0.05195284 0.059548263 -0.1658963
000050 1c 69 3f bd 3e f2 23 3e 9c 62 8a be 5d 24 ae bc
       -0.0467311 0.16010377 -0.27028358 -0.021257574
000060 9c 74 bf 3e f6 e8 b0 3d 6d f0 e1 3e 18 e5 38 3e
       0.37393653 0.08638184 0.44128743 0.18056142
000070 c3 d0 c7 39 b8 84 9b 3d 4c db a6 3e 62 70 83 3d
       0.00038111777 0.075936735 0.32589185 0.0641792
000080 a7 32 12 be 38 a4 87 3e 91 eb 02 3f 15 ad 99 bc
       -0.14277135 0.26492476 0.51140696 -0.01875929
000090 63 15 93 be c2 e9 32 3e cf 9d b2 bd b8 2b bf 3c
       -0.28727254 0.17471984 -0.08721506 0.023336276
0000a0 75 3f 1d be 9c a7 67 be a2 7b 51 3e 08 3f 8a 3e
       -0.15356238 -0.22622532 0.20457318 0.27001214
0000b0 e5 bf ff 3d e1 74 6b bd d7 f2 10 3e cb 87 9c 3b
       0.12487773 -0.05748451 0.14155136 0.00477693
0000c0 55 7f 0a 3e 78 8e 29 be bb e6 22 3e 65 77 f1 3e
       0.13525136 -0.16558254 0.15908329 0.47161403
0000d0 f3 85 4b be 4a 90 23 3d 0f 3e 4e 3e aa 84 a7 be
       -0.19875316 0.039932527 0.20140861 -0.32718402
0000e0 0f a7 db bd cf da c8 bd 9f 21 3b bd 68 aa 2f 3e
       -0.10725223 -0.098073594 -0.04568636 0.17154849
0000f0 72 7f 8f 3e 48 7e 48 3e ff b4 ca 3e 51 71 d1 3e
       0.2802692 0.19579422 0.39591214 0.40906766

res_blocks.0.bn1.weight f4 [64]
000000 f3 4c 0e 3f a6 c3 74 3e fa 07 10 3f e8 ee bf 3e
       0.55586165 0.23902759 0.5626217 0.37486959
000010 1c cc 14 3e 4b a1 f2 3d bb 6f 3b 3f 90 07 3b 3f
       0.14530987 0.118471704 0.7321736 0.73058414
000020 fc 22 40 3f f8 e5 05 3f cb 61 08 3f 41 5f 04 3f
       0.7505338 0.5230403 0.5327422 0.51707846
000030 05 fd bd 3e 69 ca 3e 3e 56 e2 52 3f 90 52 4a 3f
       0.371071 0.18631901 0.8237661 0.7903223
000040 26 aa c5 3e cb e4 f5 3e 91 74 3c 3f e4 07 10 3f
       0.38606375 0.48026118 0.73615366 0.5626204
000050 39 82 f0 3e df 44 7c 3e bd 65 1a 3f 5f a3 9c 3d
       0.46974352 0.24635647 0.6031149 0.07648348
000060 ad c6 37 3f 93 d8 fa 3e e3 81 1d 3f 4c e2 2b 3f
       0.7178753 0.48993358 0.61526316 0.67142177
000070 b6 fb 98 3c 20 eb 0e 3e 7f 3c 47 3f 6e ae 3c 3e
       0.018674713 0.1395688 0.77826685 0.18425915
000080 23 d6 dc 3e e9 51 0a 3f 46 7f 0f 3f 7a 18 24 3f
       0.43132123 0.54031235 0.5605358 0.6409985
000090 06 38 44 3f ef da 23 3f 3a 4e 44 3f 9e 8a 48 3f
       0.76647985 0.6400594 0.76681864 0.78336513
0000a0 cb fe 30 3f 07 98 1f 3f 14 28 59 3e 77 76 ea 3e
       0.69138783 0.6234135 0.21206695 0.45793507
0000b0 4f 72 3c 3f 78 e3 11 3f e3 b9 c1 3e 6e c5 a3 3e
       0.7361192 0.56987715 0.37837133 0.31986564
0000c0 91 f3 1f 3f 3c 1c c9 3e 06 8b 05 3f 81 4a 3a 3f
       0.6248103 0.39279354 0.5216526 0.72769934
0000d0 db 04 2d 3f c7 2d a7 bd 1a 01 f2 3e 20 76 f6 3e
       0.67585534 -0.08163028 0.47266465 0.48136997
0000e0 2c 2f 33 3f 26 c7 34 3f bb db 4c 3f 80 56 24 3f
       0.69993854 0.70616376 0.8002278 0.6419449
0000f0 50 04 1a 3f ed 93 16 3f 8f fd 29 3f a8 dc 65 3f
       0.6016283 0.58819467 0.66402525 0.8978982

res_blocks.0.bn1.bias f4 [64]
000000 14 89 3a bf e6 47 82 be 46 6e 38 bf bf c0 42 be
       -0.72865415 -0.2544548 -0.72043264 -0.1901884
000010 6e 4b e1 be 85 b6 a0 be 4a e1 4d bf 22 8f 3a bf
       -0.4400286 -0.3138925 -0.8042189 -0.72874653
000020 51 c1 41 bf 1c a2 31 bf be 40 2e bf 4b e2 33 bf
       -0.756856 -0.69387984 -0.6806754 -0.7026717
000030 d6 1d 4f bf f1 f4 bb be a5 d7 84 bf 82 32 48 bf
       -0.809049 -0.36710313 -1.037831 -0.7820207
000040 be 75 30 bf 39 f6 4f bf b3 30 40 bf 57 5d 3a bf
       -0.6892966 -0.8123508 -0.7507431 -0.72798675
000050 8f 04 5c be 9d d3 d3 3e ff ac 85 bf 86 c4 96 be
       -0.21486114 0.41372386 -1.0443419 -0.2944681
000060 6b f1 49 bf d6 a9 26 bf ca ba 46 bf c1 75 5d bf
       -0.78884 -0.651029 -0.7762877 -0.86507803
000070 cd 9d 22 3e 97 11 d5 be 70 8e 47 bf 80 aa 26 bf
       0.15880509 -0.41614982 -0.7795172 -0.6510391
000080 34 bc 47 bf 0b cb 1d bf a5 e7 5f bf db 56 2f bf
       -0.7802155 -0.61637944 -0.87462837 -0.68491906
000090 44 c4 43 bf 89 3f 51 bf 44 32 0a bf 26 18 47 bf
       -0.7647135 -0.8173757 -0.5398295 -0.7777122
0000a0 6d a5 65 bf c7 4b ec be 7d a1 11 3f 6b d2 12 3d
       -0.89705545 -0.46151564 0.56887037 0.0358452
0000b0 95 69 40 bf b6 12 38 bf e0 18 4f 3e de e1 18 bf
       -0.75161105 -0.7190355 0.20224333 -0.59719646
0000c0 fb 0d 4f bf 9f 13 31 bf d4 78 50 bf 87 76 44 bf
       -0.8088071 -0.69170564 -0.8143437 -0.7674336
0000d0 75 5e 3c bf 2e 82 25 3e 02 37 16 bf 83 94 0f bf
       -0.7358163 0.16162941 -0.58677685 -0.56085986
0000e0 cd d2 1b bf 0d cf 6a bf 83 85 7f bf 2a 42 4a bf
       -0.6086853 -0.91722184 -0.998131 -0.7900721
0000f0 a5 6a 45 bf 2d da 44 bf 8b ee 5c bf bf 10 3a bf
       -0.7711585 -0.7689541 -0.8630149 -0.726818

res_blocks.0.bn1.running_mean f4 [64]
000000 f2 f9 9b c3 f4 b5 f8 c2 3e 39 94 c3 a8 33 05 c2
       -311.9527 -124.35538 -296.4472 -33.300446
000010 41 b2 04 c3 23 9b 2f c3 3a e8 1e c3 95 dc 06 c3
       -132.6963 -175.606 -158.90714 -134.86165
000020 a6 72 fd c2 1e 2c 91 c3 92 7d 90 c3 1b a7 ef 41
       -126.72392 -290.34467 -288.98102 29.956594
000030 79 1b 08 c2 74 31 8d c1 c3 1b 86 c3 c2 56 f0 c2
       -34.02683 -17.649147 -268.2169 -120.16945
000040 33 7b 36 43 38 e0 1a 42 39 b7 09 c3 b8 ed 6e c3
       182.48125 38.718964 -137.71571 -238.92859
000050 80 83 e7 41 48 4b b2 c2 d7 2a 07 c3 6d 1f 16 c3
       28.939209 -89.14703 -135.16734 -150.12276
000060 f1 5d a9 c2 c7 37 f1 c1 45 f3 7a c3 67 d0 96 c3
       -84.68348 -30.152235 -250.95027 -301.62814
000070 43 71 46 c1 33 1f f4 c2 c2 31 fe c2 2a 2f 38 42
       -12.402652 -122.060936 -127.09718 46.04606
000080 e8 25 fc 42 98 64 13 c3 ba 84 f0 c2 ea 81 0c c3
       126.074036 -147.39294 -120.25923 -140.50748
000090 43 b9 ff c2 83 b4 6f c3 58 54 b1 c2 c4 24 e0 c2
       -127.86184 -239.70512 -88.664734 -112.07181
0000a0 5c 01 96 c3 43 55 2d c3 9b 4d 00 c3 b3 5d be 40
       -300.01062 -173.33305 -128.30315 5.948938
0000b0 eb 79 09 c3 7c f4 5a c3 0b bf 9d c2 6d 89 25 c2
       -137.47624 -218.95502 -78.87313 -41.384205
0000c0 67 14 82 c3 65 19 c0 c1 93 fb 69 c3 76 55 e2 c2
       -260.1594 -24.0124 -233.98271 -113.166916
0000d0 ce 95 0f c3 5e 81 04 c1 d4 fc 71 c3 45 79 fb 41
       -143.58517 -8.281584 -241.98761 31.434214
0000e0 e6 6a 92 c2 bb 47 95 c3 a4 de 9a c2 b6 ec 8b c3
       -73.208786 -298.5604 -77.434845 -279.8493
0000f0 38 ef 84 c3 93 46 fb c2 9d ba 8b c3 f6 cb d5 c2
       -265.8689 -125.63784 -279.45792 -106.89836

res_blocks.0.bn1.running_var f4 [64]
000000 65 90 3b 46 b0 15 2d 45 ee 27 2f 46 16 31 b6 45
       12004.099 2769.3555 11209.982 5830.1357
000010 25 e5 5c 45 13 2f 40 45 2b 69 9e 45 4d 88 07 46
       3534.3215 3074.9421 5069.146 8674.075
000020 4f d6 f7 45 70 1b 3a 46 c8 fc 2d 46 da 3f e1 44
       7930.7886 11910.859 11135.195 1801.9954
000030 50 93 cf 43 34 02 e1 43 16 b2 31 46 0c e9 1b 46
       415.15088 450.0172 11372.521 9978.262
000040 c5 a3 23 46 2a 9b a6 45 ff 6b f3 45 81 67 11 46
       10472.942 5331.3955 7789.4995 9305.876
000050 30 52 ca 45 7b b6 82 44 fc 3c 32 45 17 80 ad 43
       6474.2734 1045.7025 2851.8115 347.0007
000060 1c 23 9f 45 b0 9c 8a 43 10 13 20 46 c9 33 55 46
       5092.3887 277.22412 10244.766 13644.946
000070 3c c7 c5 44 26 b3 87 45 f4 ab 08 46 b5 68 45 45
       1582.2261 4342.3936 8746.988 3158.5442
000080 1e 5a 96 44 11 0f ed 45 52 d9 d0 43 42 80 b4 45
       1202.8162 7585.8833 417.6978 5776.032
000090 a8 10 09 46 5c 17 37 46 d6 c3 d4 44 9d 56 08 46
       8772.164 11717.84 1702.1199 8725.653
0000a0 dc f2 48 46 55 4c 30 45 8a 2b eb 44 ab 05 55 44
       12860.715 2820.7708 1881.3606 852.08856
0000b0 50 72 f0 45 d4 1d 03 46 17 4c 1d 45 6e 24 6b 45
       7694.289 8391.457 2516.7556 3762.2769
0000c0 87 77 3d 46 06 3e 05 45 48 0e 39 45 de bb ef 45
       12125.882 2131.8765 2960.8926 7671.4834
0000d0 8d 3a dc 45 8c 4c cc 44 24 8e 20 46 be 6a 12 45
       7047.319 1634.3921 10275.535 2342.6714
0000e0 6a 9e 8a 44 b2 a6 4f 46 5c f7 ce 42 1d f0 00 46
       1108.9504 13289.674 103.48312 8252.028
0000f0 eb 39 30 46 90 2e b5 44 82 e0 49 46 96 74 8b 44
       11278.4795 1449.4551 12920.127 1115.6433

res_blocks.0.linear2.weight f4 [64, 64]
000000 95 71 0a 3d a1 94 0a be 89 9e 49 3e f2 87 1f bc
       0.033799727 -0.1353326 0.19689383 -0.009737002
000010 47 8d a5 3d b2 87 5a 3d 27 36 5a bf d6 d2 7e bf
       0.08083587 0.053352065 -0.8523888 -0.9954046
000020 b7 be 80 bf cc 35 ac 3c d7 4b 8a 3d a4 a2 83 be
       -1.0058202 0.021021746 0.067527466 -0.25710022
000030 03 81 40 3f ce a2 eb bd 6f fb 5f 3e 47 50 42 bf
       0.75196856 -0.11505662 0.21873258 -0.75903744
000040 e0 b7 82 3d 1f eb b8 3e 94 a0 9d bf ad fd dd 3d
       0.063827276 0.36116883 -1.231463 0.108394004
000050 d8 4e 42 be 3f 5d 18 3e 43 2f ea be 05 91 94 3d
       -0.18975389 0.1487932 -0.45739183 0.07254223
000060 b7 c8 fc be 7f 52 9f 3f 79 1a 8a 3c 07 7b 42 3e
       -0.49371883 1.2447051 0.016858326 0.18992244
000070 57 24 7f bd f5 5b 59 3d 4a 7f 52 bf 22 f4 a5 3d
       -0.062290516 0.053066213 -0.8222548 0.08103205
000080 c6 2f 74 be fd 3e a0 3d 1d 44 b0 be d3 4f 60 bf
       -0.23846349 0.07824514 -0.34426966 -0.876218
000090 57 11 74 bf 37 6c 98 3d bb 14 12 be 64 fa 57 bf
       -0.9533896 0.07442515 -0.1426572 -0.8436644
0000a0 68 78 44 3d 80 bf a6 bd 58 f8 58 3e 0b c2 2a 3e
       0.04796639 -0.081419945 0.21188486 0.16675584
0000b0 74 19 96 bf 6c 2d f2 3d f1 67 e1 3d d9 52 6e bd
       -1.1726518 0.1182507 0.110061534 -0.05818448
0000c0 90 a0 b9 bc 25 f8 b6 bd 61 26 d0 3d 4f 17 01 bf
       -0.02265957 -0.089340486 0.1016357 -0.5042619
0000d0 e7 5d 14 bf 26 3b 12 be 86 e9 ec 3c a8 d5 5b be
       -0.57955784 -0.14280376 0.028919946 -0.21468222
0000e0 c7 ab 9b 3d 6c 0e 88 3d 2e 2b fa 3f 91 98 47 3e
       0.07601123 0.06643376 1.9544427 0.19491793
0000f0 37 e3 2c 3e 6e 09 68 be a2 16 8a 3d fc ac e8 3d
       0.1688355 -0.22659847 0.06742598 0.11361119
000100 b3 14 b5 bc 14 c7 bd bd b3 c5 b3 3d 5f 5e a7 3b
       -0.022104597 -0.09266487 0.087779425 0.0051076855
000110 6b 8a d7 bd 0e e6 47 3d 5d 1d 36 be 7f 27 9b bf
       -0.10524448 0.04880338 -0.17784639 -1.2121428
000120 dd c5 a0 bf bf 91 5d 3d d1 fb 15 3d 2b bc 8f bc
       -1.2560383 0.054094072 0.036617104 -0.01754578
000130 09 bd f1 3d de 90 ea bd f2 2b c2 3d df 8a 6c bf
       0.11803634 -0.114534125 0.09481038 -0.923994
000140 b1 af 22 bd c1 f2 f9 bd 9b 44 76 bf 69 ec 0c 3b
       -0.039718334 -0.12204505 -0.96198434 0.0021503216
000150 a1 84 03 be 6d e9 07 3e 6a f3 88 be 61 92 73 3c
       -0.12843563 0.13272639 -0.2674821 0.014866442
000160 93 cb bb be 6d e8 0b 3e eb f1 05 3e ba 6e 32 bc
       -0.36678752 0.13662882 0.13080566 -0.010890657
000170 24 7a d2 3c 09 6e 7d bc 40 29 ab bf b2 bf 03 3d
       0.025693007 -0.015468129 -1.3371964 0.032165237
000180 9b 1a d4 bd f5 3c d2 3d f4 8f d4 3c a3 53 b3 be
       -0.10356637 0.10265533 0.025947548 -0.35024747
000190 4b aa 9c bf 59 d8 c3 bc 08 52 e5 bc dd c3 5d bf
       -1.2239469 -0.023906874 -0.027993217 -0.8662699
0001a0 00 af a5 3d a7 a3 95 be 9d 53 10 3e 2c d6 85 3c
       0.08090019 -0.2922642 0.14094396 0.016337477
0001b0 48 cd 85 bf 3f 71 48 3d fe 3c bc bc 9c 91 33 bd
       -1.0453272 0.048936125 -0.022978302 -0.043840036
0001c0 09 86 bb bc 86 35 b4 bd 11 c5 af 3d c7 32 df be
       -0.022891061 -0.08799271 0.08582509 -0.43593428
0001d0 93 eb 9a be ad 4d ac bd fa 9d c5 bc 3c 7c 33 be
       -0.30257854 -0.08413253 -0.02412318 -0.1752786
0001e0 8c 4c 88 3d 72 f6 c3 3d 1b 7c 98 3e 9f fe fc 3d
       0.06655225 0.0956849 0.29782185 0.123532526
0001f0 2c 81 b0 3d 62 22 eb bd fb 50 a5 3d 60 7f 58 3d
       0.086183876 -0.114811674 0.080720864 0.05285585
000200 c2 cc 08 3e f3 fb 31 3d c6 04 9c 3c ef a4 a3 3d
       0.13359359 0.043453168 0.019045245 0.07990443
000210 fd 1e e6 3d 62 68 06 3d e3 ad 62 bf ab e1 bb bf
       0.11236379 0.03281439 -0.8854658 -1.4678243
000220 79 d9 a5 bf b7 e4 ae bc 26 c8 6e 3c eb 19 eb bd
       -1.2956992 -0.021349294 0.014574086 -0.11479553
000230 f2 ce 11 3f 92 65 ea bd f2 dd 91 3e d5 30 12 bf
       0.569564 -0.11445154 0.28489643 -0.5710576
000240 e5 63 b2 bd 52 b3 5c 3e e5 c3 dc bf cd 57 15 bd
       -0.087104596 0.2155278 -1.7247282 -0.036460686
000250 ae c6 87 3d ff 86 03 3e 2f 74 22 bf 44 28 58 3e
       0.06629692 0.12844466 -0.6345853 0.2110911
000260 f0 ec 08 3e 57 25 a6 3f 77 a3 01 3d 94 c6 5c 3e
       0.13371634 1.2980145 0.031650033 0.21560127
000270 d7 60 4f 3d e7 21 74 be 77 39 9a bf 36 eb 22 bd
       0.050629463 -0.23841058 -1.2048787 -0.039775096
000280 9c fa 3f be d1 d9 99 3d 05 99 96 be 65 39 57 bf
       -0.18747944 0.07512248 -0.2941362 -0.8407195
000290 ed 5e 70 bf 94 ad 7b 3d ca 8f aa bd ab 3f b7 be
       -0.93894845 0.061444834 -0.08328207 -0.35790762
0002a0 f9 48 24 3e e5 2a cf 3e d5 e4 83 3e 2f 7e 00 3e
       0.16043462 0.40462413 0.25760522 0.12548135
0002b0 19 c0 db bf 2c e5 4d bc 38 5e 15 3e a9 46 48 be
       -1.7167999 -0.012566846 0.14586723 -0.19558205
0002c0 f4 f4 10 3e 9c 01 93 bc 48 38 2b 3e 6c f2 63 3e
       0.14155942 -0.017945103 0.16720688 0.22260445
0002d0 92 69 70 bf 84 92 10 be 8a ee ae bd 9d f7 e4 bd
       -0.9391109 -0.14118391 -0.085415915 -0.11180041
0002e0 b9 12 6c 3d dc 53 b9 3c 6d 44 f1 3f f9 42 6a 3d
       0.057635043 0.022622995 1.8849007 0.057192776
0002f0 18 6d 67 3e 9e 17 73 be a1 43 08 3e 15 f9 cb 3d
       0.2260021 -0.23739478 0.13307048 0.09959618
000300 a2 17 bc bc 29 8b db bd 47 9f 54 3e f7 4d da 3b
       -0.022960488 -0.10719902 0.20763884 0.006662126
000310 18 ab 82 3d 37 88 15 3e 22 1f 0e bf 30 a1 43 bf
       0.0638029 0.14602743 -0.55516255 -0.7641783
000320 2d c4 75 bf 7b 1f 05 3e 78 55 16 3e 79 38 74 be
       -0.96002465 0.1300029 0.14681041 -0.23849668
000330 66 e6 78 3f fb be 01 be 6e 47 4c 3e 71 0b 1e bf
       0.9722656 -0.1267051 0.19949123 -0.6173621
000340 71 d0 27 3e d9 18 d7 3e b7 59 7f bf 6c 70 3b 3e
       0.16388108 0.42011145 -0.9974627 0.18304604
000350 00 8f de bd 9e 73 85 3e 14 2e 02 bf bc be 95 3d
       -0.10867119 0.2606477 -0.5085156 0.0731177
000360 22 75 3c bf 45 5a 95 3f 6f 57 42 3d 46 0a c5 3d
       -0.7361623 1.1668173 0.047446664 0.096211
000370 3b a9 73 bd b4 8a 6d bc 14 7a 52 bf 2f ff 07 3e
       -0.059487563 -0.014498401 -0.82217526 0.13280939
000380 c4 0a 93 be e6 cc 80 3d 17 c2 39 be 83 53 2f bf
       -0.2871915 0.06289081 -0.18140446 -0.68486804
000390 6f 52 59 bf 10 87 02 3e 47 8a 33 be e0 4b 4d bf
       -0.8489141 0.12746835 -0.17533217 -0.801939
0003a0 1d 88 35 3e 77 e7 6c 3c 09 b4 a9 3d 9d 8d ba 3e
       0.17727704 0.014459482 0.08286292 0.36436167
0003b0 8c 38 83 bf d7 2c 5f 3e e6 42 90 3e 41 b0 71 3d
       -1.0251632 0.21794449 0.2817604 0.05900598
0003c0 9f e2 f0 3d 37 56 24 3c 46 19 59 3d c4 c4 43 bf
       0.117619745 0.010030321 0.05300262 -0.76472116
0003d0 8b 35 8d be 20 d1 62 bd 0c 3e 2e bc a1 0e 88 bd
       -0.27579913 -0.05537522 -0.01063491 -0.06643415
0003e0 c3 38 06 3e 5f 32 2c 3e 36 bf db 3f 70 82 99 3d
       0.1310759 0.1681609 1.7167728 0.07495582
0003f0 52 98 45 3e 9f 98 33 be cb 86 3b 3d c3 2f 8a 3e
       0.19296387 -0.17538689 0.045782845 0.26989564

res_blocks.0.linear2.bias f4 [64]
000000 1f d2 bd c0 d7 7d f9 bf 75 f5 35 3e db 6c 13 40
       -5.9318995 -1.9491528 0.17769416 2.303519
000010 df 35 55 c0 6d 3a 8d bf 63 65 4e bf d8 8b c6 c0
       -3.331413 -1.1033455 -0.80623454 -6.204571
000020 23 6b f2 bf 5f 9b 58 c0 8a cd 91 be db 41 20 c0
       -1.8938946 -3.384483 -0.28477126 -2.5040195
000030 69 7a c1 bf b2 f0 ca bf 09 6b 11 bf 36 13 aa bf
       -1.5115482 -1.5854704 -0.5680395 -1.3287113
000040 70 5d b5 bf 76 51 9a c0 13 25 4e c0 38 e0 bd 3e
       -1.416914 -4.822444 -3.2210128 0.37085128
000050 5e 61 c1 c0 84 b6 40 bf 96 66 1b bf 85 6b 6c c0
       -6.0431356 -0.75278497 -0.6070341 -3.6940625
000060 ac 14 80 bf 1f 73 80 c0 14 5a a1 bf 67 c0 98 c0
       -1.0006309 -4.014053 -1.2605615 -4.7734866
000070 bb 2f b8 bf 9d 36 40 bf c5 ba 82 c0 eb 3d 8c c0
       -1.4389566 -0.75083333 -4.085299 -4.3825583
000080 f7 ac 2a c0 3a d5 ea bf cf 2a 1f bf 01 88 d7 c0
       -2.666807 -1.8346322 -0.62174696 -6.735352
000090 52 4a d0 bf 13 13 62 c0 16 23 4d c0 21 b0 c0 c0
       -1.6272681 -3.5324142 -3.2052665 -6.0215
0000a0 73 cb 4e c0 5d ed c7 c0 89 18 c3 c0 12 ae 94 bf
       -3.2311676 -6.247725 -6.096745 -1.1615622
0000b0 d6 ed 71 bf b4 38 da c0 c3 85 b4 bf f9 8c ad c0
       -0.94503534 -6.819422 -1.4103321 -5.4234586
0000c0 3d d5 ca c0 62 bd bb c0 2b 78 df c0 7a c1 fa bf
       -6.33853 -5.866868 -6.983419 -1.9590294
0000d0 bc 06 d4 c0 2a fc a2 bf 38 ae 24 c0 7a 45 b8 c0
       -6.625822 -1.2733204 -2.5731335 -5.758481
0000e0 4a 76 ab c0 1c c9 c2 bf c6 74 cb c0 f0 c7 15 c0
       -5.3581896 -1.5217624 -6.3580046 -2.3403282
0000f0 37 59 30 c0 bb 03 ad c0 fd b9 dd c0 58 2f 4f c0
       -2.7554452 -5.4067054 -6.9289536 -3.2372646

res_blocks.0.bn2.weight f4 [64]
000000 8c 21 e2 41 10 37 24 41 77 98 e9 41 9a 68 d8 41
       28.26638 10.263443 29.199446 27.051075
000010 30 b2 93 41 de 3c 83 41 c1 da 15 41 05 55 eb 41
       18.462006 16.40472 9.365907 29.416513
000020 b8 47 86 41 52 0d da 41 19 5d 34 41 3a bf 90 41
       16.785019 27.256504 11.272729 18.093372
000030 db b8 44 41 dc c8 a2 41 6c 8c 0d 41 0e 11 98 41
       12.295131 20.348076 8.846783 19.008327
000040 a6 b7 25 41 83 3f bc 41 b1 65 a1 41 42 88 1f 41
       10.357336 23.531012 20.174654 9.970766
000050 ef c6 d9 41 e1 87 1a 41 bb d2 1f 41 2c e5 e0 41
       27.222136 9.658174 9.988948 28.1119
000060 c0 f1 0a 41 a2 08 ae 41 1b 65 82 41 00 e8 db 41
       8.684021 21.754215 16.299368 27.488281
000070 b8 74 29 41 b5 98 21 41 68 84 9b 41 72 e9 e1 41
       10.590996 10.099782 19.439651 28.238987
000080 a0 3e d2 41 67 55 3a 41 28 c7 1b 41 38 b7 e6 41
       26.280579 11.64585 9.736122 28.839462
000090 d7 ee 19 41 5c d4 bc 41 8c 54 a2 41 81 7d ce 41
       9.6208105 23.603691 20.291283 25.811281
0000a0 af c9 e2 41 8d 6a e9 41 00 95 d9 41 62 87 36 41
       28.348478 29.177027 27.197754 11.408052
0000b0 2e 17 73 41 0d 92 e7 41 ed a5 af 41 86 7d cf 41
       15.193159 28.946314 21.956018 25.93629
0000c0 36 21 e4 41 70 37 d8 41 6f 94 dd 41 52 80 2f 41
       28.516216 27.02707 27.697477 10.968828
0000d0 61 8a d8 41 13 5d 1f 41 b8 08 43 41 8d cd df 41
       27.067568 9.960223 12.189629 27.975367
0000e0 85 47 de 41 d4 b1 16 41 25 4e e2 41 47 91 85 41
       27.784922 9.418415 28.288157 16.695936
0000f0 e6 fd 93 41 36 1f d0 41 aa 0c e6 41 14 3f 88 41
       18.498974 26.01524 28.756184 17.0308

res_blocks.0.bn2.bias f4 [64]
000000 2a 56 e6 41 22 ef aa 41 c8 a4 ea 41 8f 25 da 41
       28.792072 21.366764 29.33046 27.26834
000010 7e d2 db 41 19 77 d1 41 aa 91 a2 41 05 39 ea 41
       27.47778 26.183153 20.321125 29.277842
000020 72 c8 d4 41 a4 a7 e1 41 fb e4 ac 41 c1 cb d9 41
       26.597874 28.206856 21.611807 27.22449
000030 31 44 ca 41 bd ec de 41 9c 08 ac 41 a9 72 dd 41
       25.283297 27.865595 21.504204 27.680986
000040 98 61 aa 41 00 44 e6 41 59 8f e0 41 95 ef a0 41
       21.297653 28.783203 28.069994 20.116983
000050 07 2d eb 41 56 f8 9b 41 2d 38 a7 41 65 77 e6 41
       29.396986 19.496258 20.90243 28.808298
000060 62 56 9f 41 59 b1 e3 41 65 48 d1 41 f9 0c eb 41
       19.91718 28.461596 26.160349 29.381334
000070 8a d7 a8 41 50 00 a4 41 2f b9 e1 41 81 75 df 41
       21.105244 20.500153 28.215422 27.932375
000080 b2 f3 e8 41 7a 95 ae 41 13 08 a1 41 76 40 ec 41
       29.118992 21.822987 20.128942 29.531475
000090 c9 fa a5 41 8f 7a e4 41 46 c7 e0 41 6a 2c e8 41
       20.747454 28.559843 28.097301 29.021687
0000a0 ed f6 e3 41 d6 a3 e7 41 1e 1a eb 41 1d 43 af 41
       28.49557 28.954998 29.387753 21.90777
0000b0 16 65 c9 41 30 69 eb 41 73 b9 e2 41 e7 8d e9 41
       25.174358 29.426361 28.340551 29.194288
0000c0 11 45 ec 41 80 f8 e9 41 79 5c ea 41 8b 66 c4 41
       29.533724 29.246338 29.295153 24.55007
0000d0 12 4c e9 41 88 06 b7 41 b0 dc b1 41 d7 d5 eb 41
       29.162144 22.87819 22.232758 29.479414
0000e0 09 db df 41 8a f9 a1 41 4f be ea 41 51 87 d0 41
       27.98195 20.246845 29.342924 26.066072
0000f0 b3 a3 da 41 f2 56 e9 41 53 d8 eb 41 4a 10 df 41
       27.329931 29.167454 29.480627 27.882954

res_blocks.0.bn2.running_mean f4 [64]
000000 b9 c6 c1 c0 59 b3 11 c0 6d 95 f6 3d d1 9a 17 40
       -6.055508 -2.2765715 0.120402195 2.3688242
000010 79 21 70 c0 35 2b b5 bf 1e f8 99 bf 8c 2b c8 c0
       -3.752043 -1.4153811 -1.2028844 -6.255316
000020 21 1f 0f c0 4b ba 58 c0 aa d4 42 bf ad 9f 37 c0
       -2.236275 -3.3863704 -0.7610575 -2.8691208
000030 ec 70 e3 bf 09 96 fb bf 68 8b 66 bf 11 7e da bf
       -1.7768836 -1.9655162 -0.9005647 -1.7069722
000040 8b 78 e6 bf 66 f4 a5 c0 33 f3 61 c0 1a 0f 20 3c
       -1.8005537 -5.186084 -3.5304687 0.0097692255
000050 eb 48 c9 c0 f4 d2 8f bf 62 91 75 bf 0f 7f 6a c0
       -6.290151 -1.1236253 -0.9592496 -3.664005
000060 c1 2f b3 bf 27 cd 8c c0 fc 30 c5 bf 4f 46 a7 c0
       -1.3998948 -4.400043 -1.5405574 -5.2273326
000070 40 45 e7 bf 69 a0 92 bf d3 7c 8d c0 2a 90 89 c0
       -1.8068008 -1.1455203 -4.4214873 -4.298848
000080 bc f1 2f c0 f6 4e 10 c0 ac 88 82 bf e5 62 de c0
       -2.7491293 -2.2548194 -1.0197959 -6.949572
000090 93 4d f9 bf e5 17 6c c0 79 1c 63 c0 34 15 c2 c0
       -1.9476799 -3.6889584 -3.5486128 -6.0650883
0000a0 73 a4 4d c0 83 cf ca c0 2d 70 cb c0 4d a9 c2 bf
       -3.2131622 -6.337831 -6.3574433 -1.5207916
0000b0 ca 20 94 bf 77 61 df c0 4b 76 b7 bf a5 33 b7 c0
       -1.1572506 -6.9806476 -1.4332975 -5.7250543
0000c0 ac 6b d4 c0 2e b6 c3 c0 41 8b ec c0 59 e0 0b c0
       -6.6381435 -6.1159887 -7.391999 -2.185568
0000d0 58 f7 df c0 d4 62 c6 bf c0 af 3e c0 ab e2 c3 c0
       -6.9989433 -1.549891 -2.979477 -6.1214194
0000e0 16 58 af c0 46 1d f4 bf 66 ba d8 c0 1e 01 29 c0
       -5.4795027 -1.9071434 -6.7727537 -2.6406932
0000f0 8a 17 4a c0 0d 28 b1 c0 e1 2a e0 c0 0d 0e 58 c0
       -3.1576867 -5.536139 -7.0052342 -3.3758576

res_blocks.0.bn2.running_var f4 [64]
000000 5a 47 b2 3f a3 69 f8 3f c1 72 ab 3f 78 30 97 3f
       1.3928025 1.9407238 1.3394395 1.1811666
000010 34 29 d2 3f 8a 93 09 40 4a 3a d9 3f 54 17 c3 3f
       1.6418824 2.14963 1.6970913 1.5241494
000020 2b 40 12 40 60 eb a1 3f 73 c9 00 40 5d 39 04 40
       2.2851665 1.2649956 2.0122955 2.0660012
000030 a6 74 f5 3f 5f e5 17 40 fe db cd 3f 85 06 15 40
       1.9176223 2.3733747 1.6082761 2.328523
000040 ac dd e0 3f 55 24 28 40 d7 57 12 40 ca b2 01 40
       1.7567649 2.6272175 2.2866113 2.0265374
000050 47 94 e1 3f 31 37 fe 3f 05 48 eb 3f a1 16 9e 3f
       1.7623376 1.9860593 1.8381354 1.2350656
000060 9e ef e3 3f 59 6e 37 40 9c 56 07 40 89 1a 2b 40
       1.78075 2.86611 2.1146612 2.6734946
000070 12 b1 01 40 57 0b e9 3f 36 d3 c0 3f 83 d1 8f 3f
       2.0264325 1.8206586 1.5064456 1.1235813
000080 ce 14 dd 3f 4e e3 de 3f af 4c e6 3f d4 16 e5 3f
       1.7271974 1.7413118 1.7992152 1.7897592
000090 93 2f eb 3f e2 0c b8 3f 4d 6f 27 40 89 59 57 3e
       1.8373893 1.4378932 2.6161683 0.21030249
0000a0 fc 10 a9 3f d7 4e cb 3f d2 ca df 3f bc f3 0c 40
       1.3208308 1.5883435 1.7483771 2.2023764
0000b0 22 56 0d 40 8f 5a b5 3f 43 16 58 3e 69 9d 1c 40
       2.2083821 1.4168261 0.21102242 2.4471076
0000c0 79 4a 11 40 41 52 ee 3f e9 63 08 40 43 4b e4 3f
       2.2701705 1.8618852 2.131098 1.7835468
0000d0 87 2b c7 3f 68 ef fb 3f 7c 70 f9 3f ca 09 1b 40
       1.5560158 1.9682436 1.9487453 2.4224725
0000e0 3e 41 b2 3f 08 69 e0 3f 92 8c 00 40 17 05 04 40
       1.392616 1.7532053 2.0085797 2.0628107
0000f0 20 92 19 40 2a 2d 98 3f 54 90 8f 3f e0 39 bb 3f
       2.3995438 1.1888783 1.121592 1.4627037
