model/linear_resnet_model.pt (torch, 167889 bytes, 44 tensors)

input_layer.0.weight f4 [64, 118]
00000000: ce22 063e 35d9 ccbe 0cc6 43bd 4d86 dabe
00000010: c3d3 27bd 9d4f f6bd 69f7 ad3c 5517 4dbc
00000020: 2253 6c3d 0895 023d 59a6 8ebe ee13 2bbe
00000030: 48e6 943d a7ba 47be 7ce2 36bf e365 aabe
00000040: 8018 d53d e004 973b e966 243e d52c 613d
00000050: 661f 84bd 8e29 113e 963b 89bd 358a 38be
00000060: 7e79 b2bd e305 7a3d 6a41 993e 6150 17be
00000070: 6b37 653d 050d db3b 11a3 94bd 4b53 cd3d
00000080: a79e 0cbf 4e33 9ebe 43b7 1ebe cb29 d8be
00000090: 0acd 65bc 5aa7 23be ad6d 89bd 07aa c9bd
000000a0: 4e28 a3bc 5a50 713d 023e 98be 6678 30be
000000b0: 231b 04be cecc 463d fa7c 62be 2ef2 abbe
000000c0: 8ee9 eabe c275 ed3d 7279 3e3e 69ea 8c3d
000000d0: c617 4a3d 6cbb 68bd 049e 1abc cc07 06bc
000000e0: 20f6 a6bd 9eb0 67be 2e33 32bd b622 7abd
000000f0: f0fd a13e 055f ecbd b5b0 6d3c 2bed bebb
00000100: a17a 1bbc 61e3 cabe f2cf 9c3c 8b1d e43c
00000110: 901f ccbe ee31 21be 6959 acbe cfde 11bd
00000120: f80d 74be e03b 68bc 3978 a93b d510 cf3d
00000130: c72e 813d eb7c 83be c69a 12be e22d 0ebf
00000140: 67b7 5a3e 2feb 18be 8dd2 87be 8b32 593e
00000150: 7d49 d53d 7c9c c33d 1dae 91bd 7303 a83c
00000160: e081 5f3d 87ca 31be 8b4f c6bc c1d8 3abe
00000170: 91d1 debd 34ec c63d f8fd e6be 3d89 ac3e
00000180: c052 2abe eef4 413d 7288 c23d 707b 0cbc
00000190: 5af4 a3bd cee0 0b3e 640a c1be 3d5f bdbd
000001a0: 1284 9cbe abda 64bd 9a55 f7bd 8fae c43b
000001b0: 84a9 a5bc 4693 adbb bd28 d13c eec6 3c3e
000001c0: bd63 62be 9c92 36be 2157 453d f6ee 44be
000001d0: 4ce2 34be ca19 ff3d b358 41bd 0ca5 823d
000001e0: df54 813d cea5 223e 0a55 093e 4212 26bd
000001f0: 5820 e5bd eab7 1c3d 4f19 debd dc2a 1b3d
00000200: db36 cc3d 2b16 f3bc 617e 603e 209a b13d
00000210: 5137 e23f 7635 073c 9fba 75bd fa92 f0bd
00000220: dc17 22bd c8d5 a5bd 983b 93bd 2381 413d
00000230: 3082 aa3e 4536 5b3e 64d6 c73c 8111 3abc
00000240: d31c d6be b534 04be b061 4e3e 94c2 413e
00000250: 8b53 783d 1573 debc 7224 883f 44d3 043d
00000260: aa31 293d 1d7d c93d b077 ed3d 5275 303d
00000270: 5967 25be bec0 713d 17f6 bdbd 6852 bd3c
00000280: 2adc 513d f39c debd 8657 903d 938c 663e
00000290: 7d4e a83b c259 debc 5e6e 37bf 3b6e 553c
000002a0: f786 2bbe bf4a 3d3c 4e90 0d3d 2c3e b23c
000002b0: 4ede dfbc 23e1 84bd 1cc9 9b3e fa19 d33d
000002c0: 779a be3d 6e10 90bd 15fc 96be 9636 73be
000002d0: 0850 003e 7e13 823e d26b 1d3d 1faf 7abe
000002e0: 01e4 12be c746 a7bc 6cef 1b3e 4bed 913c
000002f0: 2e12 f03d 1507 913c 6fd6 3a3d 70fd 4abe
00000300: 4e62 4dbc 0de8 d6bd fdc7 353d 2496 ed3b
00000310: ac9f 16be 55ec aebe 5d57 183e ee28 133e
00000320: 045b 1bbd d734 13be dd09 9fbd cbb9 2abc
00000330: 1bba 013c d0ca 94bd c804 76bd e890 983d
00000340: 3a00 a33e 868f 8a3e e5ec 2f3e 2072 c3bd
00000350: 50d7 823e c54f d2be 5fa6 33be a1fa 2d3e
00000360: b6ba 183e e607 583d 03f7 c6bc 8fe7 eabd
00000370: 18b3 e93d 5680 683d 95fc d83d ea0b 0b3e
00000380: 7b62 9f3d e55f 9abd 8069 0cbd 4a6c abbc
00000390: 4482 1fbe 6070 bdbb f4e1 2f3c 1cca 0dbe
000003a0: ffc5 a93d 910e de3d bbac aa3d 2269 73bd
000003b0: 1720 8abc 1a54 553d eb28 cd3d 0b09 113e
000003c0: 5a43 1f3e 8e83 993d 3189 83bd 2daa 1a3c
000003d0: e4c5 0f3e 288e 833d eddc bbbd bf5e 29be
000003e0: 6938 283d 830d bbbd 4f04 a53f 766b 2a3c
000003f0: af7e 14bd 14ae a93c 3e29 833d eb77 803d
0.13099214 -0.40009466 -0.047796294 -0.42680588 -0.040973436 -0.12026904 0.021236138 -0.01251777
0.05769647 0.03188041 -0.27861288 -0.16706821 0.07270485 -0.19504796 -0.7143934 -0.33280858
0.10405064 0.0046087354 0.16054882 0.054974396 -0.06451301 0.14176008 -0.06700818 -0.18021472
-0.08714579 0.06104077 0.2993272 -0.14776756 0.055961054 0.0066849017 -0.07257665 0.100256525
-0.54929584 -0.30898517 -0.15499596 -0.42219386 -0.014025936 -0.15981808 -0.06710372 -0.09846883
-0.01991668 0.05891452 -0.29734808 -0.17233428 -0.12900977 0.04853516 -0.22117987 -0.33583206
-0.45881313 0.11594726 0.18601015 0.06880648 0.04933908 -0.056819364 -0.009437088 -0.00818057
-0.08152413 -0.22625968 -0.04350584 -0.06106826 0.3163905 -0.11541561 0.014507462 -0.0058266125
-0.009489686 -0.396266 0.019142125 0.027846118 -0.3986783 -0.15741703 -0.33661965 -0.035612877
-0.23833454 -0.014174432 0.0051718024 0.10110632 0.0630775 -0.25681242 -0.14316854 -0.5553876
0.21359025 -0.14933465 -0.26527825 0.21210687 0.104144074 0.095513314 -0.071132876 0.020509457
0.054567218 -0.17362414 -0.02420785 -0.18246748 -0.10879815 0.09713021 -0.45115638 0.33698454
-0.16633129 0.047352724 0.09498681 -0.008574352 -0.08005591 0.13659975 -0.3770324 -0.09246681
-0.30569512 -0.0558726 -0.12076874 0.0060022543 -0.020222433 -0.0052970974 0.02553212 0.1843526
-0.2210836 -0.17829365 0.048178796 -0.19231781 -0.1766445 0.12456091 -0.04720373 0.063791364
0.06315016 0.15883562 0.13411346 -0.040544756 -0.1118781 0.03826133 -0.10844671 0.03788267
0.099714 -0.029673656 0.2192321 0.08671975 1.7673131 0.008252492 -0.05999243 -0.117467836
-0.039573535 -0.08097416 -0.07189101 0.047242295 0.3330245 0.21407421 0.024394222 -0.011356712
-0.41818866 -0.12910731 0.20154452 0.18921882 0.060626548 -0.027154485 1.0636122 0.03242804
0.04130713 0.098383166 0.11595094 0.043080635 -0.16152705 0.059021704 -0.092754535 0.023110583
0.051235355 -0.108697794 0.07047944 0.22514562 0.0051363097 -0.02714241 -0.7165278 0.013026769
-0.16750704 0.011553465 0.034561448 0.021758161 -0.027327683 -0.06488254 0.30426872 0.10307689
0.093068056 -0.07034384 -0.29489198 -0.23751292 0.1253053 0.25405496 0.038432904 -0.24480866
-0.14344789 -0.020419491 0.15228051 0.017813345 0.117222175 0.017703572 0.045614656 -0.19823241
-0.012535645 -0.10493479 0.044380177 0.007250564 -0.14709347 -0.34164682 0.14877076 0.14371082
-0.037928596 -0.14375626 -0.07765553 -0.010420273 0.007917906 -0.07265246 -0.060063154 0.07449514
0.3183611 0.27062625 0.17180212 -0.09543252 0.25554895 -0.41076484 -0.17543934 0.16990139
0.14914975 0.052741908 -0.024287706 -0.114699475 0.114111125 0.056763016 0.10595051 0.13578764
0.077824555 -0.07537822 -0.0342803 -0.02092566 -0.15577036 -0.0057812184 0.010735024 -0.1384663
0.08289718 0.10842622 0.08333727 -0.059426434 -0.016861005 0.05208216 0.1001757 0.14163606
0.15553036 0.07495795 -0.064226516 0.009439987 0.14040333 0.064235985 -0.091729976 -0.16540049
0.041069422 -0.091334365 1.289194 0.010401597 -0.036253627 0.02071289 0.06404351 0.062728725

input_layer.0.bias f4 [64]
00000000: 385d b73d 3dbf 2c3f cadf 34be 7895 c3bd
00000010: e409 a23d 8c46 38ba 58b3 0540 37a7 843e
00000020: 2790 12be 7354 6c3e 69c2 2c3e 17bf e5be
00000030: 6635 78bc 48f3 4a3e 2ac1 e8bd 753f c2be
00000040: ebb6 ae3d f06d 663e 8a47 0abe 878e 51be
00000050: 4f0e 0ebe 1e01 a53d a0bf 2bbd de64 083d
00000060: 7ed9 dd3d 4a57 c73e 6c1d eb3d 20ac 493e
00000070: 0b63 843e 2f71 91be 60f9 c3be 5ff7 373e
00000080: a22a 573f 9cc6 503d 967c 413e 7182 40bd
00000090: be3d 863e c989 a13d 2029 1f3e b6da 0cbf
000000a0: b8f1 e93d be43 db3d 3294 30bc 8ce4 74be
000000b0: 3590 59bd f3bc 87be 3ee8 cbbc 6352 ac3f
000000c0: a9c0 bbbd 7883 1cbe 6ff5 db3c d6d9 3d3f
000000d0: 0d10 31bc 184c c13e 9dfb babc 192c fabd
000000e0: 7842 213e 6afd 563e 3845 abbe 5b2c 8cbe
000000f0: eafa 003f 8d2b fe3c d6f5 bc3e 94ee 89be
0.08953327 0.67479306 -0.17663494 -0.09549993 0.07912043 -0.0007029555 2.0890713 0.25908825
-0.14312802 0.2307909 0.16871037 -0.44872352 -0.01514945 0.19819367 -0.11364968 -0.3793904
0.085309826 0.22502875 -0.13503852 -0.20464526 -0.13872646 0.08056854 -0.041930795 0.03329932
0.10832499 0.38933784 0.11480221 0.19694567 0.25856814 -0.28406665 -0.38276196 0.17965458
0.8404943 0.05097066 0.18895182 -0.0469994 0.2621898 0.078876086 0.15543032 -0.55021226
0.11423057 0.1070628 -0.01077752 -0.23915309 -0.053116042 -0.26511344 -0.024891015 1.3462642
-0.091676064 -0.15284526 0.02685043 0.74160516 -0.010807049 0.37753367 -0.022825057 -0.12215442
0.15748012 0.20995107 -0.33451247 -0.2737759 0.50382864 0.031026626 0.36906308 -0.26939833

input_layer.1.weight f4 [64]
00000000: 57b8 7841 d627 f841 c794 2a41 b2a0 0341
00000010: af6a 1041 ac7d 6341 86dd 0a42 f505 c841
00000020: 05f7 4c41 1f10 7c41 d1a8 0641 4779 1d41
00000030: 1f0b 1941 0d84 9341 7372 7741 6ce1 6f41
00000040: fbf8 0c42 f85f 5f41 6e27 7741 876b ac41
00000050: 8cce 6e41 281e 0641 033a 0a42 f54b ee41
00000060: 1146 0f41 b372 0c42 844e bb41 34bb d741
00000070: 4286 7841 9161 6f41 1e8c 0742 1d69 7841
00000080: 271e 0042 de38 ba41 9231 0241 8b6d 0f41
00000090: 6c7a 7841 0acd c041 ea97 6841 7227 3841
000000a0: 45b0 6a41 b566 0f41 86cc f441 d660 6e41
000000b0: ac99 6641 d9e2 0641 a611 7241 4283 ff41
000000c0: 6c4c 6041 cd26 0542 ab43 1c41 1231 ff41
000000d0: 8601 7341 5237 a741 6064 b041 7eaa 7e41
000000e0: e77c a441 9b25 0e42 aec0 7341 4f7b 1241
000000f0: 283a 6e41 4dee b041 095f 7341 7865 7f41
15.545005 31.019451 10.661323 8.226732 9.026046 14.218182 34.71633 25.002909
12.8103075 15.753936 8.416215 9.842109 9.565215 18.439478 15.465442 14.992535
35.243145 13.96093 15.447126 21.552504 14.9254265 8.382362 34.556652 29.787088
8.954606 35.11201 23.413338 26.966408 15.532778 14.96132 33.886833 15.525662
32.029446 23.277767 8.137102 8.964244 15.529888 24.100117 14.537088 11.50963
14.668035 8.962575 30.599865 14.898642 14.412518 8.430383 15.129309 31.93909
14.018658 33.28789 9.7665205 31.89896 15.187872 20.902012 22.049011 15.916624
20.560987 35.536724 15.234541 9.155105 14.889198 22.116358 15.210702 15.962273

input_layer.1.bias f4 [64]
00000000: ae30 f941 d70b 0b42 f97c a741 928a 8041
00000010: acfd 8b41 38cf dd41 ae83 0f42 1b2a ee41
00000020: 3642 bc41 9bba e941 573d 7f41 2c44 9841
00000030: 2671 8c41 60ac f941 d109 f941 9b8c f541
00000040: eb74 0f42 4ab5 d241 bd4c fc41 e2b1 0c42
00000050: 2582 ec41 7bb6 8441 18df 0e42 000f 0942
00000060: c372 8b41 42d4 0f42 7d41 0042 c1db 0542
00000070: abb5 d941 d1d8 1242 215b 0b42 738e f841
00000080: 9ce4 0a42 4dcc 0542 0876 8641 b09b 8941
00000090: 7b6f fa41 3721 e441 789c f541 b574 b441
000000a0: 49d2 e541 77eb 8641 6f25 0d42 d525 d641
000000b0: 8b7d e441 cc78 8141 3d42 e741 4f0f 0d42
000000c0: 70da dc41 fb75 0b42 a6f9 9641 786f 0b42
000000d0: 50f5 f541 5ce4 0142 bc13 0942 be54 e241
000000e0: dd26 0342 71fd 0f42 fa6d ef41 774c 8641
000000f0: 7c6a f041 48c6 0242 ad6a f541 7f01 fe41
31.14877 34.761562 20.936022 16.067661 17.498863 27.726181 35.878593 29.77056
23.53233 29.216116 15.952476 19.033287 17.555248 31.209167 31.129793 30.693655
35.864178 26.33852 31.53747 35.173714 29.563547 16.589102 35.717865 34.26465
17.431036 35.957283 32.063953 33.464603 27.213705 36.711735 34.838993 31.069555
34.72325 33.449512 16.807632 17.20102 31.304434 28.516218 30.7014 22.556986
28.727678 16.864973 35.286556 26.768473 28.5613 16.183983 28.907343 35.26495
27.606659 34.865215 18.871899 34.858856 30.744781 32.473007 34.26927 28.291378
32.787952 35.9975 29.9287 16.787336 30.051994 32.693634 30.677088 31.75073

input_layer.1.running_mean f4 [64]
00000000: 3ac8 1f3e 4f1e 2a3f 3bef 66be 7343 1dbe
00000010: 99f6 533c 4537 ec3c da16 0440 8c94 193e
00000020: 753b 29be 11d3 713e 92d9 c93d 8ca8 03bf
00000030: 35c1 a4bd e648 663e 599c c0bd 5e0c acbe
00000040: 5821 9a3d 6e7b 763e e378 e2bd df86 39be
00000050: 3156 d8bd af54 603c 1321 9dbd 44c3 24ba
00000060: 8a4a 4d3d c12e be3e e25f 723e c3fa 2e3e
00000070: b359 8b3e 2b62 d7be 1d09 d7be b32d 673e
00000080: 0250 513f afe9 4fbc 2f58 033e 85f9 debd
00000090: be16 973e da5f 99bd faff 453e af2c 1cbf
000000a0: 061d 163e e6f2 2b3d e27a 2d3c 3a41 68be
000000b0: ca61 c2bd acde a5be e96d cb3c fec3 a93f
000000c0: 0e1a 89bd 23df 27be 4c59 34bd b59e 3c3f
000000d0: 79ce 2d3c 9b1a af3e 0c89 4d3c 8aa2 d0bd
000000e0: e0d9 3b3e 3517 343e 269b a4be fae8 abbe
000000f0: 11aa 033f 1291 723c 5e45 c53e 78c8 70be
0.15603724 0.664525 -0.22552197 -0.15357761 0.012937211 0.028834948 2.0638947 0.14998072
-0.16526587 0.23615672 0.09855951 -0.5142906 -0.08044664 0.22488746 -0.09404821 -0.33603185
0.07525891 0.24070522 -0.110582136 -0.18117855 -0.10563315 0.013692065 -0.07672324 -0.00062852004
0.050119914 0.37145045 0.23669389 0.17087846 0.27216873 -0.42067084 -0.4199914 0.22576027
0.8176271 -0.012689992 0.12826608 -0.10887436 0.29509538 -0.07488985 0.19335929 -0.6100568
0.14659509 0.041979693 0.01058838 -0.22681132 -0.09491308 -0.32396448 0.024832683 1.3262937
-0.06694423 -0.16393714 -0.044030473 0.7367967 0.010608309 0.34199986 0.012544882 -0.10187252
0.18344831 0.17586978 -0.3214962 -0.33576185 0.51431376 0.014805095 0.38529485 -0.23513973

input_layer.1.running_var f4 [64]
00000000: c562 3242 551e a040 f3b3 f541 6a5f e941
00000010: 0668 0042 85ab 1542 cc40 b640 e3d1 1742
00000020: 3252 ee41 d3b7 ff41 6200 0142 0b13 0442
00000030: f107 0342 0c6d 1942 536c e941 d723 0042
00000040: 1d7d f740 5c72 0742 662a ec41 29cf 2242
00000050: 7c18 eb41 9dee 0542 5927 0d41 d98b 6341
00000060: f667 f941 2ee0 d740 b233 e641 9761 2841
00000070: 92e7 0642 491e cb42 1ef5 4541 b372 f841
00000080: f8a8 1841 cb2a 9541 415d ee41 54d0 ff41
00000090: 4567 fc41 7fb7 4842 14d0 0942 4f7e f941
000000a0: 86d8 0a42 8edd 0242 410a cc41 d9c6 0a42
000000b0: 5a8e cc41 3c87 f841 a9f5 2342 4c0f 9340
000000c0: 74aa 0042 4aa3 5b41 b9e5 0442 dedb f740
000000d0: c178 e441 df54 8a41 3082 0942 de03 0f42
000000e0: b2bf 0342 bccf cf40 fc44 fc41 fba8 0142
000000f0: 9d52 eb41 d1a8 8d41 23be ed41 cb51 f841
44.596455 5.0037026 30.712866 29.171589 32.101585 37.4175 5.69541 37.954967
29.790134 31.964758 32.250374 33.018597 32.757755 38.35649 29.177893 32.035
7.7340226 33.86168 29.520702 40.702305 29.386955 33.48302 8.822106 14.2216425
31.175762 6.7461157 28.775242 10.523826 33.726143 101.55915 12.372343 31.056005
9.541252 18.645895 29.795534 31.976723 31.550425 50.179195 34.4532 31.186674
34.71145 32.716362 25.505007 34.694187 25.569508 31.066032 40.989902 4.5956173
32.16646 13.7273655 33.22434 7.7455893 28.558962 17.291441 34.377136 35.753777
32.937202 6.494108 31.533684 32.41502 29.415339 17.70743 29.71784 31.039938

res_blocks.0.linear1.weight f4 [64, 64]
00000000: 84dc 693d 3883 79be 05ff 2fbe 9c7e edbe
00000010: 1b68 fbbe 8302 ad3d 0714 d3bd 4ab2 493b
00000020: 201f 1ebd de75 213d dc9a d9be aba8 95be
00000030: ee52 87be 64a1 5a3e 3f88 543d fb5f 323d
00000040: 3069 b23d afdd d5bd d994 8dbc 2ac1 863e
00000050: 101a c2bd 4a13 febe 07e0 e5bd 46b9 da3e
00000060: c5aa b8be 499a d93c a395 5bbd 567f 743e
00000070: edb6 d0bc a21b d4bd 0fee 6d3e 4a1a 233d
00000080: 3dcb 233e d121 ea3d 9bb8 18bf 7705 abbe
00000090: b07f eabd fb06 623d 092c 3f3e f024 bcbe
000000a0: 2519 ffbd 7ba6 9bbe e02b 9cbc 365f 42bd
000000b0: da06 7cbd a41c cbbe 91bd d53d f418 2ebd
000000c0: f242 863c f672 203e 27f3 c4be 7b5b 823e
000000d0: df43 e0bc 9301 513e 63ad af3d 3ca9 75bd
000000e0: 5ed3 c9bd 6ebb 2bbc ccfb 6c3c c924 77be
000000f0: 62bf 11bd 4998 123d d242 adbd 5992 a1bc
00000100: 94ec 5dbd 5cd9 00bf 7af7 31bd d125 b13d
00000110: e472 b1bd e8ea 5fbd e759 23bf ad5f c3be
00000120: dbd0 9dbe 7048 a13c 0782 173e e81b 3b3b
00000130: c1e0 163d 4441 a0bd 6854 6c3c 6c61 153e
00000140: 659a 9abe 98aa 6e3d 527f e63d e56d e23b
00000150: 87c2 273e 12bc 1d3e d2f6 65be 9e59 5cbe
00000160: 4913 e6bd 0adb afbe caf1 10bf b32e 7fbe
00000170: 8fbd aabd fee1 093e 4a20 8abe 5f9b f7b9
00000180: 50ba 48be 6fe1 d1be 275d 3b3e 1c98 3f3e
00000190: a1ab aabc c92a 86be cb6b 5fbb d11c c43d
000001a0: 7112 ecbd 4b55 4e3e d108 463d 6596 823c
000001b0: e912 0dbe 1cab 0ebe fc88 23be 94b3 31be
000001c0: c7ad aa3d 01fd b8be e00b 133d 77a5 30be
000001d0: c827 153e b167 95be d38d 46bd d262 3bbc
000001e0: bb1c c2bd c7bb c6be 6be8 c23c f82d 203d
000001f0: e685 51bd 3d23 c1be 0f23 cf3d 1381 3b3e
00000200: f211 803e b449 c8bd a825 b8bc 9f2b ba3d
00000210: 37dc 20bd 5fa3 8dbe ab69 913d 1a91 c6bd
00000220: 3b8b 81be 09b1 08bf df7d a33d 5c0a f5bb
00000230: c125 933c 65f2 45bf 5bec 233f 47f6 263f
00000240: e1a9 f0bd 413e 13bf 05e4 5f3f 604e 43be
00000250: c44b 7b3e 512d 21be b7d0 183b da2c 12be
00000260: 79a3 0bbd 5b86 23bc 34b4 39be dbd0 97bc
00000270: afc5 a8bf 9129 90be d35e 97bc f4c9 4e3f
00000280: 5cf6 01bd 6926 29be d3b0 67ba 35c3 80bd
00000290: 4212 3a3f 9ea7 1c3d d7de 303f c6da b4bd
000002a0: eb8c bebe a138 90bd e52a 763f cc39 7ebf
000002b0: 7117 853c ac1e babd d3fc cabd cac0 2dbd
000002c0: 375d 09be 68ec 5cbb cc7c 0e3e e086 dabd
000002d0: ce7b 043f 8db1 20bd f8fa 22bf f6b4 7bbf
000002e0: d7e5 4fbf e636 2f3d a056 4b3b 73e3 aeba
000002f0: bafd 513d a9e0 57be a033 0d3f 0ea3 5f3f
00000300: 6f91 843e 7547 c6be 72d1 63be 525f 6bbe
00000310: 5e4f 9ebe 91dd 7d3e d07f 8a3d 8acf d93d
00000320: f954 96bc ed0c 9fbd 62b2 55be 7fcd bcbc
00000330: 2ae0 be3b 64b5 093d 0290 cc3d 92e4 563e
00000340: 6eb4 513d 8c91 d2bd 2684 ff3e 87c0 dc3d
00000350: 14d8 c1bd 060c 30be 11d2 92bd 3b8b 5f3e
00000360: a400 66be 82ff 92bd 432f 79be 8179 1c3e
00000370: 04e8 97be bd88 fdbd 927b ad3e cdb8 a93e
00000380: 6ebe 263e cfb9 ef3b 4b1c 06bf 914e 8ebe
00000390: 8c8b 693e b004 933e 0a44 843e 91b8 4cbe
000003a0: cdd5 4bbd 9d89 5abd 1980 373d eab3 c3bd
000003b0: f203 6abe 3b38 24be f582 5a3e f6a4 c4bc
000003c0: bf95 43bd 0544 9f3e b63f 0cbe 18cb c53c
000003d0: 3f50 833e 884e ba3d 77f6 383e 28c2 273d
000003e0: 845b 7cbd 2f71 11b9 5e1b 7ebd a9cb 0abe
000003f0: f63c bebd c62c a3be 000f 09bd e821 a73e
0.057095066 -0.24366462 -0.17187126 -0.46385658 -0.49102864 0.08447745 -0.10306554 0.0030776435
-0.038603902 0.039419048 -0.4250096 -0.29230246 -0.26430458 0.21350628 0.051887747 0.043548565
0.08711469 -0.104426734 -0.01728289 0.26319247 -0.09477627 -0.4962409 -0.112243704 0.42719477
-0.36067787 0.026562827 -0.0536095 0.238767 -0.02547785 -0.10356833 0.23235343 0.039819993
0.15995498 0.11432231 -0.59656686 -0.33402607 -0.11450136 0.05518244 0.18669142 -0.3674693
-0.12455968 -0.30400452 -0.01906389 -0.04745408 -0.06152997 -0.3967029 0.104365475 -0.042504266
0.016389344 0.15668854 -0.3846676 0.2546042 -0.027376113 0.20410757 0.08577993 -0.059975848
-0.09854768 -0.010481698 0.01446433 -0.24135126 -0.035582907 0.03578976 -0.084600106 -0.019723104
-0.054180697 -0.50331664 -0.043448903 0.08649791 -0.08664492 -0.054667383 -0.63809055 -0.38158932
-0.30823407 0.019687861 0.14795695 0.002855057 0.036835436 -0.078249484 0.014424421 0.14587945
-0.3019592 0.05826816 0.11254753 0.006910073 0.163828 0.15403774 -0.22457436 -0.21518561
-0.11234147 -0.343468 -0.5661894 -0.24920158 -0.08336937 0.13465115 -0.2697776 -0.00047227272
-0.19602323 -0.40992305 0.18297254 0.18710369 -0.020833792 -0.26204517 -0.003409135 0.09575809
-0.11526955 0.20149724 0.04834825 0.015940854 -0.13776745 -0.1393246 -0.15970224 -0.1735366
0.08333927 -0.36130527 0.035899997 -0.1725062 0.14565957 -0.29180673 -0.048475098 -0.011437135
-0.09478136 -0.38815138 0.023792466 0.03910634 -0.051153086 -0.37722197 0.10114109 0.18310957
0.2501369 -0.09779683 -0.022478893 0.09090351 -0.039272513 -0.27663705 0.07100233 -0.09695645
-0.25301537 -0.53395134 0.079829924 -0.0074780416 0.017962338 -0.7732299 0.64032525 0.6521954
-0.11751152 -0.57516867 0.87457305 -0.19072866 0.24540621 -0.15739943 0.0023317763 -0.14274922
-0.034091447 -0.009980763 -0.18135148 -0.018532207 -1.3185328 -0.28156713 -0.018477833 0.80776906
-0.031729087 -0.16518559 -0.00088382995 -0.06287233 0.7268411 0.03824579 0.69090027 -0.0883079
-0.37216887 -0.07042051 0.961592 -0.9930694 0.01624653 -0.090878814 -0.09911504 -0.042420186
-0.13414465 -0.0033710245 0.13914794 -0.106702566 0.5175141 -0.039231826 -0.636642 -0.98323
-0.8121008 0.042776965 0.0031026974 -0.0013342932 0.051267363 -0.21081795 0.551569 0.87358177
0.25892207 -0.38726392 -0.22247866 -0.2298558 -0.30919927 0.24791552 0.067626595 0.10635288
-0.018351065 -0.07766137 -0.20868829 -0.023047207 0.0058250623 0.033620253 0.09988405 0.2098563
0.05119746 -0.10281667 0.4990551 0.10778909 -0.09465042 -0.17192087 -0.07168973 0.21830456
-0.22461182 -0.071776405 -0.24334435 0.15280725 -0.296692 -0.123795964 0.3388334 0.33148804
0.1628358 0.0073158513 -0.5238692 -0.27794316 0.22807139 0.28714514 0.2583316 -0.19992281
-0.049764443 -0.053353895 0.044799898 -0.095558 -0.22853068 -0.16037075 0.21339019 -0.02400444
-0.04775023 0.31106582 -0.13696179 0.024144694 0.2564716 0.0909701 0.18062769 0.040956646
-0.061610714 -0.00013870442 -0.062037818 -0.13554253 -0.09288971 -0.31870097 -0.03346157 0.32643056

res_blocks.0.linear1.bias f4 [64]
00000000: f5a0 d03b 16e0 23be d635 163e 607a 49be
00000010: fcf8 143e 8dcb d2bd afd8 44be 7579 0c3e
00000020: 1e09 4d3e 3113 7fbe d9c9 56be c44e 9bbc
00000030: a971 a03e 9000 993e a93f 4b3e f44c a93e
00000040: 8c87 bf3e 56c4 343e d0d3 d9bd eee2 333e
00000050: 5f43 eb3d 4909 003d 7bf2 90bd 155a d8bd
00000060: 066e b5bd 08e1 723e 3c28 af3e 24fc 083e
00000070: f8fc 323e 378b 143e d3a8 503e e14d 703e
00000080: 1c6b 4b3e 8f7e 14be 05cb dcbe 2cfe c0bb
00000090: 6f46 9e3e 2336 f8bd fdbc 7ebd 555a ac39
000000a0: 44dd 923e db20 763e 7077 fb3d a9d4 803e
000000b0: 2589 bfbe 8796 3b3e 40b1 603d 2dfe c33e
000000c0: 0799 203d f624 1dbc f562 b43e eafa 2fbd
000000d0: 3e0a 01be 54f9 853e f1b5 96bd 7bf2 e03d
000000e0: 1ef6 883e 16ca 173d dbf8 98bc d384 5abe
000000f0: c4ea 8e3e 4e03 5bbd b73f 99bd 6e8d 823e
0.006366844 -0.16003451 0.14668974 -0.19675589 0.14548105 -0.102927305 -0.19223283 0.13718207
0.20023009 -0.24909665 -0.20975436 -0.018958457 0.31336716 0.29883242 0.19848503 0.33066523
0.37408102 0.17653021 -0.10636103 0.17567036 0.114874594 0.031258855 -0.070774995 -0.10564057
-0.08858876 0.23718655 0.34210384 0.13377434 0.17479312 0.14506231 0.20376901 0.23467208
0.19865078 -0.14501403 -0.43123642 -0.0058896746 0.30913112 -0.12119701 -0.062191952 0.000328737
0.28684437 0.24035971 0.1227864 0.25162247 -0.3740932 0.1831914 0.05485654 0.38279858
0.03920844 -0.009591332 0.35231748 -0.0429639 -0.12601563 0.26166785 -0.07358921 0.109837495
0.26750273 0.03705796 -0.018673351 -0.21339731 0.27913487 -0.05346995 -0.07482856 0.25498527

res_blocks.0.bn1.weight f4 [64]
00000000: 4418 223e 16b9 103f be16 f23e 5f11 bf3e
00000010: 0a07 0a3f 0a54 7e3e 48f2 cc3e f5a9 323f
00000020: b69a 9b3e e23e 283f b1b5 d23e 698e 053f
00000030: 5501 253f f76f 343f 6400 143f 3fc3 d13e
00000040: 5a65 313f 37f1 743e 190f 363f 16ea 3b3d
00000050: 1218 083e 1ce3 313f a431 283f 1146 2e3f
00000060: 0a9b 1c3f 566c fb3e 53e4 543e 694f f93e
00000070: 204a 1d3f 4825 373f 2b79 b03e 29fc ba3e
00000080: ac30 343f eadd f53e 4a22 3a3f 34be 023f
00000090: 789c 333f 093c 343f e24a 3d3f 1445 eb3e
000000a0: 1e0e bc3e 1cf4 213f c011 583e 5d8b 1b3f
000000b0: cb65 2a3f 5e1c 253f 79af 8e3e 53e9 2f3e
000000c0: c4b7 a53e e87c e83e 525b 3d3e e185 243f
000000d0: d282 143f 7f61 323f d130 323f e019 683e
000000e0: 0c40 353f 8b78 c63e b387 1a3f 070b 2e3f
000000f0: 55a7 1e3f e69e 0c3f 9b55 d73e 7bf4 233f
0.15829569 0.5653242 0.47282976 0.3731794 0.5391699 0.24836746 0.40028596 0.69790584
0.30391473 0.6572095 0.41154245 0.52170426 0.6445516 0.70483345 0.57813096 0.40969273
0.69295275 0.23920141 0.7111679 0.04587754 0.13290432 0.69487166 0.65700746 0.6807566
0.6117407 0.4910609 0.20790224 0.48693398 0.6144123 0.7154126 0.34467444 0.36520508
0.7038677 0.4802087 0.7270857 0.51071477 0.7016063 0.70404106 0.7394239 0.4595114
0.3672952 0.63263106 0.21100521 0.60759526 0.66561574 0.6449641 0.2786825 0.1717885
0.32366765 0.45407796 0.18491867 0.64266783 0.58012116 0.6968002 0.6960574 0.2266612
0.7080085 0.38763842 0.6036331 0.67985576 0.6197408 0.5492996 0.420575 0.6404492

res_blocks.0.bn1.bias f4 [64]
00000000: 3ac5 02bf b28c 59bf 13cf 52bf 76d8 23bf
00000010: ddc9 19bf 9a4f e3be 5b9a 18bf bb39 6abf
00000020: 4c84 04bf 7da0 49bf 5458 c1be 4067 76be
00000030: b16f 44bf 572a 6ebf 3308 24bf 6e74 2bbf
00000040: 0c33 69bf a77f 1dbd 0c74 48bf 9adc edbd
00000050: b7b0 63bd 46ef 85bf 1010 5fbf 7f62 92bf
00000060: 6c57 3cbf 5c75 393f e2dc 9abe 6a4e 3bbf
00000070: 12bc 52bf b302 5fbf f33f 8a3e f058 243e
00000080: cade 28bf 238d cebe 347c 75bf c67f 32bf
00000090: 7c9c 5cbf feb4 57bf 3001 6abf d194 33bf
000000a0: a999 58bf 4620 4bbf 065c c13e 91d5 4abf
000000b0: f954 54bd dd0a 53bf bb6a 98be 4ef6 48be
000000c0: 25a6 febe aa79 36bf a6e5 373e 3c3c 52bf
000000d0: c4c8 68bf 0880 88bf 0c5c 60bf c2bb a93e
000000e0: f529 6dbf f9bb 083f 82c5 7c3e 9221 63bf
000000f0: 2998 42bf 9406 12bf 958d 20bf 0fb9 5fbf
-0.51082194 -0.8498031 -0.8234722 -0.6400217 -0.60073644 -0.4439667 -0.5961053 -0.9149434
-0.5176437 -0.7876051 -0.37762702 -0.24062824 -0.7673293 -0.93033355 -0.6407501 -0.6697453
-0.91093516 -0.038451817 -0.78302073 -0.11614342 -0.05558845 -1.0463645 -0.87133884 -1.1436309
-0.73570895 0.724447 -0.30246645 -0.73166525 -0.8231822 -0.87113494 0.27001914 0.16049552
-0.6596495 -0.40342054 -0.95892644 -0.69726217 -0.86176276 -0.8426055 -0.9140806 -0.7014895
-0.84609467 -0.7934612 0.3776552 -0.79232126 -0.05183885 -0.8243845 -0.2976893 -0.19625208
-0.49736133 -0.71279395 0.17958698 -0.8212316 -0.90931344 -1.0664072 -0.8764045 0.3315106
-0.92642146 0.53411824 0.24684718 -0.887231 -0.7601343 -0.5704129 -0.6271604 -0.8739175

res_blocks.0.bn1.running_mean f4 [64]
00000000: fc43 22c2 bef0 58c3 487f 1cc2 8a1e 1f42
00000010: 2a76 0f43 8d71 bfc2 30ed 05c3 f5ff a1c3
00000020: a6af a3c3 3631 dfc3 9e72 9243 c354 d7c2
00000030: ba62 37c3 5215 dcc2 00d5 c5c2 4d41 a342
00000040: ba50 e4c2 1f06 ccc3 8791 bfc2 47b0 aec3
00000050: a097 27c2 f7c3 5643 5129 e3c2 59cb 49c2
00000060: e782 e0c2 c19b dcc3 d787 9dc3 2662 cec2
00000070: b28a 9ac3 195f cec3 b594 3042 0f7b ee41
00000080: 8e2b eac1 fafc 22c3 9ba4 f1c2 b211 9342
00000090: fa68 b3c3 8f7c dbc3 037b e6c3 b0b3 16c3
000000a0: ac38 9ac3 c79e 0fc3 e06e c9c3 69a1 e0c3
000000b0: a20d c243 186b 16c3 ef30 dbc3 f383 a6c3
000000c0: 1836 e342 a070 06c2 4889 e4c3 733f afc2
000000d0: dcc3 d0c3 e26e b9c2 1c46 09c3 f811 28c3
000000e0: d93c f0c2 973e a6c3 2225 1dc3 7296 cec2
000000f0: 7531 bec3 f4ba f143 9fa8 17c3 f073 20c3
-40.56639 -216.9404 -39.1243 39.779823 143.46158 -95.72178 -133.92651 -323.99966
-327.37225 -446.38446 292.89545 -107.66555 -183.38565 -110.04164 -98.916016 81.62754
-114.15767 -408.04782 -95.78423 -349.37717 -41.89807 214.76549 -113.580696 -50.44858
-112.25567 -441.21683 -315.06125 -103.191696 -309.08356 -412.74295 44.14522 29.810087
-29.271267 -162.98819 -120.821495 73.53456 -358.82013 -438.9731 -460.96103 -150.7019
-308.44275 -143.62022 -402.8662 -449.26102 388.1065 -150.41833 -438.3823 -333.03085
113.60565 -33.609985 -457.0725 -87.623924 -417.53015 -92.71657 -137.27386 -168.07019
-120.11884 -332.48898 -157.14505 -103.29384 -380.38638 483.46057 -151.65868 -160.45288

res_blocks.0.bn1.running_var f4 [64]
00000000: 022f 0d44 d054 a046 bb45 c844 9f18 d744
00000010: 980e ae46 ab4f 5545 18db 9b44 7806 9146
00000020: 41bb 8746 73c3 0547 b92e 9d45 0b3c 2746
00000030: 6131 8345 00e5 fa45 9720 1846 480f 1345
00000040: 85bb 0b46 c8e5 d645 80c0 8645 8ed0 e345
00000050: 04c4 7744 78e4 5e46 fc95 ff45 4e98 a145
00000060: 83a0 ba45 4da7 3347 e10d db45 b69f f645
00000070: f244 6f46 2a87 ed46 a2b0 8444 90ba 6b44
00000080: 5a29 ec44 b163 7d45 d4cd 1046 2408 af45
00000090: ec1d ab46 06fb d546 7805 1d47 cb9e 3346
000000a0: 75b6 5f45 ee14 2c46 6577 f046 c0f5 1647
000000b0: 0347 1646 666a 2746 aec4 ae45 bac8 5e45
000000c0: b1be a545 f2eb b944 76b7 0546 e99c af45
000000d0: a584 dc46 cede 0846 a6ca 1746 6a15 d045
000000e0: 1d6f 1346 d28d f946 8ad1 9146 26f6 e345
000000f0: efbd 9546 a0c2 1847 66c3 0346 282f ed45
564.7345 20522.406 1602.1791 1720.7694 22279.297 3412.9792 1246.8467 18563.234
17373.627 34243.45 5029.8403 10703.011 4198.1724 8028.625 9736.147 2352.955
8942.88 6876.7227 4312.0625 7290.0693 991.06274 14265.117 8178.748 5171.038
5972.064 45991.3 7009.735 7891.964 15313.236 30403.582 1061.5198 942.91504
1889.2922 4054.2307 9267.457 5601.0176 21902.96 27389.512 40197.47 11495.698
3579.4036 11013.232 30779.697 38645.75 9617.753 10714.6 5592.585 3564.5454
5303.8364 1487.3733 8557.865 5619.614 28226.322 8759.701 9714.662 6658.677
9435.778 31942.91 18664.77 7294.7686 19166.967 39106.625 8432.85 7589.8945

res_blocks.0.linear2.weight f4 [64, 64]
00000000: 08c0 bcbe 950e 9ebe 405c aabe 4ef6 b8be
00000010: 2332 243d 8f16 8abe fab2 693f 094b 1bbf
00000020: ec4a 3e3e 2ebd 63bf 47a8 48be e2c4 d43d
00000030: 1bd5 f43e 665f cc3e 4452 533e 50e0 a2be
00000040: e50d ad3e 4196 803d 0714 d53e 37f2 4a3b
00000050: 84e8 ca3c 02f7 9dbe 7531 4f3e 7e3a 1bbf
00000060: 7548 7e3e 6f10 d8bd 932f 7b3e efc2 cabe
00000070: 2db3 3ebf ee55 23bf cf74 b43d 8b74 c2bd
00000080: aa91 6bbc 567c a73e 6810 953e 4755 e53e
00000090: ac41 06bf a207 52bf e5c8 cabf d8d1 07bf
000000a0: 4fbf 04be 4d9b 083f d665 97bd 4a4b 02bf
000000b0: 7260 8abd 9e94 bc3e 3eb4 5a3a ed26 1bbd
000000c0: 771c 72be 4ed5 84be 17f3 093d c4fc 4d3e
000000d0: f4a1 93bc 312e 1abf 7841 fe3e 742f 07be
000000e0: e908 bc3e d85a 29bd 1949 153e 916b 863e
000000f0: caf0 4dbf ac0d b4bc 328a 3cbe f7d9 283e
00000100: 946b cf3e e474 c7bc 8515 a93e 2518 0d3f
00000110: af6d 883e b7c1 bf3e 373f afbe e64f 163d
00000120: 8dc9 2a3b b108 06bd e734 0a3e 196d 18be
00000130: a943 12be 2e7e 35bf ce83 043e 9e1b 393f
00000140: 8410 4fbf 05d7 633c 84df 063e 2793 a33d
00000150: 38b4 f0bd 6675 363f 8016 3cbf d50f 723f
00000160: f875 2c3e 40bc b83d c9df 9f3d e7c7 8e3e
00000170: bbaf 0f3e a76e ab3d c01a f6bd da1a d83d
00000180: ba17 f3bd e12e 0a3e bdd3 19bf 0644 28be
00000190: d94c 1d3e 6dff 8f3d 3277 d73d 07ad 563e
000001a0: 1f28 da3d 67df 96be 8c58 f7bb d181 b4bb
000001b0: 6b1e 573d a125 24bf bd4d b73d 9056 b33d
000001c0: 4989 3c3f b6f1 713e a766 f43d c78f 283b
000001d0: 70d6 5fbd 0df4 c53e a489 a3be 25a4 4b3d
000001e0: 3220 21bf e750 a43d b740 1b3e 3c2d 49be
000001f0: 0ba3 4c3e 5e49 1e3e afb2 843d 02e6 15bf
00000200: b7c2 923e 55d1 9c3d 6407 203d 7d4a 79be
00000210: 9789 e73d a355 d8bc 88ce 30be a7d8 3c3d
00000220: 3c52 51bc 1b4a 133e 164c 073d 3087 4dbd
00000230: 9aef 27bd 5d22 44bf 736a 673b 1d85 d83d
00000240: 4fd3 3bbf 315d 503c 3088 99bd 24da 6bbd
00000250: 4e4f 973c 2947 3d3e 653f 0cbf f92c 473f
00000260: 1d27 e4bb 9542 4e3d c20a 5fbd 9ce8 ab3f
00000270: b6ec 033c 39e3 613d 52a1 a53b 1456 b23d
00000280: d47c 4f3d 9284 113d 209f 27bf 998f 66bc
00000290: cc7c bc3d ece0 993d 0d57 323d b2ed a73f
000002a0: d3e0 57bd ecf6 debe 589d debb facd f5bd
000002b0: 8b29 2b3d f1d6 a2be 2103 0b3d 18b1 6e3d
000002c0: 931b e8bd fb68 143d a239 263d 9826 5abe
000002d0: f897 25be 6e6d c53f a0ed 30be 2cde fb3c
000002e0: c1c9 15bf 204e e73c 0e51 183d a94d 98be
000002f0: c138 bb3d bd1c 283d d41e 8c3f ee07 7bbd
00000300: 0dcb 48bd dec4 653e c133 1c3e cffe f93d
00000310: 7da3 1ebe 68f9 973d fd68 ffbd b37c 543d
00000320: f0a9 d1bd b342 ce3d 31e4 953d f1a9 0cbe
00000330: 52dd f3bd 78e4 60bf e074 0cbd b4b7 173e
00000340: cd51 73bf bd9f 143e 6797 25be 43ab 083e
00000350: 64be abbd a936 b53e cea2 6fbf 5a9c 913e
00000360: a57e 5abd 50a2 153e 8dc1 433d ccb8 1ebe
00000370: c4de 8e3d a1d4 8f3d 1680 06be 22a6 fd3d
00000380: 070d f33d a857 573d e62a 2bbf daba e43d
00000390: f05d 103e 126a cbbc 83a9 b13c 3904 1fbe
000003a0: 090a 373e be0d ffbe f2e6 823d ce33 573d
000003b0: d162 a13d 24d4 1dbf 39b3 e53d 5ffc 733e
000003c0: 1076 0e3e 3204 cb3d 353f 5fbc 86ba 3abe
000003d0: 1481 17bb 6b42 9e3d 5534 e4be a20e ef3d
000003e0: 55bc 46bf a258 fc3d 6a5f 103e e714 00bf
000003f0: 4605 413c 4253 083e b8b6 87be b508 45bf
-0.36865258 -0.308705 -0.33273506 -0.36125416 0.040086877 -0.26970336 0.9128872 -0.6066137
0.18583268 -0.8896054 -0.19595443 0.10389115 0.47818837 0.39916533 0.2063685 -0.31811762
0.33799663 0.06278659 0.41616842 0.0030967125 0.024769075 -0.30852515 0.2023371 -0.60636127
0.24832328 -0.105500095 0.24529867 -0.39601848 -0.7449215 -0.63802993 0.08811342 -0.09494885
-0.014377991 0.32712048 0.2911408 0.44791624 -0.5244396 -0.82042897 -1.5842558 -0.5305457
-0.12963603 0.5336197 -0.073924705 -0.5089613 -0.06756677 0.36832136 0.0008342898 -0.03787892
-0.23643671 -0.2594399 0.033679094 0.20115954 -0.018021561 -0.6022673 0.49659324 -0.13201696
0.36725548 -0.0413464 0.14578666 0.26253942 -0.8044554 -0.021979176 -0.18412092 0.16489397
0.40511763 -0.02434773 0.3302423 0.55114967 0.26646182 0.3745248 -0.34227917 0.03669729
0.0026060075 -0.032723133 0.13496743 -0.14885367 -0.14283623 -0.7089566 0.12940904 0.72307765
-0.80884576 0.013906245 0.13171202 0.079870515 -0.11753124 0.71272886 -0.7347183 0.9455541
0.16841877 0.09020281 0.078063555 0.27886888 0.1403188 0.08370715 -0.12016821 0.105519965
-0.1186976 0.13494445 -0.6008871 -0.16432199 0.15361346 0.070311405 0.105207816 0.20964442
0.10652184 -0.29467317 -0.0075483974 -0.0055086394 0.052519243 -0.6411992 0.08950374 0.08756745
0.7364698 0.23627362 0.11933642 0.0025720464 -0.054647863 0.38662758 -0.3194095 0.049717087
-0.6293975 0.080232434 0.15161406 -0.19646162 0.19984071 0.15457675 0.06479394 -0.5855409
0.2866418 0.076571144 0.03906955 -0.24344821 0.1130554 -0.026408022 -0.17266285 0.046105053
-0.012775954 0.14383738 0.033031546 -0.050177753 -0.040999986 -0.76614934 0.0035311251 0.10572264
-0.73369306 0.012717531 -0.07496679 -0.057581082 0.018470433 0.18484177 -0.5478423 0.77803
-0.0069626705 0.050356466 -0.05445362 1.3430362 0.008052042 0.055148337 0.0050546313 0.08707824
0.050656155 0.03552682 -0.6547718 -0.014072322 0.092034906 0.075136036 0.04354005 1.3119414
-0.052704643 -0.4354776 -0.006793659 -0.120021775 0.041787665 -0.31804612 0.03393853 0.05827436
-0.11333384 0.03623293 0.040582307 -0.21303785 -0.16171253 1.542402 -0.17278147 0.030745588
-0.5851098 0.028235495 0.037186675 -0.2974675 0.09141684 0.041043032 1.0946908 -0.06128686
-0.04902177 0.2243838 0.15254118 0.12206804 -0.15492053 0.07420617 -0.12471197 0.051876735
-0.10237491 0.100713156 0.07318915 -0.13736703 -0.11907448 -0.87848616 -0.03429115 0.14816171
-0.95046693 0.1451406 -0.16171037 0.13346581 -0.083859235 0.35393265 -0.93607795 0.284396
-0.053343434 0.14612699 0.047792006 -0.15500182 0.06976083 0.070229776 -0.13134798 0.12385203
0.11867719 0.05257383 -0.6686233 0.111684516 0.14098334 -0.024830852 0.021687275 -0.15528955
0.17874922 -0.49815172 0.063917056 0.05253964 0.07880176 -0.61651826 0.11215825 0.2382674
0.13912225 0.099129096 -0.01362591 -0.18235216 -0.0023117708 0.07727512 -0.44571176 0.11672713
-0.7763112 0.12321593 0.14098898 -0.50031894 0.011781042 0.1331301 -0.2650659 -0.7696641

res_blocks.0.linear2.bias f4 [64]
00000000: 4274 d2c0 23e5 d640 e22f 09c1 184e 8f40
00000010: 9238 2241 cf18 d3c0 7183 2241 8725 f540
00000020: 07aa 6ac0 6b6b cac0 3ba3 3f40 7518 0e41
00000030: 1402 1041 deb6 f7c0 4128 c4c0 64b7 ccc0
00000040: 3076 1341 f1ee 10c1 ca58 97c0 5592 fac0
00000050: 33fe 13c1 6dc6 5f40 c307 0541 9b3b 0fc1
00000060: 7a94 f840 9b48 0741 d43e cc40 4239 0f41
00000070: d0a4 fcc0 a2d5 2041 e592 0b41 4205 c0c0
00000080: c093 f6c0 9529 0cc1 539e 5c40 6af2 8d40
00000090: d600 c5c0 49f7 d940 fe63 b0c0 1a50 1141
000000a0: c272 17c1 512b b640 93a5 15c1 f59c fcc0
000000b0: e9cc ff40 f3c3 8c40 ec40 f9c0 8345 f640
000000c0: 7c99 eec0 73e9 f940 9cdd 1e41 0ea4 c240
000000d0: b391 c5c0 945b e3c0 a531 0ec1 769b f6c0
000000e0: ac8e fdc0 72c3 1cc1 1715 a8c0 621e 9d40
000000f0: f4ac ddc0 2541 8040 59fe d3c0 c027 a8c0
-6.5766916 6.715471 -8.57419 4.478283 10.138811 -6.5967784 10.15709 7.660831
-3.6666276 -6.3256125 2.9943378 8.880971 9.000507 -7.7410727 -6.129914 -6.3973866
9.216354 -9.058335 -4.7295885 -7.830363 -9.24956 3.496486 8.314395 -8.952052
7.7681246 8.455226 6.3826694 8.951479 -7.8951187 10.052156 8.723363 -6.000642
-7.705536 -8.760152 3.4471633 4.4358416 -6.156352 6.811436 -5.512206 9.082056
-9.465517 5.6927876 -9.352923 -7.89416 7.9937634 4.3989196 -7.789175 7.6959853
-7.456236 7.809747 9.929104 6.082526 -6.1740355 -7.104929 -8.88712 -7.706477
-7.923666 -9.797716 -5.2525744 4.909959 -6.9273624 4.007952 -6.6247983 -5.2548523

res_blocks.0.bn2.weight f4 [64]
00000000: 5a18 0b42 4520 0442 dcb9 1342 2df4 b741
00000010: 8251 1442 7505 0542 3c9c 1442 7822 1142
00000020: 9d2e d241 a88d ff41 d785 a541 2a9c 1442
00000030: 637b 1442 9894 0f42 3308 0042 5803 0342
00000040: d21c 1442 df9a 1242 1d17 e241 73c5 1242
00000050: 74fb 1342 5504 a541 c09f 1442 e29d 1442
00000060: f840 1442 506f 1442 876c fb41 e650 1242
00000070: 2c69 1142 a537 1042 851c 1042 2823 0342
00000080: 69ed 0e42 3c8a 1442 226d a641 ad33 b141
00000090: 45ed f841 dd06 0a42 b4e2 f041 36d1 1342
000000a0: ef11 1542 3be4 d841 04ac 1442 2ba1 1342
000000b0: be90 1042 151a c541 37ce 1142 7ca8 1342
000000c0: 7620 1342 e692 1242 0260 1442 0add e541
000000d0: 052d fe41 7783 0b42 fa5d 1442 f274 1342
000000e0: a1d5 1342 463d 1442 3d5a fc41 faca ba41
000000f0: 4a3d 0d42 1615 de41 0f0e 0e42 f27e e541
34.77378 33.031513 36.931503 22.994226 37.079597 33.25533 37.152573 36.28366
26.27276 31.944168 20.690351 37.152504 37.120495 35.89511 32.008007 32.753265
37.028145 36.65124 28.261286 36.69282 36.99556 20.627115 37.156006 37.154182
37.063446 37.108704 31.427992 36.579002 36.352707 36.05434 36.02785 32.784332
35.731846 37.134995 20.803288 22.150232 31.115854 34.506702 30.110695 36.954308
37.267513 27.11144 37.167984 36.90739 36.14135 24.637735 36.45138 36.914536
36.7817 36.643456 37.093758 28.73293 31.771982 34.878384 37.091774 36.864204
36.958622 37.059837 31.544062 23.34911 35.309853 27.760296 35.51373 28.686985

res_blocks.0.bn2.bias f4 [64]
00000000: 7054 1242 e08a 1042 e4a4 1242 4bc5 0742
00000010: 20dd 1242 6a4f 1142 28df 1242 d926 1142
00000020: 4b41 0c42 044f 1042 a4d6 0242 eae4 1242
00000030: a9aa 1242 6251 1142 ddc6 1042 f06d 1142
00000040: 6971 1242 5346 1242 4344 0e42 f105 1242
00000050: 3cf8 1242 497a 0242 82dc 1242 78cd 1242
00000060: af88 1242 6eba 1242 353b 0f42 233f 1242
00000070: ffda 1142 cd92 1242 0612 1142 fc61 1142
00000080: 9d15 1042 03d6 1242 21e8 0242 da61 0642
00000090: c558 1042 6277 0e42 71b9 0f42 81a7 1242
000000a0: 8023 1342 b8eb 0d42 4dc8 1242 96a1 1242
000000b0: dc4b 1242 97cf 0a42 832f 1242 1458 1242
000000c0: bf75 1242 a1ae 1142 a6c2 1242 a85f 0e42
000000d0: 3a62 1042 ea8e 1142 cfae 1242 7f9b 1242
000000e0: 15a9 1242 d7bc 1242 572e 1042 22a0 0842
000000f0: 228e 1242 b56c 0d42 2491 1242 5385 0e42
36.58246 36.13562 36.661026 33.94267 36.715942 36.327553 36.717926 36.287937
35.063763 36.077164 32.70961 36.72355 36.66666 36.329475 36.194202 36.35736
36.610752 36.568676 35.56666 36.505802 36.742416 32.61942 36.71534 36.700653
36.63348 36.68206 35.80782 36.561657 36.463863 36.64336 36.2676 36.345688
36.021107 36.708996 32.72669 33.59556 36.08669 35.616585 35.931095 36.663578
36.784668 35.480194 36.695606 36.6578 36.57408 34.702724 36.5464 36.586014
36.614986 36.420536 36.690086 35.593414 36.095924 36.389565 36.67071 36.65185
36.66512 36.684414 36.045254 34.15638 36.6388 35.35616 36.64174 35.6302

res_blocks.0.bn2.running_mean f4 [64]
00000000: c043 dbc0 6055 d840 f3b6 08c1 3122 8d40
00000010: ddcf 2141 bed0 dac0 3b64 2141 e981 f540
00000020: bdef 72c0 4385 c9c0 b7bc 3840 fd78 0e41
00000030: 173b 1141 fe08 fec0 c486 ccc0 7fb2 d2c0
00000040: a7f2 1241 74e1 11c1 bfb1 9bc0 5acb ffc0
00000050: 4227 15c1 cb9c 5740 e74d 0541 98de 0ec1
00000060: 8092 f540 26c0 0641 2f39 c940 3dde 0f41
00000070: ad04 00c1 c9a3 2441 d977 0b41 84b2 c5c0
00000080: bbca f6c0 df11 0dc1 bb57 5940 6ffb 8b40
00000090: 83b1 cac0 387a da40 2be6 b7c0 19c6 1041
000000a0: 32c1 19c1 8717 b440 4767 18c1 2343 00c1
000000b0: c94f fe40 e286 8840 9206 00c1 4b47 f540
000000c0: 9a63 f3c0 a012 f840 c87e 1d41 f588 c040
000000d0: 4e6d cac0 5610 e1c0 c0a4 10c1 d92b fac0
000000e0: 37df 01c1 5e49 1dc1 145a adc0 631b 9b40
000000f0: eaad d8c0 9634 7940 a3b7 d6c0 2bc4 adc0
-6.8520203 6.7604218 -8.544665 4.4104238 10.113248 -6.837981 10.08697 7.672108
-3.7958825 -6.2975173 2.8865182 8.904538 9.076926 -7.9385977 -6.391451 -6.584289
9.184241 -9.117542 -4.8654475 -7.993573 -9.322084 3.368945 8.331519 -8.929344
7.6741333 8.421911 6.2882304 8.991757 -8.001142 10.289987 8.71676 -6.1780415
-7.7122474 -8.816863 3.3959796 4.3744426 -6.334169 6.8274193 -5.7468467 9.048364
-9.609667 5.627872 -9.525214 -8.016391 7.9472394 4.266465 -8.001604 7.6649528
-7.6059084 7.7522736 9.843452 6.0167184 -6.325843 -7.033244 -9.040222 -7.8178525
-8.116996 -9.830412 -5.417246 4.847093 -6.7712297 3.8938346 -6.7099166 -5.4301963

res_blocks.0.bn2.running_var f4 [64]
00000000: 8797 0640 570f 523e 6f4c 9d3d 813d 9b3f
00000010: ad18 ac3d 469c bb3f 916d 563d 08ef bc3d
00000020: 5ee5 8d3f 4289 923f 5e90 933f be6e 243d
00000030: c737 fc3c 834a 933f be7c ae3f 1f90 e33f
00000040: c1e8 b23d 44c9 8e3f 9fb3 a53f 4644 783f
00000050: 55b3 2c3f 82c6 a43f d137 153d e597 d23c
00000060: 2803 cc3d 322a f43c 2db3 273f 3ad0 013d
00000070: f0c9 7a3f 7c0b 353e 066c 923d 2b84 b43f
00000080: 2582 013e f4e6 9b3d e9ac 963f 21d7 9a3f
00000090: c64c b73f 14df 263e 7f71 bf3f 8e66 8c3d
000000a0: 6ae7 923e 5c15 8c3f d41b 603e 0721 213f
000000b0: 43bc bb3d 0c38 893f 3588 8a3f a7aa a73d
000000c0: b204 643f e03e 0b3e ba38 c23d db14 4e3f
000000d0: c444 9b3f e009 373d dcbc c53e fbad 3e3f
000000e0: c43b 0c3f 641a 513d 6fef 983f 6b28 963f
000000f0: b616 903f f924 433f 86b3 933f b379 9c3f
2.1029985 0.20513664 0.07680594 1.2128145 0.08403144 1.4657066 0.052350584 0.09225279
1.1085622 1.1448138 1.1528432 0.040144674 0.030788315 1.1507114 1.3631818 1.7778357
0.087358005 1.1155171 1.2945441 0.96979177 0.6746114 1.287308 0.036430184 0.025707195
0.099615395 0.029805277 0.65507776 0.03169272 0.9796438 0.17680162 0.0714951 1.4102834
0.12647302 0.0761241 1.1771518 1.2096902 1.4320304 0.16296035 1.4956511 0.06855498
0.2869218 1.0944018 0.21885616 0.6294102 0.091667674 1.0720229 1.0822817 0.08186846
0.89069664 0.13598204 0.09483476 0.8050057 1.2130361 0.044687152 0.3862065 0.74484223
0.54778695 0.05105056 1.1948069 1.1731085 1.1256931 0.7622829 1.1539161 1.222464

res_blocks.1.linear1.weight f4 [64, 64]
00000000: d3d1 d93e 9e68 fd3d 9297 313e 902e f7bc
00000010: 427d 6ebd 3822 8b3e c69f fb3a 1462 013d
00000020: c58e 663d 28fc 813e c894 3d3e 4835 133e
00000030: 7d2b 623d 8bc0 c1bd b1ca ef3e b0e1 1a3f
00000040: e6b3 583e 792f d63e 74a6 e13e db6b 563e
00000050: 7c82 a03e d105 aabc 8a07 093e 17c7 c23c
00000060: 0b65 2d3e 8346 f73c 9f0d 693c 402c 9b3d
00000070: 99b7 edbc 1de1 2ebe 34e6 1c3e c3a0 8a3e
00000080: 708f 883d bc0b d53d a864 993d 2561 bd3d
00000090: 1c2c 113f 2671 413e d179 413f dc1a 9bbc
000000a0: 3e9b d53e 33d6 e43d 5c46 ee3e 196a 413e
000000b0: 961d 903d b4b9 bcbd 44ff cc3d ac77 023e
000000c0: 7b41 9b3e f37a 6339 c109 7bbc 348b bb3d
000000d0: 07cf ca3e a420 1d3e 6666 13bd 87c7 653e
000000e0: 4f53 0c3e 506e 663d 9c05 25bd 0c2f c33d
000000f0: 6aa5 453e f6da 4b3e 3e89 cd3e a465 aa3e
00000100: 221e 943d c13a 8f3e f0ff fabd cbbb 1d3e
00000110: 7b07 6dbe 8b97 8b3d e27a 323d e6f2 7dbc
00000120: 142a a43e f51a 943d 3090 b13e b81e 693d
00000130: 49b0 a23d 0011 233e a4c8 843d 0f1c 89bd
00000140: 270f b1bd 03d4 123b 5d69 393e b17e 423e
00000150: f43e 253c 1aab 4d3e 2b0d 663e 55d9 59be
00000160: 8c99 6cbe 5beb 64bd 2c70 c13d 3029 78bc
00000170: bb08 343e e3e2 43bf d117 25be b326 0bbd
00000180: 08c3 54be 38da 4a3e 71de 313e 61ad 973e
00000190: 07a7 b43c e1e0 eebd 78d0 acbd 1faa c7bd
000001a0: 5aa6 e23d af7e 023e 9d87 373e e6ce 93bc
000001b0: e5b6 ae3e f005 fa3d 5c3e c0bd 8028 d6bc
000001c0: 1bd5 27bb 28bb 69be 2e42 c43d ee28 aa3e
000001d0: d839 febb c7eb 7a3e 5066 35bd 9195 9b3d
000001e0: 7121 0d3c 9f63 d6bd 1f0a 093e 778a 103e
000001f0: f111 413e 774f d63d 459e 1b3e 09c2 303e
00000200: 77e4 9ebe 687e 75bc 6853 183c b467 82bd
00000210: f929 3dbc 8f72 babe 8e33 d8bc 8996 753d
00000220: a055 20be 8309 d5be ca75 42be a792 a1bd
00000230: 9a60 55bd 112a d23e c007 babe ccc4 e1be
00000240: 2a29 ac3d a557 a83e 16cf 23bf 5b1d bd3e
00000250: 0b75 5e3e 3b14 09be 3373 a63d 4d6b 033e
00000260: 76ee e0bd a564 36bd 8dfb 03bd 9d03 353c
00000270: 1505 f93e 87c4 b23e 5329 a53d ac5b d6be
00000280: d947 ea3d a894 ed3c ebce c9bd 5cfb 08bd
00000290: 8344 ecbe d76c a93d 3a60 07bf bf2c 3dbd
000002a0: 1ac0 c3bb c6bb 21be f770 873e b43a 843e
000002b0: 7747 fcbc 6c1e aabd 0812 9a3e ae65 00bc
000002c0: 7cee 8d3e 723e 53bd bfb9 10be 9ffb 9cbd
000002d0: 6abf d5be ca31 22bd c6e4 603e 8c20 9d3e
000002e0: 96a2 8a3e 45ad 313c 7967 dabe 9f92 ffbc
000002f0: d0ef 08be 6e38 a8bd 79ea 7dbe a098 1fbf
00000300: fba2 a93b 15c4 59be 925b 153e ee22 06bf
00000310: f868 51bd 2b68 b6bd b8a6 f3bc 3b36 853e
00000320: 4772 bbbe 22a6 7f3c 0cea 26bf 3c55 f5bd
00000330: 640a a63c 7b51 893d 8e31 80bd dc13 0abe
00000340: 85b5 43bd be85 47bc 43fe b0bd 8ea2 e4bd
00000350: 973f ecbd a0e3 33bf 2b06 2738 da07 843d
00000360: 3560 dfbc 0b90 653d 4fe9 e1bd 0518 15bd
00000370: 81ed 623c e574 3a3e bfba 853e 3164 333d
00000380: d612 b53e 5f43 883d 6ddb 4dbf 0da9 09bf
00000390: 686f 8abc f12b e83e 8c56 a6bd b80a 803d
000003a0: 912d f7bb 406c b3be f582 953c 8a69 513c
000003b0: c3f1 36bc ad94 04bf c473 01be 960a 253e
000003c0: 89b4 0fbd de0c 963d 17a1 39bd 8a06 61be
000003d0: 4b08 18be d7f3 08be 8f11 5fbc bbcb b63c
000003e0: 715d 6e3d c372 9c3d 2b26 1ebe ea76 dfbe
000003f0: 2d3e c0bd 04b0 b1be 197e d9bd 87cb f7bd
0.42542896 0.1237347 0.17342976 -0.03017357 -0.058224924 0.27174544 0.0019197396 0.031587675
0.0562885 0.25387692 0.18513787 0.14375794 0.055217255 -0.09460553 0.4683433 0.6050062
0.21162376 0.41833094 0.44072306 0.20939581 0.31349552 -0.020754727 0.13381782 0.023776574
0.16933076 0.03018499 0.014224439 0.075767994 -0.02901821 -0.17078061 0.1532219 0.27075776
0.066679835 0.10402629 0.07489902 0.092470445 0.5670793 0.18890819 0.755765 -0.018933706
0.41720003 0.11173668 0.46538055 0.1888813 0.07036893 -0.092151076 0.100096256 0.12740964
0.30323395 0.00021694209 -0.01532215 0.0915741 0.39611074 0.15344483 -0.035986327 0.22439395
0.13703655 0.056257546 -0.040288553 0.09530458 0.19301382 0.19907746 0.4014377 0.3328067
0.0723231 0.27974513 -0.122558475 0.15403669 -0.23147385 0.06816014 0.04357422 -0.015499806
0.32063353 0.07231704 0.3468032 0.05691406 0.0794378 0.15924454 0.06483582 -0.06694805
-0.08645468 0.00224042 0.18106599 0.18993641 0.01008581 0.20084801 0.2246596 -0.21274312
-0.23105448 -0.055888515 0.09445223 -0.015146539 0.17581455 -0.76518077 -0.16122366 -0.033972453
-0.20777524 0.19809806 0.17370011 0.29624465 0.022052301 -0.11663986 -0.084382 -0.09749245
0.11066885 0.12743638 0.17922826 -0.018042993 0.34123912 0.12208164 -0.09386894 -0.026142359
-0.0025609198 -0.228253 0.09582935 0.33234352 -0.0077583604 0.24504004 -0.044287026 0.07596887
0.00861393 -0.1046822 0.13382767 0.1411532 0.188545 0.104643755 0.15197094 0.17261519
-0.3103368 -0.014983751 0.009297229 -0.06367436 -0.011545652 -0.36415526 -0.02639177 0.059958015
-0.15657663 -0.4160882 -0.18990245 -0.078893 -0.05209408 0.4104772 -0.36334038 -0.44095457
0.08406289 0.32879367 -0.63987863 0.3693646 0.21724336 -0.13386624 0.08127441 0.12833901
-0.10982983 -0.044529576 -0.03222232 0.011048225 0.4863669 0.34915563 0.080645226 -0.41866815
0.11439485 0.029001549 -0.098539196 -0.03344284 -0.4614602 0.08272713 -0.52881205 -0.04618525
-0.005973828 -0.15794286 0.26453373 0.25826037 -0.030795796 -0.08306584 0.30091882 -0.007836742
0.27721012 -0.051573224 -0.14133357 -0.076651804 -0.417476 -0.039598264 0.2196227 0.30688894
0.27077168 0.010844533 -0.42657068 -0.031197844 -0.13372731 -0.08213888 -0.24796475 -0.6234226
0.0051768995 -0.21266206 0.14585713 -0.5239705 -0.051125497 -0.08906587 -0.029742584 0.26017937
-0.36610624 0.015603574 -0.6520088 -0.11979148 0.020268627 0.06704994 -0.06259452 -0.13484138
-0.047780532 -0.012177883 -0.086422466 -0.11163817 -0.11535566 -0.70269203 3.9821647e-05 0.0644681
-0.027267555 0.056045573 -0.11030828 -0.03639986 0.013850571 0.18208654 0.26119038 0.04379672
0.35365933 0.06653475 -0.8041294 -0.53773576 -0.016898826 0.45346025 -0.08121976 0.062520444
-0.0075432737 -0.35043526 0.018250922 0.01278151 -0.011166039 -0.5178936 -0.12641817 0.1611732
-0.03508428 0.07326673 -0.045319643 -0.2197515 -0.14846914 -0.13374268 -0.013615026 0.022313943
0.05819458 0.076390766 -0.15444247 -0.43645412 -0.09386859 -0.34704602 -0.10619754 -0.12099367

res_blocks.1.linear1.bias f4 [64]
00000000: e6d7 3abe 5275 d7bd 2015 213e 2f1e eb3e
00000010: e3de f53d f548 903e 8953 3b3e f7ae 82be
00000020: 8ae8 8a3d 861b 8fbe e4a1 f0bc d73e 60be
00000030: c693 513d f05d 81be 1492 3a3e 75a4 06bc
00000040: 3a56 e43c aed5 813e ff78 bb3d 31a8 a13e
00000050: d6cc 53bd aec6 af3e b166 11be ed27 a03c
00000060: 979b 08be 0663 1b3d 105f 123f 4d38 ea3d
00000070: caf6 ad3d a5a0 413d 2937 ea3e 2673 fbbc
00000080: 9df0 8ebb 0917 4f3e 8b3d 803e 8e5b b23d
00000090: 7377 c1bd da40 8f3c 5a48 f23e 01e5 73bd
000000a0: 823f 643e 3ced f1bc 2eb7 ce3c b532 3c3c
000000b0: b3e3 a63d fb08 003f d440 a63e 38b0 b23d
000000c0: 4221 113f dd84 10be 0259 6f3e ab00 b6bd
000000d0: 3189 f03d ccf0 8bbe 5384 e13e 6aef f93e
000000e0: 177e fe3d eae3 943e cc06 59be 885c 903d
000000f0: b452 08bc caca 223c eff3 253a 3df0 5a3e
-0.18246421 -0.10520424 0.15730715 0.45921466 0.12005403 0.28180662 0.18293585 -0.25524113
0.067826346 -0.27950686 -0.02937407 -0.21898971 0.05116632 -0.2526698 0.18219787 -0.008217921
0.027873147 0.25358337 0.091539375 0.31573632 -0.05170902 0.34331268 -0.1419933 0.019550288
-0.13340603 0.037936233 0.57176304 0.1143652 0.08494337 0.047272343 0.4574521 -0.030694555
-0.0043621794 0.20223631 0.25046954 0.08708869 -0.09446611 0.017486978 0.47320825 -0.059544567
0.22289851 -0.029532067 0.025233831 0.011486699 0.08148899 0.50013703 0.32471335 0.08725017
0.5669137 -0.14113183 0.23373798 -0.08886846 0.11744917 -0.2733215 0.44046268 0.4881547
0.124263935 0.29080135 -0.21193999 0.07048899 -0.008320499 0.009936044 0.00063305994 0.21380706

res_blocks.1.bn1.weight f4 [64]
00000000: 112e f33e abab 553e 12f5 183f bbbe 053f
00000010: 45b2 3e3f 45c0 d93e 0c4e 0d3f 8a72 1a3f
00000020: f7cd 0d3f 8d18 ee3e 8490 e13e 4ea1 383f
00000030: 01da 023f 1256 0b3f 8177 293f dd35 533f
00000040: 630f 113f 0b4d 2a3f c0c9 1e3f fc9e 453f
00000050: f1ee 0e3f d036 2d3f c691 0a3f 67be 043f
00000060: 228e ce3e 00c0 b43e d1e0 333f 83f3 553f
00000070: 4871 003f abd2 083f 664b 1a3f aea0 f73e
00000080: b66b cf3e f909 1a3f aaa0 ef3e 5e13 253f
00000090: 9b42 1d3f aeaa c03e 4078 133f fd63 e63e
000000a0: 3e7f d23e 2429 333f ce88 163f 6afd d23e
000000b0: cb45 163f e2c5 193f 1492 bd3e 2ce6 f53e
000000c0: d66f 2e3f ae8d c83d 9f7f cf3e 10b5 a13e
000000d0: 8256 b83e 070f b23e 7675 273f 623e d33e
000000e0: aa5f 0b3f 5f6c bc3e 66d9 c53e f04a fc3e
000000f0: 2006 2e3f 7318 543f 2b98 983e 9013 133f
0.47496083 0.20866267 0.5974895 0.52244157 0.7449077 0.42529503 0.55197215 0.6033102
0.553924 0.46503106 0.4405557 0.7212113 0.511139 0.5442821 0.66197973 0.82504064
0.56664103 0.6652381 0.62026596 0.77195716 0.55833346 0.6766176 0.5412868 0.5185303
0.40342814 0.35302734 0.7026492 0.83574694 0.50172853 0.53446454 0.602713 0.48364776
0.40511864 0.6017147 0.46802264 0.64482677 0.61429757 0.37630218 0.5760536 0.4499816
0.41112703 0.6998465 0.588025 0.41208965 0.58700246 0.6006757 0.3702551 0.4802717
0.681394 0.09792648 0.40527055 0.31583452 0.360035 0.3477709 0.65413606 0.41258532
0.54442847 0.3680143 0.38642424 0.49275923 0.67978096 0.82849807 0.29803595 0.57451725
