model/poly_resnet_aug.pt (torch, 169397 bytes, 44 tensors)

input_layer.0.weight f4 [64, 118]
0.10094278 0.10353295 0.040755372 0.0183545 0.057444848 -0.000896882 0.037322644 0.016946113
-0.009242998 0.011772071 0.038894523 0.081459336 -0.024216548 -0.039538022 -0.048849057 0.06971522
0.0847651 0.110953264 0.074238665 0.07514717 0.026987828 0.0071256845 0.071688116 0.08226962
0.115620755 0.014531693 -0.019379225 -0.0047966433 0.079825215 -0.0018000739 0.12387844 0.0028764983
0.056628115 0.100003466 0.1378047 -0.008466194 0.020931536 0.013608981 0.01851355 0.029581545
0.014962058 -0.023046622 0.013600925 0.09804995 -0.101801455 0.07499583 0.022524409 -0.033342496
-0.004037938 0.027512247 0.017719744 0.01171425 0.032037556 -0.0053359848 0.03780978 0.04852267
-0.025830638 0.0823778 0.06599733 0.112993665 0.09416204 0.098298214 -0.035590585 -0.003989988
-0.0046174745 -0.025497599 0.04946543 -0.12480909 -0.0127489865 0.0657579 -0.022566726 0.002768477
-0.03589968 0.1287987 0.032030117 0.067765996 0.04049595 0.102286465 0.050052162 -0.0404848
0.08187524 -0.0435282 0.043370534 0.04197118 0.07087903 0.064702325 0.013959726 -0.05132645
-0.0038531022 -0.00235071 0.014249447 0.12800361 0.043159865 -0.010296798 -0.02941999 -0.015482924
0.04205485 -0.049156304 -0.0071337875 -0.035409473 0.003928362 0.09316387 0.007456671 0.049750708
-0.04340549 0.043030817 0.07695605 -0.04723784 -0.004545399 -0.038647614 0.044884156 0.04444294
0.045235373 0.02047145 0.041101478 -0.044275567 -0.045671284 -0.0021021497 0.018346481 0.093152575
0.10238104 -0.015849933 0.11978975 0.09839618 0.018710036 0.10145569 0.068056285 0.001734117
0.03932434 0.050152335 0.076621935 -0.018652534 -0.016045138 0.04896666 0.036393616 -0.03930629
0.10974327 -0.0014803511 0.082856394 0.0864218 0.119840674 0.012256709 -0.00039285142 0.036037438
0.012385155 0.055493463 0.024515575 -0.022164028 -0.014423824 0.00014162743 0.017202334 0.10337187
-0.021084318 0.017038692 -0.00730733 0.04930804 0.0713843 0.029056266 0.08914857 0.12269188
-0.050814297 0.052429102 -0.041843895 -0.019473892 0.029382562 0.028495112 0.055745564 0.05537321
0.04939516 0.07391146 0.093799554 -0.019736726 0.04562944 0.072457865 -0.011040803 -0.027081313
0.099100985 0.06331326 0.019903848 0.046851177 0.020522373 0.008244087 0.032038085 0.01978007
0.048334662 -0.111682326 0.104470864 0.022343842 -0.022028655 0.07547445 0.05806798 0.025293259
0.098450124 -0.040927462 0.01576955 -0.020560546 0.04388843 -0.032735035 0.0020991494 -0.03413678
-0.0033796872 0.04937928 0.011511227 0.06418556 0.057127032 -0.024946613 0.015085036 -0.039881863
0.097977094 0.09318742 0.03860556 0.121139586 0.017466739 0.018682813 0.002179969 0.048300423
-0.01344887 -0.0007274225 0.0148809 0.0038588706 -0.043194354 0.079846695 -0.042167753 0.02820423
0.002316911 -0.020440103 -0.011896164 0.019199805 0.08522146 0.0064600445 -0.039944 0.027142027
0.065687425 0.006806617 0.0009515424 0.033809084 0.04350349 0.10831178 0.004625974 -0.06256862
0.039319538 0.08730174 0.034013815 0.11976018 -0.016872484 0.11506374 0.03152182 -0.03381279
0.0569627 -0.054199766 -0.03584705 7.646225e-05 0.062361035 0.04064261 0.04315171 0.031382322
00000000: 17bb ce3d 1509 d43d 1bef 263d 2d5c 963c
00000010: 4a4b 6b3d bb1c 6bba a1df 183d 93d2 8a3c
00000020: f26f 17bc a5df 403c dd4f 1f3d 27d4 a63d
00000030: c861 c6bc 9ff2 21bd f315 48bd dac6 8e3d
00000040: 5399 ad3d 773b e33d 710a 983d c2e6 993d
00000050: 9415 dd3c 937e e93b 38d1 923d f97c a83d
00000060: 93ca ec3d 5716 6e3c 2ec1 9ebc 292d 9dbb
00000070: 677b a33d 75f0 ebba fbb3 fd3d a283 3c3b
00000080: e2f2 673d 9ece cc3d ad1c 0d3e cbb5 0abc
00000090: 9d78 ab3c 34f8 5e3c baa9 973c ff54 f23c
000000a0: 6b23 753c 45cc bcbc 6ad6 5e3c 6ace c83d
000000b0: 487d d0bd 6a97 993d 1c85 b83c 2492 08bd
000000c0: ae50 84bb 5d61 e13c ff28 913c 20ed 3f3c
000000d0: d039 033d 7cd9 aebb 6ede 1a3d b5bf 463d
000000e0: c69a d3bc b1b5 a83d 9c29 873d 3969 e73d
000000f0: 07d8 c03d 9350 c93d 6fc7 11bd 72be 82bb
00000100: 2f4e 97bb 57e0 d0bc 439c 4a3d e89b ffbd
00000110: 20e1 50bc 14ac 863d dbdd b8bc 566f 353b
00000120: 8b0b 13bd cee3 033e 0332 033d e6c8 8a3d
00000130: 15df 253d 917b d13d 7f03 4d3d 64d3 25bd
00000140: 35ae a73d a04a 32bd 4da5 313d f9e9 2b3d
00000150: 0629 913d a782 843d 56b7 643c af3b 52bd
00000160: 5484 7cbb 5f0e 1abb 8376 693c 6113 033e
00000170: 66c8 303d e7b3 28bc 3102 f1bc 17ac 7dbc
00000180: b541 2c3d 1f58 49bd 8cc2 e9bb 8609 11bd
00000190: 7db9 803b b3cc be3d 1757 f43b 66c7 4b3d
000001a0: f5c9 31bd 1541 303d 229b 9d3d 777c 41bd
000001b0: 92f1 94bb f64c 1ebd 73d8 373d cd09 363d
000001c0: ba48 393d beb3 a73c 065a 283d 4c5a 35bd
000001d0: d011 3bbd 38c4 09bb 5c4b 963c c7c6 be3d
000001e0: 27ad d13d b8d7 81bc 5454 f53d f083 c93d
000001f0: ca45 993c 00c8 cf3d 1861 8b3d 504b e33a
00000200: 8f12 213d 896c 4d3d f6eb 9c3d 33cd 98bc
00000210: 1871 83bc 4491 483d 7911 153d a2ff 20bd
00000220: 14c1 e03d 5708 c2ba 9db0 a93d eafd b03d
00000230: 076f f53d 5dd0 483c a0f7 cdb9 fe9b 133d
00000240: 1beb 4a3c 1d4d 633d e3d4 c83c 5691 b5bc
00000250: e751 6cbc d381 1439 e9eb 8c3c a2b4 d33d
00000260: 05b9 acbc ba94 8b3c 5472 efbb 3af7 493d
00000270: ef31 923d 6807 ee3c 8793 b63d e145 fb3d
00000280: a722 50bd e6bf 563d 8164 2bbd b687 9fbc
00000290: b3b3 f03c 956e e93c 7655 643d 05cf 623d
000002a0: 9452 4a3d e45e 973d fb19 c03d eaae a1bc
000002b0: f0e5 3a3d ca64 943d 7ce4 34bc a1d9 ddbc
000002c0: 75f5 ca3d 62aa 813d 650d a33c 05e7 3f3d
000002d0: 891e a83c 3512 073c 5e3a 033d d009 a23c
000002e0: 91fa 453d b4b9 e4bd d2f4 d53d 6f0a b73c
000002f0: 7075 b4bc 5992 9a3d b1d8 6d3d cf33 cf3c
00000300: 38a0 c93d 8ea3 27bd 252f 813c 976e a8bc
00000310: 5bc4 333d 2c15 06bd e291 093b 02d3 0bbd
00000320: be7d 5dbb ee41 4a3d 9699 3c3c b873 833d
00000330: 09fe 693d d75c ccbc 3a27 773c 2a5b 23bd
00000340: 37a8 c83d 0cd9 be3d dd20 1e3d 0818 f83d
00000350: 6816 8f3c b30c 993c d0dd 0e3b aad6 453d
00000360: a658 5cbc 7fb0 3eba 05cf 733c 1be5 7c3b
00000370: 90ec 30bd aa86 a33d 18b8 2cbd 8f0c e73c
00000380: 51d7 173b 0172 a7bc 21e8 42bc e948 9d3c
00000390: 9788 ae3d c8ae d33b 529c 23bd f558 de3c
000003a0: 2187 863d 0b0a df3b ee70 793a 657b 0a3d
000003b0: b730 323d 91d2 dd3d 7c95 973b fa23 80bd
000003c0: 860d 213d 41cb b23d 1252 0b3d d344 f53d
000003d0: 2a38 8abc 8aa6 eb3d 061d 013d 487f 0abd
000003e0: b851 693d 9300 5ebd 5bd4 12bd 5c5a a038
000003f0: 496e 7f3d de78 263d d9bf 303d c08a 003d

input_layer.0.bias f4 [64]
-0.027920421 -0.040221725 0.048640218 -0.009478021 0.084701434 0.08009554 -0.037148904 0.048110057
-0.09027835 0.0054247915 0.042578414 -0.06034364 0.07881864 0.10031201 0.0070782863 0.016531223
0.06768386 0.11201016 -0.074730545 -0.047013905 0.05139825 0.034702692 -0.07268105 -0.011845726
0.085165545 0.08243037 -0.058194403 -0.06299524 0.04211071 0.046392202 -0.018809855 0.038722567
-0.10582313 -0.008619037 -0.02574262 0.019433793 -0.104992166 0.02133599 -0.03112371 0.001645495
0.068795666 0.06479375 -0.05155361 -0.07475761 -0.038722336 -0.03554458 -0.040780265 0.026088726
-0.0159949 -0.11363619 -0.04245944 0.040571716 -0.037883386 0.08113379 0.04817586 0.013062345
0.05057493 0.07971361 -0.06846557 -0.07460975 0.017551828 -0.024874814 0.054726772 0.032760818
00000000: 5eb9 e4bc 89bf 24bd f73a 473d b449 1bbc
00000010: f277 ad3d 2109 a43d 7329 18bd 0d0f 453d
00000020: dbe3 b8bd 73c2 b13b b466 2e3d e52a 77bd
00000030: ab6b a13d 6270 cd3d f8f0 e73b 7d6c 873c
00000040: d69d 8a3d 9565 e53d 540c 99bd a791 40bd
00000050: f986 523d 6924 0e3d cdd9 94bd 9314 42bc
00000060: 466b ae3d 41d1 a83d 415d 6ebd a603 81bd
00000070: 487c 2c3d c005 3e3d 2017 9abc 8e9b 1e3d
00000080: ccb9 d8bd dd36 0dbc 30e2 d2bc 9e33 9f3c
00000090: 2206 d7bd d0c8 ae3c 27f7 febc a6ad d73a
000000a0: bee4 8c3d 96b2 843d e129 53bd 851a 99bd
000000b0: 509b 1ebd 3297 11bd 3509 27bd 06b8 d53c
000000c0: bd07 83bc 17ba e8bd f3e9 2dbd 872e 263d
000000d0: 9c2b 1bbd 7929 a63d 0d54 453d 7203 563c
000000e0: a827 4f3d e440 a33d ad37 8cbd ffcc 98bd
000000f0: dac8 8f3c 44c6 cbbc 2e29 603d 3530 063d

input_layer.1.weight f4 [64]
1.5385638 1.4854149 1.4951837 1.6033835 1.5884099 1.5468726 1.5750465 1.5821408
1.550935 1.5213691 1.533476 1.5707432 1.5364819 1.6262594 1.5153329 1.5416464
1.6256535 1.5600576 1.5689056 1.5130435 1.5633762 1.5639869 1.5924484 1.5585965
1.6173687 1.5843798 1.5108675 1.5932001 1.5873588 1.4901705 1.1900594 1.6245329
1.611746 1.5873064 1.5410323 1.4881693 1.5597416 1.6227765 1.4947054 1.533192
1.5642436 1.5405203 1.5783628 1.5612781 1.5644578 1.5527021 1.5581292 1.5901641
1.5835664 1.5422523 1.5906656 1.5287619 1.5624763 1.6025141 1.5272112 1.5259119
1.6157097 1.5765649 1.5519751 1.5335195 1.6091126 1.5900044 1.5736065 1.6142089
00000000: a9ef c43f 1322 be3f 2e62 bf3f ac3b cd3f
00000010: 0451 cb3f ecff c53f 209b c93f 9783 ca3f
00000020: 0a85 c63f 39bc c23f f148 c43f 1d0e c93f
00000030: 70ab c43f 4529 d03f 6ef6 c13f ab54 c53f
00000040: 6a15 d03f f8af c73f e6d1 c83f 69ab c13f
00000050: b61c c83f b930 c83f 59d5 cb3f 1780 c73f
00000060: f005 cf3f f5cc ca3f 1b64 c13f fbed cb3f
00000070: 932e cb3f e8bd be3f de53 983f b2f0 cf3f
00000080: b14d ce3f db2c cb3f 8c40 c53f 557c be3f
00000090: 9da5 c73f 24b7 cf3f 8252 bf3f a33f c43f
000000a0: 2239 c83f c52f c53f cb07 ca3f f6d7 c73f
000000b0: 2740 c83f f1be c63f c770 c73f 7f8a cb3f
000000c0: 4eb2 ca3f 8668 c53f ee9a cb3f 78ae c33f
000000d0: 39ff c73f 2f1f cd3f a87b c33f 1551 c33f
000000e0: 93cf ce3f e1cc c93f 1fa7 c63f 5e4a c43f
000000f0: 67f7 cd3f 4485 cb3f f06b c93f 669e ce3f

input_layer.1.bias f4 [64]
0.55040824 0.57553434 0.6016218 0.54829633 0.62690276 0.57299036 0.5926106 0.5936439
0.5867941 0.5344103 0.60183775 0.57319826 0.6102942 0.5900965 0.5553235 0.5986592
0.65562004 0.5972955 0.5763881 0.6115334 0.6025603 0.63064057 0.598331 0.60848135
0.57438296 0.6216179 0.61549294 0.60047096 0.640965 0.5786428 0.4467541 0.5943509
0.61447376 0.6214736 0.58282053 0.7305505 0.5810851 0.6345676 0.58651775 0.61273175
0.5910948 0.5638186 0.5230708 0.6112998 0.5801041 0.57553756 0.57702833 0.513559
0.5858989 0.62422603 0.5737697 0.6292518 0.5633092 0.6218888 0.57733303 0.6546694
0.622829 0.5778775 0.5872758 0.60159594 0.655856 0.5922009 0.67163336 0.57315606
00000000: 8ee7 0c3f 3856 133f e303 1a3f 265d 0c3f
00000010: b37c 203f 7faf 123f 54b5 173f 0cf9 173f
00000020: 2338 163f 1dcf 083f 0a12 1a3f 1fbd 123f
00000030: 3e3c 1c3f 9010 173f ae29 0e3f bb41 193f
00000040: b7d6 273f 5ce8 183f 2c8e 133f 748d 1c3f
00000050: 6441 1a3f a971 213f 382c 193f 6fc5 1b3f
00000060: c30a 133f 5a22 1f3f f290 1d3f 77b8 193f
00000070: 4816 243f ef21 143f f4bc e43e 6127 183f
00000080: 274e 1d3f e518 1f3f ba33 153f 5c05 3b3f
00000090: fec1 143f 0673 223f 0726 163f fddb 1c3f
000000a0: fd51 173f 6a56 103f f8e7 053f 257e 1c3f
000000b0: b481 143f 6e56 133f 21b8 133f 9a78 033f
000000c0: 78fd 153f 47cd 1f3f 92e2 123f a516 213f
000000d0: 0835 103f 1b34 1f3f 19cc 133f 6a98 273f
000000e0: b971 1f3f c8ef 133f b557 163f 3102 1a3f
000000f0: 2ee6 273f 7a9a 173f 2af0 2b3f 5bba 123f

input_layer.1.running_mean f4 [64]
-0.06254092 -0.067913376 0.00025078646 0.040054917 0.10834989 0.03345522 0.021657372 0.0057774517
-0.13879363 -0.031045524 0.0063000727 -0.1098035 0.047931585 0.15221287 -0.037033252 -0.02307536
0.1229675 0.07656053 -0.12359869 -0.063070625 0.0094501395 -0.007077862 -0.02170492 -0.04163219
0.13502358 0.049670726 -0.07856538 -0.023185028 0.0876246 0.012037255 0.0079498775 0.08681921
-0.04632142 -0.04766765 -0.06863765 -0.020086814 -0.14554659 0.063483514 -0.06770022 -0.039978508
0.02661599 0.022268446 0.0014641036 -0.10374763 -0.07441491 -0.08285498 0.0068180603 0.0699707
0.038007416 -0.15670271 0.00614478 0.0033589827 0.0098309675 0.1323346 -0.0059097526 -0.019683091
0.083956584 0.14102906 -0.10685721 -0.10118337 -0.016876707 0.023199294 0.023187434 0.08432163
00000000: 7415 80bd 2b16 8bbd fd7b 8339 a010 243d
00000010: 8ce6 dd3d 5708 093d cd6a b13c c750 bd3b
00000020: eb1f 0ebe 2f53 febc d770 ce3b a8e0 e0bd
00000030: e953 443d b1dd 1b3e 2eb0 17bd 8a08 bdbc
00000040: 62d6 fb3d c4cb 9c3d 4f21 fdbd 2c2b 81bd
00000050: c2d4 1a3c 69ed e7bb 84ce b1bc 8486 2abd
00000060: 9f43 0a3e 8873 4b3d e3e6 a0bd 87ee bdbc
00000070: 8774 b33d e837 453c 3440 023c 45ce b13d
00000080: 88bb 3dbd 273f 43bd e591 8cbd 1a8d a4bc
00000090: 2a0a 15be a503 823d 6aa6 8abd 81c0 23bd
000000a0: c709 da3c 516c b63c 2ae7 bf3a a379 d4bd
000000b0: d866 98bd dfaf a9bd 096a df3b cc4c 8f3d
000000c0: aaad 1b3d ad76 20be 275a c93b 6122 5c3b
000000d0: 1112 213c b982 073e 99a6 c1bb 6f3e a1bc
000000e0: 6ef1 ab3d ec69 103e f4d7 dabd 3a39 cfbd
000000f0: 0541 8abc 720c be3c 93f3 bd3c d2b0 ac3d

input_layer.1.running_var f4 [64]
12.771634 10.807466 23.57867 27.434767 9.295514 18.632883 20.234167 14.856418
15.511552 6.9580007 10.364112 23.108885 9.725613 29.222822 19.789444 16.728117
23.356043 8.434317 18.338058 9.464532 10.808868 17.385624 25.174862 6.046034
18.83779 16.61718 7.1326656 20.1003 20.394188 13.619961 12.261811 22.492891
28.455706 10.844113 12.620019 15.212197 12.769078 14.601231 18.468445 19.118889
12.941823 17.08383 34.421143 8.484046 11.006185 22.996845 15.007514 16.10346
20.534996 11.636471 25.94433 13.420958 15.913409 17.368212 18.716904 15.205742
11.658753 34.18526 17.466679 11.449126 13.429153 20.673498 18.40581 29.424461
00000000: 9d58 4c41 61eb 2c41 1ea1 bc41 677a db41
00000010: 6dba 1441 2510 9541 93df a141 e3b3 6d41
00000020: 512f 7841 f1a7 de40 67d3 2541 ffde b841
00000030: 1c9c 1b41 57c8 e941 c850 9e41 2fd3 8541
00000040: 2dd9 ba41 f6f2 0641 58b4 9241 b96e 1741
00000050: 20f1 2c41 c215 8b41 1e66 c941 1c79 c140
00000060: cbb3 9641 fcef 8441 cc3e e440 6acd a041
00000070: 4c27 a341 5ceb 5941 6130 4441 71f1 b341
00000080: 49a5 e341 7d81 2d41 99eb 4941 2965 7341
00000090: 254e 4c41 a49e 6941 60bf 9341 7cf3 9841
000000a0: b511 4f41 afab 8841 40af 0942 a7be 0741
000000b0: 5519 3041 8af9 b741 c71e 7041 e3d3 8041
000000c0: ac47 a441 fc2e 3a41 fd8d cf41 3ebc 5641
000000d0: 539d 7e41 19f2 8a41 38bc 9541 b84a 7341
000000e0: 418a 3a41 b5bd 0842 c2bb 8b41 9f2f 3741
000000f0: d0dd 5641 5363 a541 193f 9341 4c65 eb41

res_blocks.0.linear1.weight f4 [64, 64]
-0.041935433 -0.04654053 -0.08666286 -0.031790208 -0.16656879 -0.008795101 -0.12670492 -0.06400799
-0.09928066 -0.13811073 -0.13080312 0.065095425 -0.031724278 -0.113359995 -0.04845272 0.06487955
-0.030474762 0.059169076 -0.10782064 0.07741564 -0.109402835 -0.007816852 0.06432812 -0.114172615
-0.049858097 -0.13544966 0.0482392 -0.05201076 0.004697829 -0.12620701 -0.027103662 -0.09097516
-0.01368898 -0.061483007 0.026938302 -0.010429901 -0.055282556 -0.08033937 -0.030380141 -0.13253503
-0.10461393 -0.027860014 0.062047146 -0.06303527 -0.11077669 0.076029204 0.06469557 -0.137256
-0.0005088914 -0.1512745 -0.12301782 -0.009122099 0.015044271 -0.10759524 0.0524046 0.055066504
-0.018608687 0.0778319 -0.09558995 0.04966585 -0.054484002 -0.027618796 -0.07592945 -0.024146799
-0.004751489 -0.0054962398 -0.1317838 0.0055658417 0.020401048 -0.09838959 -0.024142412 -0.01525466
-0.07029875 0.097101204 -0.06770375 -0.085294545 0.058162592 0.0022809107 -0.09102844 0.092363685
-0.044009216 0.09966277 0.013774408 0.0115805445 -0.06872984 -0.10759989 0.08426453 -0.072744705
0.15485138 0.072762914 0.07182642 0.068369895 0.021777472 0.090096325 0.0889469 0.111456856
0.1642015 -0.025301054 0.04830058 0.090415776 -0.12833516 0.18358152 0.06055313 -0.025206655
-0.012513043 -0.122239605 0.14008889 0.05652634 0.09735692 0.093707696 0.13504808 0.05976013
0.113498874 0.10399751 0.07624539 -0.014225539 0.06331448 0.09414592 -0.06847702 0.07864805
0.029306646 0.09872801 -0.054889377 0.0585432 -0.107397884 -0.043781053 0.015913416 0.090287596
-0.11942666 -0.102192186 -0.10651967 -0.16242154 -0.1200559 0.014504363 -0.02534173 0.053128004
-0.033361103 -0.0541491 0.10095152 -0.016189905 0.0044860784 -0.05530153 0.063926555 0.06410809
-0.07331662 0.10691199 -0.06625317 0.101193205 0.086656824 0.09159333 -0.057665884 0.07565209
0.058960654 0.016192282 -0.02540752 -0.15008204 0.035028897 0.07173431 -0.078381725 0.005639182
-0.036004517 -0.064854175 -0.09812683 -0.0087683825 0.031605743 -0.16817415 -0.033963095 0.0017710662
-0.072242506 -0.084054746 0.03950326 -0.056748778 0.03242065 -0.04592355 0.03370545 -0.14552331
-0.09016319 0.09547365 -0.12243309 0.022076068 -0.111952834 -0.10951728 0.10845116 0.09403516
-0.09594005 -0.13695686 0.07610072 -0.0048637544 0.01177511 0.06562861 -0.03918048 0.03619844
-0.042463657 0.044956323 -0.09963554 -0.0066050547 -0.042783443 -0.049076825 0.005925811 0.10516107
0.019270334 0.090496026 -0.025825473 0.10136318 -0.041268855 -0.18760566 -0.09054881 0.05472617
-0.18649118 -0.083252735 -0.1203357 -0.0860274 0.12161632 -0.033237647 -0.10214702 -0.023200309
-0.13651547 -0.108879104 -0.06390195 -0.13818443 -0.06771928 -0.11764846 0.005109026 -0.047772925
0.026489718 0.08503442 0.033954524 -0.0063204314 0.078441024 -0.072795644 -0.12132452 0.072843716
-0.033730235 0.08797611 -0.18371189 -0.082595475 0.072750986 0.0049687517 -0.116283946 -0.16822769
0.034236073 -0.011064228 -0.20902511 0.07583172 -0.17742954 -0.16733257 0.09256338 0.05006209
-0.03744333 -0.04244752 0.075836584 -0.09519794 -0.089225896 -0.14519556 -0.08613819 -0.0012716362
00000000: 7dc4 2bbd 48a1 3ebd 4c7c b1bd 7336 02bd
00000010: 0291 2abe 5419 10bc efbe 01be 9f16 83bd
00000020: a953 cbbd e66c 0dbe 41f1 05be c050 853d
00000030: 51f1 01bd 4929 e8bd 5c76 46bd 92df 843d
00000040: 35a6 f9bc 465b 723d 11d1 dcbd 178c 9e3d
00000050: 980e e0bd 4112 00bc 76be 833d 55d3 e9bd
00000060: 0138 4cbd 51b3 0abe 7896 453d 3c09 55bd
00000070: 3ff0 993b 693c 01be 8008 debc 2f51 babd
00000080: be47 60bc 9bd5 7bbd b7ad dc3c 2de2 2abc
00000090: f66f 62bd f888 a4bd c6df f8bc 43b7 07be
000000a0: d43f d6bd af3a e4bc 2625 7e3d a318 81bd
000000b0: e4de e2bd 33b5 9b3d 1c7f 843d d68c 0cbe
000000c0: 2067 05ba b4e7 1abe c4f0 fbbd db74 15bc
000000d0: 3f7c 763c e55a dcbd 35a6 563d 6a8d 613d
000000e0: 3f71 98bc 5566 9f3d aac4 c3bd 6b6e 4b3d
000000f0: 9e2a 5fbd d040 e2bc e680 9bbd 82cf c5bc
00000100: 61b2 9bbb cd19 b4bb 55f2 06be aa61 b63b
00000110: 1920 a73c 7b80 c9bd 4fc6 c5bc aeee 79bc
00000120: cbf8 8fbd ffdc c63d 44a8 8abd e8ae aebd
00000130: e63b 6e3d 557b 153b 1e6d babd 2c29 bd3d
00000140: 0243 34bd ff1b cc3d 0eae 613c 53bc 3d3c
00000150: 3bc2 8cbd 555d dcbd e292 ac3d 2dfb 94bd
00000160: 5c91 1e3e b904 953d bb19 933d 8405 8c3d
00000170: ab66 b23c 6c84 b83d cb29 b63d 7e43 e43d
00000180: 7024 283e 2844 cfbc d4d6 453d e82b b93d
00000190: 4b6a 03be cbfc 3b3e 8f06 783d 307e cebc
000001a0: 8203 4dbc c258 fabd 7673 0f3e 2a88 673d
000001b0: 1163 c73d d2e9 bf3d 0b4a 0a3e 0ac7 743d
000001c0: 1972 e83d a6fc d43d 8b26 9c3d 3c12 69bc
000001d0: 06ab 813d 93cf c03d ae3d 8cbd 3b12 a13d
000001e0: 7e14 f03c e931 ca3d afd3 60bd ffca 6f3d
000001f0: 6cf3 dbbd c353 33bd da5c 823c b4e8 b83d
00000200: f795 f4bd 234a d1bd fc26 dabd d551 26be
00000210: dedf f5bd b5a3 6d3c 7699 cfbc c09c 593d
00000220: a7a5 08bd 72cb 5dbd acbf ce3d b1a0 84bc
00000230: f4ff 923b db83 62bd edeb 823d 1a4b 833d
00000240: 0627 96bd acf4 da3d beaf 87bd 623e cf3d
00000250: 2279 b13d 4995 bb3d 1033 6cbd 7cef 9a3d
00000260: ba80 713d ada5 843c 6e23 d0bc 1baf 19be
00000270: 767a 0f3d 70e9 923d 9986 a0bd e3c8 b83b
00000280: 7979 13bd 44d2 84bd b8f6 c8bd 43a9 0fbc
00000290: 0675 013d d835 2cbe e31c 0bbd 1f23 e83a
000002a0: e1f3 93bd e524 acbd 2cce 213d 6871 68bd
000002b0: 84cb 043d 551a 3cbd ba0e 0a3d 1004 15be
000002c0: 7ba7 b8bd b087 c33d 33be fabd dfd8 b43c
000002d0: 8747 e5bd 984a e0bd a41b de3d 8295 c03d
000002e0: 387c c4bd 6b3e 0cbe b2da 9b3d 2160 9fbb
000002f0: 64ec 403c 4b68 863d b67b 20bd d144 143d
00000300: 5fee 2dbd 1f24 383d b80d ccbd 376f d8bb
00000310: b13d 2fbd c804 49bd 4e2d c23b b05e d73d
00000320: d2dc 9d3c fb55 b93d f18f d3bc 8097 cf3d
00000330: 8809 29bd b31b 40be a871 b9bd 8c28 603d
00000340: 8bf7 3ebe 6980 aabd 9072 f6bd 222f b0bd
00000350: fa11 f93d 3324 08bd 7532 d1bd 930e bebc
00000360: b6ca 0bbe 02fc debd 07df 82bd 3880 0dbe
00000370: 68b0 8abd adf1 f0bd 9e69 a73b 8bad 43bd
00000380: f700 d93c 8726 ae3d e613 0b3d 9f1b cfbb
00000390: b0a5 a03d e215 95bd fd78 f8bd 162f 953d
000003a0: b728 0abd d22c b43d f81e 3cbe d127 a9bd
000003b0: 78fe 943d e9d0 a23b 4726 eebd e143 2cbe
000003c0: 203b 0c3d bc46 35bc ae0a 56be a94d 9b3d
000003d0: 17b0 35be 3b59 2bbe df91 bd3d e80d 4d3d
000003e0: 2d5e 19bd 73dd 2dbd 3650 9b3d 23f7 c2bd
000003f0: 11bc b6bd 25ae 14be 3869 b0bd 08ad a6ba

res_blocks.0.linear1.bias f4 [64]
-0.027677486 -0.01664167 0.08051292 -0.054399736 -0.0062077707 -0.039415535 -0.02262771 -0.09150512
-0.043542944 -0.0032696102 0.045745358 0.009236451 -0.09027239 -0.030051889 0.109874584 0.011414442
0.10734791 0.06560047 -0.119256586 -0.06259007 0.052340437 -0.13350442 0.02543139 0.01141525
-0.028652761 0.14062016 -0.064236686 -0.0032161358 -0.062418774 0.03585772 0.10415024 -0.039650872
0.06790723 -0.09642869 -0.04201839 -0.02457666 -0.11015768 -0.008700893 -0.059710428 -0.040643044
-0.10556081 -0.10966488 0.08549873 -0.015772363 -0.0840929 -0.077842265 0.11277085 0.08189382
0.042769324 -0.032090344 0.053600445 0.008061442 0.05133424 -0.0991063 0.10416812 0.048723448
0.12522621 0.04643171 -0.032965288 0.092023514 -0.1128558 -0.16564305 0.005225219 0.07307085
00000000: e5bb e2bc 1d54 88bc f5e3 a43d 42d2 5ebd
00000010: 8e6a cbbb 2f72 21bd bf5d b9bc 0967 bbbd
00000020: 165a 32bd f546 56bb 7c5f 3b3d 7c54 173c
00000030: bbe0 b8bd 612f f6bc ed05 e13d a403 3b3c
00000040: 39d9 db3d 8a59 863d cc3c f4bd 392f 80bd
00000050: ed62 563d 62b5 08be 7e55 d03c 0707 3b3c
00000060: 32b9 eabc bbfe 0f3e 868e 83bd cec5 52bb
00000070: d4aa 7fbd 8bdf 123d b94c d53d f468 22bd
00000080: f212 8b3d 687c c5bd 7a1b 2cbd fe54 c9bc
00000090: 5a9a e1bd 318e 0ebc ec92 74bd 5279 26bd
000000a0: 4430 d8bd fb97 e0bd f519 af3d 0b35 81bc
000000b0: e638 acbd c46b 9fbd 67f4 e63d f2b7 a73d
000000c0: e32e 2f3d 2a71 03bd 248c 5b3d 2314 043c
000000d0: da43 523d 3ef8 cabd 1856 d53d 3d92 473d
000000e0: 4d3b 003e 2d2f 3e3d 9c06 07bd d376 bc3d
000000f0: f120 e7bd 559e 29be 5038 ab3b 2ba6 953d

res_blocks.0.bn1.weight f4 [64]
1.0039425 0.94552094 0.9453322 0.92331713 1.0338045 1.0692104 0.93640405 0.97012645
1.0095731 1.0134026 0.92823094 0.95220494 0.89386374 0.960532 1.0853649 1.0076822
0.9703074 1.0085363 0.9257175 0.90338874 0.9479714 0.95650786 1.0608715 0.93666166
0.9570404 0.8741159 0.99213463 0.9884681 0.9951493 0.9678384 0.9578912 0.9580699
0.97159356 0.9168974 1.0277108 0.95491403 0.9523908 0.92644995 0.9947597 0.9809293
1.0367234 1.0374523 1.032996 0.92255217 0.9218038 0.98941875 0.9746001 0.8915501
0.99373406 0.9598176 1.0095029 1.0014668 0.967063 1.0387359 1.0439397 0.88706297
0.92046 0.99888307 0.88844776 0.9807726 1.0267409 1.0115968 1.0004423 1.0655141
00000000: 3081 803f a90d 723f 4b01 723f 835e 6c3f
00000010: b553 843f e3db 883f 2db8 6f3f 355a 783f
00000020: b139 813f 2db7 813f 8ba0 6d3f b4c3 733f
00000030: 41d4 643f 6de5 753f 3ded 8a3f bbfb 803f
00000040: 1166 783f b817 813f d2fb 6c3f 7c44 673f
00000050: 41ae 723f b3dd 743f a3ca 873f 0fc9 6f3f
00000060: 9a00 753f 0fc6 5f3f 89fc 7d3f 3f0c 7d3f
00000070: 1bc2 7e3f 42c4 773f 5c38 753f 1244 753f
00000080: 5bba 783f cab9 6a3f 078c 833f 3f75 743f
00000090: e2cf 733f d32b 6d3f 92a8 7e3f 2f1e 7b3f
000000a0: 5ab3 843f 3dcb 843f 3739 843f 612c 6c3f
000000b0: 55fb 6b3f 8c4a 7d3f 647f 793f a13c 643f
000000c0: 5b65 7e3f 9bb6 753f 6437 813f 1030 803f
000000d0: 7191 773f 4cf5 843f d19f 853f 8f16 633f
000000e0: 44a3 6b3f cdb6 7f3f 5071 633f ea13 7b3f
000000f0: 3f6c 833f 017c 813f 7e0e 803f c462 883f

res_blocks.0.bn1.bias f4 [64]
0.07072071 -0.041721705 -0.08271668 0.0594695 0.14598022 -0.3488267 0.20052059 -0.006830134
-0.11461714 0.026386319 0.011735435 0.12044435 0.08505035 -0.03517548 -0.054609112 -0.12262379
0.23705971 0.1706458 0.0397438 -0.22399811 0.276234 0.07415755 0.01680942 -0.12963139
-0.08913507 0.30005562 0.21220425 0.01933186 0.055606406 -0.19583946 -0.042082217 -0.13992275
-0.25702968 -0.0018310348 -0.41767746 -0.06368915 0.02281513 -0.022083461 -0.13092877 0.10046136
-0.016689809 0.094249286 0.045171313 0.23411353 0.19922984 -0.028694816 -0.114643954 -0.12898076
0.024164695 0.14750968 -0.050831802 0.050764013 -0.017907426 -0.13137165 -0.12297727 -0.20483051
0.13505442 0.0129629625 0.18960951 -0.057568517 -0.07818242 0.13854013 -0.0244655 -0.2745555
00000000: 05d6 903d 61e4 2abd 5d67 a9bd 4a96 733d
00000010: d77b 153e 6a99 b2be 4555 4d3e 51cf dfbb
00000020: 64bc eabd 1f28 d83c fb45 403c 87ab f63d
00000030: e12e ae3d 2a14 10bd cead 5fbd 2e22 fbbd
00000040: c8bf 723e c6bd 2e3e 65ca 223d c35f 65be
00000050: 8b6e 8d3e eadf 973d e9b3 893c 17be 04be
00000060: 738c b6bd e4a0 993e 124c 593e d95d 9e3c
00000070: 8bc3 633d 248a 48be 675e 2cbd e947 0fbe
00000080: 6599 83be 55ff efba d2d9 d5be 756f 82bd
00000090: cce6 ba3c 60e8 b4bc 3112 06be afbe cd3d
000000a0: 11b9 88bc c505 c13d 8e05 393d 75bb 6f3e
000000b0: e802 4c3e 6411 ebbc 73ca eabd 8813 04be
000000c0: 0af5 c53c c70c 173e 0235 50bd eded 4f3d
000000d0: 98b2 92bc 4a86 06be 82db fbbd 17bf 51be
000000e0: b54b 0a3e 9b62 543c ff28 423e f7cc 6bbd
000000f0: 1b1e a0bd 77dd 0d3e df6b c8bc 8a92 8cbe

res_blocks.0.bn1.running_mean f4 [64]
-2.5785093 1.5808852 -1.0507982 -2.422103 -2.8060737 -2.846994 -2.581463 -1.8638233
-2.3893683 -2.5327551 -2.8101776 -2.7904103 -2.4334621 -2.0133512 0.8958032 -2.5557413
-2.6103742 -2.4993458 -2.3118498 -2.1201148 -2.5851579 -2.9796553 -2.247306 -2.2677886
-2.3471036 -2.7252855 -2.9527683 -2.2234013 -2.6944096 -1.3940796 -2.0291185 -2.2687116
-2.4369078 -1.8684378 -2.8709755 -0.9278279 -1.4108045 -2.7737033 -2.586161 -2.2812133
-1.4804553 -2.1644654 -2.6559224 -2.8514142 -3.0554805 -2.2182539 -1.3751855 -1.7464948
-1.6156324 -3.0590787 -2.264156 -2.8579013 -1.8457588 -1.7475619 1.025932 -1.8221502
-2.7460775 -0.82390857 -2.7401528 -2.0237963 -2.943065 1.961197 -1.3181599 -2.664512
00000000: 4c06 25c0 725a ca3f 8e80 86bf bc03 1bc0
00000010: b696 33c0 2635 36c0 b136 25c0 c391 eebf
00000020: 69eb 18c0 a918 22c0 f3d9 33c0 1596 32c0
00000030: d8bd 1bc0 bfda 00c0 5c53 653f 4491 23c0
00000040: 5f10 27c0 48f5 1fc0 59f5 13c0 f6af 07c0
00000050: 3a73 25c0 acb2 3ec0 ddd3 0fc0 7323 11c0
00000060: f236 16c0 146b 2ec0 28fa 3cc0 354c 0ec0
00000070: 3571 2cc0 3371 b2bf 14dd 01c0 9232 11c0
00000080: 4cf6 1bc0 f828 efbf 10be 37c0 2186 6dbf
00000090: 3e95 b4bf 5b84 31c0 a983 25c0 66ff 11c0
000000a0: 8f7f bdbf 9a86 0ac0 a2fa 29c0 927d 36c0
000000b0: fe8c 43c0 dff7 0dc0 1406 b0bf 248d dfbf
000000c0: 0bcd cebf f2c7 43c0 efe7 10c0 dbe7 36c0
000000d0: d341 ecbf 1cb0 dfbf bd51 833f 383c e9bf
000000e0: bcbf 2fc0 aceb 52bf aa5e 2fc0 e185 01c0
000000f0: 2d5b 3cc0 8108 fb3f 77b9 a8bf 5d87 2ac0

res_blocks.0.bn1.running_var f4 [64]
2.0494618 3.505753 3.3953183 4.759883 2.0465574 2.2228756 1.733243 4.1759853
10.923079 3.719836 5.3236637 1.9010566 1.2910775 10.140271 2.8395684 3.0531003
2.368027 1.5824758 5.5525765 4.39136 3.4147892 2.0100012 3.1081352 7.0336742
10.674881 3.5176563 2.633383 8.809028 2.2543523 9.849236 5.034348 2.1578887
4.285665 5.008995 2.0135827 4.258061 5.314 5.0866013 2.1275847 3.2815466
5.66056 3.3670344 5.7668715 2.3237915 2.2737088 10.936888 3.0300267 4.8424563
7.9744873 5.242563 9.190574 3.3229954 4.2761164 6.115423 4.423259 1.2002002
1.8855035 9.140888 2.0078888 6.6938667 4.107809 1.5471693 5.426514 1.7546611
00000000: 622a 0340 425e 6040 e54c 5940 f650 9840
00000010: ccfa 0240 9843 0e40 e8da dd3f aca1 8540
00000020: eec4 2e41 cb11 6e40 745b aa40 d355 f33f
00000030: 0742 a53f 8d3e 2241 7dbb 3540 ff65 4340
00000040: c18d 1740 918e ca3f b5ae b140 0586 8c40
00000050: e88b 5a40 dca3 0040 b0eb 4640 dc13 e140
00000060: 50cc 2a41 4821 6140 5989 2840 c7f1 0c41
00000070: 4f47 1040 7896 1d41 6119 a140 d91a 0a40
00000080: 2b24 8940 b049 a040 8ade 0040 0942 8840
00000090: 4a0c aa40 70c5 a240 592a 0840 dc04 5240
000000a0: 4f23 b540 7e7d 5740 368a b840 00b9 1440
000000b0: 7284 1140 7efd 2e41 f5eb 4140 67f5 9a40
000000c0: 002f ff40 13c3 a740 970c 1341 f5ab 5440
000000d0: f2d5 8840 8cb1 c340 568b 8d40 29a0 993f
000000e0: 2e58 f13f 1441 1241 4081 0040 2834 d640
000000f0: 2c73 8340 a509 c63f 01a6 ad40 bc98 e03f

res_blocks.0.linear2.weight f4 [64, 64]
-0.0087581845 0.0067728614 -0.037960384 0.14408416 0.033375427 -0.06571818 -0.045632288 -0.03727613
-0.008077016 -0.05091056 -0.017119344 -0.061111327 -0.07910421 -0.040210713 0.15132557 0.13263804
0.026789108 0.030329775 0.05015298 -0.025763307 0.09147785 0.16102639 0.024253959 -0.14248012
0.009918959 0.051932987 0.14745127 0.13039592 -0.030065505 -0.05983595 0.097966716 0.023538938
0.015074231 -0.12886475 0.020319024 -0.055541895 -0.0033274072 0.05017315 -0.0027081566 0.0127288215
0.074947864 -0.008211728 -0.14430991 0.16636284 -0.03799381 -0.08120774 -0.00421162 0.03977451
0.051743954 0.16179742 0.12153911 -0.057845727 -0.10122349 -0.1279684 -0.043085147 -0.06851228
0.08578854 0.093801126 0.10458456 0.055836894 0.12010577 0.0047089066 0.08245218 0.049654644
-0.028424216 -0.0042058635 -0.016695904 0.017220108 0.107953034 0.07081047 0.054748084 -0.039643344
-0.11273033 0.12087486 -0.007999621 0.019837951 0.10303664 -0.028144151 -0.029375624 0.06473648
0.1434738 -0.034169026 -0.0019942103 -0.04786733 0.07157733 0.091514125 0.12437758 0.01807537
-0.036014143 -0.046084292 0.02315594 0.051930342 -0.06343887 0.0025845552 -0.004166138 0.047501132
-0.18119225 -0.01252052 -0.044427153 -0.121314034 -0.0784309 0.011966334 -0.042393684 -0.009149336
-0.0017353167 -0.1009337 -0.088273935 -0.023172285 -0.069243304 -0.027118135 -0.13664106 0.053807173
0.1454082 0.037099924 -0.04150868 -0.15957311 -0.0139611885 -0.058376327 -0.1631929 -0.0879365
-0.023764847 -0.09920124 0.22116944 0.028143927 -0.008610506 0.09111435 -0.076054715 0.06975727
0.017815959 -0.027836738 -0.13324757 0.062198687 0.06625153 -0.020813353 0.10073274 -0.10020047
0.059205715 -0.11361606 -0.16225737 0.10218078 0.0068220343 -0.11561918 0.030315915 0.0017230257
-0.021471594 0.02248645 0.06261818 0.07170515 -0.020048868 -0.03041529 0.08403044 0.043344587
-0.00622021 0.025530336 0.038925577 -0.024356475 -0.005971512 -0.04137374 -0.04565509 0.041214757
-0.0028556006 0.13748473 0.0045959386 -0.08072479 -0.06918276 -0.045651898 -0.080487505 0.092311814
0.06354305 -0.006085187 -0.1458136 0.07409365 0.042818334 -0.12578928 0.08278381 0.00085979817
0.04426309 0.1183126 0.02863581 -0.07480657 0.0037544814 -0.02407395 -0.064272046 0.038974594
0.1003772 -0.043374557 0.08687565 -0.047981557 0.054396503 0.09274192 -0.06314527 0.04119714
-0.0340935 -0.07152557 -0.071355015 0.03393377 -0.106260836 -0.032136496 -0.08092028 -0.034743056
0.008435496 0.06572566 0.102390245 -0.08242139 -0.07833475 0.07541029 -0.065697454 0.011306029
-0.051167063 -0.027036708 0.026696729 0.07693286 -0.061103318 -0.16485359 -0.038598236 -0.003076821
0.041481234 0.04942857 0.008490476 -0.047196656 -0.12417951 0.03183322 -0.009568942 -0.024238145
-0.09763642 -0.027675696 -0.04660846 -0.1471613 -0.060742255 -0.119985014 0.059886683 -0.11176768
-0.13474526 -0.006552753 0.08886096 -0.111176275 0.006054377 0.05333809 -0.050421868 -0.0758637
-0.017780362 -0.112591565 0.025707928 -0.030832918 0.06833535 -0.080858625 0.081269376 -0.082073115
-0.1081276 0.07846455 -0.06826429 -0.04321823 0.075933404 -0.076591246 -0.19345458 0.015265332
00000000: 7d7e 0fbc e1ee dd3b 597c 1bbd cc8a 133e
00000010: acb4 083d 4197 86bd ece8 3abd dbae 18bd
00000020: 7655 04bc 9787 50bd de3d 8cbc df4f 7abd
00000030: 6301 a2bd fdb3 24bd 17f5 1a3e 44d2 073e
00000040: d574 db3c 2676 f83c 366d 4d3d 920d d3bc
00000050: bd58 bb3d 1ae4 243e 3db0 c63c 4fe6 11be
00000060: 2183 223c afb7 543d 77fd 163e 8286 053e
00000070: ef4b f6bc 8b16 75bd c6a2 c83d bbd4 c03c
00000080: e8f9 763c 1ff5 03be 1574 a63c e67f 63bd
00000090: a110 5abb 5c82 4d3d 547b 31bb 8c8c 503c
000000a0: 447e 993d 7c8a 06bc fac5 13be 055b 2a3e
000000b0: 669f 1bbd 3e50 a6bd a101 8abb 99ea 223d
000000c0: 78f1 533d 39ae 253e 7fe9 f83d a4ef 6cbd
000000d0: 434e cfbd 260a 03be 0d7a 30bd 2b50 8cbd
000000e0: e7b1 af3d ce1a c03d 6e30 d63d 3ab5 643d
000000f0: 04fa f53d 2c4d 9a3b b0dc a83d ab62 4b3d
00000100: e7d9 e8bc 57d1 89bb d9c5 88bc 2f11 8d3c
00000110: 7b16 dd3d 1405 913d 873f 603d 0f61 22bd
00000120: 29df e6bd 3d8d f73d d810 03bc 3383 a23c
00000130: e004 d33d 908e e6bc 26a5 f0bc 8f94 843d
00000140: ccea 123e d2f4 0bbd 4cb1 02bb 8910 44bd
00000150: 2397 923d c26b bb3d acb9 fe3d cc12 943c
00000160: 9183 13bd e2c2 3cbd 87b1 bd3c e9b4 543d
00000170: 3dec 81bd a461 293b 1984 88bb 8c90 423d
00000180: 768a 39be de22 4dbc 3ff9 35bd 7e73 f8bd
00000190: 61a0 a0bd 710e 443c 00a5 2dbd 19e7 15bc
000001a0: 9173 e3ba 54b6 cebd f7c8 b4bd ced3 bdbc
000001b0: 6fcf 8dbd da26 debc a2eb 0bbe e964 5c3d
000001c0: e3e5 143e 17f6 173d 0105 2abd 2267 23be
000001d0: 78bd 64bc 041c 6fbd 0a1c 27be 0d18 b4bd
000001e0: 7fae c2bc 052a cbbd 3e7a 623e 188e e63c
000001f0: 1413 0dbc 299a ba3d 93c2 9bbd e6dc 8e3d
00000200: c6f2 913c df09 e4bc 0d72 08be 0dc4 7e3d
00000210: e2ae 873d c480 aabc f74c ce3d e735 cdbd
00000220: b181 723d 89af e8bd cc26 26be 2844 d13d
00000230: 5f8b df3b c0c9 ecbd 1559 f83c 26d7 e13a
00000240: 32e5 afbc 8135 b83c f63d 803d 26da 923d
00000250: 863d a4bc 7c29 f9bc 2718 ac3d 188a 313d
00000260: e7d2 cbbb ff24 d13c 6d70 1f3d 3b87 c7bc
00000270: acac c3bb 8377 29bd d500 3bbd ced0 283d
00000280: 0725 3bbb ccc8 0c3e 8799 963b 0a53 a5bd
00000290: b1af 8dbd 7cfd 3abd a2d6 a4bd fa0d bd3d
000002a0: dc22 823d 4066 c7bb 2950 15be 69be 973d
000002b0: 4762 2f3d e8ce 00be 8f8a a93d 1464 613a
000002c0: 374d 353d e04d f23d a595 ea3c 3034 99bd
000002d0: bf0d 763b bb36 c5bc 10a1 83bd d3a3 1f3d
000002e0: 9092 cd3d 85a9 31bd dceb b13d 4f88 44bd
000002f0: dece 5e3d 7aef bd3d 4f52 81bd 55be 283d
00000300: a0a5 0bbd ff7b 92bd 9422 92bd 23fe 0a3d
00000310: 489f d9bd 8fa1 03bd 88b9 a5bd bc4e 0ebd
00000320: 0935 0a3c 2d9b 863d fab1 d13d 8ccc a8bd
00000330: f86d a0bd b670 9a3d 638c 86bd ec3c 393c
00000340: 8e94 51bd 167c ddbc 19b3 da3c fa8e 9d3d
00000350: 7947 7abd 61cf 28be 2f19 1ebd 7ea4 49bb
00000360: 3ae8 293d 9d75 4a3d a31b 0b3c 4851 41bd
00000370: d451 febd 8d63 023d 0dc7 1cbc 138f c6bc
00000380: 9af5 c7bd 24b8 e2bc 83e8 3ebd 74b1 16be
00000390: dfcc 78bd b4ba f5bd bd4b 753d 74e6 e4bd
000003a0: a9fa 09be 7ab8 d6bb bcfc b53d 63b0 e3bd
000003b0: cc63 c63b 0b79 5a3d 2987 4ebd 6d5e 9bbd
000003c0: 1fa8 91bc 6896 e6bd 6f99 d23c 5195 fcbc
000003d0: 67f3 8b3d 3599 a5bd 8f70 a63d f315 a8bd
000003e0: 0172 ddbd 06b2 a03d 26ce 8bbd 9905 31bd
000003f0: f982 9b3d dfdb 9cbd f518 46be 711b 7a3c

res_blocks.0.linear2.bias f4 [64]
0.14433654 0.035793748 0.07864627 -0.1250645 -0.055924278 0.06612393 -0.17166224 0.19185272
0.16241793 0.06077858 0.060095254 -0.004974465 0.15900481 0.06682178 -0.110035345 -0.019773064
-0.07112197 0.02632913 0.03473944 0.08408334 -0.14039324 0.021121869 0.0612926 -0.06938642
-0.16678129 0.22757544 0.09555815 -0.32051247 -0.062445264 0.028614646 -0.07249058 0.058376953
-0.116925344 0.19294822 -0.10673808 0.24568906 0.08350549 -0.29432032 -0.047696527 -0.0029055243
0.061716937 0.20221035 0.10451575 -0.081432395 0.01820797 0.1296915 -0.24121176 -0.0015016327
-0.2099321 0.11851039 -0.11910137 0.050147444 -0.13569859 -0.22648871 0.22360584 -0.26106328
-0.25340536 0.1062601 -0.30642098 0.2426391 -0.16991296 0.16081996 -0.19641696 -0.099133566
00000000: f5cc 133e 779c 123d 4c11 a13d e910 00be
00000010: db10 65bd fc6b 873d 3ac8 2fbe 0a75 443e
00000020: e350 263e f6f2 783d 7126 763d d600 a3bb
00000030: 28d2 223e dbd9 883d 365a e1bd 1ffb a1bc
00000040: 65a8 91bd 30b0 d73c f14a 0e3d e333 ac3d
00000050: 3fc3 0fbe c507 ad3c f30d 7b3d 781a 8ebd
00000060: b7c8 2abe 8909 693e feb3 c33d 361a a4be
00000070: 9bc6 7fbd 4369 ea3c f175 94bd ac1c 6f3d
00000080: 8e76 efbd 3894 453e 7f99 dabd ea95 7b3e
00000090: ed04 ab3d 27b1 96be 6f5d 43bd 9c6a 3ebb
000000a0: e6ca 7c3d 3b10 4f3e 5b0c d63d 07c6 a6bd
000000b0: e128 953c d9cd 043e 3700 77be 6fd2 c4ba
000000c0: 71f8 56be 93b5 f23d 6beb f3bd 6867 4d3d
000000d0: 92f4 0abe a8ec 67be eef8 643e 16aa 85be
000000e0: 59be 81be e59e d93d 36e3 9cbe 6276 783e
000000f0: aafd 2dbe fdad 243e 8721 49be 8a06 cbbd

res_blocks.0.bn2.weight f4 [64]
1.5543505 1.5520773 1.589851 1.6013265 1.6197306 1.5588421 1.5914481 1.5837225
1.5626704 1.5331249 1.561228 1.5759387 1.5822673 1.5677369 1.577731 1.5645326
1.628307 1.5766869 1.5911795 1.5580003 1.5971824 1.5694298 1.5738474 1.5936447
1.608429 1.5730538 1.5449824 1.6046115 1.6153806 1.5802656 1.5827161 1.625727
1.6063558 1.598697 1.5918326 1.5985501 1.5725852 1.6191736 1.5641214 1.5975837
1.5832253 1.5779697 1.5807542 1.5713518 1.5702721 1.5796987 1.5874724 1.5963082
1.602731 1.5747255 1.5923293 1.556803 1.5884092 1.6059159 1.531522 1.611313
1.6107761 1.5819795 1.6068524 1.5624433 1.6252117 1.5990189 1.6138228 1.6335362
00000000: f5f4 c63f 78aa c63f 3d80 cb3f 44f8 cc3f
00000010: 5553 cf3f 2388 c73f 92b4 cb3f 6bb7 ca3f
00000020: 9505 c83f 703d c43f 52d6 c73f 5cb8 c93f
00000030: bc87 ca3f 9aab c83f 17f3 c93f 9b42 c83f
00000040: 5d6c d03f e0d0 c93f c5ab cb3f 8e6c c73f
00000050: 7970 cc3f 13e3 c83f d573 c93f 8dfc cb3f
00000060: 00e1 cd3f d459 c93f fcc1 c53f e963 cd3f
00000070: cbc4 ce3f 2546 ca3f 7196 ca3f d317 d03f
00000080: 119d cd3f 1aa2 cc3f 2cc1 cb3f 4a9d cc3f
00000090: 794a c93f 1541 cf3f 2135 c83f 9f7d cc3f
000000a0: 20a7 ca3f e9fa c93f 2756 ca3f 0e22 c93f
000000b0: adfe c83f 9133 ca3f 4c32 cb3f d453 cc3f
000000c0: 4a26 cd3f 9b90 c93f 72d1 cb3f 5245 c73f
000000d0: fe50 cb3f a78e cd3f ea08 c43f 813f ce3f
000000e0: e92d ce3f 4e7e ca3f 57ad cd3f 24fe c73f
000000f0: f006 d03f a7ac cc3f bf91 ce3f b717 d13f

res_blocks.0.bn2.bias f4 [64]
0.55877906 0.5967038 0.6235647 0.6222239 0.6358107 0.57125664 0.632391 0.60488915
0.5894776 0.5303558 0.593225 0.6057254 0.61601037 0.6244347 0.5840209 0.5939664
0.65662557 0.59711814 0.610751 0.64008147 0.6061809 0.59525365 0.6152577 0.6170273
0.6456541 0.6659117 0.6435052 0.6373417 0.64880425 0.6044885 0.6374738 0.62150466
0.63908416 0.630268 0.6093328 0.6486768 0.5885956 0.6413738 0.59142435 0.61732733
0.5978474 0.6039551 0.5903866 0.5931628 0.63294363 0.6107003 0.6254205 0.61527455
0.6198432 0.6368 0.60452896 0.62130547 0.5891325 0.6451879 0.61616474 0.5999442
0.6189657 0.59715253 0.6285315 0.6320137 0.64790946 0.61195886 0.6758263 0.6507454
00000000: 250c 0f3f 95c1 183f f0a1 1f3f 114a 1f3f
00000010: 7dc4 223f e03d 123f 60e4 213f 04da 1a3f
00000020: 01e8 163f 66c5 073f 98dd 173f d210 1b3f
00000030: dbb2 1d3f f4da 1f3f 6582 153f 2f0e 183f
00000040: 9d18 283f bcdc 183f 2d5a 1c3f 61dc 233f
00000050: ac2e 1b3f 8b62 183f 8781 1d3f 80f5 1d3f
00000060: 9649 253f 3079 2a3f c2bc 243f d328 233f
00000070: 0918 263f c2bf 1a3f 7c31 233f ee1a 1f3f
00000080: 059b 233f 3e59 213f 3cfd 1b3f af0f 263f
00000090: 34ae 163f 1331 243f 9667 173f 2a09 1e3f
000000a0: 870c 193f cd9c 1a3f 9423 173f 84d9 173f
000000b0: 9808 223f db56 1c3f 8f1b 203f a282 1d3f
000000c0: 0bae 1e3f 5305 233f 69c2 1a3f e00d 1f3f
000000d0: 63d1 163f 092b 253f f9bc 1d3f f195 193f
000000e0: 8974 1e3f fdde 183f 71e7 203f a6cb 213f
000000f0: 65dd 253f 56a9 1c3f f402 2d3f 4097 263f

res_blocks.0.bn2.running_mean f4 [64]
0.6823758 -0.011522375 0.21413004 -0.9344686 -1.1747717 0.3017075 -1.087982 0.16121013
-0.27931795 0.4883852 0.48141223 0.19526823 0.7447884 -0.68948126 -0.6697873 0.0741239
-0.9349459 0.079108514 0.38140598 0.27535316 -1.0241516 0.21640319 -0.80247635 0.42925066
-1.0315794 0.1815272 -0.10363432 -0.7964191 -0.60356283 -0.6585243 0.32633966 -0.31946257
-0.5055367 0.31860074 -0.23280998 1.2863722 0.57404095 -1.079296 -0.37030718 -0.15223093
0.26378784 0.23896426 -0.48576784 -0.052720472 0.44059494 0.12278841 -0.9162591 -0.74329567
-0.78993845 0.17710483 -0.76476264 0.38329428 -0.1997408 -0.86183363 0.3909438 -0.51237
-1.1303718 -0.8520704 -0.7459996 0.5816813 -0.5678364 0.28696933 -0.5299438 -0.6393086
00000000: 2eb0 2e3f 58c8 3cbc e844 5b3e 5639 6fbf
00000010: eb5e 96bf 6879 9a3e ff42 8bbf 4514 253e
00000020: c302 8fbe a00d fa3e aa7b f63e 65f4 473e
00000030: 74aa 3e3f d881 30bf 2e77 2bbf 45ce 973d
00000040: 9d58 6fbf a503 a23d a547 c33e 17fb 8c3e
00000050: 6617 83bf cc98 5d3e 176f 4dbf bec6 db3e
00000060: cb0a 84bf 44e2 393e 3b3e d4bd 1fe2 4bbf
00000070: 1883 1abf 0c95 28bf fe15 a73e 9990 a3be
00000080: da6a 01bf a31f a33e bd65 6ebe d8a7 a43f
00000090: 59f4 123f 5f26 8abf e798 bdbe 6de2 1bbe
000000a0: 330f 873e 0cb3 743e 90b6 f8be 6cf1 57bd
000000b0: a995 e13e 7d78 fb3d f58f 6abf a048 3ebf
000000c0: 6839 4abf f85a 353e 7cc7 43bf 263f c43e
000000d0: da88 4cbe 21a1 5cbf c929 c83e ae2a 03bf
000000e0: 06b0 90bf 4921 5abf d4f9 3ebf 11e9 143f
000000f0: ba5d 11bf a5ed 923e 66aa 07bf baa9 23bf

res_blocks.0.bn2.running_var f4 [64]
1.0230473 0.6709729 0.28929198 0.38129476 0.15305725 0.9207567 0.040004387 0.7763101
0.28753456 0.8096699 0.9716549 1.0459945 0.48173022 0.39614794 0.33121085 0.44697577
0.15965849 0.67176384 1.1148099 0.24855815 0.4671044 0.5249476 0.61234605 0.56562716
1.2178106 0.3213835 0.20569216 0.041487668 0.21894163 0.46569827 0.14913478 1.0057834
0.831172 0.26532063 0.82754344 0.2514865 0.89179087 0.20487069 0.20501468 0.6201594
0.39881203 0.8079257 0.9409956 0.47983575 0.22244531 0.9150035 0.061389245 0.32478628
0.2537345 0.14207724 1.1132 0.2829017 0.34221163 0.07232431 0.21701875 0.15821806
0.093548924 0.2401355 0.040587053 0.2057196 0.030338993 0.6905024 0.025167825 0.784671
00000000: 37f3 823f e1c4 2b3f 141e 943e 1139 c33e
00000010: 0abb 1c3e b6b6 6b3f a4db 233d 42bc 463f
00000020: bb37 933e 8746 4f3f 60be 783f 26e3 853f
00000030: 58a5 f63e e7d3 ca3e 7894 a93e 02da e43e
00000040: 847d 233e b7f8 2b3f 17b2 8e3f 0786 7e3e
00000050: 4f28 ef3e f762 063f b6c2 1c3f f1cc 103f
00000060: 38e1 9b3f 618c a43e f7a0 523e f9ee 293d
00000070: 3c32 603e 0170 ee3e cab6 183e 83bd 803f
00000080: b0c7 543f 1bd8 873e e3d9 533f d7c2 803e
00000090: 684c 643f 9fc9 513e 5eef 513e c4c2 1e3f
000000a0: 1731 cc3e 38d4 4e3f 16e5 703f 08ad f53e
000000b0: b4c8 633e ab3d 6a3f 4a73 7b3d 634a a63e
000000c0: 7de9 813e b27c 113e 567d 8e3f 7ed8 903e
000000d0: 5d36 af3e c51e 943d 2a3a 5e3e ea03 223e
000000e0: 9496 bf3d 15e6 753e 9c3e 263d 29a8 523e
000000f0: 7b89 f83c c4c4 303f c12c ce3c 33e0 483f

res_blocks.1.linear1.weight f4 [64, 64]
0.11024139 0.046030603 -0.026450595 -0.037498444 -0.046296015 -0.055843208 -0.07587392 -0.11437624
-0.08214227 -0.072099715 0.047851726 -0.022773035 0.027011167 -0.0176376 -0.062718146 0.069640905
0.020313213 0.11646313 0.13389145 -0.0034165254 -0.04933818 -0.079610355 0.027200077 -0.018651463
-0.087720074 0.088159695 0.011639739 -0.18537973 -0.026339285 -0.035570327 0.11632178 -0.20659587
-0.128921 0.03668988 -0.008132724 -0.03861196 0.0016006362 -0.16290368 0.029140333 -0.078026436
0.06454843 -0.08719281 -0.10483908 0.07066648 -0.02726191 0.092788555 -0.19671175 0.005989625
-0.16374606 -0.07567477 -0.029352264 -0.05087888 -0.062750526 -0.13625336 0.116052784 -0.028581565
-0.17688099 -0.11062636 0.014085927 -0.12338887 0.091947265 0.010924434 0.04533686 0.013215925
-0.091084994 0.12857658 0.12060475 0.069585145 -0.00080991123 0.04224775 0.09539437 -0.11610498
0.024352906 -0.0038175436 -0.012567432 0.002200789 -0.12024423 0.033765726 0.034768667 0.018872458
-0.04418789 -0.047475252 -0.03661762 -0.10372938 -0.08463939 0.028179016 -0.056274455 0.1344629
0.041696243 0.055828117 -0.11925887 0.038892426 0.019605694 0.056512132 0.029054778 0.099589266
-0.07193258 -0.03534238 -0.05482942 0.028937409 0.051074803 -0.023149721 0.16439207 -0.024665982
-0.05169943 -0.11956449 0.09068961 -0.084669985 -0.060942244 0.017970566 0.1414271 0.17707515
0.02549683 -0.10189278 -0.060551386 -0.040416233 0.04121431 -0.020954689 -0.055679113 0.053954113
0.036689125 -0.043975957 0.104465246 -0.033196382 0.06386126 0.019746615 0.07680475 0.084850185
-0.08545411 0.004108348 0.04723169 0.09942189 -0.06282402 0.06800734 0.097905174 -0.024190024
0.01794572 0.08819258 -0.06341377 0.05732327 -0.028760985 0.16028947 0.10309813 -0.105458915
0.07861757 -0.05493503 0.061937302 -0.044926178 0.019565001 -0.067175776 0.0068290504 -0.029103337
-0.12540488 0.027135104 0.052402306 0.15458578 -0.042003494 0.030220248 0.12591237 0.07330925
-0.09837057 0.03737085 -0.0830171 0.030227102 -0.09353147 0.023371495 0.0016035165 -0.033364747
-0.129226 -0.005098591 -0.122965835 -0.003064023 -0.0006622359 -0.031265263 0.09616852 -0.048396245
0.052893456 -0.011266334 -0.021915711 0.029670037 0.020999962 -0.012190017 0.0023266966 0.04799723
0.03341464 0.015115629 -0.111255504 -0.06283434 -0.14957388 0.08444562 0.075752065 -0.032009237
-0.05100182 0.010263771 0.043828093 0.1828038 0.026609113 0.037205435 0.08643929 0.080363594
0.14476036 0.04270395 0.044685584 -0.045794792 0.030046534 -0.08857561 -0.010895967 -0.018254692
0.13612983 0.055088464 -0.057587158 -0.024075441 0.093148276 0.060987264 0.090460956 0.018378412
0.12195174 -0.11323619 -0.17067972 0.016398748 0.001520917 0.10425344 -0.094980925 0.06443574
-0.0016733271 -0.018471003 -0.038433146 0.07384616 -0.015440022 0.0092819575 0.034777917 0.013998822
0.019705305 -0.12057529 -0.05868318 0.040218007 0.031028485 0.07586719 0.13707994 0.055099927
0.123287275 0.11878598 -0.083037235 -0.0065308786 -0.024417544 0.12280905 -0.06498805 0.027990282
-0.026663808 0.12528785 0.13957301 -0.036066137 0.030194897 -0.061625376 0.080168396 0.13930574
00000000: 3dc6 e13d 968a 3c3d ebae d8bc f897 19bd
00000010: e4a0 3dbd d9bb 64bd c963 9bbd 173e eabd
00000020: 353a a8bd 04a9 93bd 2c00 443d 848e babc
00000030: 8646 dd3c ba7c 90bc 5f72 80bd e49f 8e3d
00000040: e567 a63c 3984 ee3d d71a 093e c9e7 5fbb
00000050: d516 4abd c10a a3bd b2d2 de3c f4ca 98bc
00000060: 95a6 b3bd 128d b43d 9bb4 3e3c 2fd4 3dbe
00000070: 7cc5 d7bc 31b2 11bd 1d3a ee3d de8d 53be
00000080: de03 04be 2148 163d 1e3f 05bc 9327 1ebd
00000090: 70cc d13a 39d0 26be b5b7 ee3c 53cc 9fbd
000000a0: f831 843d 2592 b2bd dfb5 d6bd 96b9 903d
000000b0: 5e54 dfbc ed07 be3d ce6e 49be 9e44 c43b
000000c0: 0cad 27be 60fb 9abd 2974 f0bc 5f66 50bd
000000d0: 5983 80bd 0086 0bbe 15ad ed3d e323 eabc
000000e0: 4a20 35be 1390 e2bd a9c8 663c 4eb3 fcbd
000000f0: d94e bc3d 66fc 323c 25b3 393d 9b87 583c
00000100: c58a babd 94a9 033e a0ff f63d a882 8e3d
00000110: 3950 54ba fa0b 2d3d 205e c33d 73c8 edbd
00000120: bf7f c73c c12f 7abb a1e7 4dbc 1d3b 103b
00000130: 9b42 f6bd ee4d 0a3d 9769 0e3d 6a9a 9a3c
00000140: 5cfe 34bd 6975 42bd 5cfc 15bd 1270 d4bd
00000150: 6b57 adbd aed7 e63c 0b80 66bd a4b0 093e
00000160: aec9 2a3d 06ac 643d ff3d f4bd aa4d 1f3d
00000170: 1f9c a03c 4479 673d 4904 ee3c 75f5 cb3d
00000180: 6351 93bd 2cc3 10bd d094 60bd 250e ed3c
00000190: d033 513d 7ca4 bdbc 6556 283e 5010 cabc
000001a0: c8c2 53bd 3ade f4bd 79bb b93d 7567 adbd
000001b0: 939e 79bd 0237 933c 44d2 103e 3053 353e
000001c0: bade d03c 29ad d0bd bb04 78bd 7e8b 25bd
000001d0: 56d0 283d 2ba9 abbc c80f 64bd fdfe 5c3d
000001e0: 5647 163d 2220 34bd e0f1 d53d eef8 07bd
000001f0: b1c9 823d a7c3 a13c cf4b 9d3d efc5 ad3d
00000200: 9002 afbd 529f 863b 0476 413d b49d cb3d
00000210: e1a9 80bd 6f47 8b3d 8282 c83d 282a c6bc
00000220: e702 933c 509e b43d 14df 81bd cecb 6a3d
00000230: 289c ebbc ec22 243e 1d25 d33d d8fa d7bd
00000240: 4002 a13d 8e03 61bd f8b1 7d3d 8304 38bd
00000250: c846 a03c 7493 89bd 3ac6 df3b 1f6a eebc
00000260: 236a 00be 704a de3c cda3 563d bc4b 1e3e
00000270: db0b 2cbd 7490 f73c 2cef 003e 2923 963d
00000280: 8276 c9bd 2d12 193d df04 aabd d49e f73c
00000290: 6d8d bfbd 9475 bf3c 162d d23a 79a9 08bd
000002a0: d253 04be 1512 a7bb 83d5 fbbd c7cd 48bb
000002b0: e699 2dba 0110 00bd 00f4 c43d 243b 46bd
000002c0: cfa6 583d 6e96 38bc 9488 b3bc 940e f33c
000002d0: 1d08 ac3c a3b8 47bc 7e7b 183b be98 443d
000002e0: cadd 083d 8ba7 773c edd9 e3bd 4aaf 80bd
000002f0: e529 19be d3f1 ac3d e623 9b3d 1e1c 03bd
00000300: 49e7 50bd 6029 283c 1685 333d eb30 3b3e
00000310: 5bfb d93c ba64 183d 1507 b13d ab95 a43d
00000320: 0f3c 143e 56ea 2e3d 3b08 373d 5293 3bbd
00000330: 2624 f63c 2167 b5bd ff84 32bc dd8a 95bc
00000340: 9e65 0b3e 71a4 613d 83e0 6bbd dc39 c5bc
00000350: 86c4 be3d c8cd 793d 9843 b93d 538e 963c
00000360: d5c1 f93d 60e8 e7bd aac6 2ebe ab56 863c
00000370: 8259 c73a d482 d53d 5c85 c2bd e3f6 833d
00000380: 8a53 dbba 8050 97bc 136c 1dbd a83c 973d
00000390: 25f8 7cbc 5a13 183c 4a73 0e3d 515b 653c
000003a0: 056d a13c 2df0 f6bd c65d 70bd a3bb 243d
000003b0: 732f fe3c 4260 9b3d af5e 0c3e 76b0 613d
000003c0: 0a7e fc3d 1046 f33d 6d0f aabd fb00 d6bb
000003d0: 4d07 c8bc 5083 fb3d 7418 85bd e04b e53c
000003e0: 0f6e dabc 754b 003e 3aec 0e3e 16ba 13bd
000003f0: 4a5b f73c e46a 7cbd 542f a43d 2aa6 0e3e

res_blocks.1.linear1.bias f4 [64]
-0.08692146 0.09408947 0.034778424 0.043460116 -0.02954906 -0.09436489 0.106283545 -0.077585235
-0.0075768167 -0.039334506 -0.10089483 0.09154199 0.032150265 0.10385367 -0.04018968 0.0032636814
-0.029476909 -0.0938888 -0.10211789 -0.009285206 -0.076357104 0.09020099 -0.0765424 0.13899311
-0.019400695 0.0065369303 0.026179438 0.0021300528 -0.05574285 -0.09495614 0.056839466 0.0028270741
-0.0043260264 0.1819277 -0.09360849 0.042439487 -0.059157576 0.023328533 0.05312392 0.031028138
0.10736469 0.011232887 -0.059643187 0.04478871 0.086673625 -0.009137338 -0.09997511 0.06933193
0.0148105435 -0.10282304 -0.095292054 -0.06848452 -0.05639015 -0.016454864 -0.038931202 -0.03727653
-0.04320879 -0.11780003 -0.1001546 -0.061627477 -0.043660253 0.10486431 -0.056384914 0.12178004
00000000: e103 b2bd fbb1 c03d d273 0e3d 3c03 323d
00000010: df10 f2bc 6142 c1bd 30ab d93d 02e5 9ebd
00000020: f246 f8bb 381d 21bd f3a1 cebd 5e7a bb3d
00000030: ffaf 033d 3cb1 d43d ef9d 24bd 7de3 553b
00000040: 8f79 f1bc c548 c0bd 2f23 d1bd fa20 18bc
00000050: 1d61 9cbd 4cbb b83d 43c2 9cbd 3654 0e3e
00000060: 35ee 9ebc bf33 d63b 4376 d63c 5b98 0b3b
00000070: 9d52 64bd 5d78 c2bd 80d0 683d 6f46 393b
00000080: 57c1 8dbb 414b 3a3e cfb5 bfbd 07d5 2d3d
00000090: 374f 72bd 7b1b bf3c 7898 593d b92e fe3c
000000a0: 05e2 db3d 250a 383c 6a4c 74bd 5e74 373d
000000b0: f181 b13d c6b4 15bc c0bf ccbd e6fd 8d3d
000000c0: eca7 723c e394 d2bd 7b28 c3bd 9d41 8cbd
000000d0: 5cf9 66bd 5acc 86bc 5376 1fbd 46af 18bd
000000e0: b3fb 30bd 2441 f1bd db1d cdbd 186d 7cbd
000000f0: 18d5 32bd 19c3 d63d def3 66bd d067 f93d
