model/poly_resnet_model_mu_50epoch.pt (torch, 160640 bytes, 44 tensors)

input_layer.0.weight f4 [64, 118]
000000 7b 7c 2f bc e1 1a 31 3d 3e cb 50 3d a1 67 97 3d
       -0.010710831 0.043238524 0.050975077 0.073928125
000010 20 82 55 bd cf 3e 01 3e 00 89 74 bd 88 56 9c 3c
       -0.05212605 0.12621616 -0.059700966 0.01908423
000020 47 fd 89 3b 50 f5 9f 3d 0f a6 b0 3c f2 52 95 bd
       0.004211101 0.078104615 0.021563558 -0.07291211
000030 bf 58 ab 3c 55 e6 a0 bd da 0d 52 3c 80 59 1e 3d
       0.02091634 -0.07856432 0.012820685 0.038659573
000040 ec 18 85 3d 90 37 66 bd a8 f3 dd bc e9 ca 70 3d
       0.06498894 -0.056205332 -0.027093723 0.05878726
000050 95 8e 83 3d 9f 96 77 3d d7 67 af bb 6c ec c9 3d
       0.0642368 0.060446378 -0.005352955 0.09859547
000060 0a ed 0d bd 91 8b 4d 3d 95 d4 40 bb 71 c5 e7 3c
       -0.034649886 0.05018193 -0.0029423584 0.02829239
000070 95 cf e2 3d 43 ba b0 bb 37 4c a1 3d 5a 51 86 bd
       0.110747494 -0.005393298 0.07875865 -0.06558485
000080 0c 9b 65 bd 6f af ae 3c 55 9f bb 3c 92 70 3c 3d
       -0.056056067 0.021323888 0.022903124 0.046005793
000090 a1 33 2d 3d f8 3f 52 3d e6 ce 24 bd 47 e7 ce bc
       0.042285565 0.051330537 -0.040236376 -0.025256766
0000a0 ff f8 1c bd 3e 79 8e bd 11 db 5f 3d c4 43 7d bd
       -0.0383234 -0.06956719 0.054652277 -0.061832204
0000b0 0c 85 ae 3d 60 25 5f 3d b4 39 37 3d 02 a4 cd 3d
       0.085214704 0.054479003 0.044732764 0.10041048
0000c0 74 07 a2 3d 7d de 82 bd cc 91 4a bd 07 3f 32 3c
       0.07911578 -0.063900925 -0.04945545 0.010879285
0000d0 f3 57 8b bc 5c 22 09 3d 08 f1 42 3d f8 9a 94 3c
       -0.01700971 0.033480033 0.047593147 0.018140301
0000e0 17 58 54 3d 8f 52 9b 3d b6 de b7 3d 43 38 d0 bc
       0.05184182 0.07584106 0.089780256 -0.025417453
0000f0 2e 87 04 3b d7 e7 ce 3b e5 af c5 3c c0 ce 3a 3d
       0.0020222175 0.0063142586 0.024131725 0.04560733
000100 33 02 39 3d 2a be 0a bb d7 8e 98 3d e6 cb aa 3c
       0.045168113 -0.0021170476 0.074491195 0.02084918
000110 4c ab a9 3c 74 e0 d3 3c 1c 41 0f bd cb dd 45 3d
       0.020711564 0.025863864 -0.034974203 0.04830722
000120 b4 ff 8c 3d bf 8c 91 3c 57 12 8b bc 4a 9a d5 bb
       0.06884709 0.017767308 -0.016976519 -0.006518637
000130 a1 6a 67 bd 35 15 7c 3d 7b 0e 64 3c f8 e4 93 3d
       -0.056498174 0.061543662 0.013919468 0.07221407
000140 50 9f b9 3d 01 64 02 bd bc 77 03 3d f8 f7 b3 3d
       0.090635896 -0.031833652 0.03209661 0.08787531
000150 7f 92 8d bc c2 cc ee 3c ee 10 c4 3c b1 73 f2 bc
       -0.017281769 0.02915037 0.023933854 -0.029596182
000160 ff 3a 7b 3c 41 20 b4 bc fd 36 8e 3c 04 97 7e 3c
       0.01533389 -0.021988036 0.017360205 0.015538935
000170 0b 18 e2 3d c0 cd 0c 3c 4e a7 d0 bc 15 02 40 3d
       0.11039742 0.0085939765 -0.025470402 0.046876986
000180 d4 2e 0c 3d d3 44 bd bc b9 5f ef 3b b0 35 ac 3c
       0.034224346 -0.023104107 0.007305112 0.021021694
000190 9f f7 d9 3d 24 8b c6 bc 77 a9 87 bd 4c b9 01 ba
       0.10642933 -0.02423627 -0.0662412 -0.0004948571
0001a0 8b 0e 5d bd 0f 25 14 bd d3 86 c2 3d 83 b4 1d bd
       -0.053968947 -0.036168154 0.09498372 -0.038502228
0001b0 b3 b7 54 bc 12 a1 db bc 6c 3c 95 3d 2e 62 a8 3c
       -0.01298325 -0.026810203 0.07286915 0.020554628
0001c0 49 dd 5c 3d da aa 7e bc e0 86 04 3c 2e 07 e0 3c
       0.05392197 -0.015543664 0.008088797 0.027347174
0001d0 fc 79 84 bc c4 9f c8 3d 49 0f a5 3d 90 ca 44 bd
       -0.016171448 0.09796098 0.08059556 -0.04804474
0001e0 50 58 78 bd 9b cb b9 bd d0 46 b0 bc f3 8a de bd
       -0.060631096 -0.09072038 -0.021518141 -0.10866346
0001f0 8b 30 8f 3c 58 bb 8b bd b5 c0 7e 3d 21 56 79 bd
       0.017479202 -0.06822842 0.0621955 -0.060873155
000200 4c 74 ef bc 28 45 66 bd ad e8 9c 3c 28 cf 6a 3d
       -0.02923026 -0.056218296 0.019153917 0.057326466
000210 4d 87 d8 3c c6 f3 fb bc 85 b3 dc bc 34 16 12 bd
       0.026431704 -0.030755889 -0.02694107 -0.035665706
000220 b6 15 91 bc a1 be db bc 69 cb 19 bd d7 9a c5 bd
       -0.017710548 -0.026824297 -0.037547503 -0.09648674
000230 f5 84 46 bd 92 95 34 3d 28 f3 87 bc fc 1f 4e bb
       -0.04846664 0.044087954 -0.016595438 -0.003145217
000240 81 61 1e 3d 46 16 46 bc 58 51 86 bd 39 0e 2d 3c
       0.038667206 -0.012090271 -0.06558484 0.010562473
000250 d1 10 c4 bd b7 d8 ba bd 12 c2 80 3c de f1 86 3d
       -0.0957352 -0.09123366 0.01571754 0.06589101
000260 25 88 fb 3b 9a 85 86 bd 37 42 f6 bd ad b9 9c bd
       0.007676142 -0.06568451 -0.12024348 -0.07652602
000270 96 da da bd 4f e3 63 bd 57 8f ee bc 29 59 bc bc
       -0.10686223 -0.0556367 -0.029121084 -0.022991734
000280 c7 74 2b 3d dc b5 ef bd e9 2c 1f 3d cb b3 16 3d
       0.041859414 -0.11704609 0.03886119 0.036792558
000290 53 db be bd 59 9b 39 3d fa d2 75 bb 61 4c 83 bd
       -0.093191765 0.045314167 -0.0037509785 -0.064110525
0002a0 f0 48 ac bd 27 28 7f ba b2 79 e7 bc 28 00 61 3d
       -0.08412349 -0.0009733461 -0.028256271 0.05493179
0002b0 c6 ba 1d bd 9f 40 8c 3d 11 ad c8 bd c7 3e d8 bd
       -0.0385082 0.06848263 -0.09798635 -0.10558849
0002c0 c4 2d 56 3d 60 e1 34 bc a2 27 81 3d da 50 24 bd
       0.05228974 -0.011040062 0.063063875 -0.04011617
0002d0 ae 9b 71 bd 95 d4 5b bd e1 ff ac bd 7a 8e bf bd
       -0.05898636 -0.05366953 -0.084472425 -0.09353347
0002e0 87 d4 84 bd 74 1f 96 bd 2d bd 2e bd c3 0c a8 bd
       -0.06485849 -0.07330218 -0.04266088 -0.08205559
0002f0 e5 36 cb bc 9b f7 f4 bd 51 16 e0 bb 24 0f 02 be
       -0.02480645 -0.119612895 -0.006838598 -0.12701088
000300 26 2a 0f 3d c8 50 96 bd c9 ba 71 3d b2 ea 1b bd
       0.034952305 -0.073396266 0.059016023 -0.03806562
000310 b1 10 af bd 4a 67 1a 3d d6 b6 66 bc 42 eb ed 3b
       -0.085481055 0.03769616 -0.014081677 0.007260711
000320 72 55 49 bb c6 6a 24 bd a8 f0 27 bd 85 d6 1e bd
       -0.0030721095 -0.04014089 -0.041000992 -0.0387788
000330 f3 ae 6f bd 2c 22 ae 3a c2 04 f4 bc 51 66 67 bd
       -0.058516454 0.001328533 -0.029787425 -0.05649406
000340 ce b3 82 bc 2b d3 d2 3c d7 ad 52 3d 86 82 7e bd
       -0.015954878 0.025735458 0.051435318 -0.062136196
000350 78 f7 b8 bc 25 9b 88 3d a6 31 d1 bd 08 eb ce bc
       -0.02257894 0.066702165 -0.10214548 -0.025258556
000360 72 29 93 3d 6c a2 27 3d ee 63 8a bd a5 73 31 bd
       0.071856394 0.040926382 -0.06757341 -0.043323178
000370 57 05 30 3d 93 42 f8 bc d0 3f 36 3d 80 d7 a0 3c
       0.042973842 -0.030305183 0.04449445 0.019634008
000380 a6 26 98 bd 3e 39 a2 3c 7d 36 3f 3d f1 3a 46 3c
       -0.074292466 0.019802686 0.046682823 0.012099014
000390 b6 f1 d1 bd 23 b4 6c bd 7d 02 b8 bd d8 5b 98 3b
       -0.10251181 -0.05778898 -0.089848496 0.0046496205
0003a0 8e e1 64 3d fb 43 dd 3c 6f fb dd 3c 21 b3 75 3c
       0.05587917 0.027009955 0.027097432 0.014996321
0003b0 7f b3 75 3d d7 d5 91 3c 52 9c 8b 3b 5a 5a c3 bd
       0.059985634 0.017802162 0.004260578 -0.095387176
0003c0 63 a1 db bb 14 40 4c bd 40 c6 d3 bc 6f ab 10 bd
       -0.0067025884 -0.049865797 -0.025851369 -0.03531974
0003d0 72 08 f5 bc c1 f2 e7 bd 0c 28 a2 bd f1 68 ce bd
       -0.029911254 -0.113255985 -0.079177946 -0.1007861
0003e0 07 01 a3 bd 2b 0c c7 3c a4 3c c1 bd 46 a8 af 3d
       -0.0795918 0.024297794 -0.094353944 0.085770175
0003f0 f1 93 75 bd 7b de d6 bd 5e ff 13 bd 12 66 1d bc
       -0.05995554 -0.104916535 -0.03613221 -0.009606855

input_layer.0.bias f4 [64]
000000 bf eb 91 bd 83 77 0e bd 7c 5b 8e bd c9 c3 ad 3b
       -0.07125043 -0.034781944 -0.06951043 0.0053028804
000010 fb c7 a0 bc ea fe 89 bd c5 6b c4 bc 37 28 cf bd
       -0.019626608 -0.06738074 -0.02397717 -0.10115092
000020 07 ef 92 bd ca be 85 3d 90 83 0a 3d b0 18 db bc
       -0.07174497 0.06530531 0.033816874 -0.02674517
000030 90 5a 17 3d 4d 59 a4 bd e7 2c 9d bd 32 4c af bd
       0.0369516 -0.08024845 -0.0767458 -0.08559455
000040 42 dc 8b 3d 0b 1b 8f 3d 94 51 96 bd 6d 35 41 bd
       0.0682912 0.0698758 -0.073397785 -0.04717009
000050 dc dc 57 3d 45 df 6e 3d df 5b 8f 3d 86 41 1b 3d
       0.052700862 0.058318395 0.06999945 0.037904285
000060 56 b7 9a bd 9c 4f 44 bb 63 d4 b9 bb f6 4c 2d 3d
       -0.075545 -0.0029954677 -0.0056710704 0.042309724
000070 b9 c5 85 bd 29 dc d3 3c 20 c5 16 bd f9 3b 1d 3d
       -0.06531853 0.025861816 -0.036809087 0.038387273
000080 97 ae 8c 3d 64 64 bf bc 69 58 63 bc 2a 2e 7c 3d
       0.06869238 -0.0233633 -0.013876059 0.061567463
000090 f1 e6 5d bd 44 e5 67 bd 09 10 5c 3d 4f 03 25 3d
       -0.05417532 -0.05661513 0.05372623 0.04028636
0000a0 ce 92 9b bd 15 4e 41 bd 10 a5 2e 3d 1e fb e9 3c
       -0.0759636 -0.047193605 0.042637885 0.028562125
0000b0 3e 65 4b bd 65 3f 83 bd 43 4c 28 3d 90 dc 78 3d
       -0.0496571 -0.06408576 0.041088354 0.06075722
0000c0 69 75 33 3d b0 34 13 bc ba 75 8b 3d 73 70 b4 bc
       0.043813143 -0.00898473 0.06809564 -0.022026276
0000d0 ea e5 c6 3d a9 6d ed bc 13 0c 2c 3d 5b f0 5e bd
       0.097118214 -0.028982954 0.042003702 -0.05442844
0000e0 2c 92 3f 3d 29 4f 0f bc ab 01 ea 3b c3 a9 81 bd
       0.04677026 -0.008746901 0.007141312 -0.063312076
0000f0 43 8c d0 3c 8c 99 ae 3d 93 04 04 3d 6c 8f 8d 3d
       0.025457507 0.085253805 0.032230925 0.06912121

input_layer.1.weight f4 [64]
000000 eb 2e 72 3f 5f 78 97 3f ce 9b 92 3f 3a 2e 81 3f
       0.9460284 1.1833609 1.1453798 1.0092232
000010 e8 84 92 3f b4 a1 93 3f e1 72 95 3f 13 ad 97 3f
       1.144681 1.1533723 1.1675683 1.1849693
000020 73 e2 96 3f 87 2e 96 3f 27 cb 76 3f 39 1b 85 3f
       1.1787857 1.1732949 0.96403736 1.0398933
000030 49 f7 87 3f 8f 20 97 3f c7 82 92 3f f4 45 93 3f
       1.062234 1.1806811 1.144616 1.1505723
000040 34 12 7d 3f e1 fe 8c 3f 72 d5 92 3f 44 dd 93 3f
       0.988559 1.1015283 1.1471388 1.15519
000050 63 14 92 3f a9 c5 96 3f c2 06 93 3f b1 a6 92 3f
       1.1412472 1.1779071 1.1486437 1.145712
000060 9d 46 95 3f fa d3 93 3f f8 d2 97 3f 51 66 90 3f
       1.1662174 1.1549065 1.1861258 1.1281224
000070 1b 8a 96 3f f1 10 97 3f b2 6f 91 3f 1e 88 71 3f
       1.1760896 1.1802045 1.1362212 0.94348323
000080 36 c4 97 3f 51 ad 98 3f b5 b9 93 3f 77 cb 99 3f
       1.1856754 1.1927892 1.1541048 1.2015218
000090 c4 b8 82 3f 30 ec 95 3f 3e 1f 8d 3f 8f ec 8e 3f
       1.0212636 1.1712704 1.1025159 1.1165942
0000a0 99 b3 87 3f 9d 1a 96 3f 9a 7a 97 3f 5c fb 74 3f
       1.0601684 1.1726872 1.183429 0.95696044
0000b0 e3 2e 96 3f 23 fd 93 3f 60 dc 8d 3f 0b f5 93 3f
       1.1733059 1.1561626 1.1082878 1.1559156
0000c0 e2 de 69 3f 25 4e 98 3f 4f 64 93 3f a3 fe 96 3f
       0.9135572 1.1898848 1.1514987 1.1796459
0000d0 d9 75 93 3f 82 7e 95 3f 5a 78 85 3f ae ae 97 3f
       1.1520339 1.1679232 1.0427353 1.1850183
0000e0 f1 d8 71 3f bf fd 97 3f 1a 1d 94 3f 30 85 92 3f
       0.9447165 1.1874312 1.1571381 1.1446896
0000f0 6a 82 9b 3f c8 d8 94 3f aa 0a 77 3f 1b 21 93 3f
       1.2149174 1.1628656 0.9650065 1.1494478

input_layer.1.bias f4 [64]
000000 a8 7c 2b 3d 15 9a 40 3e 9d 06 32 3e fb f9 08 3e
       0.04186693 0.18808778 0.17385335 0.1337661
000010 e6 49 21 3e 2d 5e 49 3e 48 ea 40 3e 11 8e 4e 3e
       0.15750846 0.19664831 0.18839371 0.20171382
000020 80 a9 4c 3e 55 57 63 3e 11 27 53 bd fb fe 8c 3d
       0.19986534 0.22201283 -0.05155093 0.06884571
000030 26 0a 14 3e 6a c6 4d 3e 69 89 0f 3e 95 da 34 3e
       0.14456996 0.2009522 0.14017262 0.17661507
000040 e8 12 d3 bc 39 34 46 3e fc 2e 40 3e 53 a4 39 3e
       -0.025765851 0.19355859 0.18767923 0.18129091
000050 19 16 26 3e 0c 1f 40 3e 08 78 27 3e 39 c5 15 3e
       0.16219367 0.18761843 0.16354382 0.14626016
000060 d0 4b 3b 3e 19 1e 2f 3e 38 2d 42 3e 65 07 23 3e
       0.18290639 0.17101325 0.18962562 0.1592079
000070 3b 18 3b 3e 88 ab 43 3e bb 7c 20 3e 6d 0f 0b bd
       0.18270962 0.19108403 0.15672581 -0.033950258
000080 cc 0e 47 3e 59 61 58 3e f3 b7 34 3e 56 1f 60 3e
       0.19439238 0.21130885 0.17648296 0.21886954
000090 05 21 a4 3d f7 70 44 3e a3 65 34 3e f3 bf 1e 3e
       0.080141105 0.19183718 0.17616896 0.1550291
0000a0 91 27 03 3e 77 50 40 3e f0 1b 4f 3e 30 cf 6d 3b
       0.12808062 0.18780695 0.20225501 0.0036286823
0000b0 72 42 52 3e 98 d2 43 3e 0d 0a 1d 3e fc 55 35 3e
       0.2053316 0.19123304 0.15335865 0.17708582
0000c0 f0 56 33 bd c3 2c 5d 3e 89 02 30 3e df c6 72 3e
       -0.043784082 0.21599106 0.17188467 0.23708676
0000d0 85 52 38 3e 90 b4 34 3e eb fd 19 3e 01 43 5c 3e
       0.18000229 0.17647004 0.15038268 0.21509935
0000e0 29 91 53 bd 22 fa 64 3e 2d d1 35 3e 93 4d 62 3e
       -0.051652107 0.22361043 0.17755575 0.22099905
0000f0 f6 0e 7b 3e d1 4d 36 3e 8b c2 b1 3c 8b 17 33 3e
       0.24517426 0.17803122 0.02169921 0.1748945

input_layer.1.running_mean f4 [64]
000000 87 c8 1f bd 59 65 89 bd 54 7b c6 bd 6a 51 43 3d
       -0.039009597 -0.06708784 -0.09691492 0.047685064
000010 da 56 a6 3b b2 a8 2c bd f1 dd 9b bc 3f 79 d1 bd
       0.0050762715 -0.042153068 -0.019026728 -0.10228204
000020 b7 5e 96 bd 0f 0b 65 3d 23 36 84 3a bb c2 52 bd
       -0.07342284 0.05591875 0.0010086935 -0.05145524
000030 50 25 52 3d d3 08 d6 bd 6a 8f 87 bd 58 26 fe bd
       0.051305115 -0.10450902 -0.06619151 -0.12409657
000040 b3 e3 21 3d 7a 47 87 3d 1b 85 2c bd e9 ea 46 bd
       0.03952379 0.0660543 -0.042119127 -0.04856387
000050 cc 7c 98 3c 15 0e b0 3c 35 5b b6 3d 01 c1 97 3c
       0.018614195 0.02149109 0.08904115 0.018524649
000060 0c 2c 3e bd bf 1e 95 3c 80 fc 9c 3c 18 9d 6b 3c
       -0.046428725 0.018203137 0.01916337 0.014380716
000070 12 b2 63 bd d1 28 39 ba 78 f5 a0 bd 78 16 83 3d
       -0.055589743 -0.0007063272 -0.078593194 0.0640077
000080 a1 ed 82 3d 6e af 82 bd 2f ea 0b 3b a5 62 c7 3c
       0.0639298 -0.06381117 0.00213493 0.02433903
000090 4b 4e 3d bd d3 ba 54 bd db 89 aa 3d 3c 63 95 3d
       -0.046217244 -0.051935982 0.08327075 0.07294318
0000a0 10 de 4f bd 7e bf 99 bd be de c7 3b 83 df e5 3c
       -0.050748885 -0.07507227 0.006099551 0.02806068
0000b0 b7 c2 de bc d1 b4 d3 bc fc 25 99 3d 19 71 2c 3c
       -0.027192457 -0.025843056 0.07477948 0.010525011
0000c0 74 7e 4e 3d be de 70 bc c9 a8 36 3d da 53 27 bd
       0.050413564 -0.014701543 0.04459456 -0.04085145
0000d0 d1 4d b9 3d 34 e9 6f bd de 43 90 3d 38 40 3e bd
       0.090480454 -0.05857201 0.07044195 -0.046447963
0000e0 5c b1 c2 3c fe 69 a1 bc 53 9d ba 3c a7 a2 a5 bd
       0.023766212 -0.019703861 0.022780096 -0.08087664
0000f0 3c e6 44 bc 12 06 80 3d 47 0e 1c bc d7 cb bd 3d
       -0.012017783 0.06251158 -0.009524888 0.09267395

input_layer.1.running_var f4 [64]
000000 52 75 55 40 2b d7 b5 40 58 48 b1 40 c7 c4 cb 40
       3.3352857 5.6825156 5.540081 6.3677707
000010 9a 83 84 40 6c cb 0e 40 d0 d2 88 3e 63 fc 46 3f
       4.1410646 2.231166 0.26723337 0.7772886
000020 a3 25 6a 3f b0 ac 51 3f 91 44 c8 40 d4 23 4e 40
       0.9146368 0.81904125 6.25837 3.2209368
000030 49 ee 1c 3f f9 df 2d 40 a9 87 fe 3f 76 0f df 40
       0.61301094 2.7167952 1.988515 6.9706373
000040 9f 95 5d 40 a8 7e 1f 3f e4 6e 92 40 60 33 c4 3e
       3.4622571 0.6230264 4.5760365 0.38320446
000050 dc ae db 40 9d d8 d0 40 9e f4 52 3f 39 78 54 40
       6.865095 6.526442 0.82404506 3.3198378
000060 5f 44 81 40 ad d7 0e 40 73 d5 8d 40 19 9e 68 40
       4.039596 2.2319138 4.432306 3.6346495
000070 77 7b 1c 3f 1c ca 97 40 e8 f3 fd 40 fd c6 3d 40
       0.6112589 4.7434216 7.9360237 2.9652703
000080 89 15 02 3f 3f f2 e3 40 e6 95 72 3f aa 58 ab 40
       0.5081411 7.123321 0.94759977 5.3545732
000090 d2 ff ed 3f b2 3c ae 3e 35 8a 9c 40 cf 5b 6d 40
       1.8593695 0.34030682 4.891871 3.7087286
0000a0 f4 50 3a 40 e7 72 90 40 a9 9b a6 40 4e 39 fe 3e
       2.911191 4.514026 5.2065015 0.49653095
0000b0 8e 2a 25 40 85 64 7d 40 d4 e7 5e 40 d1 f0 0a 41
       2.5807223 3.9592602 3.4828997 8.683793
0000c0 5b 93 44 3f 2f d3 9f 3f d0 4f 61 40 13 a1 9e 3f
       0.76787347 1.2486323 3.5204964 1.2392906
0000d0 6a c0 60 3f 95 c6 53 40 56 7f 80 40 2c 8b b7 3e
       0.877936 3.3089955 4.015544 0.35848367
0000e0 7d f6 49 40 98 14 9b 3f 36 f0 9d 3f 6d c8 19 40
       3.1556695 1.211566 1.2338932 2.402858
0000f0 00 4d 85 40 b4 3b 06 40 cf d2 9e 40 a6 4c 1d 40
       4.1656494 2.097394 4.9632335 2.4578032

res_blocks.0.linear1.weight f4 [64, 64]
000000 a6 09 a9 bd 57 42 90 bc d5 d8 15 be b3 b9 84 3d
       -0.082537934 -0.017609758 -0.14633496 0.06480732
000010 7e 35 88 3c 75 28 6e bd cb 35 a9 bd 6a e2 33 bd
       0.01662707 -0.05814405 -0.08262213 -0.043917097
000020 06 78 a1 bc 95 29 e8 bc f0 e1 99 bb 41 dd 7f bd
       -0.019710552 -0.02834014 -0.0046961233 -0.062466864
000030 26 a1 5a bc 5f bd 39 bd 2f e9 cb 3d 10 bd dc bb
       -0.013344085 -0.045346614 0.099565856 -0.006736405
000040 c1 8d b8 3c e2 b3 61 bc ee f4 45 bd 66 25 97 bd
       0.022528531 -0.013775798 -0.048329286 -0.0738018
000050 e7 12 14 be 1e dc 5b bd 37 82 4b bb 40 23 fc bd
       -0.14460336 -0.053676717 -0.0031052956 -0.12311411
000060 3a bb be 3d 7f 8d e3 3c a6 70 c1 3d 66 3e b7 3c
       0.093130544 0.027777432 0.09445314 0.022368621
000070 42 e0 1c 3d df a9 25 3d 1e 06 34 be fb 96 f1 bc
       0.038299806 0.040445205 -0.17580459 -0.029490938
000080 fa f1 07 3d 61 bf 2e be 0d ae 8c 3d 0c 5f 0b be
       0.03318975 -0.17065193 0.06869135 -0.13610476
000090 10 00 85 3d bb 9c 83 bb 9d 0a 8f 3d de 85 db bd
       0.064941525 -0.0040164865 0.06984446 -0.107188925
0000a0 cd 02 3d bd f3 07 11 bd 2b 49 4e bd 0a 6c 99 3d
       -0.04614525 -0.03540797 -0.050362747 0.0749131
0000b0 db ef 83 bd 73 16 0a be 97 f5 b4 3c 01 6c 2a be
       -0.06442233 -0.13485126 0.022089763 -0.16642763
0000c0 9c 62 b5 3c 19 82 d6 bc 57 5b 04 be 86 0e e4 bc
       0.022141747 -0.026185082 -0.12925468 -0.027838957
0000d0 db 19 94 bc 3c 06 1d bd 2f b7 b6 bc 80 29 c9 3c
       -0.018078735 -0.038336024 -0.022304146 0.024555922
0000e0 19 ba ee 3c 93 ec b6 bd 80 79 a9 bd 7f c6 c9 bc
       0.029141473 -0.08931842 -0.082751274 -0.024630783
0000f0 4a 0f dc bd d3 d4 be 3c 0b eb 16 be a8 9a 56 3d
       -0.10745104 0.023294842 -0.147381 0.052393585
000100 32 b0 4d 3d ca ae 18 3b 54 93 5a 3d 28 92 88 bd
       0.05021686 0.0023297542 0.05336316 -0.06668502
000110 84 c3 cb bd 2b 82 eb bc 9f 4f f7 3d 16 a2 03 3d
       -0.09949401 -0.028748592 0.120757334 0.032137
000120 f1 18 d5 bc 77 31 71 bd 10 48 3b bd f8 7f 09 3e
       -0.02601287 -0.058885064 -0.04572302 0.13427722
000130 f5 62 06 be dd 67 3e bd 76 9f 7c 3d a0 04 2c bc
       -0.13123687 -0.04648577 0.06167551 -0.01049915
000140 ef 52 ab bd f6 e2 97 3d 14 ff f6 bd ec c5 f0 3c
       -0.08365428 0.07416336 -0.12060371 0.029391252
000150 78 32 65 3b 52 d3 b6 bd 92 72 25 3c 62 90 32 3d
       0.0034972709 -0.08927025 0.0100981165 0.043594725
000160 33 c0 81 bd 45 55 52 3d c5 1f ab bd 0a 0b fe 3c
       -0.06335487 0.05135085 -0.08355669 0.031011123
000170 7a ce a9 bd 8d 54 82 b8 1f 2d 45 3d b4 ab be bd
       -0.082913354 -6.214632e-05 0.048138734 -0.093100935
000180 c6 3b 6a 3d c6 8d 68 bd 00 2f e8 bd 9f c3 9c 3d
       0.05718591 -0.05677583 -0.113370895 0.07654499
000190 17 28 44 bc 4b 99 2c 3d 92 65 0a 3d 7e 71 de bd
       -0.011972449 0.04213838 0.03378827 -0.10861491
0001a0 4e f3 69 3c 04 f4 7b 3d e6 79 e4 3d a7 b9 b3 bc
       0.0142792 0.06151201 0.11156063 -0.021939112
0001b0 00 69 ac 3d 6e 55 80 3c 13 b7 2e 3d d6 de 72 bc
       0.08418465 0.015665736 0.042655062 -0.014823636
0001c0 6e 1c a3 bd 5b 48 e6 bd fb 23 98 bd ac c9 f3 bd
       -0.07964407 -0.112442695 -0.07428738 -0.119037
0001d0 97 22 2e bd 32 7b 9b bd fd d3 0b be 07 9f b5 3d
       -0.042513456 -0.07591857 -0.13655086 0.08868223
0001e0 45 91 ed 3d 03 c3 17 be 96 50 ee bc 16 b8 00 3e
       0.115999736 -0.14820485 -0.02909116 0.12570223
0001f0 b0 76 d9 bd 6e df 37 3d cd 16 99 bd 4d e2 77 3d
       -0.10618341 0.044890814 -0.07475052 0.06051855
000200 e0 27 c9 3d 6f e7 1c bd 89 21 cf bb b8 71 52 3d
       0.09822059 -0.03830665 -0.0063211364 0.051377982
000210 41 a4 06 3d 3d 21 cb 3d dc 40 e0 3d 4e 62 dd 3c
       0.03287149 0.09918449 0.10949871 0.027024414
000220 0b 08 25 3e 90 e3 82 3d 62 e5 6c bc f6 c5 57 3d
       0.1611635 0.0639106 -0.014458986 0.052679025
000230 e5 14 fe 3d 02 e6 6c bd 9a 89 57 bd 20 c2 b1 bb
       0.12406329 -0.05783654 -0.05262146 -0.005424753
000240 a3 99 fe bd c1 be 8c 3d 50 bc 9e bd 72 b5 8b 3d
       -0.12431648 0.06872321 -0.077507615 0.06821717
000250 24 a8 b2 bd 39 5b 98 ba 55 1f e5 3d 5e 72 fa bc
       -0.087234765 -0.0011623866 0.11187617 -0.030572113
000260 e1 4f ed 3d c1 7c 91 bd 93 67 95 3d a1 62 d6 3d
       0.11587501 -0.07103873 0.07295146 0.10468031
000270 d5 1d 56 3b d9 2e 43 3c 4d d4 ed bc 05 52 a4 bd
       0.003267159 0.011913025 -0.029031897 -0.080234565
000280 a2 59 9f bd e3 2b 5f bd 2a ec bb 3d ba 43 6a bd
       -0.07780768 -0.054485213 0.09175904 -0.057193495
000290 d8 c3 ff 3c 8b 5a ce 3d d4 c8 de 3d 20 be a0 bd
       0.031221315 0.100758635 0.10878149 -0.078487635
0002a0 83 5a 89 3d 03 3f 9f bd 4f 4d 93 bd 8e 06 6b 3d
       0.06706717 -0.077756904 -0.0719248 0.057379298
0002b0 e9 8b 37 3c c1 ca f8 bd 2f ee 57 3d 42 ea 20 be
       0.011202791 -0.12148047 0.052717384 -0.15714362
0002c0 a8 7c 14 bd d4 62 ed 3d dd 4f 82 bd 3b 73 bd 3c
       -0.036251694 0.115911156 -0.06362889 0.023126235
0002d0 fa e2 bf bd 16 77 d3 bd 2e 71 97 3d cf 5a 8a 3d
       -0.09369464 -0.10325448 0.07394634 0.067556016
0002e0 48 3f 0a be c3 b3 7d 3d 57 5d d8 3d 95 7c 83 3d
       -0.13500702 0.061939012 0.10564678 0.064202465
0002f0 ee 3d ae 3d 65 07 ab 3c 01 10 ac bd c6 b1 f7 bc
       0.08507906 0.02087755 -0.0840149 -0.030236136
000300 da f0 d1 bd 86 17 af 3b 00 f6 42 3a 5b cf 57 bc
       -0.10251017 0.0053433804 0.00074371696 -0.013171996
000310 5a ca 8f 3d 88 bc 8e bd e4 86 92 bd 77 da e1 bd
       0.070210174 -0.06969553 -0.071546346 -0.11027997
000320 4f 82 cd bd df bd 0b 3e 12 fb e4 bd 31 4f 02 bd
       -0.1003462 0.13646649 -0.111807 -0.031813804
000330 92 96 56 bd f4 39 8d bd 1b 3f ad 3d 39 7e bf 3d
       -0.05238969 -0.06895819 0.08459302 0.09350247
000340 6b b9 cf 3d 0b b2 b5 bc c4 50 f6 3d ca af 9e 3d
       0.101427875 -0.022179624 0.120271236 0.07748373
000350 3c 4d 59 bd e7 58 e1 3d 76 2e ab bb 57 0e a7 bd
       -0.053052172 0.11003285 -0.0052240444 -0.08157032
000360 b1 d4 bf 3d ea f6 13 bd 9e 32 c8 3d 60 c3 d8 bb
       0.093667395 -0.036124147 0.097752795 -0.0066150874
000370 eb 3a 40 be f1 3c 0d 3d 40 0a 56 bd 5b 12 96 bc
       -0.18772475 0.034481946 -0.05225587 -0.0183193
000380 ff 7f f3 3d d3 50 be bc 49 54 4a bd 25 ec 60 bd
       0.11889648 -0.0232319 -0.049396787 -0.054912705
000390 25 7a 83 3d 8a 0e 77 bd 5a 5e 8e bb ff 76 ff bd
       0.064197816 -0.0603166 -0.0043447437 -0.124738686
0003a0 61 38 82 bd d7 32 ed 3d 91 d5 a6 3d 70 69 0b be
       -0.0635841 0.115819626 0.08146203 -0.1361444
0003b0 06 f9 4f 3d 20 57 cb bd bf 38 c8 3c e9 e5 aa bd
       0.050774597 -0.09928727 0.024441121 -0.08344633
0003c0 92 0d 71 3d 20 cf 8e bd b1 13 ba bd 09 74 95 39
       0.058850832 -0.069731 -0.09085787 0.00028505948
0003d0 b4 d8 31 bd ae ed fe 39 a4 e2 89 bd fd fb 21 be
       -0.043419555 0.0004862374 -0.067326814 -0.15818782
0003e0 a7 26 83 bd fa 2e 4e bd 6b 2a c3 bd cc ed a7 bc
       -0.06403857 -0.05033777 -0.09529575 -0.020499133
0003f0 93 94 7e bd e2 34 8b bd df 42 15 bd 74 02 e1 bd
       -0.06215341 -0.06797196 -0.036440726 -0.10986796

res_blocks.0.linear1.bias f4 [64]
000000 cc bd c6 bd 25 6c 23 3d 33 44 c5 3d 31 92 e4 3d
       -0.0970417 0.039898057 0.096321486 0.11160696
000010 55 30 ef 3d c8 6c bd 3d 46 a0 03 bd 1f be cf 3d
       0.116791405 0.09249264 -0.03213527 0.101436846
000020 42 56 dc bd f0 f7 01 3e 70 46 b1 bd 75 97 7b 3d
       -0.1075864 0.12692237 -0.08656013 0.061423738
000030 a5 b2 e7 bd b9 a4 07 bd 3a de 9b 3d 89 a3 eb bd
       -0.113133706 -0.033116076 0.07610746 -0.11505801
000040 b6 d1 5d 3b 78 f0 d8 3c 2c 8b 18 bd d9 ac 97 bd
       0.0033846921 0.026481852 -0.0372421 -0.07406015
000050 17 f5 a1 bd 06 eb 8f 3c 15 95 77 3d 7d 08 b2 bd
       -0.07908075 0.017568123 0.06044491 -0.08693025
000060 e5 7e 02 3e 06 86 a3 3d fe 3c 63 3d 33 5c fe bd
       0.12743719 0.07984547 0.05547809 -0.12419929
000070 5d 74 d5 3c e4 aa 1e bd 79 78 82 bd 81 23 04 3d
       0.026056463 -0.038737193 -0.063706346 0.03226042
000080 9f 33 cc bd e4 b6 52 3d 74 08 7a 3d 01 74 4e bc
       -0.099707834 0.05144395 0.061043218 -0.0126009
000090 2c 47 aa 3d 39 27 18 bd bb d2 45 3d f6 13 5d 3d
       0.08314356 -0.03714678 0.04829667 0.053974114
0000a0 f6 1d bc bd 01 15 03 be 3b ff da bd 9f 11 b7 bd
       -0.09185402 -0.12800981 -0.106932126 -0.08938908
0000b0 2e 6b 6d 3d 18 16 8e bc 6e ea 30 bc dc 0f ae 3d
       0.057963543 -0.01734452 -0.01079808 0.08499119
0000c0 a2 91 49 bd 89 90 61 bd a8 b0 bc bd df 78 9d bd
       -0.049211152 -0.05506948 -0.09213382 -0.0768907
0000d0 ad 1b b4 bd 69 40 a5 bd 42 ba d6 3d 27 d3 d6 3d
       -0.08794341 -0.08068926 0.104847446 0.10489493
0000e0 03 a5 9d 3d e2 ab 89 bd 75 8d aa 3d 71 dd b4 bb
       0.07697489 -0.06722237 0.08327762 -0.005519562
0000f0 5f 47 86 3d 25 6b c0 bd 07 e1 53 bd 54 b1 7c 3d
       0.06556582 -0.09395436 -0.051728275 0.06169255

res_blocks.0.bn1.weight f4 [64]
000000 40 94 88 3f 22 96 78 3f 5d 54 74 3f c1 4b 85 3f
       1.0670242 0.97104084 0.9544123 1.0413743
000010 d3 42 71 3f 97 ce 7e 3f bc 55 76 3f 03 86 8c 3f
       0.9424259 0.9953398 0.9622457 1.0978397
000020 b5 3f 85 3f ac 69 76 3f d8 6e 89 3f 6f 65 72 3f
       1.0410067 0.9625499 1.0736952 0.94686025
000030 cd c9 74 3f 74 d6 81 3f c5 0d 89 3f 64 44 83 3f
       0.95620424 1.0143571 1.0707327 1.0255246
000040 1b 6b 82 3f ef 39 83 3f 9d b9 70 3f 42 98 84 3f
       1.0188936 1.0252055 0.94033223 1.0358965
000050 82 05 7d 3f 7e 74 79 3f 92 ca 77 3f fa f6 7c 3f
       0.9883653 0.9744338 0.9679347 0.98814356
000060 fc 32 8b 3f b6 3a 73 3f 75 e3 83 3f 2c 8d 7b 3f
       1.0874934 0.9501146 1.0303789 0.98262286
000070 f6 7c 81 3f 99 12 79 3f cc 9a 7e 3f 54 13 79 3f
       1.011626 0.97294 0.9945495 0.9729512
000080 6d b0 84 3f 42 3d 75 3f 3d bb 83 3f 71 b0 79 3f
       1.0366341 0.95796597 1.0291516 0.97534853
000090 84 63 81 3f 5b dc 7f 3f fe 2d 78 3f 66 58 85 3f
       1.0108495 0.9994561 0.9694518 1.0417602
0000a0 e1 40 73 3f e6 35 7d 3f c4 ff 7c 3f 00 81 73 3f
       0.9502087 0.9891037 0.9882777 0.95118713
0000b0 17 4d 80 3f 70 7c 80 3f dc 70 81 3f 32 7e 71 3f
       1.0023526 1.0037975 1.0112567 0.94333184
0000c0 36 75 82 3f 0f f7 7f 3f 2b 51 7f 3f 98 2c 82 3f
       1.019202 0.99986356 0.9973323 1.0169859
0000d0 f5 f9 7a 3f 4f 34 7e 3f 75 45 82 3f 75 59 71 3f
       0.98037654 0.99298567 1.0177447 0.94277126
0000e0 cb b6 85 3f 95 ec 88 3f ed d1 72 3f 28 ba 73 3f
       1.0446409 1.0697199 0.9485157 0.95205927
0000f0 f0 9c 6d 3f 89 2d 79 3f a2 96 83 3f 14 72 81 3f
       0.9281759 0.97335106 1.0280344 1.0112939

res_blocks.0.bn1.bias f4 [64]
000000 32 ab 37 3d 20 13 24 bd 76 a1 3b bc 09 95 35 3b
       0.044841 -0.0400573 -0.0114520695 0.002770724
000010 48 d6 22 bd b2 95 8e 39 96 6f 85 3d f3 14 7a 3d
       -0.039755136 0.00027195882 0.06515424 0.061055135
000020 49 90 92 bc 7e 0d 64 bd 87 9e 38 3c d8 22 6b 3d
       -0.017891066 -0.05567693 0.011268265 0.057406276
000030 a7 e5 03 bd 8b b9 63 3c e2 45 8c 3d 5b de 9b bd
       -0.032201435 0.013899217 0.068492666 -0.0761077
000040 6e 55 51 bc e9 7d bf 3c f1 29 8f bd d5 7b 8b 3c
       -0.012776716 0.023375468 -0.069904216 0.017026821
000050 a1 ce f9 bb ff da 0a 3d c3 a4 e9 bc f7 79 fb 3a
       -0.007623509 0.033900257 -0.028520947 0.0019186129
000060 35 29 44 bd 84 60 07 bd 60 ad d6 3b cb 26 b5 3c
       -0.04789086 -0.03305103 0.0065514296 0.022113224
000070 94 fc 0d 3c cc 37 ca 3c 9d 03 7b bd 1b 0e bd 3c
       0.008666176 0.02468481 -0.061282743 0.023078015
000080 4b e6 79 bc bd ba 37 3c c6 1e 35 bc 5d fb b7 bc
       -0.01525266 0.0112139555 -0.0110547 -0.022458727
000090 0b de 87 3c ff 29 f5 3c 7c 96 4a bb de 7a ef 3c
       0.01658537 0.029927252 -0.003091245 0.029233392
0000a0 1c 2e e9 3c 9c e2 89 3c dc 56 92 bc 58 a2 e8 bc
       0.02846437 0.016831689 -0.017863683 -0.028397724
0000b0 b3 29 ba 3c 25 b8 0f 3d 70 22 98 3d eb 86 e4 bc
       0.022724962 0.035087723 0.074284434 -0.027896365
0000c0 93 55 38 bb f8 ea 8b 3d 7e 1a 0e 3d 69 8e bf 3c
       -0.0028127178 0.06831926 0.034693234 0.023383336
0000d0 28 f0 1b 3b 9a 6f 31 bc d9 6e 35 bc e1 bf d8 3c
       0.0023794267 -0.010829831 -0.011073791 0.026458682
0000e0 b1 cb fc 3c 78 2d ad 3c e6 dc 53 3d 81 5a 19 bd
       0.030858846 0.021139845 0.051724337 -0.037439827
0000f0 15 10 bd bb 5a 09 2a 3c ff f8 7f 3d 5c e6 5a 3d
       -0.0057697394 0.010378206 0.06249332 0.053442344

res_blocks.0.bn1.running_mean f4 [64]
000000 e0 36 9a bf f9 91 aa be 19 fd f3 3e 04 d2 10 bf
       -1.2047997 -0.33314493 0.47654036 -0.5657046
000010 d8 9a 90 3e 07 41 41 bf d9 b7 f7 be 04 88 37 bf
       0.28243136 -0.7548985 -0.48382452 -0.7169192
000020 28 b4 66 bf 05 74 2b bf 75 54 9b bf da a2 9d 3f
       -0.90118647 -0.66973907 -1.2135149 1.2315323
000030 da d4 14 bf b4 c6 16 3e 8e 44 81 bf 59 f5 90 bf
       -0.58137286 0.14724237 -1.0099046 -1.1324874
000040 bc ee 84 bf 66 82 2a be 37 a5 2b bf 95 96 6b bf
       -1.0385356 -0.16651306 -0.6704897 -0.92026645
000050 23 18 fd 3d 5d fa b0 be 23 a1 28 bf 4f 99 71 bf
       0.12358119 -0.34566012 -0.65870875 -0.94374555
000060 84 1f 04 bf 8e 28 0f bf 73 35 67 bf 84 04 90 bf
       -0.5161059 -0.55921257 -0.9031593 -1.1251378
000070 52 7d 6a bf 2b a8 87 bf 26 aa 21 bf 79 a1 94 be
       -0.91597474 -1.0598196 -0.6315025 -0.29029444
000080 d2 fc 6b bf 07 2c 00 be 2e d1 6b bf 0a fa 7e 3f
       -0.9218265 -0.12516795 -0.9211606 0.9960028
000090 d9 1c 07 bf ed 58 3b bf 91 ab 93 bf f6 65 5a bf
       -0.52778393 -0.73182565 -1.1536733 -0.8531183
0000a0 42 bd 7e bf 42 4f 1b bd 39 89 12 be 85 35 87 bd
       -0.99507535 -0.037917383 -0.14310159 -0.06602005
0000b0 99 f1 73 bf b6 1a da be d8 0c 43 bf b5 59 92 be
       -0.95290524 -0.42598504 -0.76191473 -0.28584066
0000c0 2a 67 31 bf 3a 3b e3 be 76 5c d6 be 48 e0 2a bf
       -0.6929804 -0.44381124 -0.41867417 -0.66748476
0000d0 7c 93 49 bf 43 49 2d 3e 38 3c 6c bf f4 87 cf bd
       -0.7874067 0.16922478 -0.92279387 -0.10133353
0000e0 16 3b 32 bf 40 1f 92 bf 93 08 fd bc 4d 4c 3d bf
       -0.6962141 -1.1415787 -0.030887878 -0.7394455
0000f0 bf 71 a9 3e ae 51 ff be b3 d5 22 bf 81 55 ae 3e
       0.33094594 -0.49867004 -0.6360733 0.3404961

res_blocks.0.bn1.running_var f4 [64]
000000 61 17 8f 3f f6 30 2a 3e 76 e8 6b 3f d9 cd e9 3e
       1.117901 0.1662024 0.9215158 0.45664862
000010 68 57 89 3e b1 25 59 3f fb bd c3 3e c7 06 e8 3e
       0.26824498 0.8482314 0.3823088 0.4531767
000020 a5 67 c0 3e ef 10 b2 3e c0 4d 89 3f 54 35 43 3e
       0.37579075 0.34778544 1.0726852 0.19063312
000030 8f 51 81 3e 3c 58 47 3f d5 cc 09 3f 68 53 8f 3e
       0.25257537 0.7786901 0.53828174 0.2799332
000040 a6 5c b5 3e ab 6d f9 3e d3 f7 44 3e 4e 14 9e 3e
       0.35422248 0.48716483 0.19235162 0.30874866
000050 c2 e3 0a 3f a8 90 22 3f c0 85 24 3f a2 4c 3c 3f
       0.5425378 0.6350198 0.64266586 0.7355443
000060 ab 71 de 3d bb c7 ee 3e f7 fd 99 3e 65 5c 6f 3f
       0.10861524 0.46636757 0.30076572 0.9350036
000070 1d 3c 26 3f a2 db 6e 3f b5 fd 45 3e 0b d1 d8 3e
       0.64935476 0.93303883 0.19335063 0.42346987
000080 e9 80 29 3f da 11 1a 3f 19 a3 4b 3f da d8 5f 3e
       0.66212326 0.6018349 0.7954574 0.21860066
000090 67 90 0a 3f 90 c4 0d 3f 87 16 04 3f 88 4c 43 3e
       0.5412659 0.55378056 0.51596874 0.19072163
0000a0 fe cd 90 3f 20 16 45 3f 87 95 8a 3e 95 d9 0d 3f
       1.1312864 0.76986885 0.27067205 0.5541013
0000b0 fa 59 24 3e a6 e4 b3 3e c1 60 86 3f 8c 52 74 3e
       0.16049948 0.35135382 1.0498277 0.23859614
0000c0 6b c3 4f 3f 62 6e 35 3f 4f 72 ff 3e 4e 6e 06 3f
       0.8115756 0.70871556 0.49891898 0.5251206
0000d0 3f 3b 39 3f f9 21 b2 3e d8 a8 17 3f 99 11 7a 3f
       0.7235603 0.34791544 0.5924201 0.976831
0000e0 6f 20 10 3f 2d 7d 4a 3f 12 f4 4c 3f 00 97 7c 3e
       0.5629949 0.79097253 0.8005992 0.24666977
0000f0 61 c8 8e 3e 50 61 9f 3f db ab d6 3e ca 16 ad 3f
       0.27887252 1.2451572 0.4192799 1.352258

res_blocks.0.linear2.weight f4 [64, 64]
000000 59 61 f6 bd a8 f5 8b bd e4 64 b8 3d 34 c6 2f bd
       -0.12030286 -0.068339646 0.09003618 -0.04291363
000010 ce f9 68 bd 8f cd 75 bc 9d 0e 2a bd 3f 33 d9 bd
       -0.056878857 -0.015002622 -0.041517843 -0.106054775
000020 46 60 80 3a 01 a8 c5 3d 02 64 f7 bd cc 3b 07 bd
       0.0009794317 0.09651185 -0.12079622 -0.03301601
000030 b5 da 91 3d 6e 39 05 3d 9a cc dd bd 2c 86 b8 3c
       0.07121793 0.032525472 -0.1083004 0.022524916
000040 34 b7 ce 3d fc 5b a3 bc cc b9 03 3d a4 2e b7 bd
       0.10093537 -0.019941323 0.03215961 -0.08944443
000050 63 dd 16 bd 7b 64 be 3d 39 b4 90 3c ef 97 d5 3d
       -0.036832225 0.09296509 0.017664062 0.1042937
000060 ba 80 99 3d 42 45 6b bd b8 1a a2 bc dd 29 f7 bd
       0.07495256 -0.057439096 -0.019788131 -0.12068532
000070 1b 57 b9 bc 5a 7f ef 3c 50 72 14 3d b8 8a b9 bd
       -0.022624543 0.02923553 0.03624183 -0.090596616
000080 0a 82 dd 3d 73 b5 73 bd 5e d9 07 bd b0 98 0d bd
       0.108158186 -0.059499215 -0.033166282 -0.034569442
000090 13 60 0a 3d d2 0b 1c be 23 87 af bc 87 52 dc bc
       0.03378303 -0.15238884 -0.021426743 -0.02689482
0000a0 59 e4 5c bd aa 8f dc bd 2e fe 82 bc 9a ed 34 bc
       -0.053928707 -0.10769589 -0.015990343 -0.011042977
0000b0 03 a4 c4 3d 84 a7 ee bd 99 9a d6 bc 13 59 42 3c
       0.09601595 -0.11653045 -0.026196765 0.011862057
0000c0 39 41 15 3d 45 0f fa bd 37 96 b6 bd ab f9 16 be
       0.036439154 -0.12209944 -0.0891537 -0.14743678
0000d0 6f 6b c7 bd 87 a8 c0 3d 88 16 0f be 9e c0 51 3d
       -0.09737288 0.09407144 -0.13973439 0.051209085
0000e0 48 83 92 bd 38 7b 95 3d 46 9b 82 3d fa 9e f8 3c
       -0.07153946 0.07298893 0.06377272 0.030349243
0000f0 4f d4 d9 bc 40 72 ba bd bb 4e f0 bd f4 ff 74 3c
       -0.026590494 -0.09103823 -0.11733767 0.014953602
000100 d8 8a 1f be e7 8d 4c 3c b5 03 9e bd 4b 5f 29 bc
       -0.15580308 0.012485004 -0.07715551 -0.010337661
000110 ed 3b 69 3d 34 4e 08 3d 0d 34 0a be 51 7d de 3b
       0.056941915 0.033277705 -0.13496418 0.006789841
000120 4b 72 a9 3d 16 be 67 3b 27 af 06 be c4 53 a7 bb
       0.08273753 0.0035361103 -0.13152753 -0.005106421
000130 24 99 f3 bc 2c 11 4a bd 76 ef 1e be 61 78 47 bd
       -0.02973611 -0.049332783 -0.15521035 -0.048698787
000140 e8 82 d0 3d 6e 87 ba 3d ae 73 0c 3e 36 97 84 bd
       0.101812184 0.091078624 0.13716003 -0.06474154
000150 4b 11 e6 bd 06 66 b7 3d 9b 3d a3 3b 61 c4 9a bd
       -0.11233767 0.08955006 0.004981709 -0.075569876
000160 53 cc 57 bd d4 9c 0d bc f9 4f 0f be 96 fc a5 3d
       -0.052685093 -0.008643348 -0.13995351 0.081048176
000170 67 bd 97 bd 19 1a 9a 3d 51 7b 43 3d 99 03 00 bd
       -0.074091725 0.07524509 0.047725026 -0.03125343
000180 13 2b 06 3e 7a b1 97 3c 2f 6a cc bc 51 ee 83 bd
       0.13102369 0.018517245 -0.024952976 -0.064419396
000190 15 08 85 bd 23 8a a8 bd 58 da 92 3c 8d 2c 85 3d
       -0.06495682 -0.082294725 0.01792638 0.06502638
0001a0 34 a4 fe bd 2b a3 c7 3c 03 a9 d8 3d 8f 90 de 3c
       -0.12433663 0.024369797 0.105791114 0.02716854
0001b0 bf 81 82 3d 33 3e 5c 3d 1a 14 9f bd 28 98 80 3d
       0.06372403 0.053770255 -0.07767506 0.062790215
0001c0 3b 6f 1b be 4e e4 69 bd f1 2b 5f 3d 86 96 fe bd
       -0.1517915 -0.057102494 0.054485265 -0.12431054
0001d0 2e f8 c4 3c 8e 62 ae bc 74 99 12 be 9e e7 0a be
       0.024044123 -0.021287229 -0.1431635 -0.13564917
0001e0 55 5c 97 ba 10 91 91 bc 50 4e ad 3d 3a e1 cd bb
       -0.0011547903 -0.017769367 0.084622025 -0.0062829526
0001f0 2d b7 a2 bd 53 37 1b 3d ae d9 ca bd 7d 81 d4 bc
       -0.07945094 0.03789456 -0.099048 -0.025940651
000200 8f 29 24 be c7 fd d7 bd a4 dd 0c bd a5 95 b1 bd
       -0.16031478 -0.10546451 -0.03439106 -0.086711206
000210 7a da cc 3d 90 40 e1 bd 85 cd 17 3e 7c 5b 02 be
       0.100026086 -0.109986424 0.14824493 -0.12730211
000220 06 0e 62 bd 39 99 10 3e 02 3b cb bd 7d 9b 10 be
       -0.055189155 0.1412095 -0.09923364 -0.14121814
000230 24 84 af 3d a9 c2 63 bc 05 41 eb 3d 4f 32 9e 3d
       0.08570126 -0.013901391 0.11487011 0.07724439
000240 ea 49 1f 3e f7 77 81 bc a9 e3 54 bd 9c 42 2c bd
       0.1555554 -0.015804274 -0.051974926 -0.04205571
000250 f3 bf 0b be 49 a5 87 bd d1 3a b2 3c 3d ef ce bd
       -0.13647442 -0.066233225 0.021756561 -0.10104225
000260 47 c1 71 bd ad 6c aa bd c1 bb 89 bd 01 3d a1 3d
       -0.059022214 -0.083215095 -0.06725264 0.07872964
000270 6d cf 04 be de 4e f0 bd 1a 15 ea 3c ef 53 a2 bd
       -0.12969752 -0.11733793 0.028574515 -0.07926165
000280 f3 b0 00 3e de 1d 6b bd a9 41 f2 3c f6 62 9c 3d
       0.12567501 -0.05740153 0.029572325 0.07636063
000290 73 2f 65 3d 3c 3e c0 bd 35 cc 3f 3b 36 28 3f 3c
       0.055953454 -0.0938687 0.0029266004 0.011667302
0002a0 ed 07 d0 3b 2c 89 05 bd 05 27 47 bc 81 f0 d6 3d
       0.006348601 -0.03260152 -0.012155299 0.10495091
0002b0 3b 86 bf 3d 79 5d 82 3d 01 81 fe bc fc 2a b6 bd
       0.09351774 0.06365485 -0.031067373 -0.08894917
0002c0 a9 c9 83 3b 45 81 13 be d6 c3 75 bd 22 96 da bd
       0.0040218425 -0.14404781 -0.060001217 -0.10673167
0002d0 d5 5b 20 bd c7 c9 aa 3d c6 c0 ac bd 06 30 54 3d
       -0.039150078 0.08339267 -0.08435206 0.05180361
0002e0 88 ac ab 3d 32 b3 17 bd a1 eb ab bd 05 08 41 bd
       0.08382517 -0.03703613 -0.08394552 -0.04712679
0002f0 cc d7 8d bd 82 9b 09 be 46 90 d2 bd 47 4e bb bd
       -0.069259256 -0.13438228 -0.10281424 -0.091457896
000300 d8 2c 92 bd 45 3e b9 3d 87 95 71 3d fd ed 8c 3c
       -0.071374595 0.0904508 0.05898049 0.017203325
000310 64 d6 bd 3b e0 fc 02 be 0d d7 e6 3c ca 97 32 3e
       0.0057933796 -0.12791777 0.028178716 0.17440715
000320 98 71 2a 3e b1 87 b7 3d 32 6b a0 3d 30 e7 30 bd
       0.16644895 0.08961428 0.07832946 -0.043189228
000330 ff 1d 5c bd a2 e6 ee bd ed 3d 0b be fe 6e f0 3b
       -0.053739544 -0.116650835 -0.13597842 0.00733745
000340 5e 51 0d 3c 1e ff 8e 3d 2d 64 87 3b 1b d8 35 3d
       0.0086253565 0.069822535 0.004131815 0.044395547
000350 bf 74 d4 bd 2f 28 80 bd ac 7c 49 bc 23 84 9a bd
       -0.1037383 -0.062576644 -0.0122977905 -0.07544734
000360 82 d3 80 bc b7 c2 bf bd 1c 28 05 bd a6 a0 80 bd
       -0.015725855 -0.09363311 -0.032508954 -0.06280641
000370 41 75 94 3d a2 78 f7 bc ad e8 e4 bd c7 7f 21 bd
       0.07248927 -0.03020889 -0.11177192 -0.0394285
000380 42 4a 3d bd e5 9b 24 bd 49 ba 85 bc 84 6c fd 3d
       -0.046213396 -0.040187735 -0.01632418 0.12374213
000390 99 61 cf bd 4a 97 61 3d 45 aa d1 bc a1 4a ca 3d
       -0.10126037 0.05507592 -0.025593886 0.098775156
0003a0 78 bd cc 3d 76 99 ea 3b 4b 04 50 bc c1 5c 03 be
       0.09997076 0.0071594073 -0.012696336 -0.12828352
0003b0 2a 67 b5 3d 42 75 f5 bd 3e 2f f7 bc 55 d8 91 bb
       0.088575676 -0.11985256 -0.030173894 -0.0044508376
0003c0 ca 30 de bd 55 76 2b 3c 65 28 bf 3a 40 47 fb 3c
       -0.108491495 0.010465224 0.0014584182 0.030673623
0003d0 0a ce 02 bd f1 8d 39 bd 2b 23 28 bd 6d c0 d5 bd
       -0.031934775 -0.04530138 -0.041049164 -0.10437093
0003e0 c3 97 04 3c 7e ee fa bb 41 78 0d 3c 74 2c 73 bd
       0.008092823 -0.007657825 0.008634628 -0.059368566
0003f0 65 0c dd 3c 18 3b d3 bd 42 53 09 3e e7 3e 2c 3d
       0.02698345 -0.103140056 0.13410667 0.042052176

res_blocks.0.linear2.bias f4 [64]
000000 8e e9 13 3d 62 fc 0a bc f9 77 62 3d 2b 4a ef 3c
       0.036111407 -0.008483024 0.055290196 0.02921017
000010 68 9a fb bc a6 22 10 bd 43 50 48 3b ea 35 d4 bc
       -0.030713275 -0.035189293 0.0030565418 -0.025904614
000020 28 a2 d9 bd 9a 4a fe 3d 7d e7 2e 3d 2c d1 ae bd
       -0.10626632 0.12416573 0.042701233 -0.0853599
000030 73 ad 61 bd a3 ae 05 be 9b b8 09 bd f1 46 31 3d
       -0.055097055 -0.130549 -0.03362332 0.043280546
000040 79 c1 fa bd 9d 39 d0 bd f9 4d ee bd 90 88 7d bd
       -0.12243933 -0.10167239 -0.11635966 -0.061897814
000050 d7 d8 f3 bd 32 55 b4 3d 98 10 34 bd 5b b5 64 bd
       -0.11906593 0.08805312 -0.043961138 -0.055837017
000060 8a b1 d0 bd c5 06 f9 3d 41 cb 9b 3c 74 25 53 3d
       -0.10190113 0.12159494 0.019017817 0.05154939
000070 b3 2b 12 bd f0 ba d3 bd 6d ea 99 3d 77 59 89 bd
       -0.035686206 -0.1033839 0.07515416 -0.06706517
000080 e6 11 1d bd 12 2e ed bd 0d 82 f1 3d 9f 09 de 3d
       -0.038347147 -0.11581053 0.11792383 0.10841679
000090 8a b0 a9 3d c0 a4 f1 3d 6e b2 ea bb cd 65 02 3b
       0.08285625 0.11799002 -0.0071623838 0.0019897104
0000a0 cb 6a 54 bd 28 8e 1c bd ae a7 b4 bd 05 c9 54 bd
       -0.05185966 -0.03822151 -0.08821045 -0.05194952
0000b0 55 22 03 3d ef a8 b8 bd 33 59 1b 3a fd 2a 8d bd
       0.032015163 -0.090165965 0.00059260725 -0.06892965
0000c0 27 d1 99 3d 95 af 35 3d 0d 03 1f be 0b 5a a4 bd
       0.07510596 0.0443569 -0.15528508 -0.08024987
0000d0 95 e2 8d bd d5 d1 7c bd ee 58 fd bc f3 4b c5 bc
       -0.06927983 -0.06172355 -0.030926194 -0.024084067
0000e0 c4 4d f0 3c a8 e7 de 3c 54 0e 0c be cf 96 60 bd
       0.029333957 0.027210072 -0.13677341 -0.054831322
0000f0 8a f2 7c 3d b9 be 6a bc 8b ad d2 bc 01 40 2b 3d
       0.06175474 -0.014327698 -0.025717517 0.041809086

res_blocks.0.bn2.weight f4 [64]
000000 4b a4 8a 3f 11 7a 9a 3f 29 6c 95 3f 6e 1e 8a 3f
       1.0831388 1.2068502 1.1673633 1.0790536
000010 90 b9 95 3f 61 00 98 3f cf 30 97 3f c1 f5 98 3f
       1.1697254 1.1875116 1.181177 1.1949998
000020 20 6b 9b 3f ea 28 9a 3f c3 ab 7c 3f c8 d8 92 3f
       1.2142067 1.2043736 0.9869959 1.1472406
000030 f1 9d 8c 3f 44 2d 99 3f 8c 73 90 3f 0a 4b 97 3f
       1.09857 1.1966939 1.1285262 1.1819775
000040 09 48 8a 3f d3 cc 97 3f cd df 99 3f 01 69 96 3f
       1.0803233 1.1859382 1.2021424 1.1750795
000050 e3 e4 94 3f 70 63 98 3f 0b f4 95 3f f7 e3 92 3f
       1.1632351 1.1905346 1.1715101 1.1475819
000060 aa d5 98 3f 91 ec 95 3f 4f 7f 98 3f 93 87 92 3f
       1.1940205 1.1712819 1.1913851 1.1447624
000070 74 63 98 3f 73 b5 98 3f ab 58 94 3f 75 5c 7d 3f
       1.1905351 1.1930374 1.1589559 0.98969203
000080 1d 4a 98 3f a3 90 98 3f 0f 61 96 3f 54 18 9b 3f
       1.1897618 1.191914 1.174837 1.2116799
000090 1f a5 8a 3f e9 20 98 3f f0 03 98 3f 75 06 93 3f
       1.0831641 1.1885043 1.1876202 1.1486346
0000a0 70 74 94 3f 56 08 98 3f 46 76 99 3f 17 4d 80 3f
       1.1598034 1.1877544 1.1989219 1.0023526
0000b0 d2 36 9a 3f 9d b0 99 3f 02 90 93 3f 12 12 94 3f
       1.204798 1.2007023 1.1528323 1.1568015
0000c0 99 31 7c 3f 45 d8 98 3f d2 b3 95 3f 29 46 98 3f
       0.9851318 1.1941 1.1695502 1.1896411
0000d0 8d 46 96 3f 9c 5a 97 3f 62 54 96 3f 3b a1 9c 3f
       1.174028 1.1824527 1.1744502 1.2236704
0000e0 81 56 74 3f 20 bf 98 3f 42 73 96 3f 63 11 95 3f
       0.95444494 1.1933327 1.1753924 1.1645931
0000f0 2e ec 9a 3f 08 94 97 3f 0d 5d 7a 3f 03 71 95 3f
       1.2103326 1.184205 0.97798234 1.1675113

res_blocks.0.bn2.bias f4 [64]
000000 a1 2d 9a 3d 9a 98 50 3e 1d 27 34 3e cb bc fd 3d
       0.07528234 0.20370713 0.17593046 0.12389525
000010 d3 98 38 3e 92 2c 54 3e 01 06 38 3e e0 10 4f 3e
       0.18027048 0.20720127 0.1797104 0.20221281
000020 31 01 51 3e cd 67 65 3e 53 c1 3f bd f5 9c 06 3e
       0.2041061 0.22402878 -0.046815228 0.13145812
000030 c4 93 b0 3d e3 45 49 3e 53 94 27 3e ba 64 3c 3e
       0.08621934 0.19655566 0.16365175 0.18397799
000040 b8 d8 9f 3c df 30 29 3e 05 f4 45 3e 68 53 36 3e
       0.01951252 0.16522549 0.19331367 0.17805254
000050 70 48 23 3e b3 eb 41 3e 6a 8e 2d 3e 86 cc 35 3e
       0.15945601 0.18937568 0.16948858 0.17753801
000060 a7 da 46 3e 70 ac 34 3e 9d 78 4c 3e 73 23 2e 3e
       0.19419347 0.17643905 0.19967885 0.1700571
000070 dd 14 41 3e 73 d2 4b 3e 7a e0 2f 3e 16 b1 2e bd
       0.18855615 0.19904499 0.17175475 -0.04264935
000080 c6 4f 39 3e 8a f1 5c 3e 24 3e 49 3e 2d bd 65 3e
       0.18096837 0.21576515 0.19652611 0.22435446
000090 3a 28 65 3d 54 68 51 3e 58 8e 47 3e 7c 09 2a 3e
       0.055946566 0.20449954 0.19487894 0.1660518
0000a0 1a b6 02 3e 5f 61 3c 3e 39 2b 51 3e da 20 05 bd
       0.12764779 0.18396519 0.20426644 -0.032502033
0000b0 a1 8e 60 3e 77 c8 58 3e 1a 43 39 3e 1b c3 40 3e
       0.21929409 0.21170221 0.18092003 0.18824427
0000c0 3d 7a 80 bd 13 27 50 3e a6 62 31 3e 33 c3 6a 3e
       -0.06273315 0.20327406 0.17322788 0.22926025
0000d0 b0 a9 2d 3e c3 75 3d 3e 61 d3 1b 3e 91 78 76 3e
       0.16959262 0.18501954 0.15217353 0.2406943
0000e0 04 cf 81 bd bd 68 50 3e 4b 71 41 3e 1e 6a 3c 3e
       -0.06338313 0.20352454 0.18890874 0.18399855
0000f0 5b ae 71 3e 90 d6 3b 3e 69 47 3e bd 58 d5 38 3e
       0.23601668 0.18343568 -0.04645482 0.18050134

res_blocks.0.bn2.running_mean f4 [64]
000000 60 a2 17 bf f5 b2 04 bf 50 9a 1e bf cb 9b 3e be
       -0.5923214 -0.51835567 -0.6195421 -0.18614118
000010 35 c2 cb 3c c5 b2 2b 3e f3 fa 1b 3c 56 97 d0 be
       0.024872879 0.16767414 0.00952028 -0.4074046
000020 10 36 ac bc 22 ad 08 3f 38 4c 00 3f 06 43 8d 3e
       -0.021021873 0.5338918 0.501163 0.27590197
000030 31 93 5c be 16 5d 02 bf 7b 37 d1 3e 5e 58 aa be
       -0.21540524 -0.5092329 0.4086264 -0.33270544
000040 fa fb 8c 3d 39 f0 05 bf c1 97 15 bd 40 5b ae be
       0.06883998 -0.52319676 -0.036521677 -0.34053993
000050 12 14 a6 be 90 44 11 bf c7 2b 5f 3d 90 0a 3c be
       -0.32437187 -0.56745243 0.05448511 -0.18363404
000060 18 e5 42 3e e1 38 82 3d 2d 1d 81 be 07 41 06 bf
       0.19032705 0.06358505 -0.25217572 -0.52442974
000070 3f bb a1 3d 13 e2 9d be e1 66 f2 be f2 df 3f be
       0.078970425 -0.30836543 -0.47344115 -0.18737772
000080 25 76 0a be 58 ca 2e bf 54 59 a6 3e 15 a8 1a bf
       -0.13521631 -0.682775 0.32490027 -0.6041272
000090 d1 09 e0 3e ce 43 84 be 2d 1d 13 3f 83 aa 41 bc
       0.4375749 -0.2583298 0.57466394 -0.011820438
0000a0 ee dc bf 3e 7f c4 ff be c2 f1 a9 be 9a 47 05 bd
       0.37473243 -0.49954602 -0.3319226 -0.032538988
0000b0 18 c6 c5 3e 1b eb fa 3e 7e ea e5 3e b8 dd 70 be
       0.38627696 0.49007496 0.44905466 -0.23522079
0000c0 58 8a 78 be bc 99 ae be df 08 10 bf 54 ef 92 be
       -0.24271524 -0.34101665 -0.56263536 -0.28698218
0000d0 e7 d9 01 be 7d 3f 34 bf 26 49 8b be 71 ce 99 3e
       -0.1268078 -0.70409375 -0.27204245 0.30040315
0000e0 6a 63 7b 3d 00 53 4d 3c b8 b5 1e 3c 49 c6 f7 be
       0.061374106 0.012531996 0.00968688 -0.48393467
0000f0 e7 53 ab 3e 4a 16 8a be 2a 82 23 bc 5f 67 94 3e
       0.3346245 -0.2697013 -0.009979764 0.28985116

res_blocks.0.bn2.running_var f4 [64]
000000 cc 69 cf 3e ff 8c c0 3e 85 75 94 3e da 51 5e 3e
       0.40510404 0.3760757 0.2899591 0.21710911
000010 a2 78 b6 3e 7e 7a 9c 3e 8e 50 1e 3e 40 8f 6f 3e
       0.3563891 0.30562204 0.15460417 0.2339449
000020 64 34 53 3e 56 a3 ed 3d f2 b6 87 3e 45 e0 d6 3d
       0.20625454 0.116034195 0.26506764 0.10491995
000030 db 0d df 3e 23 30 91 3e e8 ab 1f 3f 84 5f a5 3e
       0.43565258 0.28357038 0.62371683 0.32299435
000040 dc 10 04 3f 39 60 5e 3e 28 d2 8a 3e b1 1a 7d 3e
       0.51588225 0.21716394 0.27113461 0.24717213
000050 71 0c bb 3e fd be a1 3e 33 8a 6f 3e a0 5b d2 3e
       0.3653293 0.31591025 0.23392563 0.4108553
000060 2f 6a de 3e 4a ea 96 3e 76 5b 67 3e 8c 97 82 3e
       0.43440387 0.29475623 0.22593483 0.25506246
000070 9e cf 66 3e 91 ba 94 3e 0a cc a7 3e 8c 50 3c 3e
       0.22540137 0.2904859 0.32772857 0.18390101
000080 b8 d1 02 3e da 35 a5 3e cd 8b d8 3e e4 9e 18 3f
       0.12775314 0.32267648 0.4229416 0.5961745
000090 fe 6c 9f 3e 40 5b 3e 3e 53 83 ea 3e ed b7 05 3f
       0.31137842 0.18589497 0.45803317 0.52233773
0000a0 b5 ed a5 3e f9 d7 cb 3d 70 8e ed 3e 1d cc 8a 3e
       0.3240792 0.09953303 0.46397734 0.2710885
0000b0 75 34 1f 3f d2 e7 db 3e 11 95 c0 3e 07 5a d6 3e
       0.6218942 0.42950302 0.3761373 0.4186556
0000c0 23 e0 64 3e 46 31 70 3e c0 27 4f 3e cd 27 ad 3e
       0.22351126 0.23456296 0.20230007 0.33819428
0000d0 6d 0f 87 3e 35 14 b3 3e 36 42 79 3e ed 76 9c 3e
       0.26378956 0.34976354 0.24341664 0.30559483
0000e0 dc c7 04 3f 27 26 4b 3e 0a c8 6c 3e bf 62 28 3e
       0.5186746 0.19838773 0.23123184 0.16443919
0000f0 8b 2b bf 3e 37 5e b1 3e 5c 1d a2 3e b8 13 bf 3e
       0.37337908 0.34642193 0.31663024 0.37319732
