model/poly_resnet_model_50epoch54output.pt (torch, 170003 bytes, 44 tensors)

input_layer.0.weight f4 [64, 118]
000000 4c 3d bd bd 47 46 28 bd 89 4c fc bd 4e 49 16 3d
       -0.09240207 -0.041082647 -0.123192854 0.036691003
000010 b4 22 27 bd c5 ca f1 3c 93 8f 5f 3c 07 23 b4 bd
       -0.04080458 0.029515633 0.013645071 -0.087957434
000020 97 d9 93 bd 19 70 23 bd c6 d6 d6 3c f6 c9 47 3d
       -0.07219236 -0.039901827 0.026225459 0.04877659
000030 6c d7 89 bc 35 ab e5 bd 8b 5e 6f 3b 62 f0 17 bd
       -0.016826354 -0.11214296 0.0036524858 -0.03709448
000040 21 4a 67 3d b5 a8 bc bd a2 95 70 3d 2d 38 99 bd
       0.05646718 -0.09211866 0.05873645 -0.07481418
000050 d8 99 83 bd 3c 54 cf 3c 58 48 2b 3c ec bf 04 3b
       -0.06425828 0.02530872 0.01045426 0.0020255996
000060 46 b9 0e 3d 1e c3 96 bb d7 75 19 bd fb 5f bc 3c
       0.03484466 -0.0046008965 -0.037465896 0.022994986
000070 06 8b 56 3d 0c e1 76 3d a2 d2 84 bd 28 0d 67 bd
       0.052378677 0.060273215 -0.064854875 -0.05640903
000080 08 4b 31 3d 9e 7d 3b bd a5 69 8e bd ab b2 09 3d
       0.043284446 -0.045774095 -0.06953744 0.033617657
000090 44 94 86 bc 24 a6 9b 3c 63 24 06 3d 19 1a a4 bc
       -0.01642812 0.01900012 0.032749545 -0.020031976
0000a0 cb 67 c5 bc 7d 23 6e bd c4 ef 37 bd 18 e1 a9 bc
       -0.024097344 -0.058139313 -0.044906393 -0.020737216
0000b0 ba 17 c5 bd 9c e1 f3 bc 5b 38 8f bc 9e 78 cd bd
       -0.09623666 -0.029770665 -0.017482927 -0.100327715
0000c0 0a 66 bc 3c 75 61 b2 bc a0 93 57 3d dc c8 7a 3d
       0.022997875 -0.021774987 0.05263102 0.06122671
0000d0 c5 92 21 3d a4 83 8c bc 55 02 47 3d b1 6f 28 bb
       0.03944661 -0.017152615 0.04858621 -0.002570134
0000e0 9b 5e 8a 3b cf 4a 3c bd 30 ad 6e 3d c3 83 87 bd
       0.0042227036 -0.04596978 0.058270633 -0.066169284
0000f0 b5 d6 a2 3d 50 13 23 3d 1f f8 ea bc e2 e4 3b 3d
       0.07951108 0.03981334 -0.028682766 0.045872577
000100 a7 3f 53 bd 14 4a 96 bd 63 5a 7d 3d a7 85 12 3d
       -0.051574375 -0.07338348 0.061853778 0.035771992
000110 88 ad 8b 3d 28 87 f3 bd d7 c3 c7 bd 65 44 80 bd
       0.06820208 -0.118910134 -0.0975415 -0.06263045
000120 93 b4 d3 bd e8 db 72 bd f6 1d b6 3c c5 ae 31 bd
       -0.10337176 -0.05929175 0.022231083 -0.043379564
000130 37 23 a4 3c 32 bc ea bd 93 d0 f4 bd e9 cf ab bd
       0.020036323 -0.11461677 -0.11953845 -0.08389265
000140 7f b3 93 bc fd ed a6 3c 6a 80 87 bd 7b 1e 1a bd
       -0.018029926 0.020377154 -0.0661629 -0.037626725
000150 39 22 32 3d 1e 61 0f bd c5 99 ca 3b d6 10 cb bd
       0.04348967 -0.035004728 0.0061828815 -0.099153206
000160 35 21 22 3d 93 4c 1b 3d d6 43 90 3c 8d a8 06 be
       0.03958245 0.037914824 0.017610472 -0.13150235
000170 62 3d 84 bd cd ce b9 bd cd 13 1a bc 87 07 c3 3c
       -0.0645702 -0.09072647 -0.009404135 0.0238073
000180 46 6c fd bd 59 55 70 bd 1d f7 77 bd 5d c9 07 3d
       -0.12374167 -0.058675144 -0.0605384 0.03315102
000190 0e c7 c7 bc ca 0e ca bc 53 e9 04 bd de 79 88 bd
       -0.024386909 -0.024665255 -0.032449078 -0.06663869
0001a0 10 82 7c bd d0 f1 0b be a6 1a a4 bd 6e bd e4 3c
       -0.061647475 -0.13666463 -0.08012895 0.027922358
0001b0 85 0f 4c bd 98 80 bc 3c c2 99 cd 3c 54 d7 c4 bd
       -0.049819488 0.023010537 0.025097732 -0.09611383
0001c0 82 6f a2 bc 23 cc ef bd 99 51 a5 bd 5f 64 a4 bd
       -0.019828562 -0.11708858 -0.08072204 -0.08026957
0001d0 e3 03 19 bd 2b cf 82 bd 82 f0 34 bd 3d ef ec 3d
       -0.037357222 -0.063871704 -0.04417468 0.115690686
0001e0 37 08 c8 bc c6 57 89 3d 74 ce 1d 3e 14 b3 f7 3d
       -0.02441798 0.067061946 0.15410787 0.12094703
0001f0 da 38 26 bd 61 2a c9 3c e9 d0 b9 bd b8 d9 94 3b
       -0.04058156 0.02455634 -0.090730496 0.0045425557
000200 ee 5c 9f 3d e3 72 55 bc df 66 91 3c e2 25 33 3d
       0.07781397 -0.013027879 0.017749248 0.0437373
000210 9b f1 ad 3c 77 6d 39 3c 8f ff dc bb 1d f1 9f bb
       0.02123337 0.011317602 -0.006744332 -0.004881038
000220 c0 c0 ef 3c a8 5a 16 3d 9a a9 93 3d 69 d9 9b bd
       0.029266715 0.03670755 0.07210083 -0.07609827
000230 0a 0a 2e 3d a0 f1 82 bd e8 8a 46 3d 20 0c d1 3c
       0.042490043 -0.063937426 0.048472315 0.025518477
000240 d0 5e d2 bd 66 bc b8 3d f9 f7 3b 3d 1f 1d 77 bd
       -0.1027199 0.09020309 0.045890782 -0.060330506
000250 ae 17 9e 3d 88 0c 01 bd 38 3f ed bc 04 9a 14 bd
       0.0771936 -0.03150609 -0.02896081 -0.036279693
000260 bb 5b ae 3d b3 70 c1 3d 8c 6d ed 3d 65 ce e5 3c
       0.0851359 0.09445324 0.1159316 0.028052518
000270 21 40 15 bd 22 88 f7 bc e8 70 93 3c d1 95 a3 bc
       -0.03643811 -0.03021628 0.017998174 -0.019968899
000280 3d 61 95 3d 6f ec 07 3d fc fe d2 bd e8 4b 90 3c
       0.07293937 0.033184465 -0.10302541 0.01761432
000290 68 0c 37 bc d8 a8 6c bc d5 06 98 3c 61 5a 25 be
       -0.0111723915 -0.014444552 0.018557945 -0.16147758
0002a0 ef 4f 74 bd b8 1b 94 bd 50 02 46 3d 3a 08 ae bd
       -0.059646543 -0.072318494 0.04834205 -0.08497663
0002b0 cc 59 5b bd 75 c4 4a bc 51 aa b4 bd 94 f0 0d 3d
       -0.053552434 -0.012375941 -0.08821548 0.03465326
0002c0 af 56 2c ba 79 da 70 3d bf 53 0e 3d 1e bc 7a bd
       -0.0006574196 0.0588021 0.034747835 -0.06121456
0002d0 a7 65 1c bd 82 cc f0 bd 4c b9 39 3d f2 2c a6 3c
       -0.03818288 -0.11757757 0.04534273 0.020285103
0002e0 82 5e 98 3d 3c b4 af bd 82 73 63 3d 84 15 08 3d
       0.07439901 -0.08579299 0.05553008 0.033223644
0002f0 8e 51 aa 3c c0 19 c8 3d 25 0e b3 3c 7a cf 9b bb
       0.020790841 0.097705364 0.02185733 -0.0047549577
000300 31 ef 91 bc 2f ff 36 3d 89 e3 b9 3d 36 ea f0 3c
       -0.01781425 0.044676956 0.09076602 0.029408555
000310 51 34 89 3d 4e 0d 91 3d 4e 03 50 bc 8a 6e 44 bd
       0.06699432 0.07082616 -0.0126961 -0.04795698
000320 51 d6 8d 3d b4 a7 86 3d 47 11 94 bb 43 18 96 3d
       0.06925643 0.065749556 -0.004518661 0.07328846
000330 d2 94 85 bd b5 61 e0 3d 17 36 c9 bd 90 b3 1a 3d
       -0.06522526 0.10956136 -0.0982477 0.0377689
000340 fd 7f ce 3c 09 ad 3e bd d9 90 a1 bd 1c 1e 47 3d
       0.025207514 -0.046551738 -0.078889556 0.0486127
000350 05 44 5f bd 3f d6 66 3d 9f 80 cf bb d7 f4 f1 3d
       -0.054508228 0.056356665 -0.0063324715 0.118142776
000360 b6 0a 37 3d 29 ec 9b 3b 35 eb 24 bc b6 88 0f 3d
       0.04468795 0.004758377 -0.010065843 0.035042487
000370 46 4c 4e 3c 0b 47 03 bd d1 dd 03 bd 51 d9 c7 bc
       0.012591427 -0.032050174 -0.032193962 -0.024395617
000380 bb 26 b5 bc 06 55 9c 3d d5 34 5a 3d 94 a8 11 be
       -0.022113195 0.076334044 0.05327304 -0.14224464
000390 ba 7f 5d bd 9e f9 9e bd f2 74 89 3c 78 c1 9c bd
       -0.054076888 -0.077624545 0.016779397 -0.07654089
0003a0 f0 d4 5a bd 43 b5 af 3c cb 39 a9 3d bb c8 77 bc
       -0.05342573 0.021448737 0.08262976 -0.0151235415
0003b0 31 53 87 3d 0d 08 f5 bc c5 8b 14 3d 19 79 a9 bc
       0.066076644 -0.029911065 0.036266107 -0.020687627
0003c0 5f 2d 81 bc 5d ff b0 3c ac 83 c3 3d bf df 6b 3c
       -0.015768705 0.021606142 0.09546599 0.014396607
0003d0 89 5b 93 3d 08 42 36 bd 5f da 0a 3e 6f 2a cc 3d
       0.07195193 -0.044496566 0.13559864 0.09969031
0003e0 0a 18 b2 3b ec 3f 06 bc 9a b4 d9 3d 94 e1 7b 3c
       0.0054349946 -0.008193951 0.1063015 0.015373606
0003f0 e5 17 ae 3c 25 bd 05 bd 0e 61 aa bc df c4 09 3d
       0.021251628 -0.032651085 -0.020798232 0.033635017

input_layer.0.bias f4 [64]
000000 ba 4d ca 3d 82 02 e6 bc be ca 84 3d 08 53 0b 3e
       0.098781064 -0.028077368 0.064839825 0.13605893
000010 33 7d 17 3d 56 be 1e 3d ab 79 ee bc 78 a1 cc 3c
       0.036984634 0.038755737 -0.02911075 0.024979338
000020 56 cd f6 3c 6c 25 3e 3d 14 0d 42 3d de b2 6b bd
       0.030127209 0.046422407 0.047375754 -0.057543628
000030 7d 24 50 bd 23 16 9b 3c 3d 14 d4 bd 1e 89 8a bc
       -0.050816048 0.018931454 -0.10355423 -0.016911086
000040 d8 d3 db bd 6e b1 8a 3d 74 21 8c bc 0e 71 d7 3c
       -0.10733765 0.06772123 -0.017105795 0.026299026
000050 67 d6 6f 3b ab 56 5a 3d 03 59 5c 3d 2d f0 53 bd
       0.00365963 0.05330531 0.053795826 -0.05174272
000060 44 f4 8a 3c 0f 25 b9 bd 55 54 83 3d db 9f 26 3d
       0.016962178 -0.090402715 0.064125694 0.040679794
000070 3e 24 90 3a 29 e8 88 bb 9d de 31 bd 51 ef 40 33
       0.0010997129 -0.0041780663 -0.04342519 4.492114e-08
000080 14 af ec bd c2 f3 86 bc e7 51 e0 3d fe 2d e2 bb
       -0.11556831 -0.016473655 0.10953122 -0.0069024554
000090 34 39 b8 3d 12 ab 06 bc 2b 7f 92 bc c4 09 ab 3d
       0.08995286 -0.008219497 -0.017882904 0.08351472
0000a0 04 50 46 3d 10 7e e1 bd 5d 30 84 3d 5b e5 59 bd
       0.048416153 -0.11010373 0.06454537 -0.053197246
0000b0 99 33 69 bd 90 d8 88 bd 44 77 ea 3c 41 82 a5 3d
       -0.056933973 -0.06681931 0.028621323 0.080814846
0000c0 4b c1 33 3d 9d 74 bd bd 59 ef c5 bc 6e 79 53 bd
       0.04388551 -0.09250758 -0.024161981 -0.051629476
0000d0 6b 7e e8 3c 52 0c 05 3e f2 e8 ab bc 45 0a 2b 3d
       0.028380593 0.12992981 -0.0209851 0.04175784
0000e0 fa fd f4 bd af cb e6 3c 46 71 5b bd dd ff 21 bc
       -0.11962505 0.028173296 -0.053574823 -0.009887663
0000f0 7e 69 ff 3b 57 81 ed 3d ad ca ce bd f3 90 09 3d
       0.007794558 0.11596935 -0.10097251 0.0335855

input_layer.1.weight f4 [64]
000000 51 33 d6 3f a8 84 c2 3f 97 5a c8 3f 7e 98 d0 3f
       1.673441 1.5196733 1.5652646 1.6296537
000010 30 70 ce 3f af 35 d5 3f 04 a1 c4 3f 5a e0 ca 3f
       1.6127987 1.6657008 1.5361638 1.5849717
000020 85 37 c8 3f 6c 8e c6 3f d1 90 b6 3f f8 ea c3 3f
       1.5641943 1.5512214 1.4262944 1.5306082
000030 b3 49 c8 3f 31 8c ae 3f 3c c7 ca 3f 30 a4 c3 3f
       1.5647491 1.3636533 1.5842052 1.5284481
000040 86 b0 d6 3f b4 5e c5 3f 04 3d cd 3f 62 b3 b6 3f
       1.6772621 1.5419526 1.6034245 1.4273493
000050 d9 08 c5 3f 1a b7 c8 3f 1f ca c8 3f 52 35 d2 3f
       1.5393325 1.5680878 1.5686682 1.6422522
000060 40 b7 cc 3f 6f 14 d1 3f aa 5d cb 3f fb f2 cf 3f
       1.5993423 1.6334361 1.5887959 1.6246027
000070 e1 b4 d5 3f 7c d5 da 3f 1e 75 a2 3f da d5 d2 3f
       1.6695825 1.70964 1.2691991 1.6471512
000080 2e b9 c9 3f 2b bf c8 3f 07 73 ce 3f 1e 74 c5 3f
       1.5759637 1.568334 1.6128854 1.5426061
000090 52 57 cc 3f 44 5a c9 3f 9a 83 d5 3f e3 e3 a6 3f
       1.5964148 1.5730672 1.6680787 1.3038296
0000a0 c7 4b d3 3f 0a 42 c6 3f 57 7a d0 3f 4d dd cb 3f
       1.65075 1.5488904 1.6287335 1.5926911
0000b0 10 1b d8 3f 19 4a cb 3f d7 1b cc 3f e2 bf d7 3f
       1.6883259 1.5881988 1.5945996 1.6855433
0000c0 a4 ae ce 3f 7d 87 c8 3f 37 0b c9 3f e4 bf cb 3f
       1.6147046 1.5666348 1.5706547 1.5917935
0000d0 13 b6 c7 3f ff ee cb 3f 25 4d c6 3f 0f ea cd 3f
       1.560244 1.5932311 1.5492293 1.6087054
0000e0 fa 68 d3 3f b9 9f c7 3f a5 55 cf 3f 4f c4 d4 3f
       1.6516411 1.5595618 1.6198012 1.6622409
0000f0 9c 2c a3 3f 35 51 96 3f 90 98 cb 3f f4 5a cd 3f
       1.2747989 1.1743532 1.5905933 1.6043382

input_layer.1.bias f4 [64]
000000 e9 aa 31 3f 7a 43 0c 3f 83 d9 1f 3f 92 82 2e 3f
       0.69401413 0.5479046 0.6244127 0.68167984
000010 6b 92 26 3f be fe 29 3f ea ea 25 3f dc e2 2f 3f
       0.65067166 0.6640433 0.64811575 0.68705535
000020 fe 32 1c 3f 60 0e 1f 3f d4 cb 15 3e 84 29 1c 3f
       0.6101531 0.6213131 0.14628536 0.6100085
000030 dc 39 23 3f 18 48 0a 3f 43 e8 2a 3f 34 99 1a 3f
       0.6376016 0.54016256 0.66760653 0.6039002
000040 87 49 34 3f 64 cf 1c 3f c2 e2 30 3f 2c 6a d6 3e
       0.70424694 0.6125395 0.69096005 0.41877878
000050 0d 69 0b 3f cf 20 20 3f fa ba 20 3f 9b 8e 2a 3f
       0.5445717 0.6255006 0.62785304 0.6662385
000060 36 85 25 3f b4 a8 18 3f 6a 21 2a 3f 47 f3 30 3f
       0.6465639 0.5963242 0.66457236 0.6912121
000070 e7 0f 32 3f 52 ed 38 3f dc 97 51 3d 59 fa 25 3f
       0.69555515 0.7223712 0.051170215 0.64835125
000080 ab 08 1e 3f 98 48 15 3f 91 55 1b 3f f6 d0 1c 3f
       0.61731976 0.58313894 0.6067744 0.6125635
000090 cc b0 23 3f 3f 3a 1a 3f cb af 2b 3f 53 b8 bb 3e
       0.63941646 0.60245126 0.67065114 0.36664066
0000a0 a4 9f 2b 3f 3f 35 3b 3f d2 91 1f 3f 7c c9 29 3f
       0.6704047 0.7312812 0.6233188 0.66323066
0000b0 a4 01 27 3f 54 c4 35 3f de 1c 25 3f d3 77 35 3f
       0.6523688 0.710027 0.6449717 0.7088596
0000c0 56 5b 12 3f 74 d2 25 3f 1f 0b 23 3f 16 96 30 3f
       0.5717062 0.6477425 0.63688844 0.6897901
0000d0 da 48 1b 3f 4f 2a 19 3f 8d bc 2a 3f b4 59 20 3f
       0.6065804 0.5983018 0.66693956 0.62636876
0000e0 56 33 30 3f e9 b8 1f 3f 79 03 2c 3f fb f3 2a 3f
       0.6882833 0.62391526 0.671928 0.66778535
0000f0 02 eb 25 bd 34 d9 f3 3c 96 97 28 3f 08 ee 2a 3f
       -0.040507324 0.029766656 0.658563 0.66769457

input_layer.1.running_mean f4 [64]
000000 aa 67 8a 3d 46 a6 0c bc 58 f9 98 3d 05 27 2b 3e
       0.067580536 -0.008584565 0.074694335 0.16714104
000010 ad 9d 1b 3d b1 d9 88 3c 64 45 3b 3b 28 82 e2 3c
       0.03799217 0.016705366 0.0028575296 0.027649954
000020 48 59 33 3d 57 ba 6a 3d e8 cb 69 3c 4b 2b 62 bd
       0.043786317 0.057306614 0.014269806 -0.05521707
000030 fb f7 ff bc 24 01 30 3c 9f f9 69 bd 29 cf de 3b
       -0.031246176 0.010742459 -0.057122823 0.0067995978
000040 4f d0 02 be cf 44 c6 3d b0 b6 94 bc 1f b6 34 3d
       -0.12774776 0.09681093 -0.018153518 0.044118997
000050 c3 16 f1 3c 75 ea a1 3d c2 ab 87 3d df 6d f1 bc
       0.029429799 0.07906047 0.06624557 -0.029471336
000060 6d 01 0b bc 0e d2 06 be cb b4 93 3d 3d 6b 30 3d
       -0.008484227 -0.13166067 0.07212218 0.04307102
000070 fa 1f aa bc 60 44 10 bd e7 9c 34 bd a0 86 05 3c
       -0.0207672 -0.035221457 -0.044094946 0.008149773
000080 c2 c4 11 be 83 1f 91 ba 66 ff b8 3d 94 85 46 3b
       -0.14235213 -0.0011072013 0.090330884 0.003029202
000090 58 e6 ce 3d 53 bf de 3a 42 e4 68 bd f6 63 7a 3d
       0.10102528 0.0016994275 -0.05685831 0.061130486
0000a0 d5 0b 1b 3b 07 57 b5 bd d0 0c 93 3d c9 73 95 bd
       0.0023658175 -0.0885449 0.07180178 -0.07297475
0000b0 57 ae c1 bd e8 dd c9 bd 42 f3 e3 3c 02 9c 48 3d
       -0.09457081 -0.098567784 0.027825955 0.048976906
0000c0 a1 cc 30 3c f1 b7 e1 bd fd 3f 2d bb 6f aa 8b bd
       0.010790975 -0.11021412 -0.0026435845 -0.06819617
0000d0 48 1b a6 3c f0 d3 2a 3e fa 2a 4e bb df 7b 8c 3d
       0.02027668 0.1668241 -0.0031458721 0.06859564
0000e0 b8 23 2a be a6 1d 4d 3d 28 a7 12 bd bc 0d 42 bd
       -0.16615188 0.050077103 -0.035803944 -0.04737638
0000f0 19 77 d7 bc 24 a3 e2 3d 03 fe a6 bd 42 ba 7e 3d
       -0.026301907 0.11066273 -0.08153918 0.062189348

input_layer.1.running_var f4 [64]
000000 e6 50 cb 40 ed 5c ba 3f c5 b5 44 40 46 b8 05 41
       6.3536253 1.4559609 3.0735943 8.357489
000010 02 2d f7 3f d7 66 8b 40 a9 0e 97 40 2c d0 13 40
       1.931061 4.3563037 4.7205396 2.3095808
000020 85 50 b4 3f dc 1e 38 3f 6e bc 4e 41 70 f8 14 40
       1.4087073 0.7192209 12.921003 2.3276634
000030 2e 3b ee 40 36 c9 78 3f 01 ba df 40 5d 3a b8 40
       7.444724 0.97182024 6.9914556 5.7571244
000040 46 65 06 40 6c 2a 00 40 40 8d e0 3f 33 18 9e 40
       2.0999312 2.0025892 1.7543106 4.940454
000050 18 c2 83 3f 00 88 fa 40 02 ef 95 3f f1 4e 20 40
       1.0293608 7.8291016 1.1713564 2.5048182
000060 a3 e6 a0 3f 08 c0 79 41 df 07 49 40 65 82 20 3f
       1.2570385 15.609383 3.1411054 0.62698966
000070 49 56 85 40 93 f4 84 40 6f 80 07 41 25 5a d9 3f
       4.166783 4.1548553 8.468856 1.6980635
000080 16 cf bc 3f 59 56 d9 40 c0 d1 b7 40 18 4b 1b 41
       1.4750698 6.7917905 5.7443542 9.705833
000090 8b 8d f5 3f ce 9a f1 40 ec 4d 37 41 6a e1 06 41
       1.918382 7.550147 11.456524 8.430033
0000a0 41 92 1b 41 3b 30 16 41 d3 3a 84 41 a4 a8 a3 3f
       9.7232065 9.386775 16.528723 1.278584
0000b0 4a 61 25 41 a3 32 03 40 2c 5b 90 3f 97 2e 0d 41
       10.336252 2.0499656 1.1277823 8.823874
0000c0 ee f4 57 41 ef 9d 41 40 ff b4 07 3f 91 29 97 3f
       13.497297 3.0252645 0.53010553 1.180956
0000d0 86 27 eb 3f 6d 0f fd 40 05 fd da 40 77 01 24 40
       1.8371437 7.908133 6.843386 2.5625894
0000e0 c2 af a6 40 70 13 90 40 7f 5e 17 40 cf 69 17 41
       5.208955 4.5023727 2.3651426 9.463332
0000f0 51 4b 2f 41 07 2f e4 40 b1 fc b7 40 2a 88 6d 40
       10.955888 7.1307406 5.749596 3.7114358

res_blocks.0.linear1.weight f4 [64, 64]
000000 08 f2 18 be 15 af b8 bd c3 8c 02 be 29 3d 47 3d
       -0.14936078 -0.09017769 -0.12749009 0.04864231
000010 05 ea 0d bd c2 60 45 be dc 6d 75 bb d2 b7 92 3c
       -0.034647007 -0.19275191 -0.0037449514 0.017909918
000020 00 47 8c bd 05 56 3f 3b 70 11 57 bd fa ef 37 3d
       -0.0684948 0.0029195559 -0.052506864 0.044906594
000030 2e 8f 91 3d 56 d4 ec bd 90 6c c7 bd 24 13 8e bb
       0.071073875 -0.11563937 -0.097375035 -0.004335778
000040 b9 09 32 bc 3a 00 12 be 4f c9 9d bd 93 48 10 be
       -0.010866576 -0.14257899 -0.07704412 -0.14090185
000050 8d 30 8f 3c 31 ea b5 bb bc 3f a5 bc 6d dc a7 bd
       0.017479206 -0.0055515994 -0.020171992 -0.0819634
000060 80 d7 ac bd c6 4c 22 be 01 6d 1b 3d 30 90 a6 bc
       -0.08439541 -0.15849599 0.03794575 -0.020332426
000070 42 7b fa bd 9b 55 4e be 91 4b 8c bd 5e 3f 2d bd
       -0.12230541 -0.20149843 -0.06850351 -0.04229676
000080 e8 f3 cb 3c 12 a7 d7 bd ba ac 4a bd ef 8c 1e bd
       0.024896577 -0.10529913 -0.04948113 -0.038708623
000090 47 3d 40 bd ec 17 97 bd 23 e5 79 3c 18 92 29 be
       -0.04693344 -0.073776096 0.015252384 -0.16559637
0000a0 ac 20 4d bd 20 9f e8 bd 23 42 d9 bd 59 08 fb bd
       -0.050079986 -0.11358476 -0.10608318 -0.122574516
0000b0 dc a5 06 bd 36 6d ac 3c 0b ea 2d 3d 2c bc 58 bd
       -0.03287302 0.02104817 0.04245953 -0.05291383
0000c0 14 e3 38 3d ad 3b 0c 3d bf af 89 3c 2d d0 4c 3d
       0.045138434 0.0342366 0.016807435 0.05000322
0000d0 ce 86 1e be 1a 3e 87 3d bb 77 cf bb d3 75 59 bd
       -0.15481111 0.06603642 -0.0063314117 -0.05309088
0000e0 f7 2f 20 3d 13 5b 0f bd 37 c0 bb bc 36 fb d1 bd
       0.039108243 -0.034998965 -0.022918804 -0.10252993
0000f0 f2 95 61 be 44 d6 1b be 19 a9 9b 3d 65 2f f9 bd
       -0.22029856 -0.15218455 0.07600612 -0.12167243
000100 8b af 18 be cb 0d 66 bc 87 6f 1b be cf cb 05 3d
       -0.14910714 -0.014041374 -0.15179263 0.03266507
000110 73 87 bb bd 34 4e 03 bd 47 9b 03 bc f1 68 db 3c
       -0.09156694 -0.032057002 -0.0080326265 0.026783438
000120 5a d8 23 bd 24 9b 87 3d 96 45 73 be c3 10 dc bd
       -0.04000125 0.066213876 -0.23757014 -0.107453845
000130 97 63 0e be 85 83 83 bd 0d f6 c4 3c 42 e3 8c bd
       -0.13905178 -0.0642157 0.024043107 -0.068792835
000140 04 0e 88 bd 62 62 20 be 7a f0 87 bc d6 c7 dd bd
       -0.06643298 -0.1566253 -0.01659416 -0.10829131
000150 94 34 45 3d be dc a7 bd 30 b6 97 bd 39 fe cf bd
       0.048145846 -0.081964 -0.074077964 -0.10155911
000160 30 f8 db bd 9d d3 8f bd 6e 71 13 bd 36 03 f3 bd
       -0.107406974 -0.07022784 -0.035996847 -0.11865847
000170 d5 92 ab 3c 18 dc 3a bd 06 7b f9 bd c0 7c f7 bd
       0.020944038 -0.045620054 -0.12181668 -0.12084341
000180 41 1e fd bc 24 ab 66 3d 61 d6 31 3b cd d2 b2 3d
       -0.030898215 0.056315556 0.0027135836 0.08731613
000190 07 3d af 3c a2 5d 19 be d9 95 44 be b7 b7 49 be
       0.021391405 -0.14977124 -0.19197787 -0.19698988
0001a0 65 89 49 bd 9e a9 f6 ba 8a 5c 9d 3b 0a fb a2 3d
       -0.049203295 -0.001881886 0.0048022913 0.07958038
0001b0 36 cb 0a bd 18 97 4a bd 73 43 92 b9 17 a9 77 3b
       -0.033885203 -0.0494605 -0.00027897544 0.0037789994
0001c0 f9 ec b8 bd 4f 3f 94 3d 85 0d a3 bd d8 de 9f bd
       -0.09029574 0.07238638 -0.07961563 -0.07806176
0001d0 2f 34 d1 3b 4d d0 ec bd e5 35 12 3d ac 3b 47 bd
       0.0063843946 -0.11563168 0.03569593 -0.048640892
0001e0 43 da 68 bd c6 d5 99 3d 0e b5 b8 3d a9 9c 97 bd
       -0.056848776 0.07511477 0.090189084 -0.074029274
0001f0 38 be 40 be ad 28 f7 bd 09 56 b7 3d ab 64 4b bd
       -0.18822563 -0.12068305 0.08951957 -0.04965655
000200 69 c9 1d 3e b2 2e ae bd d6 54 54 bd 75 3a 00 be
       0.15408863 -0.08505 -0.05183872 -0.125223
000210 18 1c ee bc b0 77 09 3e b8 32 97 bd 14 bd 21 3c
       -0.02906613 0.13424563 -0.07382721 0.00987174
000220 db d7 a3 bd 93 a5 9f 3d 57 5e c0 3d 86 99 7e bd
       -0.080001555 0.07795253 0.09392994 -0.06215813
000230 de 70 4a 3d 63 17 d4 3d 8c 98 01 3d d5 4c e1 bd
       0.049424045 0.10356023 0.03163962 -0.11000983
000240 de 6e c3 3d cf 48 89 bc ac b5 f4 3c ac bf 8e bd
       0.095426306 -0.01675835 0.029871784 -0.06970152
000250 f7 20 48 3d 27 4e ef bd 4c 95 97 bd eb 69 85 3d
       0.048859563 -0.11684828 -0.07401523 0.06514343
000260 10 a7 51 bd ab 57 7b 3d 75 11 c7 bd 72 40 a4 3c
       -0.051184714 0.061362904 -0.097201265 0.020050261
000270 e8 e1 39 3c 62 6c 9c bc 24 94 8c 3d ab f9 bd bd
       0.011345364 -0.01909465 0.06864193 -0.09276136
000280 e5 bd 13 be bc 8e 83 bd f9 b8 cc 3d 58 ce d8 bc
       -0.14427908 -0.06423709 0.09996218 -0.02646558
000290 b7 f1 d4 bc 7d 3c dd 3c c1 e6 9c 3c 0c 30 f8 3c
       -0.025994165 0.027006382 0.019153 0.030296348
0002a0 c6 2a 8a 3d 23 85 a0 bd 29 ca 63 bc 6b de 40 3d
       0.0674644 -0.07837894 -0.013903179 0.047087114
0002b0 9e 9e 29 bc b7 33 88 3d 37 62 5a 3d 0c 81 6d 3d
       -0.010352759 0.06650489 0.05331632 0.057984397
0002c0 e4 a7 4e 3c aa 6a 1b bc da 75 8c 3d 54 e1 94 bd
       0.01261327 -0.00948588 0.06858416 -0.072695404
0002d0 19 15 a9 3d 22 bf a2 bd 66 8f 78 3c 23 ee df bd
       0.08255977 -0.07946612 0.015170908 -0.10934093
0002e0 f9 da 08 bb d7 63 ab bd 26 9e 18 bd f0 db 1e 3d
       -0.002088247 -0.08368652 -0.037260197 0.038783967
0002f0 18 25 d4 bc 9e 6e df 3d 0a 99 e3 bd cc 7a 0b bd
       -0.025896594 0.109097704 -0.11113174 -0.034052655
000300 fb 65 a3 bd b8 0d 68 3d 47 6c 19 3d af b8 4d bd
       -0.079784356 0.05665371 0.037456777 -0.050224956
000310 31 b9 03 bd 9e b6 d8 bd 25 dc 69 bd de 8e 93 bd
       -0.032159034 -0.105817065 -0.05709471 -0.07204984
000320 29 03 75 3d c8 45 a2 bc 62 93 4a be 43 41 5b bd
       0.059817467 -0.019808665 -0.19782785 -0.053529035
000330 33 50 ed bd fd 95 e2 bd 04 39 27 be 70 5b df bd
       -0.115875624 -0.11063764 -0.16330343 -0.10906112
000340 47 40 e3 bd 20 bc 22 3d 64 64 ab bb 36 70 5b bc
       -0.11096244 0.03973019 -0.0052304734 -0.013393452
000350 a3 70 9b bc 0e e8 11 3c 88 66 dd bd 6c 14 65 3d
       -0.018974608 0.008905424 -0.10810572 0.05592768
000360 2c 6c 85 3d 54 95 03 be a4 10 06 bd 5f 83 ea 39
       0.06514773 -0.12849933 -0.032730713 0.00044729837
000370 04 c5 a1 3d 65 b4 f1 bc 4f a8 31 be e6 df 89 bb
       0.07898906 -0.029504964 -0.17349361 -0.004207599
000380 54 6a ee bb 99 6c 3d bd de e5 ad bd 56 01 03 be
       -0.007275859 -0.046246145 -0.08491109 -0.12793478
000390 74 c7 af 3d 0c 75 ef bd fd e7 39 3d 50 7d 28 be
       0.085829645 -0.11692247 0.045387257 -0.16454053
0003a0 8f ed e6 bd 8c 2a fc b9 92 12 08 3d 1f 8d 1d be
       -0.112757795 -0.00048096885 0.033220835 -0.15385865
0003b0 61 4b a8 3d ce ea d8 bd 52 82 0f bb c3 7c d9 bd
       0.082175024 -0.105916604 -0.0021897745 -0.106194995
0003c0 67 01 0f be fc 23 c4 3c 69 ff 3a 3d 83 51 ac bd
       -0.13965379 0.02394294 0.045653734 -0.084139846
0003d0 93 a1 87 3d 4f d4 c3 bb ce 60 27 3c f3 bb 19 be
       0.06622615 -0.005976237 0.010215951 -0.15013103
0003e0 6c b2 10 be 55 ad 33 be 3d 34 93 bd 9d 48 e5 bc
       -0.14130563 -0.1754659 -0.07187698 -0.027988726
0003f0 63 b2 6f be 88 ac 97 bd 87 46 89 3d a9 ad 9a bd
       -0.23407893 -0.074059546 0.06702905 -0.07552654

res_blocks.0.linear1.bias f4 [64]
000000 ba 42 e8 3c f4 a8 c5 bd 72 70 45 3d 9c fc 34 3d
       0.02835213 -0.09651366 0.04820294 0.04418622
000010 ea a5 8d bd 44 41 c9 bd 83 ea 20 bd 0e 46 bf bc
       -0.06916411 -0.098269016 -0.039286148 -0.023348834
000020 a6 e9 a8 3d 5a 4d 35 bd 38 67 72 3d a0 f7 b7 3d
       0.0824769 -0.04426322 0.05918047 0.089827776
000030 8b 25 23 3e 12 3a 8c 3d b4 ff 6e 3d 0a b5 e4 bc
       0.1593229 0.068470135 0.058349326 -0.027918357
000040 34 79 0b 3d 10 08 ce bd e3 f4 b5 bd 55 47 a2 3d
       0.034051135 -0.100601315 -0.08884599 0.07923762
000050 68 68 50 bd 55 1f 4f 3d 27 1a 01 be c5 77 d4 bd
       -0.05088082 0.05056699 -0.12607633 -0.10374407
000060 7f cd ac 3c 4d b3 b0 bd 9c 6f af bd c5 c5 ce 3d
       0.021094082 -0.08627949 -0.0856621 0.10096315
000070 27 e2 b4 3c 55 ad c1 3d d7 08 c7 3d b1 55 e8 bc
       0.022080494 0.094568886 0.09718483 -0.028361173
000080 4e 6a 74 3d 0c 77 c4 3c 20 ae b0 bd a5 bb b9 bd
       0.059671693 0.023982547 -0.08626962 -0.090689935
000090 4b 95 cd bd d9 78 15 3b eb 5d a2 3d 4e d1 ce 3d
       -0.10038241 0.0022807627 0.0792807 0.100985155
0000a0 8f 1c 2e 3d 57 b0 78 3d c9 21 c0 bd e7 ef 31 3c
       0.042507704 0.060715046 -0.09381444 0.01086042
0000b0 8d 19 6b bd 88 0b 47 3e 45 6b 22 3c 42 8d 6a bd
       -0.057397414 0.19437993 0.00991327 -0.05726362
0000c0 46 3d 7a bc 14 74 93 3c fc 0e 10 be 26 e2 83 3d
       -0.015273398 0.017999686 -0.14068216 0.06439619
0000d0 43 55 04 be 81 a3 ed 3d 2b 22 9a bb 7e 94 42 3d
       -0.1292315 0.116034515 -0.00470378 0.047504894
0000e0 2d 1a 2f 3d 25 42 bc bd 22 b8 93 3d b5 88 cc 3d
       0.042749573 -0.091923036 0.07212855 0.09987012
0000f0 34 66 da bd a9 9d 56 3c 64 a2 82 bd 78 b8 82 3d
       -0.10664025 0.013099113 -0.0637863 0.06382841

res_blocks.0.bn1.weight f4 [64]
000000 78 b9 83 3f 77 c4 7e 3f e5 f5 7b 3f 85 90 5d 3f
       1.0290976 0.9951853 0.9842208 0.86548644
000010 1e 24 7f 3f 24 fd 7e 3f c1 1b 67 3f eb c1 74 3f
       0.99664485 0.9960501 0.90276724 0.95608395
000020 1b ca 5f 3f e7 2a 6b 3f 5b 4b 79 3f a7 26 77 3f
       0.87417763 0.9186234 0.9738061 0.96543354
000030 e6 b5 6f 3f ad 70 78 3f 7f 03 66 3f 56 ea 79 3f
       0.9363693 0.9704693 0.89849085 0.97623193
000040 9f 75 75 3f fd 36 80 3f d1 cc 68 3f a3 55 69 3f
       0.958826 1.0016781 0.90937525 0.91146296
000050 6c 29 6c 3f 79 b8 6f 3f 19 97 82 3f f9 32 7e 3f
       0.92250705 0.9364086 1.0202361 0.9929653
000060 85 1c 7b 3f f2 90 76 3f bb 9e 7c 3f 5d 50 69 3f
       0.9809039 0.9631492 0.98679703 0.9113825
000070 b6 37 78 3f 28 3d 7b 3f 20 ff 82 3f 89 58 6f 3f
       0.9696001 0.9814019 1.0234108 0.9349447
000080 6d 32 79 3f 4a c3 66 3f b8 53 61 3f 39 2f 6e 3f
       0.9734257 0.9014174 0.8801837 0.93040806
000090 a8 54 79 3f 0f cc 73 3f e6 68 57 3f f0 04 94 3f
       0.973948 0.95233244 0.8414444 1.1564007
0000a0 81 79 68 3f 47 12 80 3f 53 bf 79 3f 5c b0 7d 3f
       0.908104 1.0005578 0.9755756 0.9909723
0000b0 91 9f 70 3f f0 62 89 3f 4a a0 82 3f 97 e2 7d 3f
       0.9399348 1.0733318 1.0205166 0.99173874
0000c0 06 d6 8d 3f 7f b0 6c 3f 1d 61 84 3f 46 d3 86 3f
       1.108094 0.9245681 1.0342137 1.0533226
0000d0 2a 3e 74 3f 75 21 47 3f e7 4b 75 3f 27 a6 80 3f
       0.95407355 0.77785426 0.9581894 1.0050706
0000e0 36 50 7c 3f 5c 58 60 3f da f1 6e 3f 7e 42 87 3f
       0.9855989 0.87634826 0.93337786 1.0567167
0000f0 a6 91 87 3f 89 ad 75 3f 19 5f 6c 3f 44 fa 76 3f
       1.0591323 0.9596792 0.9233261 0.96475625

res_blocks.0.bn1.bias f4 [64]
000000 5f e6 0e be 27 21 24 be c8 26 91 bd e0 32 8e 3e
       -0.13955067 -0.16028272 -0.07087475 0.2777319
000010 5d ec f1 bb 72 13 60 bd 46 f0 e3 3e 23 42 b8 bd
       -0.007382913 -0.054706044 0.44519252 -0.089969896
000020 85 95 19 be f8 99 56 3e ae 4b 6e 3e 85 98 d6 3e
       -0.14998443 0.20957172 0.23271057 0.41913238
000030 e6 d4 01 3e cd a1 b0 bd 0f 10 6d bd b0 f4 94 3e
       0.1267887 -0.08624611 -0.057876643 0.29092932
000040 e2 b1 54 bd 0a 6b 6f bc b9 e7 39 3e 98 45 61 3e
       -0.051927455 -0.014612922 0.18154801 0.21999204
000050 21 15 50 3d cf 38 c7 bc 06 50 70 bd aa 90 ec bc
       0.0508014 -0.02431908 -0.058670066 -0.028877575
000060 b7 22 05 bd a2 e2 f0 bd b8 56 d7 3d 94 bc 47 3e
       -0.03250381 -0.11761977 0.10514587 0.1950553
000070 1e 43 8c 3c 21 3e 73 3e 7f d8 15 be b4 b8 f2 bc
       0.017121848 0.23754169 -0.14633368 -0.029629089
000080 1f fb f1 3c 3a cd 81 bd f1 cc 3b be 65 ca 83 3e
       0.02953869 -0.06337972 -0.18339898 0.25740352
000090 12 d2 85 bd 32 3b 4c 3e 6a e8 9b 3e 60 46 81 bd
       -0.06534208 0.19944456 0.30450755 -0.06312251
0000a0 58 65 32 be 2e 09 a1 bd 74 e9 9a be ce a4 3f 3d
       -0.17421472 -0.07863079 -0.30256236 0.04678803
0000b0 0e 26 87 bd 71 bc b3 bd 52 d6 2e bc 40 30 5a 3e
       -0.06599055 -0.08776177 -0.010671215 0.21307468
0000c0 05 25 b4 bd cf d5 8c 3d 1b 6d ce bd f8 03 92 bd
       -0.087961234 0.06876718 -0.10079404 -0.07129663
0000d0 3f 7c cd bc ab 52 b9 3e 36 55 f9 bc 7f 68 8f bd
       -0.02508366 0.36195883 -0.03043614 -0.07002353
0000e0 e9 2f d7 bd 71 6a 38 3e d9 66 be bd e4 5f 7f be
       -0.10507185 0.18009354 -0.092969604 -0.24938923
0000f0 ce e4 89 3d 96 16 8c be 1c 26 9d bd 40 b5 b5 bc
       0.06733094 -0.27360982 -0.076732844 -0.022181153

res_blocks.0.bn1.running_mean f4 [64]
000000 53 1f 3f c0 b2 33 37 c0 1d eb 4e be 7c a2 31 c0
       -2.9862869 -2.8625302 -0.20206876 -2.7755423
000010 1c 4a 7b 3d 04 03 0a 3f 89 19 5f bf f5 6f e6 bf
       0.061349973 0.5391085 -0.8714834 -1.8002917
000020 7f d0 e6 bf fd 3c 22 c0 ef 72 32 c0 ef ec 0b c0
       -1.8032378 -2.5349724 -2.788265 -2.1863363
000030 ec 0b d6 bf 22 50 0d bf f7 91 51 be 57 ee a4 bf
       -1.6722388 -0.552004 -0.20465837 -1.2885236
000040 d5 36 3c bf 4a a3 c1 3d cc c0 21 c0 df 36 0b c0
       -0.7352117 0.09454973 -2.5273924 -2.175224
000050 5d 29 c4 bf b2 3e 2c c0 14 cf e4 be 79 77 85 bf
       -1.5325123 -2.6913266 -0.44689238 -1.0427085
000060 e8 41 93 bf 16 57 1d c0 9e 32 19 c0 22 a8 13 c0
       -1.1504488 -2.4584403 -2.3937144 -2.307137
000070 2e a0 88 bf c1 aa 1d c0 ca 26 4f 3f fb 63 87 bf
       -1.0673883 -2.463547 0.8091856 -1.0577387
000080 99 5b 0f c0 e0 cc a5 bf 50 d5 0f bf 6a 51 21 c0
       -2.2399657 -1.2953148 -0.56184864 -2.5205941
000090 1f 83 98 bf d1 cd 03 c0 f5 b4 1e c0 99 fa d1 3d
       -1.1915015 -2.059437 -2.4797947 0.10252876
0000a0 b3 bf fc bf 18 5b 11 40 0e ba 38 40 25 b0 19 40
       -1.9746002 2.271185 2.8863559 2.401376
0000b0 d8 c7 a7 bf 3f 68 2a 40 37 a5 12 c0 77 4b e9 bf
       -1.3107862 2.6626127 -2.291334 -1.8226155
0000c0 dc e7 4d bf f6 85 42 c0 95 df 8a 3f f4 99 84 3f
       -0.80431914 -3.0394263 1.0849482 1.0359483
0000d0 7a 5f 76 be c1 d9 04 c0 d9 5f cc 3e 0a 0c 2e 3f
       -0.24059859 -2.0757906 0.39916876 0.6798712
0000e0 a6 b9 04 bf fc 5b e0 bf b7 d9 e8 bf 85 05 41 40
       -0.5184578 -1.7528071 -1.8191441 3.015962
0000f0 39 0b fc bf 70 f5 fd bf d7 db 0c c0 6a 2f 08 3f
       -1.9690925 -1.9840527 -2.200918 0.5319735

res_blocks.0.bn1.running_var f4 [64]
000000 bb fc a2 3f 2b 57 95 3f 99 54 9f 40 d1 05 a0 3f
       1.2733377 1.1667227 4.979077 1.2501775
000010 71 22 d6 3e 46 a4 fc 3f f0 a6 5b 3f bf bf 8a 3f
       0.41823152 1.9737632 0.858016 1.0839766
000020 b6 a2 cf 40 f5 16 b4 3f bb 85 b8 3f 8e 06 c0 3f
       6.488612 1.4069506 1.4415811 1.5002
000030 be 03 8f 3f 24 01 03 40 af 96 8a 40 93 51 91 3f
       1.1173017 2.0469446 4.330894 1.135302
000040 bf 4f fe 3f a3 dd 49 40 0b 79 6c 3f e1 e7 45 3f
       1.9868087 3.1541526 0.92372197 0.77306944
000050 26 a4 ef 3f eb c0 07 40 cc af 43 40 99 c3 92 40
       1.8721969 2.1211498 3.0576048 4.5863767
000060 9f d5 b1 40 9b cb 8c 40 7f fc 52 3f 1e 28 39 40
       5.557327 4.399854 0.8241653 2.8930736
000070 36 1b e5 3f b1 0f 80 3f 14 14 3c 3f 94 53 c0 40
       1.7898929 1.0004789 0.73468137 6.0102024
000080 bf 3f 51 40 86 b8 52 40 2d 84 72 3f 86 77 dc 3f
       3.2695158 3.2925124 0.94732934 1.7223976
000090 c0 c7 9d 40 92 5d 57 3f e1 54 72 3f ec 04 3f 3f
       4.9306335 0.8412715 0.94660765 0.74616885
0000a0 a4 2f 98 3f e1 17 cd 3f 2b ac cb 3f f4 22 5e 3f
       1.1889539 1.6022912 1.5911916 0.86772084
0000b0 35 37 9c 40 86 93 64 3f a6 30 d3 3f 7d d1 7e 3f
       4.881739 0.892876 1.6499221 0.99538404
0000c0 b4 c7 13 3e 1b 8f c9 40 fe bc d0 3e a0 7c 37 3f
       0.1443165 6.298719 0.4076919 0.7167454
0000d0 08 4e 89 40 8b 12 43 3f b2 fb 0a 40 29 30 63 40
       4.2907753 0.7620017 2.1716123 3.5498145
0000e0 dc 20 07 40 4f 73 96 3f 3a 17 20 40 9c 5f b3 3f
       2.1113806 1.1753939 2.5014176 1.4013553
0000f0 fe ee af 3f 07 03 40 40 0e b1 70 3f f5 cb bf 3f
       1.374481 3.0001848 0.94020164 1.4984118

res_blocks.0.linear2.weight f4 [64, 64]
000000 3d 7d 80 3d ea 80 9f 3d 11 5c 2e 3c aa a1 58 bd
       0.06273887 0.0778826 0.0106420675 -0.05288855
000010 99 06 ad bd 26 a0 21 be 7e 26 84 3c 8f 5a da 3d
       -0.08448524 -0.15783748 0.016131636 0.10661804
000020 c7 8a cc 3c 3c eb 05 3d 9a 5d 65 bd 65 22 cd bc
       0.024968518 0.03269504 -0.05599747 -0.025040815
000030 70 5b 55 bd c0 37 97 bd a5 64 79 bd b9 d4 b6 bc
       -0.052089155 -0.0738368 -0.060886998 -0.022318231
000040 e7 31 87 3c dd 62 d0 bd b1 b8 d4 bd e3 89 fd 3c
       0.016503287 -0.10175107 -0.103867896 0.030949539
000050 93 87 89 3d 41 62 0c 3e e6 a1 2e be a8 dc 39 be
       0.06715312 0.13709356 -0.17053947 -0.1815058
000060 7c 41 3c bc 78 a8 d7 bd 43 fa 40 3d 97 4d 0c be
       -0.011490222 -0.1053018 0.04711367 -0.13701473
000070 f7 bc c3 3c fd 56 26 be 11 72 9d 3c 29 4a 2d be
       0.023893816 -0.16244121 0.01921943 -0.16922821
000080 2a e7 e5 3d e3 ed bc bd e1 00 06 bc 26 a1 2c 3d
       0.11225732 -0.09225061 -0.0081789205 0.04214587
000090 bd aa 4b 3d e7 f1 82 3d 3a 6a d6 bd f7 72 9e 3d
       0.049723376 0.063937955 -0.1046948 0.077367716
0000a0 30 49 bd 3c 3c b5 ed 3c 56 1b 02 3d a9 7b f9 bc
       0.023106188 0.029017083 0.03176435 -0.030454474
0000b0 c2 5c fe bd de f3 81 3d cb 50 93 3d 98 18 12 bb
       -0.12420036 0.06345342 0.071931444 -0.002229249
0000c0 55 aa 18 bc 86 ef 64 3d 96 e4 ed 3d f7 07 45 bb
       -0.009317954 0.05589249 0.11615865 -0.0030064562
0000d0 a8 2d 4c bd f0 dc 01 be 6f 51 9f bd 1e db 28 be
       -0.04984823 -0.12681937 -0.07779204 -0.16489837
0000e0 2b 65 8a ba bd 1d 2c 3d 7a 44 96 3d 74 10 d7 3c
       -0.0010558715 0.042020548 0.073372796 0.026252963
0000f0 39 90 5f 3e f2 e8 b3 bc 63 64 c6 bb 37 5e d8 bc
       0.2183236 -0.021961663 -0.0060544475 -0.026412113
000100 08 51 b0 3b c3 1d b5 bd ec e4 09 be 61 e9 d3 3b
       0.0053807534 -0.08843567 -0.13466233 0.00646703
000110 59 59 d8 bd 4e 5c 5d bd d6 49 2e 3d 7a 42 96 3d
       -0.10563917 -0.054043107 0.042550884 0.07336898
000120 72 d7 33 3d 0f dd bd 3d 43 fb 2d 3c e3 21 cf 3d
       0.043906637 0.09270679 0.0106189875 0.10113885
000130 b7 e9 cb 3d 52 6a 8e 3d 69 0f b0 3d 1a 5a 51 3e
       0.09956687 0.06953873 0.08596689 0.20444527
000140 17 03 d5 3d 30 bf 64 bd 22 d4 d9 3d 49 8e fa 3d
       0.1040098 -0.055846393 0.10636164 0.1223417
000150 8f ab eb 3d b1 39 bf 3d 2e 26 30 3d ae 20 0f be
       0.115073316 0.09337176 0.04300516 -0.1397731
000160 3c 95 f0 bd ff 85 81 bd 49 60 97 bd a3 0f a3 3d
       -0.11747214 -0.06324386 -0.07391412 0.07961967
000170 2f 93 b3 3d 0d 5a 66 3c 4e 58 85 3d 46 bc 1b bd
       0.087683074 0.014059556 0.065109834 -0.03802135
000180 c2 83 90 3d 25 f9 da bd df 99 65 bd bb 05 97 3d
       0.07056381 -0.10692052 -0.056054946 0.0737414
000190 d9 dc 11 be 61 42 fa 3c a9 d3 4a bb 03 3f f9 3b
       -0.14244403 0.03054923 -0.0030948913 0.0076063885
0001a0 1f 3d 2b 3e d5 14 05 be 41 2f 7f 3d 7f 07 2e 3e
       0.16722535 -0.12996228 0.062300924 0.16995047
0001b0 12 0d 90 bc e9 71 10 bd 4c 6e d8 bd e8 42 14 3e
       -0.017584357 -0.035264883 -0.105679125 0.14478648
0001c0 65 50 11 be 7f 72 9c 3d 7d c6 e5 bd e3 6d 55 3d
       -0.14190824 0.07639026 -0.11219499 0.05210675
0001d0 19 99 88 bd 96 15 76 bd 06 37 0a 3e 2c d1 c4 3d
       -0.06669826 -0.06007918 0.13497552 0.09610209
0001e0 56 80 8f bd 34 b7 65 3d b7 90 42 3d be 0d 44 3a
       -0.070069 0.05608292 0.047501292 0.00074788544
0001f0 27 91 7a 3c 26 2a 17 bd 58 0f ac bc d9 3b 9f bd
       0.015293396 -0.03690543 -0.02100341 -0.07775087
000200 da 83 a3 bd c3 43 a0 bd 86 ed 88 bd 22 9c d2 3d
       -0.07984133 -0.078254245 -0.06685929 0.10283686
000210 29 b7 de 3d 79 a7 fd 3c 98 56 d0 3d 4d 96 39 3d
       0.10874779 0.030963646 0.101727664 0.045309354
000220 71 21 cd bd fb ff 5c 3d 2f c0 33 3e 3f b1 8e 3d
       -0.10016144 0.05395506 0.17553781 0.06967401
000230 88 fd 1e 3e a3 da 9d bd b8 ab b5 3c a0 14 86 3c
       0.15526402 -0.07707717 0.022176608 0.016367257
000240 61 a2 01 3e 3d d5 19 3b 82 38 91 bc 24 51 54 bd
       0.12659599 0.0023473047 -0.01772714 -0.051835194
000250 1b f3 8d bc 96 b7 00 be bd f2 3c bd 52 3e 2e 3d
       -0.017327836 -0.12570032 -0.04612993 0.042539902
000260 f4 f1 cf 3c 46 b8 56 bd 1d 6f ac 3d a0 31 95 bc
       0.025383927 -0.05242183 0.08419631 -0.01821214
000270 89 e6 96 3c 28 0c b2 3d 40 db ae bd 0f 32 61 3d
       0.018420475 0.08693725 -0.08537912 0.05497938
000280 0a 3e 8b 3c 79 64 8f 3d 40 77 b3 bd 15 d9 bb 3d
       0.016997356 0.070015855 -0.087629795 0.091722645
000290 36 ab 8b 3d 46 7f c5 3d bf 1e 9c 3d 08 19 58 be
       0.06819765 0.09643416 0.07623052 -0.21103299
0002a0 5a 2e 34 bc fa c7 06 be 92 0b 01 3e 89 82 5c 3d
       -0.010997379 -0.13162223 0.1260207 0.053835426
0002b0 a6 96 e3 bd 0c 54 bc 3d 05 f8 d8 3d 6d ee 04 3e
       -0.11112718 0.09195718 0.10594181 0.12981577
0002c0 b2 c0 2d be 34 7a e9 bc 5b cf 81 bd ac eb 09 be
       -0.16968039 -0.028500654 -0.06338378 -0.13468808
0002d0 26 ba 95 3d 5f b4 a2 bc 5e 53 3a bd 9a 2a e5 3d
       0.073108956 -0.019861398 -0.04548966 0.11189766
0002e0 33 21 2d bd 78 f3 0d 3d b3 a9 b0 3a a8 f0 0f 3d
       -0.04226799 0.034656018 0.0013478309 0.035141617
0002f0 93 5b b2 bd 67 ae a2 3d a0 f8 09 3d f0 7a 11 ba
       -0.08708873 0.07943421 0.033684373 -0.000554963
000300 2d f8 f7 bd a3 0f dd 3d 76 79 a0 bc 0b e9 67 bd
       -0.12107883 0.10793998 -0.019589167 -0.05661873
000310 51 c1 61 bd 88 d0 7f bc d5 f8 e2 3d 56 21 a2 bd
       -0.055116 -0.015613683 0.11082617 -0.079165146
000320 a5 f1 07 be 6a eb 0c 3e 46 c1 ca bd 36 1c 8c 36
       -0.13275774 0.13761678 -0.09900145 4.1756093e-06
000330 d9 91 a8 3d 60 9b 41 be 9d 1c 38 3b c6 69 83 3d
       0.08230943 -0.18906927 0.0028093227 0.06416659
000340 82 56 22 be ee 2a b2 3d 3a f3 95 bd 91 62 94 bd
       -0.15853313 0.086995944 -0.073217824 -0.072453626
000350 2f d2 75 3c 3b 96 99 3c d3 dc 3a 3d f9 9e 30 3d
       0.015003725 0.018748393 0.04562075 0.04312036
000360 93 10 82 3d e1 7c 28 3d ef d3 e6 bc f0 d7 da 3d
       0.063508175 0.04113472 -0.02817723 0.10685718
000370 ff ef 6f 3c 6a f1 bd 3d 62 ae e9 bd d2 b0 22 bc
       0.014644622 0.09274562 -0.11410214 -0.009929853
000380 46 b4 0b be 37 a9 0c be e2 0e 6e bd 87 55 c3 3d
       -0.13642988 -0.13736425 -0.058119662 0.095377974
000390 4d b1 be bd 2d 60 d8 3d 1d 2e ee 3d 37 ed 59 be
       -0.09311161 0.10565219 0.11629889 -0.21281897
0003a0 3c d8 a5 3d 87 e6 fe bd 89 9b 27 3e 79 62 9a 3d
       0.08097884 -0.12446313 0.16367926 0.075383134
0003b0 9a 6e 8a bd b6 fd 79 3d a4 ac 00 3d 7a 14 a6 3c
       -0.06759377 0.061032973 0.031414643 0.020273436
0003c0 83 92 11 be 44 bf 26 be de c6 a2 bd a4 e1 9d bb
       -0.14216046 -0.162839 -0.07948087 -0.004818158
0003d0 12 01 04 be d3 72 96 3c ce ab 1f 3c 75 ae ea 3d
       -0.12891033 0.0183653 0.009745551 0.11459056
0003e0 0d f5 08 3a ab 02 93 3c 9f 24 02 3c c4 ea ac bc
       0.00052245037 0.017945608 0.007943301 -0.021108039
0003f0 04 6d 17 bc 73 e2 33 bd 50 17 ae bc 84 df 98 3c
       -0.0092423 -0.04391713 -0.02125135 0.018661268

res_blocks.0.linear2.bias f4 [64]
000000 d5 6b 93 bd 63 37 eb 3d fe 3a 8c bc 82 e1 d0 bd
       -0.07198302 0.114851736 -0.017117973 -0.10199262
000010 17 a9 4f 3e e3 5a d6 bc 0a 83 16 3e eb c8 2b 3d
       0.20279346 -0.026166385 0.14698425 0.041939657
000020 28 75 77 3e 43 54 67 3d 75 4c e2 3d 94 2c 1a bb
       0.24165785 0.056476843 0.11049739 -0.0023525106
000030 3b 45 01 3e 3d 10 fa 3c 15 6f 8e 3d 81 5c 87 3d
       0.12624066 0.030525321 0.06954781 0.066094406
000040 e4 c2 06 3d e7 d9 bc 3d 10 30 1a 3d f5 fd e3 3d
       0.032900706 0.09221249 0.037643492 0.11132423
000050 7b 0b 85 bd d2 9a 19 3d cc 57 5f 3e d5 e4 54 3d
       -0.0649633 0.037501164 0.21810836 0.051976044
000060 8f 78 2a 3d d5 4e 90 be aa 00 cf 3c 54 e1 42 3e
       0.04161888 -0.28185144 0.025268871 0.19031268
000070 16 d6 b0 bd a4 a9 3d 3d a9 d6 89 3d d9 9e 46 3d
       -0.08634584 0.04630436 0.06730396 0.048491333
000080 24 24 fa 3d 0e 6e 96 bd ab b0 ef bd 92 85 1d 3a
       0.122139245 -0.0734521 -0.117036186 0.0006008978
000090 8e cd 98 bd 6f ab 4b 3e 9d 35 f8 bd 58 fb 50 3e
       -0.074610814 0.19889615 -0.12119601 0.2040838
0000a0 58 2f 38 be 9a 94 7f 3e 4a d7 a6 3d ff 9d 98 3c
       -0.1798681 0.24959031 0.08146532 0.018630026
0000b0 2f 46 79 be 93 48 35 bd 50 37 9a 3e 8b f9 b9 bd
       -0.24343179 -0.044258665 0.30120325 -0.090808
0000c0 97 3b 60 be 77 c4 44 be f3 1e 96 3d 36 9c 1a be
       -0.21897732 -0.1921557 0.07330122 -0.15098652
0000d0 9d a0 3e 3d bc 2f d8 3d 98 88 27 3e be 03 b9 3c
       0.04653989 0.105559796 0.163607 0.022584792
0000e0 60 c4 03 bd e0 c2 c3 3d 34 13 5d 3e 19 3b cd bd
       -0.0321697 0.09558654 0.21589357 -0.100210376
0000f0 af db 73 3d 0d 42 1e be ee d9 53 be eb 63 26 3e
       0.05953568 -0.15454884 -0.20688602 0.16249053

res_blocks.0.bn2.weight f4 [64]
000000 bf c1 d8 3f 36 b8 cd 3f f8 b9 cb 3f b9 1f d1 3f
       1.6934127 1.6071842 1.5916128 1.6337806
000010 07 f8 cf 3f d2 7e d3 3f 0e 35 ce 3f 70 8f d6 3f
       1.6247567 1.6523077 1.6109941 1.6762524
000020 5f 5d cd 3f 29 d3 c4 3f 26 96 cf 3f 04 81 c9 3f
       1.604412 1.5376941 1.6217697 1.5742497
000030 ad 45 cb 3f 50 d8 cd 3f 13 f6 cd 3f 4b d3 cc 3f
       1.5880638 1.6081638 1.6090721 1.6001981
000040 bf 19 d5 3f d1 96 d2 3f 75 5e d8 3f db 1b cd 3f
       1.6648482 1.6452276 1.6903826 1.6024126
000050 2c 84 cb 3f 4b 8a c8 3f 0e 3e cc 3f 5c 69 d2 3f
       1.5899711 1.5667204 1.5956438 1.6438403
000060 29 5e cf 3f 1b 76 d6 3f 16 07 d2 3f ae 84 d2 3f
       1.620061 1.6754793 1.6408412 1.6446741
000070 74 c8 d8 3f de e9 d7 3f 87 80 d1 3f 91 20 d0 3f
       1.6936173 1.6868246 1.6367348 1.6259938
000080 f8 4d cd 3f 34 94 d1 3f b2 e2 cc 3f 60 50 c8 3f
       1.6039419 1.6373353 1.6006682 1.5649529
000090 26 e2 c8 3f 9b 4f ca 3f c1 ea d4 3f 0f cb cb 3f
       1.5694015 1.5805544 1.6634141 1.5921344
0000a0 2f 78 d3 3f 2b 8b cd 3f 44 9d ce 3f e6 72 d0 3f
       1.6521052 1.6058096 1.6141744 1.6285064
0000b0 f4 63 d6 3f 31 85 c7 3f 00 36 cf 3f 1c d5 d6 3f
       1.6749253 1.5587522 1.6188354 1.6783786
0000c0 bb 1c d1 3f 5b 61 d6 3f d8 01 cf 3f 81 ba d9 3f
       1.6336893 1.674846 1.6172438 1.7010041
0000d0 6d 33 c8 3f 70 c2 d0 3f 9a 2c c6 3f 84 30 d0 3f
       1.5640694 1.6309338 1.5482361 1.6264806
0000e0 32 df d9 3f 51 00 ce 3f 0c 89 d1 3f 3e 51 d5 3f
       1.7021239 1.6093847 1.6369948 1.6665418
0000f0 1c f8 d0 3f 86 cf cf 3f ba d1 ca 3f 25 ad d2 3f
       1.6325717 1.6235206 1.5845253 1.645909

res_blocks.0.bn2.bias f4 [64]
000000 7c 6d 38 3f 11 71 26 3f f8 7d 22 3f db 2b 2e 3f
       0.7204206 0.65016276 0.63473463 0.6803567
000010 2a 42 2a 3f ca a0 2b 3f dd a0 28 3f e5 7a 2b 3f
       0.6650721 0.6704222 0.6587046 0.669844
000020 7a c5 2a 3f 43 59 30 3f 95 b0 3d 3f ed 89 22 3f
       0.66707575 0.688862 0.7409757 0.6349171
000030 01 79 1b 3f a5 6a 36 3f 19 70 2f 3f 89 08 30 3f
       0.6073151 0.71256477 0.6853042 0.68763024
000040 79 de 2f 3f fd 2d 31 3f 5a c9 37 3f 22 9b 41 3f
       0.6869884 0.692108 0.71791613 0.7562734
000050 f3 14 30 3f 94 e6 35 3f fa 92 24 3f c3 85 2b 3f
       0.68781966 0.7105496 0.6428677 0.6700098
000060 a1 ff 2b 3f 89 b5 2f 3f dc ea 30 3f 2b c7 2e 3f
       0.67186934 0.68636376 0.69108367 0.68272656
000070 a6 55 31 3f 91 37 3d 3f 39 e6 32 3f ab ba 28 3f
       0.69271314 0.7391291 0.6988254 0.6590983
000080 e7 3d 29 3f 15 7f 25 3f 8a 6f 22 3f a5 19 1f 3f
       0.6611008 0.64647037 0.63451445 0.62148505
000090 27 e2 35 3f 09 88 1f 3f f5 99 37 3f f5 3c 32 3f
       0.71048206 0.6231695 0.71719295 0.69624263
0000a0 c2 a1 29 3f a6 80 27 3f bd 6c 29 3f a2 81 2c 3f
       0.6626245 0.65430677 0.66181546 0.67385304
0000b0 ad 9d 37 3f 02 23 38 3f 30 f1 28 3f 2b 22 35 3f
       0.7172497 0.7192842 0.6599302 0.7075526
0000c0 12 9a 27 3f 9b 31 2f 3f c2 24 2d 3f 74 a7 31 3f
       0.6546947 0.68435067 0.6763421 0.6939614
0000d0 3f 64 1c 3f 40 0e 2f 3f d3 fa 30 3f 65 7e 2c 3f
       0.61090463 0.6838112 0.6913273 0.6738036
0000e0 8d ee 31 3f 37 c2 2c 3f a6 bb 37 3f 68 c0 2a 3f
       0.69504625 0.6748385 0.71770704 0.6669984
0000f0 3e d2 2f 3f 5c 10 2c 3f 43 d1 2a 3f b8 2c 31 3f
       0.6868018 0.6721246 0.6672556 0.6920886

res_blocks.0.bn2.running_mean f4 [64]
000000 e0 ee f7 be 2f 76 11 3f 9e 0c d0 3e bd 37 77 be
       -0.48424435 0.5682096 0.40634626 -0.24142356
000010 22 09 08 3f 81 55 e9 be 03 97 dc 3e 1b bb cb 3e
       0.53138936 -0.45573047 0.43083963 0.39791188
000020 00 8b f3 3e 30 9c 8e be 3b 9e 51 3e 84 f5 c6 3d
       0.47566986 -0.27853537 0.20470516 0.09714797
000030 da fb 68 3e 57 1d f2 3e 70 f1 23 3e 58 79 10 3f
       0.22752324 0.4728801 0.1601007 0.56435156
000040 24 a6 14 3e e4 c0 b3 3e 29 77 e8 bd d8 d2 5f bd
       0.14516503 0.351081 -0.11350853 -0.054644436
000050 02 da 80 be 25 d1 4e be 0f 4f 41 3f 9a ea d8 3d
       -0.25166327 -0.2019697 0.7551126 0.10591622
000060 35 7e 77 3e f3 2e 83 bf f1 69 99 3e 33 d7 82 3f
       0.24169238 -1.0248703 0.2996364 1.0221924
000070 d4 12 e4 be ce f6 0d bf 59 31 5e 3e bb 2f d8 3d
       -0.44545615 -0.5545472 0.21698512 0.10555979
000080 27 d9 52 3f 1d d1 02 3d f2 e7 1b bf 94 04 4b 3e
       0.823626 0.031937707 -0.60900795 0.19825965
000090 bb 3b f0 be 05 e5 87 3e 08 84 1b bf ae fd 24 3f
       -0.4692057 0.26541916 -0.6074834 0.64449584
0000a0 d5 d3 a2 be 91 d0 49 3f 63 27 d4 3e 23 c7 da 3e
       -0.3180224 0.7883387 0.414363 0.42730054
0000b0 1d cc 57 bf ac 42 e5 be b8 4d 99 3f 2f 6c b2 be
       -0.8429583 -0.4477743 1.1976843 -0.34848163
0000c0 dd e7 23 bf 14 02 16 bf 3d c7 f1 3e 25 17 c4 be
       -0.6402567 -0.5859692 0.4722232 -0.38298908
0000d0 09 ee 24 3e 53 8e 42 3f 64 c2 b8 bd bc be c9 3e
       0.16106428 0.7599842 -0.09021452 0.3940333
0000e0 c8 bb 44 be 17 81 24 3f 4f c2 37 3f 75 cf f8 be
       -0.19212258 0.64259475 0.71780866 -0.48595777
0000f0 d7 f7 01 3f 5a 8f 93 bd 53 dc 3d 3d 7a 5d 13 3f
       0.507688 -0.072050765 0.046352696 0.5756451

res_blocks.0.bn2.running_var f4 [64]
000000 7d ed 84 3e 7b 37 a5 3e a3 3a 19 3f 84 e1 94 3f
       0.2596244 0.3226889 0.598551 1.1631322
000010 ac 1b aa 3e a5 39 11 3e c7 58 54 3f 2c 08 b4 3e
       0.33224237 0.14182146 0.82947963 0.35162485
000020 ca 64 6e 3e cf 3f 2e 3f e3 49 4c 3e c7 50 c1 3e
       0.23280635 0.68066114 0.1995006 0.3775694
000030 d4 56 86 3f 97 08 5f 3e 01 7b 1b 3f 4b 10 a5 3e
       1.0495248 0.2178062 0.60734564 0.32238993
000040 cf 6c 1c 3f e9 ce 70 3f d4 dd 6c 3f 09 d1 91 3e
       0.6110353 0.9406572 0.9252598 0.28479794
000050 4d 51 24 3f 5a 99 19 3e 8d a0 06 3e d8 79 3f 3f
       0.64186555 0.14999905 0.13147183 0.74795294
000060 04 c0 5f 3f d2 21 19 3e f5 03 3c 3f ea 4c 38 3f
       0.8740237 0.14954308 0.7344354 0.7199236
000070 dd f7 32 3f 4c e8 d6 3d f7 6f 4a 3f 0b 60 60 3f
       0.6990946 0.10493526 0.79077095 0.8764655
000080 25 17 e8 3d 24 b5 ce 3e 65 37 73 3d 50 64 f0 3e
       0.113325395 0.40372574 0.059379 0.46951532
000090 38 46 a6 3e 4b 09 64 3f 49 e4 9f 3e ad a9 8c 3e
       0.32475448 0.8907668 0.31228855 0.27473202
0000a0 42 f7 0c 3f da a1 e4 3e 00 b3 04 3f 61 53 ab 3e
       0.55064785 0.44654733 0.5183563 0.3346205
0000b0 d3 c7 d1 3d 3c 48 c6 3e 7c 3b 4e 3e 42 66 8f 3e
       0.102431916 0.38726985 0.20139879 0.28007704
0000c0 a5 9e ed 3e 33 4c 86 3e 66 38 3e 3f ff df 02 3e
       0.464101 0.2623001 0.7430481 0.1278076
0000d0 09 93 45 3f f0 c8 86 3e 07 6a fb 3e c7 c8 18 3f
       0.7717748 0.26325178 0.4910433 0.5968136
0000e0 29 23 97 3f ad b3 bf 3e a6 be 1f 3f 31 e7 d0 3e
       1.1807605 0.3744177 0.6240028 0.40801385
0000f0 32 49 b2 3e 32 95 5f 3f b3 ef d3 3e cc bb 59 3f
       0.3482147 0.8733703 0.41393813 0.8505218
