model/poly_resnet_model_mu_100epoch.pt (torch, 160695 bytes, 44 tensors)

input_layer.0.weight f4 [64, 118]
00000000: 7ab5 883c 90c4 c53c f53b 503d 419a c7bd
00000010: 85f3 0cbd c06a c73c 1b8c e1bd 3bea 13bc
00000020: 0173 933d 2276 97bd 0913 8fbc 7bfe 8d3d
00000030: 856f 4e3a 470b 39bd e6be 92bd b1db 64bd
00000040: 9ba6 c4bd 41c1 56bc 878d cd3a b536 ca3a
00000050: 7c7f 28bd dc06 2e3d f23e a9bc 1349 48bd
00000060: 230c ca3c 9909 603d b1aa 07bd 009a 9abd
00000070: 7dc0 25bd a557 49bd d39b 70bd 876f 733c
00000080: 77c4 e3bc e9e2 dc3c d04b f8bc d835 80bd
00000090: ced2 df3c 95f5 513d 1a25 8e3c c048 bebc
000000a0: 2443 863d da00 76bd 1e2a 0bbd fd6a 1cbd
000000b0: 3edd 8ebd b8a3 80bd 4a25 6b3d a248 33bd
000000c0: 39e5 62bc 6174 8f3a 1b1a 863d 9def efbb
000000d0: 79c6 9ebd dc26 073d 0b2e 103c 4efe e63c
000000e0: 757b 68bd 96fb a0bd 95b6 3bbd 1801 a4bc
000000f0: 8d4d 10bd b12f 1bbc 8955 8c3b 9e09 64ba
00000100: 34fb 34bd 2750 b0bd b751 b8bd 0a29 a9bd
00000110: 62c3 fdbc 7c43 d2bc 925a 073d bd73 07bd
00000120: b971 9ebd fb29 8c3d b444 4f3d 998c c8bd
00000130: 2787 9a3d acb1 b9bd 39fe 00bc 5874 d23c
00000140: 59c2 ca3c e8f2 6cbc 4c41 9bbd de82 dc3b
00000150: 5712 6fbd 6fff 90bc 770e 58bd a8d6 f03c
00000160: 5b27 353d 098b 18bc 47db 6a3d f019 cabd
00000170: 632c 5fbd b5e8 bebc 5001 f73c 50fe 7cbd
00000180: 965c 893d 9212 e7bc c3ca 94bd 9d89 26bd
00000190: f2cd 9abc 9c13 61bd b0d2 82bd 8729 d0bc
000001a0: e899 873d 0bde adbd aa64 77bd 8859 54bd
000001b0: 0e4c c3bd 13a3 903c d399 21bc 256b a4bd
000001c0: e668 a7bd 0ad2 3dbd c601 4c3d 1e7f 3d3d
000001d0: 1bcf 903d 2886 a73c a5f6 5c3d 94a3 343d
000001e0: bc43 c23c b8bd b13d 7faa d43c d5ec 5cbd
000001f0: 6356 9f3d cd99 743d 65a7 85bd 07af 3c3c
00000200: 0134 243a 353b 51bd a07b a73d 4d55 743c
00000210: 511b 913c f4c2 903d 8d32 573c 10ae 31bd
00000220: 8dd7 b13c 9014 843d 35f5 de3c 8d3d 963d
00000230: 71c0 3abd cc4b 44bd 8b06 07bd cbce 99bd
00000240: 835c 043d ffc1 f539 db37 903d facd 8c3d
00000250: c0bd 7b3d f113 8cbd c043 92bd 6158 e1bc
00000260: 3ed7 ab3d a250 4cbd f818 dd3b 9bf5 a63b
00000270: f571 9b3d ab6a 693d a61f 893c 1215 a43d
00000280: df75 b73d b454 2bbd c953 4abd 7a70 583d
00000290: bfdc d43c 0550 853c 2831 973d 3835 acbd
000002a0: fe01 933d 5f76 ad3d 3da3 12bb 9d70 61bd
000002b0: 67f4 b8bb 4208 8a3d ad09 3c3d e3bb 9c3d
000002c0: ed27 403c a1b6 f43b 1146 513a d073 8b3c
000002d0: 39ef 083c b438 463d ce90 003e f04d 233d
000002e0: 4589 c93c fffd 74bd 061f 5cbd bec8 58bd
000002f0: 2ed0 e43d 1865 12bb 8754 d93d b2a6 d33d
00000300: 6826 533d 4dcb 5d3c 6b9c b43d bfb5 6cbd
00000310: 2a19 edba 1c6e f6bc 557d 3a3d aa19 ba3d
00000320: 417e 743d 8397 fdbc 22a5 973c ebd0 ba3d
00000330: d1c9 863d 71cb 26bd 3267 05bd d425 8bbd
00000340: baf2 81bd 073c cd3d 6dcc 43bc 8d2e 9dbd
00000350: b976 2f3d 2591 acbd 960b 85bd bea9 343d
00000360: f771 ad3c 431c 053d 9c1a 7f3d 19d3 9abd
00000370: 7496 083b 6600 753d fda4 ab3d 265a d73d
00000380: 4f40 3ebd 92c7 8a3c 9a47 ab3d f58e b53d
00000390: 79c8 c0bb c415 8b3d 6323 ca3d eb14 6d3d
000003a0: 6501 85bd e100 883c 9cb0 073d f83b e8bb
000003b0: fda7 643d 1ac1 913d 3cae c9bc be60 be3d
000003c0: b657 9ebc ddd1 0a3d 6865 9abd 0f98 b23d
000003d0: 68c3 efbb 7ab2 913c 7858 0a3d 7930 873d
000003e0: 45b5 923d f9d4 8b3d 1d89 e4bb 5c8d 51bd
000003f0: a3c5 ea3c f835 1fbc fb11 8b3d 211f 3a3d
0.016688097 0.02414158 0.05083843 -0.097462185 -0.034411926 0.024342895 -0.11013051 -0.009028013
0.0719967 -0.07395579 -0.017465131 0.06933304 0.0007874894 -0.04517677 -0.07165317 -0.055873577
-0.0960209 -0.013107599 0.0015682437 0.0015427681 -0.041137204 0.04248701 -0.020659897 -0.048897814
0.02466399 0.054696653 -0.03312177 -0.075489044 -0.040466774 -0.04915585 -0.058742356 0.014858133
-0.027803643 0.026963668 -0.030309588 -0.0626027 0.0273222 0.051259596 0.017351676 -0.02322805
0.06555775 -0.060059406 -0.033975713 -0.03818797 -0.06975792 -0.06281227 0.05740861 -0.04377044
-0.013848596 0.0010944718 0.06547948 -0.0073222653 -0.077526994 0.032996044 0.00880004 0.028197434
-0.056758363 -0.07860486 -0.04582842 -0.020020053 -0.03523021 -0.00947182 0.0042826575 -0.0008698943
-0.04418488 -0.08609038 -0.08999961 -0.08259781 -0.030976955 -0.025666945 0.03304536 -0.03306936
-0.077365346 0.06843945 0.05060263 -0.09792442 0.075453095 -0.09067091 -0.007873111 0.025690243
0.024750875 -0.01446221 -0.07580814 0.006729468 -0.0583671 -0.017699925 -0.05274817 0.029399231
0.044226985 -0.009310492 0.057338025 -0.098682284 -0.05448569 -0.023304323 0.030151993 -0.06176597
0.067071125 -0.028207097 -0.07265236 -0.040658582 -0.01889703 -0.05495034 -0.06387842 -0.025410427
0.06621152 -0.08489617 -0.060398735 -0.051843196 -0.09535991 0.017655885 -0.009863335 -0.08028249
-0.08174305 -0.046342887 0.04980638 0.046263807 0.07070752 0.020449713 0.053946156 0.044101313
0.023713939 0.08678764 0.025960205 -0.053936798 0.07780149 0.05971699 -0.065260686 0.011516339
0.00062638527 -0.051081855 0.081778765 0.014912915 0.01771322 0.07068434 0.013134611 -0.04337889
0.021709228 0.064492345 0.027216533 0.07335959 -0.045593683 -0.047923848 -0.032965224 -0.07510146
0.03231479 0.0004687458 0.070419036 0.068752244 0.061460257 -0.06839741 -0.071418285 -0.027507963
0.083906636 -0.049881585 0.0067473613 0.0050951964 0.07590095 0.056986492 0.016738724 0.08011831
0.08958029 -0.041828826 -0.04939631 0.05284164 0.025984166 0.016273508 0.07382423 -0.08408588
0.07178114 0.08469843 -0.002237513 -0.055039037 -0.0056443694 0.06739856 0.045907665 0.07653024
0.011728269 0.00746806 0.0007983158 0.017022997 0.008357816 0.04839392 0.12555239 0.03986925
0.024601588 -0.059812542 -0.053740524 -0.052925818 0.111725196 -0.0022338089 0.106118254 0.10334529
0.0515503 0.01353724 0.08818897 -0.057790514 -0.0018089165 -0.030081801 0.045529682 0.09086926
0.059690718 -0.030956035 0.018511359 0.09121879 0.06581462 -0.04072136 -0.032569118 -0.067943245
-0.063451245 0.10021215 -0.011950594 -0.076748945 0.042837832 -0.084261216 -0.064963505 0.04410719
0.021172507 0.032497656 0.062281236 -0.07559795 0.002084163 0.059814833 0.083810784 0.10515241
-0.04644805 0.016940866 0.08363266 0.088651575 -0.005883273 0.06791261 0.09870031 0.057881277
-0.064944066 0.016601982 0.033127412 -0.007087227 0.05582427 0.07116909 -0.024619214 0.09295796
-0.019328933 0.033891547 -0.07538873 0.08720409 -0.0073169954 0.0177853 0.033775777 0.06601042
0.07163481 0.06827731 -0.006974353 -0.0511602 0.028658694 -0.009717457 0.06790539 0.045439843

input_layer.0.bias f4 [64]
00000000: 7f0f 6a3d 0f85 023d 0a45 843d 8d77 c139
00000010: c930 c9bc c37c a43c 2dc5 32bd 95f5 693d
00000020: 7296 a4bd 3a99 1c3d 7cc2 1e3d 09e3 20bd
00000030: 6772 53bc bdb5 a1bd 40d6 ae3c 8711 873d
00000040: cb1e dbbc 19a7 773c 29cb c73c 818b b3bd
00000050: a6a5 433c d53d 17bd 73ec 9cbd c064 a83d
00000060: d94e 93bd aba8 733c b244 5dbd bfc4 5d3d
00000070: 2b74 94bc b932 823c cde2 883d 8d02 8b3d
00000080: 2dbe c03d a331 7f3d bfff 0d3d 3257 0dbc
00000090: d7c3 f1bc dc8b 483d 4424 c2bd 8f1c 19bd
000000a0: fc80 20bc c1c7 a13d 879a 253c c541 0fbd
000000b0: 1d03 32bc 1656 0a3d 1674 2ebd 2013 55bb
000000c0: 8f5c 77bd 5760 3bbd b7e0 afbd c852 553d
000000d0: d55b e13c 8c5a a5bd df33 033d 1c1f cfbb
000000e0: c003 f5bc 6229 22bd a8c0 933d af2e 833d
000000f0: 631a 3bbd 4c8f 8f3d b637 81bd c6d6 96bc
0.057143684 0.031865176 0.06458481 0.000369009 -0.024559395 0.020079022 -0.043645073 0.05711897
-0.08036508 0.038232066 0.038759694 -0.039279018 -0.012905694 -0.07895992 0.021342397 0.0659514
-0.026748082 0.015115523 0.024388866 -0.08766843 0.011941349 -0.036924202 -0.076622866 0.082223415
-0.07192773 0.014871757 -0.05402059 0.05414271 -0.0181218 0.015893327 0.06683884 0.06787596
0.09411273 0.062303197 0.034667727 -0.008626746 -0.029512329 0.048961505 -0.09479573 -0.03738075
-0.009796377 0.07899428 0.010107643 -0.034974832 -0.010865 0.033773504 -0.042591177 -0.003251262
-0.060391005 -0.045746174 -0.08587783 0.0520809 0.02750961 -0.08073911 0.03203189 -0.006320847
-0.029909015 -0.039590247 0.07214481 0.064053886 -0.04567946 0.070097536 -0.06309454 -0.018412959

input_layer.1.weight f4 [64]
00000000: 12ba 983f 759a 933f c917 803f 49ee 943f
00000010: 29d8 7f3f e7f4 943f c389 913f 5cba 923f
00000020: c57e 933f 0465 8f3f 3b4c 763f 81da 953f
00000030: 3dfd 903f 5c84 943f c140 783f a921 953f
00000040: eb53 7c3f 176a 933f 8a88 953f 8a5d 963f
00000050: 578b 953f 4301 853f e211 973f 018e 803f
00000060: e8a7 843f 2fb0 923f bd06 953f 657a 963f
00000070: c1d1 953f 2334 943f 17c7 933f da7c 8d3f
00000080: 2f2e 973f 50a8 933f f4c4 903f 2a8c 943f
00000090: 4c10 773f a8d1 8f3f 3319 983f 5bf8 953f
000000a0: 9b71 943f 3a90 723f f70a 963f 23e1 933f
000000b0: b423 813f b23b 813f 331d 913f 5d8f 7c3f
000000c0: 1557 943f d9e2 7c3f 0b47 953f 53ae 843f
000000d0: 205c 8f3f b142 953f f672 913f de78 953f
000000e0: d677 963f 0e63 953f f329 893f f9cc 923f
000000f0: 3c39 933f 3a23 923f 2ff2 903f 5a94 913f
1.1931784 1.1531512 1.0007259 1.1635219 0.9993921 1.1637238 1.1370167 1.1463122
1.1523062 1.1202703 0.9621007 1.1707307 1.1327282 1.1602893 0.96973807 1.1650897
0.9856555 1.1516751 1.1682293 1.1747296 1.1683148 1.039101 1.1802332 1.0043336
1.0363741 1.1460017 1.1642681 1.1756102 1.1704637 1.1578411 1.1545132 1.1053727
1.1810969 1.153574 1.1310105 1.1605275 0.9650924 1.1235857 1.188269 1.1716417
1.159717 0.9475132 1.1722096 1.1553081 1.0089021 1.0096343 1.1337036 0.98656255
1.1589075 0.9878364 1.1662306 1.03657 1.1199989 1.1660978 1.1363208 1.1677511
1.1755321 1.1670854 1.0715927 1.1468803 1.1501842 1.1417 1.1323909 1.1373398

input_layer.1.bias f4 [64]
00000000: 53b3 5b3e 39fe 123e 4c0b 883c 568a 313e
00000010: eea0 c8bc d7fc 363e 1ff7 1b3e 4e98 4b3e
00000020: e9b9 2e3e 3286 203e 7fc6 16bd 5f7a 153e
00000030: fbd7 3f3e 8a52 383e 6486 163d 042a 483e
00000040: 262c 95bc 7a2a 473e b32f 3e3e 984a 473e
00000050: d80d 3a3e bb71 f53d 4c2a 383e 161e f93d
00000060: 6be6 293d 2de5 223e 0c04 3b3e 5e73 543e
00000070: 4d83 393e a589 2b3e 58d0 3a3e 794a 143e
00000080: 9eea 453e 708d 253e 2ab0 3f3e b312 313e
00000090: d875 803c 1c17 203e c70c 4f3e bc54 763e
000000a0: cedf 3c3e 7f75 30bd 85a0 433e 8769 3b3e
000000b0: a2f6 4e3d 919c 593d e976 133e 196f 4c3d
000000c0: 13a4 373e f274 6cbd 5075 3c3e 62f4 643d
000000d0: 1a9e 1a3e 1aeb 373e c1da 1c3e 7ae5 3a3e
000000e0: 81a9 263e b397 403e 8576 e13d 747c 223e
000000f0: 2af9 3f3e 4406 273e 3aab 313e 9270 273e
0.21455126 0.14354791 0.01660695 0.17337927 -0.0244908 0.17869888 0.15230988 0.19882318
0.17063107 0.15676191 -0.036810394 0.14597462 0.18734734 0.18000236 0.03674926 0.19547278
-0.018209528 0.19449797 0.18572883 0.19462049 0.18169343 0.11984583 0.17984885 0.121639416
0.04147951 0.15907736 0.18263263 0.20747134 0.18116494 0.16751726 0.1824354 0.14481534
0.1932778 0.16167235 0.18719545 0.1729229 0.015681192 0.15633816 0.20219718 0.24055761
0.1844475 -0.043080803 0.19104202 0.18301974 0.050528176 0.05312783 0.1440083 0.04991064
0.17933683 -0.057728715 0.18404126 0.055897124 0.15099373 0.17960778 0.15317823 0.18251601
0.16275598 0.18807869 0.11008934 0.15867788 0.18747392 0.16310984 0.17350474 0.16351536

input_layer.1.running_mean f4 [64]
00000000: a026 db3c fa67 603d 7d4a b23d 17dc a93c
00000010: 9201 7ebc d4c6 5a3d 545d c8bc 7275 103d
00000020: 8529 ebbd 0a39 833d 1379 913d 6a0d 0cbb
00000030: 8ded bb3b 7616 e0bd e4e1 7dba 3ceb ba3d
00000040: c7ea 013c e71a 2a3d 1196 afb8 31f7 efbd
00000050: 9ac4 f3bc c975 5dba 4543 66bd dd73 ca3d
00000060: e8e3 4abd b5fa 293d 2289 a2bd c7f6 b23d
00000070: 27a6 35bd 5e9c c7ba 89d9 a83d 60a1 1a3d
00000080: 03c7 3e3d a14c 203d 042a 913c 76b7 2bbd
00000090: 534e 3ebd 6f2a 943d 74e2 06be 25cd bdbd
000000a0: 6df6 b53c 7b0e db3d a9b4 67bc 8068 0dbc
000000b0: b29b dc3a a9c0 f2bb 7e0a 48bb 24ed d1bc
000000c0: 1327 bdbd 0a31 adbc fb27 e3bd 8d9d d33c
000000d0: ddf5 623d 8e64 e2bd e21e 9b3d bec8 cc3c
000000e0: 5862 81bd 47e6 7dbd 06a9 be3d 2fe5 193d
000000f0: 57b7 7bbc 5990 c33d d158 c0bd 7bc8 df3b
0.026751816 0.05478666 0.08705614 0.02073483 -0.015503304 0.053412274 -0.024458565 0.035268255
-0.114825286 0.06407364 0.07103171 -0.00213703 0.0057351054 -0.10941784 -0.00096848444 0.09126899
0.00792951 0.041529562 -8.372602e-05 -0.1171707 -0.029756833 -0.00084480323 -0.056216497 0.098853804
-0.049533755 0.04149886 -0.07936312 0.08738475 -0.04434791 -0.0015229096 0.082446165 0.037751555
0.04657651 0.03913558 0.01772023 -0.04192301 -0.046461415 0.07234656 -0.13172323 -0.09267644
0.022212232 0.10696121 -0.014142194 -0.008630872 0.0016831069 -0.007408221 -0.0030523832 -0.025625773
-0.092359684 -0.021141548 -0.1109161 0.025831962 0.055410255 -0.110543355 0.0757425 0.024998065
-0.06317586 -0.061987188 0.093095824 0.037572082 -0.015363536 0.095490165 -0.093919404 0.006829319

input_layer.1.running_var f4 [64]
00000000: 0250 2b40 773e 9640 5eb4 2340 d448 8740
00000010: 6aa9 d43e 0bee c640 6044 5040 8d99 9b40
00000020: bce2 0041 b59b 4b40 5c98 3140 ed4b 9c40
00000030: 76dd 0f40 da53 a140 444f 7140 2980 2d40
00000040: 3764 8640 bebf 8740 fffd 8240 b291 f740
00000050: bb3a 0f41 00c4 4e40 a6f3 5940 9bee 6e3f
00000060: 0c94 e93f 5a41 9740 cceb 4340 0d5c a840
00000070: 1410 9440 074e 7440 7630 2b40 3e0d d740
00000080: 589b 0741 4ca8 7940 9f02 3740 c399 8340
00000090: 0bf6 d03f 89ea 2f40 514d b240 b56b 2b41
000000a0: 4e51 3340 490a 9540 1fe3 5640 e997 6540
000000b0: fcfe 0c40 63bb 7f40 a71a 9240 31ad 6a40
000000c0: 0785 8140 cf27 6c40 e9f7 7540 f42e 5b40
000000d0: 37a1 2140 cbdc 9640 a5e5 ab40 ca20 b240
000000e0: 5ea0 c440 f539 7d40 6a8a 4640 6b33 8440
000000f0: 584b 5240 affa 2440 7156 5b40 229d 7240
2.6767583 4.695125 2.5578837 4.22764 0.41535503 6.216558 3.2541733 4.862494
8.055355 3.1813786 2.7749243 4.8842683 2.247892 5.041486 3.770463 2.7109473
4.1997333 4.242156 4.0935054 7.736535 8.9518385 3.230713 3.4054961 0.93332833
1.8248305 4.7267275 3.061267 5.2612367 4.6269627 3.8172624 2.6748328 6.7203665
8.475426 3.900897 2.859535 4.1125197 1.6325086 2.74869 5.571938 10.713796
2.8018374 4.6575055 3.3576124 3.5873969 2.203063 3.9958122 4.5657535 3.6668208
4.0474887 3.6899297 3.8432562 3.4247408 2.5254648 4.7144523 5.371783 5.5665026
6.144576 3.9566624 3.1021981 4.1312766 3.2858486 2.5778005 3.427151 3.7908406

res_blocks.0.linear1.weight f4 [64, 64]
00000000: 92c6 a43c de13 753d 26ef a4bd 2d9c a9bd
00000010: 67a6 933c 5124 c7bd 4c0e 5a3d b68b 263d
00000020: e832 2ebe 31dc e43d 0515 393c 2c10 04be
00000030: 38d1 d53c 9ee5 c2bd 8948 11bd c0a1 a13d
00000040: a9e5 603d 584e f0bd de43 0c3d b4db 3bbc
00000050: 9cc4 81bd fada 673d dc0d 563c 21d2 d23d
00000060: f639 4e3c 4792 bbbd 7d84 123d 7bda e5bd
00000070: a017 823d fce6 dcbd 6cfa 53bd e8fa b5bc
00000080: 4418 f2bd 8b17 31be 3c5a be3d 9e97 f8bb
00000090: d2a6 82bd ca74 ae3c 2d1b 0ebe cb4e b43d
000000a0: 0021 8d3d b38a edbd 47f8 963d 5988 bebd
000000b0: db33 513d 66c8 14bd 87d5 f0bc 801a 01be
000000c0: a1b0 06be fe82 8abd 02e1 843d c1ef c8bd
000000d0: b69e c3bd 822f 9bbd 2496 83bd cf94 d73d
000000e0: e09c 28be 6710 b2bd b041 853d 2995 a63c
000000f0: 946e 973b 07a2 00be 51e7 8fbc 2803 9c3d
00000100: e47b 10be 5574 92bc 1903 be3d bfc7 ba3d
00000110: c70d 69bd b968 a93d 6c02 163d 9836 dbbc
00000120: dc79 d63d b9d0 c83d 1c1c 783d d864 e93d
00000130: 2387 5bbd 1346 f3bb 5d62 bfb9 3613 3a3b
00000140: 67dc 7a3d 0057 013e 400c ea3d 072f bd3d
00000150: 4567 20ba 2c70 a53d 7721 c9bd c8e4 1e3d
00000160: 013c acbd 820a c73d 7034 e1bd 7c29 c7bd
00000170: 82af d73c 5cf0 9bbd 2807 d6bc 1320 ed3c
00000180: 9dd8 5fbc 81f5 a8bd 3beb 76bd 4d89 8c3d
00000190: 21dc a93d dc8c 3f3d 8a32 97bd 7315 c9bb
000001a0: 1a20 a2bd a5d0 f23b a88b c53d f918 1cbd
000001b0: 4a80 98bd 70d6 aa3d 6c15 e63d b28f 0f3d
000001c0: 03d3 c4bd 3ae6 fe3b 228f 90bb 788f 07be
000001d0: b7e4 d9bd 75ab b8bd 28a2 37bd 6df7 a13d
000001e0: f867 943d 78b4 883d d1a9 253d f9ef 99bd
000001f0: f6cb eb3c 548e 0a3e a7bc e0bd 266b 023e
00000200: 73d2 fbbc 7cbe d0bd a8c0 49bd e721 c1ba
00000210: d5ff 01bb c4c5 e2bc 9d27 033a 28e3 5ebd
00000220: 6b44 fcbc fb51 d6bd d7dc 07be 23d2 83bd
00000230: 221c 0abe baf9 71bd 3268 263d e3c2 073d
00000240: 38cf 163d f001 e73c d639 a2bd 386d 973d
00000250: 5c97 85bd 00a6 c03d 2875 1f3c e469 d73d
00000260: 0d22 e33d 1cf4 dd3c 0711 16bd b7e4 b3bd
00000270: 7b83 21be cb62 97bc 7a26 093d 229f af3d
00000280: 9d3d 37bd ebff 15bd 78f5 ff3a 5145 08be
00000290: 3070 77bd 6d49 cdbc 728a febd 4363 393d
000002a0: 8423 93bd 949d abbc b7a7 f3bd 86f7 7e3d
000002b0: 1b04 413d 18ab 0dbe 98e9 cc3d 979b 10bd
000002c0: f8d4 9abd 476d 91bc 883a 18be a59d 37bd
000002d0: 5758 b3bd cf98 4abd 6bc7 f6bc ddc7 903c
000002e0: 7298 b53c 98fa 88bb 32b5 863d f213 09be
000002f0: f82b 1cbd 0a94 94bc 5037 5b3d 5fb8 c73d
00000300: a515 1cbd 7457 bf3c 4d6b 8fbd d3e4 9ebd
00000310: 4f7d acbd 4b15 423d 848f a7bd e807 803d
00000320: 61a7 1abe 19c5 cb3c f4cf 793d e1ae a43d
00000330: 2d20 bdbd f892 46bd 00e6 0bbe fc16 983d
00000340: 0a94 39bd fc98 873d 0ed1 383d df57 0cbe
00000350: f00e fb3c 39ba d4bd 87bb 1a3c 471e b23a
00000360: 3d48 663d 84be b53d 5bef cdbd feca bdbd
00000370: 73bd bf3c 2373 7f3d ab02 363d a2ab 03bd
00000380: b483 03bd db8e a83c 0f81 6ebc 4f9d 30bb
00000390: d4ef 30bd 109b 7f3c b9a8 933d 75c2 05bb
000003a0: c133 fb3d f6a4 e9bd 8c9a be3d c468 eabd
000003b0: 5dba 973d 1d78 f33c c0fc 7abc 1cc0 77bd
000003c0: 1fd2 f0bd e9e6 07be 41d7 d3bd 9ef1 d9bb
000003d0: 5bbd e2bc f4f8 b4bd 19f3 d3bd b6dd 8ebd
000003e0: 9431 10be f7db 543b 4831 5f3d b691 5ebd
000003f0: 4d85 92bd f73f 303d a242 4cbd f1b3 c9bd
0.020114217 0.0598334 -0.080534264 -0.08281741 0.018023683 -0.09723724 0.05323629 0.040660582
-0.17011607 0.11174811 0.011296515 -0.12896794 0.02610074 -0.09516452 -0.035469566 0.078921795
0.05490652 -0.11733693 0.03424441 -0.0114659555 -0.063363284 0.056605317 0.013064828 0.10293985
0.012587061 -0.091587596 0.035770882 -0.112233125 0.06352162 -0.10786244 -0.051752493 -0.022214368
-0.118210346 -0.17294137 0.092945546 -0.0075864336 -0.06379475 0.021295924 -0.13877554 0.08804091
0.0689106 -0.115987204 0.07371574 -0.0930335 0.051074844 -0.036323927 -0.029398693 -0.12607765
-0.13153316 -0.06763266 0.06488229 -0.098113544 -0.09551756 -0.07577421 -0.064251214 0.1052643
-0.16466093 -0.08694535 0.065066695 0.020334797 0.0046213362 -0.12561809 -0.017566355 0.076177895
-0.1410976 -0.017877737 0.092779346 0.0912013 -0.056897905 0.082719274 0.036623403 -0.02675943
0.104724616 0.09805436 0.060573682 0.113961875 -0.053595673 -0.007424125 -0.00036503645 0.0028392798
0.06124535 0.12630844 0.11428118 0.092374854 -0.0006118904 0.08078036 -0.09820836 0.0387924
-0.08409882 0.09718801 -0.1099633 -0.097247094 0.026328806 -0.07614204 -0.02612646 0.028945958
-0.0136624845 -0.08249951 -0.060282927 0.068621255 0.082939394 0.046765193 -0.073826864 -0.00613659
-0.07916279 0.0074101263 0.09645778 -0.038109753 -0.07446344 0.08341682 0.11234555 0.035049148
-0.0961056 0.00777891 -0.004411594 -0.13238323 -0.10639327 -0.09017078 -0.04483238 0.07908521
0.07246393 0.06675047 0.040445153 -0.07516474 0.02878378 0.13530856 -0.109734826 0.12736186
-0.030739998 -0.10192582 -0.049255997 -0.0014734835 -0.0019836326 -0.027682193 0.0005003156 -0.05441585
-0.030794343 -0.10464855 -0.13267837 -0.06436565 -0.13487294 -0.05907605 0.040626712 0.033144843
0.036818713 0.028199166 -0.079211876 0.07393879 -0.0652301 0.09406662 0.009732522 0.10518244
0.11090479 0.02709394 -0.036637332 -0.08783858 -0.15772812 -0.018479725 0.03348396 0.08575274
-0.044736493 -0.036621016 0.0019528111 -0.13307692 -0.060409725 -0.025059426 -0.1242875 0.04526068
-0.071845084 -0.020949163 -0.118972234 0.062247775 0.047123056 -0.13834798 0.10005492 -0.035304632
-0.07560152 -0.017752303 -0.14866078 -0.044828076 -0.08757084 -0.049462136 -0.030124387 0.017673427
0.022167418 -0.0041802637 0.06577529 -0.13386515 -0.03812787 -0.018136997 0.053519547 0.09751963
-0.03810658 0.02335713 -0.07002888 -0.077584885 -0.08422338 0.047383588 -0.0818167 0.06251508
-0.15102912 0.024874257 0.060989335 0.08041168 -0.09234653 -0.048480004 -0.13661957 0.07426259
-0.045307197 0.06620976 0.045121245 -0.13705395 0.030646771 -0.10387082 0.009444124 0.0013589346
0.056221236 0.088742286 -0.10055419 -0.09267233 0.023405766 0.062365662 0.044436138 -0.032146104
-0.032108024 0.020575931 -0.014557137 -0.0026949232 -0.043197468 0.015600935 0.07209916 -0.0020410095
0.12265731 -0.11408417 0.09306821 -0.11445764 0.07408593 0.02972036 -0.015319049 -0.060485944
-0.117588274 -0.13271679 -0.10343791 -0.0066511175 -0.027678182 -0.088365465 -0.103491016 -0.06975882
-0.14081413 0.0032479742 0.054490358 -0.05433818 -0.07154331 0.04302975 -0.049868234 -0.09848774

res_blocks.0.linear1.bias f4 [64]
00000000: a5ba 04bd a36d 5dbd a680 b3bc f866 a1bc
00000010: c93c cb3d e6e8 cd3d 8872 463d a83e 95bd
00000020: e4da 153d eaed 503c cea0 c2bd 6913 2f3c
00000030: 7535 e6bc 045b a7bd 100a ea3d e8c2 e23c
00000040: 877a 05bd 6c10 b83c 2c00 aabd 9f38 88bc
00000050: e338 2cbd 201f c63d 73d4 8c3d d275 2a3d
00000060: 36ee a33d 4f9a 6f3d b94f c8bd 57e6 d93d
00000070: b126 913d 018a b7bc 49f7 cbbd a9da 183d
00000080: 65a2 cabd 3dfe 33bc 3366 9bbd be7a fa3d
00000090: d176 ccbc c1b9 a53b 37e0 8c3c 429d 9ebd
000000a0: 4343 963d a2fd e3ba 9ef9 3c3b f098 b73d
000000b0: a52e e9bc 29d6 b33d a17f 813d dcfb c7b7
000000c0: b918 7bbd 9060 743d 4c07 d9bd f912 443d
000000d0: ad14 ccbc 6e34 d53d b541 433d 052d 96bd
000000e0: 8539 d03c 7205 b8bd 0ef3 c9bd c5d1 a0bd
000000f0: f56e 2ebd 0fed 84bd b7cc af3d fb7e e7bd
-0.03240456 -0.054059636 -0.02191193 -0.01970242 0.09923703 0.100541875 0.04844907 -0.07287341
0.036585703 0.012752036 -0.09503327 0.01068578 -0.028101662 -0.08171657 0.114277005 0.02768083
-0.032587554 0.022468768 -0.08300814 -0.016628562 -0.04204644 0.096739054 0.06876459 0.04161627
0.080044195 0.05849677 -0.09780831 0.10639637 0.07087458 -0.022404673 -0.09959275 0.037317906
-0.098942555 -0.010985908 -0.07587852 0.122304425 -0.024959 0.005057544 0.017196758 -0.07744838
0.07337048 -0.0017394314 0.0028835307 0.089647174 -0.028464625 0.08781082 0.063231714 -2.383993e-05
-0.061302874 0.0596624 -0.10597095 0.047869656 -0.024912203 0.10410391 0.047670085 -0.073328055
0.025418052 -0.089854136 -0.09860812 -0.0785251 -0.042586286 -0.06490528 0.08583968 -0.113035165

res_blocks.0.bn1.weight f4 [64]
00000000: 351c 7a3f 2aa2 723f 404c 783f 7ecb 853f
00000010: 37f1 803f c370 7a3f ba00 893f 0e7a 803f
00000020: f974 823f fcf7 823f 72a3 833f 4251 853f
00000030: 9a2e 853f 8e0f 7d3f 2836 7f3f e66b 893f
00000040: 3477 7d3f fa99 7f3f 4a1b 743f 4fd3 853f
00000050: 512d 7e3f 2d39 703f 82b4 763f 3304 763f
00000060: 2992 713f 43cf 823f d5a5 8a3f 3621 7b3f
00000070: 6727 843f f65d 763f cd4d 7b3f cc73 803f
00000080: 74fd 873f 621e 853f b5ad 703f 6d6d 7d3f
00000090: 08c8 823f 8844 713f f590 833f 0ec9 753f
000000a0: 54b7 793f bbcd 803f cc74 813f 949f 803f
000000b0: e8df 823f 0922 813f aceb 773f 3d2a 763f
000000c0: ad0f 7f3f df8b 743f 9281 873f b96c 713f
000000d0: 82b6 873f 42a7 7d3f 2478 7a3f 4f6d 713f
000000e0: 75a1 793f b4ac 863f cab9 883f 9691 7d3f
000000f0: 781e 7b3f edb4 843f 0081 773f a6bc 7e3f
0.9769929 0.9477869 0.9699135 1.0452726 1.0073613 0.9782831 1.0703347 1.0037248
1.0191947 1.0231929 1.0284255 1.0415423 1.0404847 0.9885186 0.9969201 1.0736053
0.99010015 0.99844325 0.9535414 1.0455111 0.992879 0.93837243 0.96369183 0.9610016
0.9436365 1.0219501 1.0831858 0.9809755 1.0324525 0.96237123 0.9816559 1.0035338
1.0624223 1.0399897 0.94015056 0.98995095 1.0217295 0.94245195 1.0278612 0.9600991
0.9754536 1.0062784 1.0113769 1.0048699 1.0224581 1.0088512 0.9684398 0.961582
0.99633294 0.95525926 1.0586417 0.9430652 1.0602572 0.9908334 0.9783957 0.94307417
0.9751199 1.0521455 1.0681698 0.9905027 0.98093367 1.0367714 0.96681213 0.99506605

res_blocks.0.bn1.bias f4 [64]
00000000: 588f b1bc fcca 9d3b fa24 58bd 7e71 653a
00000010: 7a16 403d 3ba3 81bc eb5c 933c 76c2 e1bc
00000020: 51f0 613c e56c 86bb e0b1 0f3d 8f1d 6cbd
00000030: d5f1 683d 8e0c 5cbd 26c0 853c 5d4b 253d
00000040: 013a febc aac5 0fba d61b ce3c 6c18 273d
00000050: 1735 8abb 06f1 993c 7b75 dcba bdc4 27bd
00000060: a7a9 cc3c 0c58 2fbc 554a 263c 840e b8bc
00000070: 6d89 40bd a567 7fbc 9a40 c03c afba 013c
00000080: 19fa 5fbd d72b a73c 296f 003d 3aaf c53b
00000090: f1d2 363d e438 083d 2938 10bd 3291 14bb
000000a0: c19c 0ebd 8528 033d c3ae 9e3c 0414 423d
000000b0: 4b8f 4e39 5185 b03c 2236 c5bc 4aaa 3fbd
000000c0: e8d1 d53c a643 bf3a fc87 ec3c 4360 bcbc
000000d0: 9013 ba3b 7b7b d5bc f0ff 96bb 3927 813c
000000e0: 91a5 8c3d 3219 f63c bd4c 533d 671b 1fbd
000000f0: 8b37 83bb 138c 0c3c 90e8 423d b993 913c
-0.021674797 0.0048154574 -0.05276964 0.00087525684 0.046896435 -0.015824905 0.017988643 -0.027558547
0.013790206 -0.0041023367 0.035081744 -0.057645377 0.056871254 -0.05372291 0.016326975 0.040355075
-0.031033518 -0.00054844713 0.025159758 0.040794775 -0.0042177546 0.018791687 -0.001681968 -0.04095911
0.02498324 -0.010702144 0.010149558 -0.02246786 -0.04700606 -0.015588676 0.023468304 0.007918044
-0.05468187 0.020406647 0.03135601 0.0060328515 0.044634763 0.03325738 -0.03520981 -0.002266955
-0.03481746 0.032021064 0.019370442 0.04738237 0.00019699072 0.021547945 -0.024073664 -0.04679326
0.026101068 0.0014592304 0.028873436 -0.02299512 0.0056786016 -0.026059857 -0.004608147 0.015765773
0.06867517 0.030041311 0.051586855 -0.038844492 -0.004004424 0.008578318 0.04758507 0.017770635

res_blocks.0.bn1.running_mean f4 [64]
00000000: 4992 5ebf 35eb 4a3e 7416 5ebf cda8 3cbf
00000010: 01a0 68bf 7982 2ebf b802 47bf b82b 6bbf
00000020: a4b0 45bf e04d 8bbf ca71 71bf bd80 81bf
00000030: 074d 60bf 6fe4 1bbf 2740 abbe 353d 62bf
00000040: b030 14bf 22f4 04bf 98ba e0be e572 84bf
00000050: 2c84 df3d 8785 0cbe f8e7 e2be d224 d8bd
00000060: 3650 0ebf f5f1 75bf 407b 88bf 806f 65be
00000070: 2d24 84bf 7370 0b3f 5c30 c7be 3842 49be
00000080: 0ee0 6dbf 6cbf 82bf 25af d1be 2231 913f
00000090: 3dd0 d7be 01fb 0d3e f3cf 53bf 45bb 00bf
000000a0: bcc7 22be 9f6b 63bf 4795 48bf fe87 61be
000000b0: d657 00bf 4c67 3fbf d8a4 2d3d b946 90bf
000000c0: ae12 25bf 05a5 17bf d8be 83bf 31c6 a0be
000000d0: d8d8 80bf 918b 30bf e380 bfbe 0364 4abe
000000e0: 7cc9 c9bd 64d9 77bf 5834 8fbf 5314 70bf
000000f0: 082a 88bd 37c0 5fbf daf1 30bf ca3a 09bf
-0.86941963 0.19816287 -0.8675301 -0.7369507 -0.90869147 -0.68167835 -0.77738523 -0.91863585
-0.7722266 -1.088314 -0.94314253 -1.0117413 -0.87617534 -0.60895437 -0.33447382 -0.88374645
-0.5788679 -0.5193502 -0.4389236 -1.0347563 0.10913882 -0.13722812 -0.44317603 -0.10553898
-0.5559114 -0.9607232 -1.0662613 -0.22405815 -1.032354 0.5446846 -0.38904083 -0.19654167
-0.92920005 -1.0214667 -0.40953937 1.1343119 -0.4215106 0.13865282 -0.8273918 -0.5028575
-0.15896505 -0.8883609 -0.7835278 -0.22024533 -0.50134027 -0.74766994 0.042393535 -1.1271583
-0.6448163 -0.59236175 -1.0292616 -0.31401208 -1.0066175 -0.6896296 -0.3740302 -0.19764714
-0.09852883 -0.96816087 -1.1187849 -0.9378101 -0.06648642 -0.8740267 -0.69119036 -0.5360533

res_blocks.0.bn1.running_var f4 [64]
00000000: ca73 ab3e 1aa0 0a3f cfe1 0e3f 775b 403e
00000010: 46e5 263f 487f 023f 9ed4 e33e 6164 963e
00000020: a2ae 533f 916e 013f 2682 653f 23cc c03e
00000030: 7cac 363f 2132 4b3f 843b 5a3f 35a9 053f
00000040: cb1a 753f 776a 833f e27c c83e a2d6 0a3f
00000050: 2333 d63f 9f32 0a3f ca1e 623f 10e8 b43e
00000060: b803 433f a250 893f 3483 a43e 5853 fd3f
00000070: a549 113f 4baa 203e cf5b 383f e849 5a3f
00000080: 68b6 673e 9632 a73e 2608 853f 6c2d b33e
00000090: bb38 843f 5578 733f c6ab 533f 3adb a53f
000000a0: 6176 7a3f 8b99 943f eb85 ac3e 4046 983f
000000b0: b858 233f b22a 0640 a9d0 ce3f 0ece 883f
000000c0: 95af 923f cd91 023f ddb6 3b3f ce95 2f3f
000000d0: 319f 4e3f e2e4 d03e 77ef 1f3f 8aa0 953f
000000e0: b1e6 153f 9e96 b83e c53e 183f 50d5 b83e
000000f0: 2307 b03f 2b88 fd3e 34d1 303f 3ffe 243f
0.33486778 0.54150546 0.55813307 0.18784891 0.65193594 0.50975466 0.44498152 0.29373458
0.82688344 0.50559336 0.89651716 0.37655744 0.7135694 0.79373366 0.85247064 0.52211314
0.9574401 1.0266865 0.39157778 0.54233754 1.6734356 0.5398349 0.8832823 0.353333
0.7617755 1.0727732 0.3213135 1.979106 0.56753 0.15689962 0.7201509 0.8526902
0.22628176 0.32655782 1.0393112 0.34995592 1.0329813 0.9510549 0.8268398 1.2957528
0.9783688 1.1609358 0.3369592 1.1896439 0.6380725 2.096356 1.6157428 1.0687883
1.1459833 0.51003724 0.733259 0.6858796 0.80711657 0.40799624 0.6247477 1.1689618
0.5855513 0.36052412 0.5947078 0.36100245 1.3752178 0.4951795 0.6906922 0.6445045

res_blocks.0.linear2.weight f4 [64, 64]
00000000: 20d8 bbbd f22e 123d 5243 b5bd 5450 023d
00000010: 84cc babd b091 173d b611 a4bd 49d0 3fbd
00000020: b8fc 29bd fdaa 73bd 3751 bc3d 9765 38bd
00000030: bbd7 f73d 8a32 05be de87 63bd 3b7e 9cbc
00000040: 5b0c 00be 5ff9 b3bd f446 b93c 9cc2 513d
00000050: 1ca2 94bc b129 80bd ab66 903d 293f 81bc
00000060: 4081 093d 16a8 1dbe 9e71 87bd dd6d 9ebd
00000070: c3a0 023d c591 98ba acda 193c 6e29 c3bd
00000080: dd3f 9ebc 351f f7bd 6888 20bd 7a97 313d
00000090: 5e20 d03d 2701 8abc 9f31 0ebe a7d7 aabd
000000a0: 2968 fbbd c47e debc 57b6 ec3d 465d 083d
000000b0: 7534 6f3d 32bf 233d 91a2 96bd af53 a23d
000000c0: 200d 263c b6c4 babc 4f03 513d b219 f8bb
000000d0: 533f e3bd fd0e cc3c 14bd c93d b1ad 9d3d
000000e0: ad0b bebd 88c3 dd3c 524d c03d 7be1 be3d
000000f0: d14f ddbd 6ead 74ba d7e4 303d c164 ba3d
00000100: 1b48 923c ebff 493c ebeb d33d e44c 233d
00000110: 8a73 a13c 2156 aa3d c35e 5ebd 7464 3d3d
00000120: 63a9 9abc f6a4 a1bd 799a 043e 7061 d0bd
00000130: c5cd 593d 7ec8 9d3c 388d 6fbd 3a85 0abc
00000140: 70f3 53bc d229 093e 0586 3c3d 17c6 14be
00000150: a52a 4c3d e0ce 94bd b5f6 623d 0b4d 273c
00000160: ddfc c0bd e4f3 633d 231f 9e3a e8f9 033e
00000170: aaba 71bc c9cc 6dbd bc65 8c3d ba4f cc3d
00000180: e91b d9bc 0cba 8e3c edb9 b73d c87a 4fbe
00000190: 9c1b ac3d 52e7 be3d 5b1b a9bc 1e32 49bd
000001a0: 1709 05bb e878 4a3c fe01 41ba abaf 0e3e
000001b0: a0a5 4bbc 2052 f53d 6e65 f43d 7d2d c43d
000001c0: 620c e3bd 545c b5bd a0c0 8dbd 5a89 6ebd
000001d0: d54a 26bd 1dd2 92bd fa48 b53d 0f09 51bd
000001e0: 385e 253c be70 863c b563 39bc ba20 b13d
000001f0: e06b 89bd 8c75 e2bd d7aa 8bbd 76d1 2d3d
00000200: 5fd9 bdbc 0b0f 78bd 4463 253d cb40 03be
00000210: 3579 ecbd 5bb2 db36 753d 5d3d 1832 4e3d
00000220: 9aa1 aabd 0f5d 72bc b5cd 9b3d 3891 6b3c
00000230: e499 4c3d fa60 703d de2e be3d da99 1dbe
00000240: 7fb7 7cbd 5eef bc3d d132 e63d 9960 d63d
00000250: 2be7 933d f9f7 9d3d ed82 303d a3c8 65bb
00000260: c1db db3d ad02 f9bd 3ba7 f9bd 12fb 223d
00000270: 63ba a23d c7a6 17bc 0ba1 ff3d 323b e3bb
00000280: f9df cebd bb33 efbd e7d2 87bd 30cc c53d
00000290: d8a7 13bc 9c6c 94bd 111a 9dbd 45a5 6abd
000002a0: f31f b93c 75f4 eebd 1480 96bd baae cebd
000002b0: ec02 60bd deb5 183d 5ca4 b5bd 8161 2b3d
000002c0: a717 003d 0d89 1a3e 32cc 27be 3c4f 14bc
000002d0: ff8e 90bd b841 4ebd ed89 d9bd 66d2 d2bc
000002e0: 01c6 03be d378 16bd aea0 be3c 6f0a c33d
000002f0: 3ec8 b6bd 5df1 3b3d 6fb3 e7bd a123 dc3c
00000300: 8a43 9e3d dc1d 9f3c 7923 9dbd 7b4e c13d
00000310: 60f7 5f3d f011 00be 0393 efbb 6590 56bc
00000320: cb23 8e3d f2e0 a1bd 8425 a9bd d8c4 c13c
00000330: 5f31 13be 8c0a c6bd 227a 0b3d b46b b73d
00000340: 349e 6fbd 232d 9e3d dd9c 0a3b f1fb cbbd
00000350: 139b 31bd 3312 2a3b e410 50bd c23e 24ba
00000360: 33c6 c4bc c5a3 123e 149a e03d c253 65ba
00000370: 1b0d 333c 5433 dd3c 47d2 e7bd dca5 acbd
00000380: 193f 1a3c d0ed 9aba 3125 123d b81c 063b
00000390: 222f b4bd 0c03 723c 6e8b 213e 32d3 b4bd
000003a0: aafb 0bbe 7f75 dcbd e83b f3bd 81cf 693d
000003b0: 0dbc 113c c1e5 4e3d b641 b0bd fb62 08bd
000003c0: 5095 c2bc e881 953d fa81 86bc 8481 8cbc
000003d0: 0811 183e b524 d1bc 1dac 5abd 3869 273d
000003e0: 1ccd 9cbd f71e 24be c029 723d 3281 9cbd
000003f0: 9338 573d 02e3 073e f25a f63c 9123 b93d
-0.09172082 0.0356893 -0.08850731 0.031814888 -0.091210395 0.037004173 -0.080111906 -0.046829496
-0.041500777 -0.05948924 0.09195178 -0.04501876 0.12101694 -0.1300756 -0.055549495 -0.01910316
-0.12504713 -0.08787798 0.02261684 0.051210985 -0.018143706 -0.06257952 0.07050832 -0.015777187
0.033570528 -0.15396151 -0.06613468 -0.077357985 0.031891596 -0.0011640122 0.009390514 -0.095293865
-0.019317562 -0.12066499 -0.039192587 0.04335735 0.101624236 -0.016846253 -0.13886116 -0.08341914
-0.12275726 -0.027160056 0.11558216 0.033292077 0.058399636 0.03997726 -0.07355226 0.07926118
0.010134965 -0.022798877 0.051028546 -0.0075714225 -0.110960625 0.02490949 0.09850517 0.07699145
-0.09279571 0.027070776 0.09389748 0.09320351 -0.108062394 -0.00093337044 0.04318699 0.091012485
0.017856648 0.012329082 0.10347732 0.03986825 0.019708414 0.08317209 -0.05428959 0.046238378
-0.018879598 -0.07892792 0.12949552 -0.10174835 0.053174753 0.019260641 -0.058484286 -0.008454615
-0.012936458 0.1339486 0.04602625 -0.1452869 0.049845356 -0.07266021 0.05541106 0.01021124
-0.0942323 0.055652514 0.0012063723 0.128883 -0.014753977 -0.058056626 0.06855342 0.09976144
-0.026502566 0.017422698 0.089710094 -0.20261681 0.084037036 0.093214646 -0.020642927 -0.04912006
-0.0020299607 0.012357928 -0.00073626626 0.139342 -0.012429625 0.11978555 0.11933409 0.09578989
-0.11086346 -0.08855501 -0.06921506 -0.058236457 -0.04059871 -0.07168982 0.0885181 -0.05103403
0.010093264 0.016411182 -0.011315276 0.0864882 -0.06710029 -0.110575765 -0.068196945 0.042436086
-0.02317494 -0.06056122 0.04037787 -0.12817685 -0.11546556 6.547472e-06 0.054013688 0.050340742
-0.08331604 -0.014792695 0.07607595 0.014377885 0.04995145 0.058686234 0.09286283 -0.15390721
-0.061698433 0.09225343 0.11240161 0.10467643 0.07221826 0.07713313 0.04309361 -0.0035062216
0.10735274 -0.121587135 -0.121901 0.03979022 0.07945707 -0.009256071 0.124818884 -0.006934547
-0.10101313 -0.11679789 -0.06632023 0.09658086 -0.009012185 -0.07247278 -0.076709874 -0.05728652
0.022598242 -0.1166772 -0.07348648 -0.1009192 -0.054690287 0.037282817 -0.0886924 0.041841034
0.031272557 0.15091343 -0.16386488 -0.009052094 -0.07058524 -0.050355643 -0.106220104 -0.025735091
-0.12868501 -0.03673632 0.023269977 0.095234744 -0.08924912 0.04588448 -0.11313521 0.026872458
0.07727726 0.019423418 -0.076727815 0.09438797 0.054679275 -0.12506843 -0.0073112263 -0.01309595
0.06940421 -0.07904233 -0.08259109 0.023653433 -0.14374302 -0.096699804 0.03405202 0.089560896
-0.058500484 0.07723453 0.0021150627 -0.099601634 -0.04336078 0.002595079 -0.05079736 -0.0006265455
-0.02402029 0.14320286 0.10966888 -0.00087481376 0.010928418 0.027002014 -0.11319404 -0.08430073
0.009414458 -0.0011820141 0.03568 0.0020463895 -0.08798052 0.014771234 0.15775844 -0.08829345
-0.13670221 -0.10764598 -0.118766606 0.057082657 0.008894932 0.05051208 -0.08606283 -0.03329752
-0.023752838 0.07300168 -0.0164194 -0.017151602 0.14850247 -0.025530199 -0.053386796 0.04087183
-0.07656309 -0.16027437 0.059121847 -0.076418296 0.052544188 0.1327019 0.030072663 0.09039987

res_blocks.0.linear2.bias f4 [64]
00000000: d05f 8a3c f6f3 323d 7587 57bd f860 653d
00000010: a84a fabd dc25 9e3d 6498 883d 80a4 213d
00000020: c507 d53c ecda 00be 6444 da3d 3886 9fbd
00000030: 9b68 333d e91e ea3d 8c80 c43c 8dba 093e
00000040: 9cf6 a93d 0ce9 a93b bf89 283d bdd1 e3bd
00000050: 4cd4 a03d 9aa3 b03d a5f5 83bc b352 7f3d
00000060: e8d6 c2bd 6e49 ba3d 8039 7dbd 4d34 aa3d
00000070: f799 943d 66d0 e8bb 974c 1c3d a0aa 9dbd
00000080: 9e40 95bd c6cb d43c 1c59 08be 523c 033d
00000090: 3850 083d ea16 44bd d7a6 2b3c 523c a9bd
000000a0: 521e 733d 49b7 0abd bcba adbd 4538 0dbe
000000b0: e2c9 13bd e56d a33d a029 d83c 373e 89bc
000000c0: a402 7b3b d5c5 8a3d 5d12 5fbd a78d 88bc
000000d0: df4d 773c 4937 19bd 89df 5f3c 5cbd 64bd
000000e0: 4025 023e 2f35 7c3d b067 d6bd 8cb0 e83d
000000f0: f799 363d d4a6 19bd 864b b7bd 952c 52bc
0.01689139 0.04368969 -0.052619416 0.05600068 -0.12221271 0.07722065 0.06669691 0.03946352
0.026004681 -0.12583512 0.10657576 -0.07789272 0.04380093 0.11431677 0.023987077 0.1345007
0.0829899 0.005185252 0.04114699 -0.11123989 0.078529924 0.086249545 -0.016108343 0.062334727
-0.09513646 0.09096037 -0.061822414 0.08310757 0.07255929 -0.007104921 0.03815898 -0.0769856
-0.072877154 0.025976073 -0.13315243 0.032039948 0.033279628 -0.047873415 0.010476789 -0.08263458
0.059355088 -0.0338662 -0.084828824 -0.13790996 -0.036081202 0.07979945 0.026387036 -0.0167533
0.0038301134 0.06776015 -0.054460872 -0.016669108 0.0150942495 -0.03740624 0.013664135 -0.05584465
0.12709522 0.061574157 -0.104689956 0.11361799 0.044580426 -0.037512615 -0.08949952 -0.012828012

res_blocks.0.bn2.weight f4 [64]
00000000: f621 983f 8e22 973f 7b52 883f 97ea 963f
00000010: 6d1a 873f b354 983f c2c4 943f 1b4c 943f
00000020: de71 953f 39b8 963f 5458 753f b239 9a3f
00000030: e0d8 973f 4674 953f 6985 953f f670 9b3f
00000040: f4fc 813f 0fae 963f a278 983f bea0 973f
00000050: ceb9 963f 8597 893f 1af1 963f f9ef 983f
00000060: e043 8d3f 9724 953f 246b 9a3f ec22 9c3f
00000070: 8d88 973f 8784 953f 6546 973f 42a7 8d3f
00000080: 022d 993f 6fc0 933f 7015 983f 2289 963f
00000090: 78dc 8d3f d794 953f 1991 993f 43af 993f
000000a0: 9202 963f ce10 7f3f fcde 963f 7a72 9a3f
000000b0: e6f2 883f 4a51 833f 1944 943f cad0 8d3f
000000c0: c0fd 973f 2169 9a3f 548b 983f 2a0e 823f
000000d0: abee 923f deee 983f 2f40 943f 55b7 973f
000000e0: 10c5 973f fb3d 963f 828a 8f3f 872a 943f
000000f0: e9c3 973f 522d 963f c409 983f 3c6f 963f
1.1885364 1.180742 1.0650171 1.1790341 1.055494 1.1900848 1.1622546 1.1585726
1.1675375 1.177497 0.95837903 1.2048857 1.186306 1.1676109 1.1681339 1.2143848
1.015532 1.1771868 1.1911814 1.184593 1.1775453 1.0749365 1.1792328 1.1948234
1.1036339 1.1651791 1.2063947 1.2198157 1.1838547 1.1681069 1.1818358 1.1066668
1.196686 1.1543101 1.1881542 1.17606 1.1082907 1.1686047 1.1997405 1.2006611
1.1719534 0.99635017 1.17868 1.2066185 1.0699127 1.0259182 1.1583282 1.1079342
1.1874313 1.2063333 1.191752 1.0160573 1.1479086 1.1947896 1.1582087 1.1852823
1.1857014 1.1737665 1.1214144 1.1575478 1.1856662 1.1732581 1.187798 1.1752696

res_blocks.0.bn2.bias f4 [64]
00000000: 864b 493e a532 323e 222d 133d 878b 293e
00000010: 933b 6e3d 5d56 3c3e e123 203e 73da 313e
00000020: 6381 2e3e b9d7 393e 1280 30bd 2ef6 4d3e
00000030: e7bf 423e a06f 343e 6a65 903d 22d4 4b3e
00000040: 6558 98bc 34c0 333e de2a 4d3e cdcf 4b3e
00000050: 0562 3f3e 2551 eb3d e30c 2d3e ae79 4f3e
00000060: a392 fb3d 696f 2a3e 2a45 483e 120e 533e
00000070: ba94 3b3e f9db 2b3e 74bb 433e 5582 ed3d
00000080: 66a0 483e feaf 373e 4a08 463e e216 383e
00000090: 33b1 c03d 5586 1b3e ce05 503e c41e 5a3e
000000a0: 4eb1 283e 263a 43bd f6d6 433e 735f 553e
000000b0: a097 8e3d 963f 243d 93ed 213e 75fa 093d
000000c0: f0e3 413e 3468 5a3e 5c3a 433e 1831 f73b
000000d0: 878d 2b3e 095c 573e f5fd 1f3e 5980 403e
000000e0: 622f 413e d89f 2d3e cff1 cc3d 09e4 1e3e
000000f0: 672f 3c3e 4c2d 313e bc70 4e3e 0fef 343e
0.19657716 0.17402132 0.035931714 0.16557132 0.058162283 0.1839232 0.15638687 0.17368488
0.17041545 0.18148698 -0.043090887 0.20113441 0.19018517 0.17620707 0.07050593 0.19905141
-0.018596837 0.17553788 0.20035884 0.19903488 0.18689735 0.114900865 0.16899447 0.20261261
0.12283828 0.16644062 0.19557634 0.20610836 0.18318453 0.16783132 0.19114476 0.115971245
0.19592437 0.1793823 0.193391 0.17977479 0.09408798 0.15187962 0.20314714 0.21300799
0.16473886 -0.047662877 0.1912497 0.20837192 0.06962514 0.040099703 0.15813284 0.03368612
0.18934608 0.21328813 0.19065231 0.007543694 0.16753207 0.21031202 0.1562422 0.18798961
0.18865731 0.16955507 0.10007059 0.15516676 0.18377458 0.17302436 0.20160192 0.17669319

res_blocks.0.bn2.running_mean f4 [64]
00000000: 8d08 aabe 666f 573e ac80 debe fc9f 94bd
00000010: 7c7e 4b3d d8ce bd3e 46af 3d3d 8017 fdbe
00000020: 1407 53bc 2d76 c43d 5e12 583c 9cce f4be
00000030: 93bb e5bc 9709 8fbe f90e e1bd 6ae5 e13e
00000040: a721 f23d d81f b33e 3177 b1be 6d13 0cbf
00000050: 4b01 4a3d e6be 0b3f d44b 14be ca03 b6be
00000060: f571 ac3d 6798 a73e d063 30bf 0baa 8e3d
00000070: 5d33 84be 02ab 61be cb69 d5bd d1c0 cc3c
00000080: e5cc 033d 00bc e5be 10c4 87be 0911 6fbd
00000090: 7caa 9f3c e8d3 2fbe af40 a6be c513 c6be
000000a0: 9beb 123e 1863 8b3d fc26 86be dfa2 20be
000000b0: bd0c 7ebe af7d 3f3e b9b8 873d 6625 d63e
000000c0: 8a88 a2be d0ea 013e 2017 c8be 2ce3 123d
000000d0: 9468 0cbd 5da8 8ebe b835 923e 79a5 9e3d
000000e0: e432 c93d f92a ecbd 79f3 d33d ea93 82be
000000f0: c502 e43d 08c1 213e 86c2 a7be d5f0 033e
-0.3320965 0.21038589 -0.43457544 -0.07257077 0.04968117 0.37071872 0.046309732 -0.49431992
-0.0128801055 0.09592853 0.013187973 -0.4781388 -0.028043544 -0.27937004 -0.10989184 0.44120342
0.11822825 0.34985232 -0.34661248 -0.5471714 0.04931764 0.5458816 -0.14482051 -0.35549766
0.08420173 0.3273346 -0.689023 0.06966027 -0.25820437 -0.2203789 -0.10420569 0.024994286
0.032177825 -0.44869995 -0.2651677 -0.058365855 0.019490473 -0.1717068 -0.32471225 -0.38686958
0.14347689 0.0680601 -0.26201618 -0.1568713 -0.24809547 0.18700288 0.0662703 0.41825408
-0.31744796 0.1268723 -0.39080143 0.03586118 -0.03427942 -0.27862826 0.2855661 0.07746405
0.0982416 -0.11531634 0.10349173 -0.25503474 0.11133341 0.15796292 -0.32765597 0.12884839

res_blocks.0.bn2.running_var f4 [64]
00000000: a322 483e 5b7d 9a3c f64c a73e ad35 583e
00000010: 90c6 313e e1f4 063e d154 cc3e 360f 613e
00000020: 39b2 823e 0c5d 6b3e 4f81 563e 5092 b03d
00000030: a3c1 d53e 6a06 6a3e ae2c 003e 53a0 bc3e
00000040: 2841 453e 66af 6c3e c7b9 ff3d 3baf a23e
00000050: 55b3 ef3e fd35 b13e 8e61 3a3e 9298 a43e
00000060: 4e04 aa3e e682 973e 6cee d23e 80b6 833e
00000070: a095 343e df4f 903e 6076 153e 1628 dc3e
00000080: 293c a83e 9bd2 4b3e 1950 993d 9d1e 883e
00000090: 39fa 113f db54 3d3e f1b7 fd3e 9384 ba3e
000000a0: 5315 823e 3c2b 2d3f 35e4 8d3e a31b 703e
000000b0: 5115 073f 1167 c43e 82bb 1b3e 12dd 043e
000000c0: 81b6 223f a0e5 693e 8443 393e 1ad0 f13e
000000d0: cf5a 743e 106f ea3e 4cb8 843e 5b5a a63e
000000e0: c3bc 483e b39d 993e 2f54 4b3e f54f 333e
000000f0: 2739 583e 7627 6f3e fac6 df3d 942b 203e
0.19544463 0.018858602 0.32675904 0.21114226 0.17360902 0.13179351 0.3990846 0.21978459
0.25526598 0.22984713 0.20947765 0.08621657 0.41749296 0.2285401 0.12517044 0.36841068
0.19263136 0.23113784 0.12486606 0.31774315 0.46816507 0.34611502 0.18201277 0.32147652
0.3320641 0.29592055 0.41197526 0.25725174 0.17635202 0.28185937 0.14595938 0.42999333
0.328584 0.19904558 0.074859805 0.26585856 0.57022434 0.18489401 0.495544 0.3642927
0.25406894 0.67644095 0.2771317 0.23448043 0.527669 0.38359883 0.15208247 0.12974957
0.6355973 0.22841501 0.18092161 0.4722908 0.23862766 0.4578786 0.25921857 0.3249081
0.19603257 0.30003127 0.19856332 0.1751097 0.21115552 0.23354897 0.10926624 0.15641624

res_blocks.1.linear1.weight f4 [64, 64]
00000000: 603a 11bd bbd5 d83d bf49 aa3d 7fcb 873d
00000010: cd95 83bd 7f89 433d 5a78 983d 0200 50bd
00000020: 48b4 023d 3ff8 c63d 93b7 fc3d e389 073d
00000030: 92b0 95bd 86fc cf3d e022 9c3d 8dd1 573d
00000040: 5619 5bbd bcd2 72bd deab 38bd a080 eabd
00000050: 23b5 12be 9a55 933d 34e2 cb3c 7d5f 4f3d
00000060: fcc0 95bd 87dc 653d ce12 0ebe 6404 f73b
00000070: 5d3a 8b3d 6ebe 3e3d ef62 1e3d 3314 a53d
00000080: 9bca c2bd d6c5 c83c 7de4 743d e3c0 93bd
00000090: 9e6d 0f3e 9fe6 bdbd ee02 72bd 927d 06be
000000a0: 50d3 083e a2e7 abbc e37b 9b3d 81aa a43d
000000b0: 8d04 113d b977 5ebd c2f0 2bbd 98d6 82ba
000000c0: 901a a9bd 8426 80bd 9e00 383d e747 b7bd
000000d0: af4e 7a3d f71a 7abd cc16 a53c 8ca2 c13d
000000e0: 7491 e7bc 1b4c 84bd 63a7 c23d a82c debd
000000f0: 315a 323d f92b 873d 551c a83d ea31 213c
00000100: 0bde a33d 4682 cabc 9075 0f3c ceeb 0f3c
00000110: 589b 15bc 148d 10be b622 b4bb cbee 3f3d
00000120: 8b9a 153d c20f 75bc a362 eabd bf8d bc3c
00000130: ec62 54bd 5060 bf3b b851 a2bd a5f2 b8bd
00000140: f29e 9fbd 07e3 37bb ccbb 713d f2af c2bd
00000150: ae2c babd 4605 e7bd 7501 153c 2cbc af3c
00000160: b08c 2bbd 831c dabd 0927 68bd 6abd 5d3d
00000170: bbbe eb3c dcd5 ffbd cb30 bebd ba6a 7d3d
00000180: f016 06be 5e5a cfbd f9c1 27bd 1468 91bd
00000190: ca10 84bd a22a 31bd d18f 3bbd 1f95 0cbe
000001a0: 2daa 8f3d f65c 9c3d f3c9 ac3d 612e 7dbd
000001b0: 8bba 883d a9fb abbd 9c2b aabd 3c90 eaba
000001c0: 4fac 983c 2c0c c4bc b1cc 2cbe 5b4f c0bd
000001d0: 55ba 40bb f6e8 18bd 893c a83d 63ca c3bd
000001e0: 7593 05ba 3cf1 11be 4064 94bd 8dcc 3b3d
000001f0: 3e5f 43bb f3da 09be 1a88 c0bb b83d a9bd
00000200: 2433 c7bd 6609 153d b7b1 5abc b80d a63c
00000210: c62d f8bc 977f 253d 29a0 343c 2afd 6a3d
00000220: e43d be3d 325f a23d dc8f fbbd 5dbe d9bd
00000230: 389b be3d bcc8 93bd 4ff8 b33d 80fa 0abd
00000240: af40 463d 1759 99bc b876 b0bd 3921 643d
00000250: 1e3f c33c c64e 5cbd 5b68 9a3d 549a 873c
00000260: 8fe4 32bd 44cf ba3c bdf7 abbd 6ae7 403d
00000270: 1bb2 74bd 207d b13d 7cdf a13d cf8f ffbd
00000280: 502c 023d 4485 6d3d b3d2 9e3d 0760 f4bc
00000290: 9626 8abd 8544 3fbd 9aff ae3b 2cf0 513d
000002a0: f097 88bc 3ebb a8bd 8985 3d3d 3150 e83c
000002b0: bc65 8abd d957 1fbd 6a01 cf3d e856 ce3d
000002c0: 767f 39bd 2a2b d9bd e057 62bd b0b1 293d
000002d0: ea81 c93d c1bf 8bbd d420 863c 3ff1 b0bd
000002e0: cb52 97bb ee5c 82bd f204 25bc 6540 19be
000002f0: e7dd cd3c fc21 8a3d 6f05 55bd 1a32 99bd
00000300: 21f0 a0bc 509d 87bc 3997 53bd 0515 873a
00000310: f562 cd3d 6aeb 9fbd acdc e23d b89e edbb
00000320: f60b c0bd de84 ccbd 9cbc 05be dbfa dd3d
00000330: 9976 cabd 110b d63b d2d3 d43d 501c df3d
00000340: c5b6 ac3d de6a d73a 6e08 d2bb 2d43 4c3d
00000350: 3340 713d 326b cf3d 51a5 b1bd 860c 2cbd
00000360: 144d bfbc 74ad e23c cf57 c43d 9396 713d
00000370: 2ca4 c33c 2b40 b93d 08df 843d 1c53 9fbd
00000380: ab8a 113e 3e77 b4bb b894 813d 4ac6 0e3e
00000390: 80dd dabd 6375 393d be2d 023e 9357 aa3d
000003a0: fbb5 88bd b5ec fe3d 58f3 a8bc 5008 123d
000003b0: 1013 b9bd d7f4 02be 8394 fc3c 9719 8abd
000003c0: bf5a 05bc 34c6 7f3a 214a 96bd 7ebb ebbd
000003d0: ee5e 5a3c f277 ba3d ce5a 61bb 6dce 993d
000003e0: 9542 e3bc 2bbc 9abd a266 853d fc5c 003e
000003f0: a226 c13b bf9d 0cbd 5ff5 d93d 2b03 483d
-0.03545606 0.10587641 0.08314847 0.06630611 -0.064250566 0.04773855 0.0744483 -0.050781257
0.03191021 0.09715318 0.123397015 0.033090483 -0.07309069 0.10155587 0.076238394 0.052690078
-0.05349096 -0.059283003 -0.04508578 -0.114503145 -0.1432691 0.071940616 0.024888135 0.050628174
-0.073121995 0.056118514 -0.13874361 0.007538365 0.06798241 0.046568327 0.03866857 0.08060493
-0.095113 0.024508398 0.059788216 -0.072145246 0.1400666 -0.09272503 -0.059084825 -0.13133839
0.1336186 -0.020984475 0.07591989 0.080403335 0.03540473 -0.054313395 -0.04197765 -0.0009982167
-0.082570195 -0.06257346 0.044922464 -0.08949261 0.061110195 -0.061060872 0.020152472 0.094548315
-0.0282676 -0.064598285 0.09504583 -0.10848361 0.043543044 0.06600184 0.08208529 0.009838561
0.08001336 -0.024720322 0.008756056 0.008784248 -0.009131275 -0.14116317 -0.005497302 0.04685859
0.036524337 -0.01495737 -0.11444595 0.023016809 -0.05185215 0.0058403388 -0.07925743 -0.09030656
-0.07793988 -0.0028058903 0.059016988 -0.09506215 -0.09090553 -0.11280303 0.009094586 0.021452032
-0.041882217 -0.106499694 -0.05667785 0.054135717 0.02877747 -0.12491962 -0.0928665 0.06186936
-0.13094687 -0.10124658 -0.04095647 -0.070999295 -0.06448515 -0.04325355 -0.04579145 -0.1372876
0.0701488 0.076349184 0.08436956 -0.06181181 0.06676205 -0.0839761 -0.08309099 -0.0017895768
0.01863685 -0.023931585 -0.16874959 -0.09390136 -0.0029407938 -0.037331544 0.08214671 -0.095600866
-0.000509552 -0.1425218 -0.07245684 0.04584937 -0.0029811407 -0.13462429 -0.0058755996 -0.08263725
-0.09726551 0.036385916 -0.013348035 0.020270213 -0.030295264 0.040404882 0.011024513 0.057370342
0.092891484 0.07928313 -0.122832984 -0.10632012 0.093069494 -0.072160214 0.087875955 -0.0339303
0.04840153 -0.01871924 -0.08616394 0.055695746 0.023833808 -0.05378606 0.075394355 0.016553082
-0.043675 0.02280391 -0.08396862 0.047095694 -0.059740167 0.08666444 0.079039544 -0.12478601
0.03178054 0.05798842 0.077550314 -0.029830946 -0.06745641 -0.046696205 0.0053405287 0.051254436
-0.016674012 -0.082388386 0.046269927 0.02835855 -0.067576855 -0.038902137 0.101076916 0.1007517
-0.04528757 -0.10603936 -0.055259585 0.04142922 0.09839232 -0.068236835 0.016373076 -0.08639764
-0.004618024 -0.06365381 -0.01007198 -0.14965971 0.025130225 0.06744763 -0.052007135 -0.07480259
-0.019645752 -0.016554505 -0.05165789 0.0010305947 0.1002864 -0.078085735 0.11077246 -0.0072515868
-0.09377281 -0.0998628 -0.1306023 0.108388625 -0.09885902 0.006532081 0.10391964 0.10894072
0.08433298 0.0016435047 -0.0064096963 0.04986875 0.058899116 0.10127868 -0.0867411 -0.04200413
-0.023352183 0.0276706 0.09587061 0.05898149 0.023881994 0.09045442 0.06487852 -0.07779524
0.14213054 -0.005507379 0.06327194 0.13942829 -0.10686779 0.045277964 0.12712762 0.08317485
-0.06675335 0.12447492 -0.020623848 0.03565246 -0.09036839 -0.12788711 0.030832535 -0.06743162
-0.008139311 0.00097570126 -0.07338358 -0.11510371 0.013328297 0.09104909 -0.00343864 0.07510076
-0.02774171 -0.075554214 0.06513716 0.1253547 0.005894498 -0.034330126 0.10642504 0.048831146

res_blocks.1.linear1.bias f4 [64]
00000000: ff36 d6bb e23c 983d 26ce 55bb 01a5 963d
00000010: 514e 8fbc 3c93 26bd af70 ffbd 7982 c1bd
00000020: 8e39 ccbd f70c 63bd b8dc 8a3d 5a20 40bd
00000030: ed40 bc3d 8b03 bebd fb58 f43d 1f94 e43d
00000040: 9eca 5f3d 8610 ae3d 12fa 9abd 41fb f73d
00000050: 831a 893d 311b 6c3d d6fb fd3d 6dfc 003d
00000060: b1d9 8ebb d87e cdbd f862 c0bd ee14 b6bd
00000070: 83e1 e73c 3c9b c43d db6a 283d a23f 3bbc
00000080: 777e 9abd 31bf 0a3d 70e7 aabb 44ba 403d
00000090: 3e73 4bbc 267e e53b 9df2 99bc fd9c b5bc
000000a0: df29 3b3c ee28 a83d a268 9c3d bdf8 c33d
000000b0: b035 043d 4607 5fbd 2351 65bc 054c cbbd
000000c0: 997d f53a 9ac1 d23d 6007 aa3d 0fd1 3e3d
000000d0: 69f8 943d dc24 243d 84bc 05bc 4bea 1fbd
000000e0: b842 90bd 73fa 49bb a3ac a3bd 931e 953d
000000f0: d174 89bd 38b9 c7bd 41d8 a13d b96a f4bd
-0.0065373178 0.074334875 -0.0032624095 0.07355691 -0.017493399 -0.040667757 -0.124726646 -0.09448714
-0.09971915 -0.055432286 0.0678038 -0.046905853 0.09192071 -0.092780195 0.11931034 0.11161064
0.05463659 0.08499245 -0.075672284 0.1210847 0.0669451 0.05764312 0.124015495 0.031490732
-0.004359447 -0.10033959 -0.09393877 -0.08890711 0.028305775 0.09599921 0.04111753 -0.011428745
-0.075436525 0.03387374 -0.005215578 0.047052637 -0.012417613 0.0070035635 -0.018792445 -0.022169584
0.011423557 0.08210932 0.076371446 0.095689274 0.032277763 -0.054450296 -0.013996395 -0.09926609
0.0018729448 0.10290833 0.08302188 0.046586093 0.07273943 0.040074214 -0.008162621 -0.0390418
-0.070439756 -0.0030819445 -0.07991912 0.07281222 -0.06711734 -0.097521245 0.07902575 -0.11934418
