model/poly_resnet_model_500epoch_lambda1.pt (torch, 156298 bytes, 43 tensors)

input_layer.0.weight f4 [64, 118]
00000000: 5d53 913d 6100 883d 5ce9 88bd 9345 50bd
00000010: 1028 be3d fd2f a7bc 51d6 f63c e80e 86bd
00000020: e04b 573d 60c6 17bd 98e0 bfbb 5081 15bd
00000030: fa36 2ebc e28a c03d fc85 7a3d 16e7 e7bb
00000040: 1701 9dbd e2ef 5cba f1a0 b53d abad 99bd
00000050: a326 a5bd 8d99 45bd 62fa 91bc d66a a0bd
00000060: 07d4 ec3c 6ace 383d f5dd 1d3d 7b41 bb3d
00000070: dcc0 e53c bfe7 15bd 5ddb 0ebc ade2 713d
00000080: 1707 dbbd b526 e33c 95f5 993d 38fd 65bd
00000090: b988 463d 4b10 5d3d b958 943b fb5b dbbb
000000a0: cc50 b83d 8364 9ebd 0f3f a33c 9596 a9bc
000000b0: 619c d43c 1159 aabd d811 803d 91ee 5b3d
000000c0: d8f4 28bd dc21 11bd 847c 8bbc 83eb 923d
000000d0: 29e5 8dbd 4db9 acbd 3fac 77bd 8679 4a3c
000000e0: ced7 9cbd 3959 49bd f73f 6abc 3db1 99bd
000000f0: b5f0 55bd 40a8 323d 7793 923c 0757 803d
00000100: 84ff 6c3d 275e 09bd 5a86 c23d e99c 413c
00000110: ef95 153d ccb1 2b3d c9de 233d 5848 cc3c
00000120: 63ba a83d 33ef 1b3d 35e7 82bd f050 953d
00000130: ec43 8b3c f0dd 80bd 03fc 013d b8cb 873d
00000140: e1f3 8c3d 539f 7ebd efbb 54bd c289 66bc
00000150: 7c47 773d eac3 3fbd 647e eabc 62a5 7abd
00000160: 4b9e 503d ceb8 54bd ada3 6d3d 7aad 033d
00000170: abe7 edbc 4dc2 613d a9bc 453d bf66 babd
00000180: fc21 28bd 6ec9 1f3d 7f66 28bd e50d bdbc
00000190: e7cd 343d 9c6f b03d e162 c13c 633c 1e3d
000001a0: 656c ce3d 18ec 2b3d 0fa4 923d c2f4 a3bd
000001b0: e921 e0bb 4f2d 933d 489b ad3d 37bf 0c3d
000001c0: 4710 2d3b ae09 a83c d1a0 8fbd 1c37 e13b
000001d0: 8ac3 8dbc 0324 48bd 0dc9 c8bd 466b c5bc
000001e0: a9ba 173d f840 92bc cfb3 93bd 7abc b0bd
000001f0: 313d 44bc 0c32 553d 7d77 d23c ec75 063d
00000200: fdec e7bd 9741 dabd bb38 2b3d 2b1d 7f3c
00000210: b560 5bbc f521 39bd 4a51 90bd 1717 84bc
00000220: 8b1b 54bd af6e c63c 31c5 4abc 39cc 1e3d
00000230: e555 8b3d 1d44 1f3d 2603 a83d aceb 8ebd
00000240: 66b0 9b3d eba2 dc3c bd88 1e3d ab58 e13c
00000250: 1e29 10bd 7721 743d f498 a53d 06e1 01bd
00000260: eea4 e9bc 0e8b 283d 858c 143d a1be bbbd
00000270: 0ab1 c1bd 2be5 0f3d baa8 3d3d 8db2 02bc
00000280: 05d4 08bd a25e 2e3b a075 42bd 9d1f a1bc
00000290: 4593 77bc 323e fd3b cab3 183d b766 443d
000002a0: 071e 183d c4e1 bdbd c468 333d e717 883d
000002b0: 7d7f a9bd c5f9 243d f54c 93bc f82d b13c
000002c0: ce1c 01bd 3cf2 a3bd 063f c73c f570 b0bd
000002d0: 0d8f 553d 5b1e 463d f1b3 523a 487f 41bd
000002e0: 69b5 37bd 6fbc b4bd 0468 403d 7826 083c
000002f0: af94 11bd 9763 dcbc c96d 32bc 589e c2bd
00000300: 69dc 5fbd 8449 d4bd 5dbc 7a3d 9383 39bd
00000310: 627e eabd 488d 7f3d b442 d0bc 8208 c33c
00000320: 0ef2 cabd 1ba2 fd3c cc5b 3bbd d3aa 30bd
00000330: e54f 903d 7b47 e0bc 612f 66bb 634b 41bd
00000340: db8a 093c 3d58 bdbd df18 72bc 7d50 6cbc
00000350: c952 a3bd 318f 34ba 1bfd a93c 52ad 9fbd
00000360: 797b 6b3c 75e7 bfbc 09c3 acbd 958e 2fbd
00000370: 615b 80bd f2a5 823c 84f3 a23c 26de b0bc
00000380: 8675 793d 35b3 6c3c 6c5e 2b3d b5e8 5cbc
00000390: 1c51 c13c 0190 8b3d 19c1 553d 557d 87bd
000003a0: f28b c0bd 7b3b 7c3d 66c9 0a3d f2ce 78bd
000003b0: 7a7c f7bc ed00 35bd 093c 65bd 2836 8f3d
000003c0: 1e58 933c 2228 7cbc 0261 6c3d 9409 8a3d
000003d0: 51b4 40bd 7ae0 8a3c 8b72 253d 851d 233d
000003e0: fa22 e23c 435f 0c3d 3ed8 85bd bad0 4bbd
000003f0: 2f3b 903d 1ef9 30bd fd85 f73c af2b c13d
0.070959784 0.06640697 -0.06685135 -0.0508476 0.09284985 -0.020408625 0.03013149 -0.06545812
0.052562594 -0.03705442 -0.005855631 -0.036500275 -0.010633225 0.0940149 0.061162934 -0.007077108
-0.076662235 -0.00084280793 0.08868588 -0.07503828 -0.0806401 -0.04824214 -0.017819587 -0.07832877
0.028909696 0.045118727 0.038541753 0.09143349 0.028046064 -0.036597963 -0.0087192925 0.059054065
-0.10694712 0.027728418 0.07517544 -0.05614969 0.048470233 0.053970616 0.004527178 -0.0066943145
0.08999786 -0.07734015 0.01992753 -0.020701686 0.025953474 -0.08317769 0.062534034 0.05369431
-0.041249126 -0.03543268 -0.017027147 0.071738265 -0.069284745 -0.08433781 -0.060467 0.012358075
-0.07658349 -0.049157355 -0.014297477 -0.07504509 -0.05223151 0.043617487 0.017892582 0.06266599
0.057860866 -0.033537056 0.09498282 0.011817195 0.03651994 0.041917607 0.040007386 0.02493684
0.082386754 0.038069915 -0.063917555 0.07290828 0.017000161 -0.06292331 0.031734478 0.06630653
0.06882454 -0.062163662 -0.05193704 -0.01407093 0.060370907 -0.046817698 -0.02862472 -0.061192878
0.05093221 -0.051934056 0.05801742 0.032147862 -0.029041132 0.05511694 0.048275623 -0.091016285
-0.041048035 0.039010458 -0.041113373 -0.023077914 0.044141676 0.08615038 0.02360672 0.038631808
0.10079268 0.041973203 0.07160198 -0.08005668 -0.00683998 0.07186376 0.08476883 0.034362044
0.0026407407 0.020512428 -0.07013095 0.0068730246 -0.017305154 -0.04886247 -0.098039724 -0.024099004
0.037043247 -0.017853245 -0.0721203 -0.08629699 -0.01197748 0.05204968 0.025691742 0.032827303
-0.11324499 -0.106570415 0.04180215 0.015570919 -0.013389756 -0.0451984 -0.07046755 -0.016124291
-0.05178408 0.0242227 -0.012376116 0.03876898 0.068034925 0.038883317 0.082037255 -0.069785446
0.07602005 0.026933154 0.038704623 0.0275081 -0.035195462 0.059602227 0.08085814 -0.03170874
-0.028521027 0.041148238 0.036266822 -0.09167219 -0.09457596 0.03513066 0.04630349 -0.00797714
-0.033405323 0.0026606699 -0.047475457 -0.019668395 -0.015110795 0.0077283615 0.037280835 0.04794952
0.03713801 -0.09271577 0.043801084 0.06645184 -0.082762696 0.04027726 -0.017981032 0.021628365
-0.03152161 -0.08005187 0.024322044 -0.08615295 0.052138377 0.048368793 0.00080376776 -0.047240525
-0.04485074 -0.08825003 0.046974197 0.008309953 -0.035542186 -0.026902957 -0.010890433 -0.09502858
-0.05465356 -0.103655845 0.061214793 -0.045291495 -0.11449887 0.062390596 -0.025422432 0.023807768
-0.099094495 0.030961087 -0.04574184 -0.04313166 0.07046489 -0.027377835 -0.0035123455 -0.047191035
0.008394922 -0.09245346 -0.014776438 -0.014423487 -0.079747744 -0.0006887792 0.020750573 -0.0779673
0.0143727 -0.023425797 -0.084356375 -0.042860586 -0.06267429 0.01594827 0.019891508 -0.021590304
0.060903095 0.014447023 0.041838095 -0.013483216 0.023598246 0.06814576 0.052186105 -0.06615702
-0.094016925 0.061580162 0.033883475 -0.060744233 -0.030210722 -0.044190336 -0.055965457 0.06992751
0.017986353 -0.015390428 0.0577097 0.06740108 -0.047046963 0.016952742 0.04039244 0.039823074
0.027604569 0.034270536 -0.065353855 -0.049759604 0.070425384 -0.043206327 0.030215258 0.0943216

input_layer.0.bias f4 [64]
00000000: 86bd 9f3d 652b 173d c8f7 25bd 79e8 8dbc
00000010: 76a7 ddbc b45a ca3c e2dc 72bd d0db 583d
00000020: 0db0 6b3d 2002 ba3d 8a08 023d 6ce2 533d
00000030: 59fb 8ebd eda7 1b3d 7441 853d e430 25bd
00000040: 9009 31bc e30a 3bbd bf6b f5bc 4dbf abbd
00000050: def5 45bd 115f 9c3d 76c2 7b3b b73f 01bd
00000060: 20aa ec3b 4007 ba3d cc8b 5b3c 8341 fabb
00000070: 4e6f e73c f1bb 4dbd f8c1 46bb 8d4d c53c
00000080: bc0e 333c 27e6 3d3c e9c7 acbb ee5c 6cbc
00000090: c085 143d 4347 fdbc dcf9 65bd aa31 883d
000000a0: 9bae 003c 9f58 b7bc 0428 5fbc b881 4d3d
000000b0: 15e1 863d dec8 1abd 4867 90bd 55d7 2bbd
000000c0: 7c05 f23c 28cc 82bd 7de7 a43d c5ad 44bc
000000d0: 7d8b 453c 6f64 6abd b32c 6f3d 4592 393d
000000e0: f06e 563d ce22 a6bc b35a cabc a1a2 5abd
000000f0: ddaa dcbb c6cb 5dbd 176d 95bd 51c9 b43d
0.077998206 0.03690662 -0.040519506 -0.017322766 -0.02705739 0.024701454 -0.05929268 0.052944005
0.057540942 0.090824366 0.031746425 0.051729605 -0.069815345 0.038001943 0.06506625 -0.04032983
-0.0108055025 -0.04566468 -0.029958604 -0.08386097 -0.04833018 0.0763532 0.0038415468 -0.031554904
0.007222429 0.09083414 0.013400029 -0.007637204 0.028251316 -0.050228063 -0.0030328017 0.02408483
0.010928806 0.011590517 -0.0052728546 -0.014426453 0.036260366 -0.03091777 -0.056146488 0.06650098
0.007854129 -0.022381125 -0.01362038 0.050172538 0.065859 -0.037789218 -0.07050949 -0.041953404
0.02954363 -0.06386596 0.080519654 -0.0120043205 0.012057182 -0.057224687 0.058392238 0.04530551
0.052351892 -0.020280268 -0.024701452 -0.05337775 -0.0067342357 -0.05414941 -0.07296198 0.088274606

input_layer.1.weight f4 [64]
00000000: 1a4d 783f 0d29 7c3f 6cb0 7e3f f1f4 7f3f
00000010: 3e65 7a3f 0d75 7f3f 53f7 803f 4f9d 803f
00000020: 73c6 7b3f 3365 843f 297c 803f fa5c 803f
00000030: 019b 7f3f ce8d 7f3f cac4 7f3f 9502 803f
00000040: ef89 7c3f b365 793f b620 803f daec 803f
00000050: 8a03 813f b0f8 7c3f 9824 7d3f 3913 783f
00000060: 05e0 7b3f 902d 833f c40f 793f b089 7e3f
00000070: 7412 833f 0ba8 7d3f 9df7 753f 1ec4 813f
00000080: b55c 7e3f ee14 773f cf28 7f3f 22aa 7d3f
00000090: e118 7c3f 1869 803f 5fe2 7f3f 706c 823f
000000a0: ece6 793f a39e 7e3f b0bd 7e3f 28ef 7a3f
000000b0: 68d7 793f 8506 813f 7347 743f 03c8 7b3f
000000c0: 056a 7b3f d34c 7e3f ccf1 7f3f f6da 803f
000000d0: 4189 7b3f d583 823f d71d 803f 16f1 7e3f
000000e0: 060e 7f3f 8ad5 823f 3425 7f3f 539e 803f
000000f0: 6442 7b3f c0f7 823f e86b 803f 6a91 7c3f
0.9699265 0.9850014 0.9948795 0.99983126 0.97810733 0.9978798 1.0075477 1.0048007
0.98349684 1.0343384 1.0037891 1.0028374 0.9984589 0.9982575 0.9990965 1.0000788
0.9864797 0.97420806 1.0009983 1.0072281 1.0079205 0.98816967 0.9888396 0.9690433
0.983887 1.024828 0.9728968 0.99428844 1.0240006 0.9908454 0.9608095 1.0137975
0.9936021 0.9651631 0.99671644 0.9908773 0.9847546 1.0032072 0.9995479 1.0189342
0.97617984 0.9946081 0.9950819 0.98021173 0.9759431 1.0080115 0.9542152 0.9835207
0.9820865 0.99335974 0.9997833 1.0066822 0.9825631 1.0196482 1.0009106 0.9958662
0.99630773 1.0221417 0.9966614 1.0048317 0.9814818 1.0231857 1.003293 0.98659384

input_layer.1.bias f4 [64]
00000000: feed 9fbc c01b 94bc 928c 9fbc 5119 473b
00000010: 4f12 fe3a 186b 2bbc 3689 a93b f96c 003d
00000020: 6d91 dbbb 5675 0e3d b100 613c cd87 073b
00000030: 510e 453c 15b3 d0bc 684a 93bb ba8e e43b
00000040: b500 9dbc d554 bbbc 1148 7d3c 2ae8 c13c
00000050: 07db fd3a 504b 83bc ba81 a93c d55a 533c
00000060: 8177 08bc 55e0 8fbb 0571 00bd b5a5 393c
00000070: dd41 d63c 9513 2e3c f728 9fbc 4299 f9bc
00000080: b0b3 fa3c a69e a6bc c22d ca3b 3804 193c
00000090: 6327 b1bc db28 0f3c dcf1 b6bb 5e91 463d
000000a0: 74a0 57bc 1f5d 31bc 720f 133c a7e9 3abd
000000b0: d226 c2b8 655b cc3b c4bb bcbc b686 b2bb
000000c0: 503d 73bc 3b22 bdbc 2de2 a8bc e3a5 6b3b
000000d0: b6f7 073d 665e 9a3b 9594 183c c072 2d3b
000000e0: 5fd3 0bbd e4bb ff3c 238c 403c 612c 933c
000000f0: 08e4 adbc 5419 f43c ef45 dfbb 2363 94bc
-0.019522663 -0.018079638 -0.019476209 0.003038008 0.0019384118 -0.010462545 0.0051738275 0.031353924
-0.0067006857 0.03477987 0.013733075 0.0020680309 0.012027339 -0.025476018 -0.004494954 0.006975022
-0.019165376 -0.0228676 0.0154590765 0.023670275 0.0019367643 -0.016027123 0.020691741 0.012900074
-0.008329273 -0.004390756 -0.031357784 0.011331012 0.026154453 0.010624786 -0.019428713 -0.030468587
0.03060326 -0.020339321 0.0061700055 0.009339385 -0.021625226 0.008737768 -0.005583031 0.048478477
-0.013160814 -0.010825424 0.00897585 -0.045632984 -9.257872e-05 0.006236481 -0.023038752 -0.0054481877
-0.014846161 -0.023087611 -0.020615662 0.003595703 0.03319522 0.00471096 0.0093127685 0.0026466101
-0.034137126 0.031217523 0.011752161 0.017965497 -0.021226898 0.029797234 -0.0068137567 -0.018113678

input_layer.1.running_mean f4 [64]
00000000: d7d0 993d d33c 2e3d 9a79 38bd a027 26bc
00000010: 9a7d 96bc 3759 193d b3db 8dbd bbe1 6b3d
00000020: e744 853d cab0 d43d 78c5 163d 0680 843d
00000030: 013f afbd 19b2 363d 3d2a 803d 8fbc 4cbd
00000040: 9285 a6bb 13cc 30bd bcb7 08bd a39c a3bd
00000050: 3756 6dbd 216c 943d ffa9 43bb a7ca 30bd
00000060: 8c5c c93c 2d97 c03d ab23 333c 03a4 a2bc
00000070: 7831 223d 682d 65bd c0f2 443b c13c 0c3d
00000080: f63a 623b 7435 463c 2a3e 66bc 815b 63bb
00000090: 1c67 5f3d b0e4 d5bc efb3 74bd 9828 6a3d
000000a0: b517 533c 0e4e d0bc 816a abbc eab9 663d
000000b0: e219 8f3d 1528 1cbd 3379 92bd 3c59 1ebd
000000c0: c298 013d 6e78 27bd 9576 c63d 4d1c b13b
000000d0: af32 323c 4890 67bd eecb 573d 06d2 ef3c
000000e0: 7239 733d 7c42 afbc 49ed f0bc 4ced 2bbd
000000f0: e3ad 31bb 5e07 6dbd bb08 abbd e00e b73d
0.07510536 0.042538475 -0.045037843 -0.010141283 -0.018370438 0.037438598 -0.0692667 0.05758832
0.06507283 0.10385282 0.036809415 0.06469731 -0.08556939 0.04460344 0.06258056 -0.04998451
-0.005081841 -0.04316337 -0.033378348 -0.079888605 -0.05794355 0.072471865 -0.0029855964 -0.043162014
0.024580263 0.094038345 0.010933797 -0.019853598 0.03959796 -0.055951506 0.0030051917 0.034237627
0.0034520007 0.012097705 -0.014052907 -0.0034691992 0.054541692 -0.026110023 -0.05974191 0.05716762
0.01288407 -0.025427844 -0.020924808 0.056329645 0.06987359 -0.038124163 -0.07152023 -0.03865932
0.03163982 -0.040886335 0.096905865 0.005404985 0.010876342 -0.05653408 0.052684717 0.029274952
0.059380956 -0.021394007 -0.029410021 -0.04197435 -0.0027111701 -0.057868354 -0.083512746 0.08938384

input_layer.1.running_var f4 [64]
00000000: 6530 0f3f a2c9 a23f 3b7b ed3e fc9e fd3f
00000010: 630c 4a3f d7d8 1b3f e389 863f b2be 153f
00000020: faa4 b13f 950b 4e3f 51ee b13f 5d7d a63f
00000030: 52d8 c43f 3864 4540 6908 1f3f 5684 913f
00000040: 5674 0f3f 3872 303e eb47 263f 4efa 183f
00000050: 400a de3f cbae 3b3f 033c b83f 8477 953f
00000060: 51d2 0c3f 8b46 cf3e 37b3 543f 1b25 2d3f
00000070: 7b12 443f 7edc 613e dba3 b93e 501b 993f
00000080: 1239 843f 7d09 b43e 09fb 0c40 0538 363f
00000090: 9fd5 873f f827 163f 1a61 173f dfdf fd3e
000000a0: 8244 3f3f 6d40 9d3f f282 d53f 93e4 433f
000000b0: 41c4 0e3f 50e4 8f3f 9bb5 253e b21a 2c3f
000000c0: 16c8 713e fc23 2940 ad29 9140 80d0 e13f
000000d0: a01c c43e e1a9 913e 9889 933f 8ad3 893f
000000e0: 2faa 713e 5941 4d3f 8730 513f 58c2 d73f
000000f0: bb24 953f 9b5f 073f 5696 3b40 34ee c93f
0.5593322 1.2717783 0.4638308 1.9814143 0.7892515 0.60877746 1.051083 0.584941
1.3878472 0.8048642 1.3900853 1.3007008 1.5378516 3.0842419 0.6212221 1.1368511
0.5603689 0.17231071 0.6495349 0.59756935 1.7346878 0.7331359 1.4393314 1.1677098
0.5500842 0.40483508 0.8308596 0.67634743 0.765907 0.22056767 0.36257824 1.196146
1.0329916 0.3516349 2.202822 0.7117923 1.0612067 0.5865474 0.5913254 0.49584863
0.7471391 1.2285286 1.6680586 0.7652065 0.5576821 1.124155 0.16182558 0.67228234
0.23611483 2.6428213 4.5363374 1.7641754 0.3830309 0.2844992 1.1526365 1.0767682
0.23600076 0.8017784 0.8171467 1.6856184 1.1651834 0.5288026 2.9310508 1.5775819

res_blocks.0.linear1.weight f4 [64, 64]
00000000: 17e3 97bd 45c8 a13d dbcf a1bd 8fc1 cebc
00000010: 8edc 96bd 5ecc 10bc 56a3 b03d a22c 263d
00000020: d749 3fbd 981c ea3d dd85 223c 4c59 64bc
00000030: 24f3 8b3d 0fd7 373d 4619 20bb b1c0 913c
00000040: 2763 fc3d 1e71 9dbd 0f02 6a3d 5630 ee3c
00000050: 8700 fd3d e5c8 903d ee45 3abc 4d2e 003d
00000060: e9e5 cb3c eddc e93d e221 00ba 4ad8 4c3d
00000070: b157 d03c b030 84bd d77a e3bc 7020 bf3d
00000080: b6b5 c33d c03b ce3d 41b6 553d a9b0 f1bd
00000090: c129 ed3d 5aa6 05be 4cde 3dbc 14e7 713d
000000a0: 2e9d 9cbd bc45 033e 70b2 bb3d e6ad a1bb
000000b0: fd34 853c 583f 57bd e27b 1bbd 48b8 403d
000000c0: 5f74 533c 57c2 c1bd f9c2 f73d 926f a93d
000000d0: 603e e1bd c01e 3cbd c58c 5bbd bf7c 9abd
000000e0: d1ae e9bc 8933 89bd d6ec c9bb b0cd 0bbe
000000f0: fe03 9b3d e2c5 a5bd c797 2ebb 48dd e73b
00000100: 2744 aabc b16a 5dbc b6f9 21bc df5b f53d
00000110: 446c 4b3c 8747 ebbd 14c2 a53c b138 b7bd
00000120: c017 603a 49fe 863d 3768 f4bd d220 833d
00000130: b24e 523d 51ae 713d a859 093d dd3d 6d3d
00000140: e443 453d 4a93 eabd 3f6e 6cbc be36 cabc
00000150: 3092 7d3d d7fe b73c 752d 963d 4dde ccbd
00000160: fe71 203d 5b86 47b9 00dd f6bd 6167 dfbd
00000170: a227 fbbc f6a3 cc3d 4c05 e13d cf5a 1d3d
00000180: 4e21 a6bd 5e6a f03c 3399 fd3d 830e e8bd
00000190: 4c97 b1bd d1c7 8f3d d82e db3c 26c9 d33d
000001a0: 8bcd 5abd 70dd 5c3d 6d67 b8bd a8ff b5bd
000001b0: cea0 e8bd 4104 e43d 0e28 bfbd 33eb bdbb
000001c0: ce24 6fbd 9d49 31bd 978d 67bd 0660 0a3c
000001d0: 4c53 a0bc b8a6 123c 4f57 51bd d374 1c3d
000001e0: ea6f 10bd 47e0 5b3d d05e 003c 86f3 c8bd
000001f0: 96c1 4fbd bfa4 cb3d 8389 0c3d 6d25 3c3d
00000200: 4e68 8c3d b293 5a3c 66b7 f3bd b5be fabc
00000210: 4cd0 c83d dc2a d63d 46b2 98bd 54fe 873d
00000220: 7b1b 393d fbcf aa3c 5e7b 933d 774d 85bc
00000230: be30 8b3d abf6 0f3d 1fc0 9a3d cba4 0c3d
00000240: f5af 333d a457 143d 9305 a2bd 2d1a e13d
00000250: eeb9 0ebd 8afc c3bd b9c6 13bd a8c1 01bd
00000260: 2541 ab3c c162 e63d f911 003e c8ce ce3d
00000270: ea8e 87bd fba5 cfbd bfbb 0bbc b731 f1bd
00000280: e322 99bd 0d35 f33a 7ee4 333d 7f94 9fbb
00000290: e5bc 14bd e2c6 7ebd 9200 46bd eaeb a43d
000002a0: 7d47 603d 87b9 ca3d 30e7 a8bd bbf2 bcba
000002b0: 78bd 833c 5a0e 7e3d d9c4 42bd e914 68bd
000002c0: e97c e1bd 2728 013e dd67 b2bd bd62 213d
000002d0: cf7d fe3c 93d8 f5bd 71d1 d7bd f428 cfbd
000002e0: 727e e53d b2b0 63bd 3fed 3f3d 66c8 31bd
000002f0: d358 8cbd 4899 8739 bdf5 323d 5907 803d
00000300: 63d0 86bc 79fb 433d 96a5 e8bd 263e dd3c
00000310: 06f9 87bc d63b f2bd 4ac6 693d 4dd7 b3bd
00000320: a95c a1ba 656b 863d 2a89 4abd 0881 903b
00000330: ac3b b4bd 20c4 efbd ae4a 93bd 42ca e0bc
00000340: 7141 b2bd ea67 59bd cf50 0c3c b378 e73d
00000350: deb0 a93d c616 e0bb 7b19 413d a766 b63d
00000360: c8ee cebc 16d9 ddbd bf90 47bd ee77 b7bd
00000370: 040d f4bd ab84 8dbd 73f7 ae3c 3bc2 033e
00000380: c60d 043e 0d80 a4bd d7b4 563d 91aa 09bd
00000390: e391 a23c f01c 10bd 9eaa 37bd e948 933d
000003a0: 8ec5 50bd 7967 333d a795 f53b 96df 69b8
000003b0: 8ffd c63d e640 eebb d1e0 843d d7b9 cc3d
000003c0: ccf9 35bc d39c 993d b4ba a2bc 5adf 25be
000003d0: 96f0 e2bb 290e 953d 4424 f1bc 0316 a23d
000003e0: fcf8 dd3b d5e5 12bd 6e41 2ebd 28ea c0bd
000003f0: fdcf babd e19a e73c 1600 4b3d de2f 25bd
-0.07416361 0.078995265 -0.079009734 -0.02523878 -0.07366286 -0.008837787 0.08624904 0.04056991
-0.04670128 0.11431235 0.009919611 -0.013937306 0.06833485 0.04488283 -0.0024429127 0.017792078
0.12323599 -0.07687591 0.05713087 0.029075783 0.12353616 0.070695676 -0.011369212 0.031294156
0.024889903 0.114190914 -0.00048878614 0.050010957 0.02543244 -0.06454599 -0.027768536 0.09332359
0.09556143 0.1006999 0.052175764 -0.118012734 0.115802296 -0.1305174 -0.011588644 0.059058264
-0.07647167 0.1281957 0.091648936 -0.0049340604 0.016260618 -0.052550644 -0.03795994 0.047050744
0.012906163 -0.094608955 0.12097735 0.082732335 -0.10998225 -0.045927763 -0.053601045 -0.07543325
-0.028525742 -0.06699283 -0.0061622662 -0.13652682 0.07569121 -0.08094384 -0.002664076 0.0070759393
-0.02078445 -0.013514207 -0.009886196 0.11980414 0.012415949 -0.11488252 0.020234145 -0.0894636
0.0008548461 0.0659147 -0.1193394 0.06402744 0.05134458 0.05900413 0.03353277 0.057920326
0.04816045 -0.114538744 -0.014430582 -0.024684306 0.061906993 0.022460384 0.07332889 -0.10003338
0.03917121 -0.0001902817 -0.12053871 -0.1090839 -0.030658547 0.099922106 0.109873384 0.03841668
-0.08111821 0.029347595 0.12382736 -0.11330893 -0.08671436 0.07020534 0.026755735 0.103411004
-0.053418677 0.053922117 -0.09004102 -0.08886653 -0.11358796 0.11133624 -0.09333812 -0.00579586
-0.05838471 -0.043283094 -0.056531515 0.008445745 -0.019570969 0.008950882 -0.051108655 0.03819735
-0.03526298 0.053680684 0.007835105 -0.098120734 -0.050721727 0.09943532 0.03431083 0.04593413
0.06855832 0.013340877 -0.11900215 -0.030608514 0.098053545 0.104573935 -0.07455878 0.06640306
0.045192223 0.020851126 0.07201265 -0.01627229 0.06796406 0.03514735 0.075561754 0.034336846
0.043868978 0.036216393 -0.079112194 0.10991321 -0.034845285 -0.095696524 -0.03607819 -0.031678826
0.020905087 0.112493046 0.12506856 0.10098034 -0.066190556 -0.1013908 -0.008528649 -0.117770605
-0.07477357 0.0018555239 0.04391908 -0.004869997 -0.036312956 -0.06220139 -0.048340388 0.080528095
0.054755677 0.09898668 -0.082472205 -0.0014415601 0.016081557 0.062025405 -0.04755101 -0.056660566
-0.11010153 0.12612973 -0.087112166 0.039400805 0.03106585 -0.12004199 -0.10537995 -0.10115233
0.11205758 -0.05558843 0.046857115 -0.043404005 -0.068528794 0.0002586341 0.043691386 0.062514015
-0.016456788 0.047847245 -0.11359708 0.027007174 -0.016598236 -0.11827819 0.05707387 -0.087813
-0.001231094 0.06563453 -0.049447216 0.004409913 -0.08800444 -0.1170733 -0.071919784 -0.027440194
-0.08703888 -0.053077616 0.008564188 0.113023184 0.08285688 -0.0068386523 0.04714344 0.08906298
-0.025260344 -0.108324215 -0.048722025 -0.08958422 -0.11916545 -0.0691007 0.021358227 0.12867062
0.12895879 -0.08032236 0.052418556 -0.03360993 0.019844955 -0.035183847 -0.044840448 0.07191641
-0.050969653 0.04379985 0.0074946466 -5.575976e-05 0.09716331 -0.00727092 0.06488193 0.09996384
-0.0111069195 0.07500615 -0.019864418 -0.16198483 -0.0069256527 0.072780915 -0.029436238 0.07914355
0.006774066 -0.035863716 -0.042542867 -0.09419662 -0.09121702 0.028272094 0.04956063 -0.040328853

res_blocks.0.linear1.bias f4 [64]
00000000: 832c 82bd 50f9 b83d 0cfb 8d3d 1235 f73d
00000010: f45a babd a968 8dbd a28d fabd d31d ca3d
00000020: 9107 cabd 38a0 953d 8260 883c 9f61 833d
00000030: 6fd4 113c 8f88 dbbd bd1a 893a ce4e 843d
00000040: 5111 c138 baf3 69bd 8e06 54bd 05b1 e0bd
00000050: 9783 913d 963a 19bd 0d17 a53d 5dbc a73d
00000060: 5223 a5bd 9948 94bd ba55 c13d 8f7c 71bd
00000070: 8254 b83b 4439 7dbd e3b7 efbd 0fd7 153d
00000080: b4bc 4a3d 5987 fabd 7c80 cdbb 8b70 7abd
00000090: da7e 29bb 1c56 b4bd f582 513d 3b41 6f3d
000000a0: fcd7 5bbd 4bd0 86bd 7500 9fbd d8e9 32bd
000000b0: 4f30 ee3d e832 a0bd d4ca d23d 95d1 c13c
000000c0: 91d3 df3d f3ac a03c 49af 14bd 65f7 003e
000000d0: d0df 8b3d fa81 49bd 8a46 a0ba 9aa8 f73d
000000e0: 8b6d f63d 3583 d13d 79a0 ad3c 7a65 ce3d
000000f0: 7c86 483c dcf6 b9bd 0103 eebd 0369 06bd
-0.06356146 0.090319276 0.06932649 0.12070669 -0.09099379 -0.06904728 -0.122340456 0.0986897
-0.098647244 0.0730595 0.016647581 0.06415104 0.008900746 -0.10719406 0.0010460239 0.06460343
9.2061826e-05 -0.0571172 -0.051764064 -0.10971264 0.07105177 -0.037409388 0.08061037 0.08190224
-0.080633774 -0.072404094 0.09440179 -0.05895668 0.0056253085 -0.06182219 -0.117049955 0.03658205
0.049496368 -0.12232847 -0.00627142 -0.061142486 -0.0025862963 -0.088054866 0.05115028 0.058411818
-0.053672776 -0.065826975 -0.07763759 -0.043680042 0.11630308 -0.078222096 0.10292593 0.023659507
0.10929025 0.019613719 -0.036299977 0.12594374 0.06829798 -0.04919622 -0.0012228054 0.12092705
0.120326124 0.10230104 0.021194683 0.10077949 0.012239095 -0.09080288 -0.11621667 -0.03281499

res_blocks.0.bn1.weight f4 [64]
00000000: 114c 7d3f 45dc 803f 4b0a 823f 7144 833f
00000010: ddad 793f 4481 7a3f ebb2 803f e1eb 7c3f
00000020: c55a 793f 44ea 813f 85da 803f da2b 7e3f
00000030: 7e5c 7c3f 80c7 753f f4c7 7b3f 3282 823f
00000040: 56ff 793f 5ede 7d3f fc2c 833f 8899 7d3f
00000050: 2e48 803f 1b8e 7d3f 7db2 803f a7c2 843f
00000060: b8d9 803f 1c4f 813f 7633 7d3f 9458 783f
00000070: d562 7e3f cf90 803f 1af0 7f3f 08d0 7e3f
00000080: a04e 783f 132f 7f3f ba66 823f 0c4c 833f
00000090: 2b45 803f dc77 7c3f 70d8 823f 09b4 853f
000000a0: c630 7c3f fe35 803f b339 813f b3ea 7f3f
000000b0: 10d3 7f3f 7016 7f3f 329f 803f b289 7f3f
000000c0: 591f 7e3f 9b56 793f 3b7f 7e3f 7e85 7a3f
000000d0: 7814 7b3f 36ad 7f3f 8591 7f3f b4d6 7c3f
000000e0: 43a5 823f f5d9 813f 4963 7d3f 42a1 823f
000000f0: 46b9 803f 9038 823f fcb4 803f f5de 7c3f
0.98944193 1.0067221 1.0159391 1.0255262 0.9753092 0.97853494 1.0054601 0.9879742
0.9740413 1.0149617 1.0066687 0.9928566 0.9857863 0.9600754 0.9835198 1.0195982
0.97655237 0.9916743 1.0248103 0.99062395 1.0022027 0.9904496 1.005447 1.0371903
1.0066442 1.0102267 0.9890665 0.9701016 0.99369556 1.0044192 0.9997574 0.9953618
0.9699497 0.99681205 1.01876 1.0257583 1.0021108 0.9862039 1.0222301 1.0445567
0.9851192 1.0016477 1.0095733 0.999675 0.9993143 0.9964361 1.0048583 0.9981948
0.9926658 0.97397774 0.9941289 0.9785994 0.9807811 0.99873674 0.9983142 0.9876511
1.0206684 1.014464 0.9897962 1.0205462 1.0056541 1.0173512 1.0055232 0.98777705

res_blocks.0.bn1.bias f4 [64]
00000000: e4d2 e2bc a051 9dbc ab9e 7f3c f660 5b3d
00000010: 99ec 733c d7d0 89bc eeb6 2ebb e6af d5bb
00000020: 18d5 c4bb f88f 663c 0b07 683c e291 6abc
00000030: 5eac c2b9 ef26 21bd f5f8 82bb 1c31 0f3c
00000040: eaf8 c3bc 9d86 a2bc f3eb 6c3c 8811 613c
00000050: 784a 82bb 1e39 cc3c 4db9 8d3b 98ff 473c
00000060: 5235 343b 5035 8a3c ab88 62bc de1e f3bc
00000070: c151 d1bb c583 203c 1dd2 363d 586d 9fbc
00000080: a0f8 35bd c9f0 55bc fcec 7b3c f2c1 043d
00000090: 04d4 5e3a 03e2 0cbc ebe4 ee3c 2144 1cbb
000000a0: 87e3 afbc 5008 db3b eefc b03a 176e cabb
000000b0: 4fd5 1a3c 6d25 303b 8abb d63b 85c2 4bbb
000000c0: 7695 70bc 605c a3bc 998f b5b8 53f7 e5bc
000000d0: b8e1 93bc ec05 ad3c 3ead 79bc 0bc0 51bc
000000e0: b7cc 763a 8bdf e4ba 02b4 08bd dc50 933b
000000f0: 3812 ffbb 0f60 7e3a af36 39bc 341e d4bc
-0.027688451 -0.01920396 0.015601794 0.053559266 0.014887952 -0.016823215 -0.0026659328 -0.006521213
-0.006006848 0.014072411 0.014161835 -0.014317008 -0.00037130987 -0.03934377 -0.003996963 0.008739736
-0.023922402 -0.01983958 0.014460552 0.01373709 -0.0039761625 0.02492958 0.004325068 0.012206934
0.0027497602 0.016871125 -0.0138265295 -0.029677805 -0.0063879197 0.009797041 0.044633973 -0.019461319
-0.04442656 -0.013057896 0.015376326 0.032411523 0.0008500221 -0.008598807 0.029161891 -0.002384432
-0.021470798 0.0066843405 0.0013503113 -0.0061776745 0.009450271 0.0026877776 0.006553118 -0.0031091284
-0.014684072 -0.019941509 -8.6575e-05 -0.028072035 -0.018051967 0.021120988 -0.015239058 -0.012802134
0.000941466 -0.001746164 -0.033374794 0.004495723 -0.0077841543 0.0009703645 -0.0113045415 -0.025893308

res_blocks.0.bn1.running_mean f4 [64]
00000000: 4538 1c3e 50bc 303c dd1b f83d db27 98bd
00000010: 3e34 1dbe 8081 d73d 6b25 c53c 5887 87bd
00000020: d166 a1be 5cec 9cbe 2272 073f c01a 6b3e
00000030: b022 6cbe ef23 edbc 9236 c73d 1683 a33e
00000040: 05c3 1fbd dcf9 cbbd 8bca c0be 2d8a 97be
00000050: e7ef 62be 03a9 d6be 49ee 563c a33a 7dbe
00000060: 20e1 87be 84b8 bbbe 6a86 a4be 2815 b7bd
00000070: f4af 45be 9838 833d d638 d6bd 604f db3c
00000080: 8726 033f 999e 8dbe 0b02 cd3d c0e7 0cbe
00000090: 5484 513c 3024 a8bd 8c42 49be cca3 67be
000000a0: 42fa 043e 4390 4e3e bf84 8cbe ca58 77bc
000000b0: 0068 023f 0147 ee3b e038 9a3d e255 863e
000000c0: af3b 903e 8b3f 66be f1b9 0abe 00d9 abbe
000000d0: ca7a 25be 9346 9ebe 0bee 8ebd 590a 8b3e
000000e0: 66b7 323f 27f2 76bd 7616 e4be fa50 023e
000000f0: 4483 c03e 7467 05bf 4784 1f3c ac15 e43e
0.1525584 0.010787085 0.121146895 -0.07429477 -0.1535196 0.10522747 0.024065694 -0.06617612
-0.31523755 -0.30649078 0.5290853 0.22959423 -0.23060107 -0.028947799 0.09727205 0.31935948
-0.039004344 -0.09959766 -0.37654528 -0.29597607 -0.22161828 -0.4192582 0.013118335 -0.247294
-0.26538944 -0.36664212 -0.321338 -0.08939582 -0.19305402 0.06407279 -0.10460059 0.026771247
0.51230663 -0.27660063 0.10010155 -0.1376028 0.012787897 -0.08210027 -0.19654292 -0.22621077
0.12986091 0.20172219 -0.27445027 -0.015096853 0.5093994 0.007271648 0.07530379 0.26237398
0.28170535 -0.22485177 -0.13547494 -0.33563995 -0.16160122 -0.3091322 -0.06978997 0.27156332
0.69811094 -0.06028953 -0.44548386 0.12726203 0.37600148 -0.5211098 0.009736127 0.44547784

res_blocks.0.bn1.running_var f4 [64]
00000000: 5967 073e 17e2 553e efd3 383e c1a4 333e
00000010: 66a2 d23d 6205 733e c3e8 a73e 77d7 5d3e
00000020: b538 0b3e faef 543f f384 163e 4929 933d
00000030: dcbd 463e 88e3 7b3d 3f38 433e 0bb9 2c3e
00000040: e9a5 ae3e e1d3 5e3e c6ac f13d 85a6 163f
00000050: d892 c73d 6ef5 963e 5c97 bc3d aaa4 ac3d
00000060: c81a 163f 40ea 113e eede 163e c30c 8c3e
00000070: cdf5 cc3d 8e6d b73e 61c4 243e 281c ba3d
00000080: bc70 713e e907 013e d413 ea3e f822 d03d
00000090: 4b04 753e f733 3c3e a7c1 613e 8ddd 9c3d
000000a0: b9d6 cb3d 9820 c23d c68d b23e 8e18 7f3e
000000b0: 9cae 4e3e 9008 423e 0102 0d3e 73a7 883e
000000c0: 0e60 cd3d 1b1b 063e 2749 383e de69 ce3d
000000d0: 56b8 b73e 0455 d93d 096f f13d a909 ff3d
000000e0: d2c0 0b3e 1fc3 b03e 8e53 da3d 6652 cf3d
000000f0: e1a4 813e afd4 033e 7ce9 693e 7508 673e
0.13223018 0.20887028 0.18049596 0.17543317 0.10284881 0.23732522 0.3279477 0.21664225
0.13595851 0.83178675 0.14699154 0.07185609 0.19408363 0.061496288 0.19064425 0.16867463
0.34110954 0.21760513 0.11800532 0.5884784 0.09744805 0.29484123 0.09208557 0.08429845
0.58634615 0.14249516 0.14733478 0.27353486 0.1000782 0.3582577 0.16090538 0.09087402
0.23578161 0.12600674 0.45718253 0.1016292 0.23927419 0.18379198 0.22046529 0.07659445
0.099530645 0.09478873 0.3487379 0.2491171 0.20183796 0.18948579 0.13770296 0.26690254
0.100280866 0.13096277 0.17996655 0.10078786 0.35882825 0.106119186 0.117887564 0.124530144
0.13647774 0.34523866 0.10660468 0.10123138 0.25321105 0.12874101 0.22842973 0.2256182

res_blocks.0.linear2.weight f4 [64, 64]
00000000: 8ed8 b3bd b229 983d 54e1 fbbc 73b8 b1bd
00000010: 4caf 28bc fb25 7ebd 8a55 9e3c dc90 afbd
00000020: 8c8f 49bc d94d bd3d b02a 91bd e9b0 ccbd
00000030: b55f 1bbd 37bb 933c cce2 ed3d e420 de3c
00000040: 62ef 7bbd 9e95 ff3d 4a9c 8ebd ee6d b8bd
00000050: a1f9 063e 3bf3 2abd a7cc 14bb 3d4f 863c
00000060: 4555 eebd 692e d23d 14d8 1abe f1cf dd3d
00000070: ec79 863d d563 fe3b 02ba ab3d 84d1 17be
00000080: edc1 a83d 220f 9a3d cf2e 223d 6e5a f43d
00000090: aa0e bebd befe ea3d e333 dbbd 4621 573d
000000a0: 5ae5 8aba 6d49 153c 69c8 c73d 85d8 e23d
000000b0: dd5b fabd 360f c43c 8d12 a7bd 1d85 e0bc
000000c0: 2c76 bbbd 633d 10bc 0c62 8d3d a09f ad3c
000000d0: 404f b43d 210b d2bc f7b3 cf3d ba7c 2c3d
000000e0: 2039 b53d 4a17 f33d df9a 68bd 3cb3 c93d
000000f0: dbbf 813d e95a 6dbc 5677 7839 71fe 99bd
00000100: 82b0 e9bc aa33 58bc 4f78 953d cd89 fa3d
00000110: 33ff 00bd 0974 b23d 43b3 72bd 95df ef3d
00000120: d160 b4bd ee56 cebd f33f 683d 21a2 82bc
00000130: 46fc eebd bdfb f63c 08a8 1f3c 4ad8 4a3c
00000140: d68c cbbb e440 eebc 8a64 113c 68fc 783d
00000150: 0f22 75bd b154 af3d 5798 cdbd 8fa6 5d3d
00000160: 57a6 1dbd 488c 683d 6fab e6bc 6fc7 9b3d
00000170: 4d4d 373d 6ec7 c6bd 7901 45bc d552 413c
00000180: ce9b 473d f247 09be 4f85 67bd 6dd8 8c3d
00000190: feff cbbc 8d5c a63d 5706 c7bd d276 a23c
000001a0: 1d9d cabc 00f4 993d dad5 993d ec8b f33d
000001b0: 2dcd f53c 7fde 21bd aafe bebd fa38 7fbd
000001c0: 93c9 e93d 841b 973c bf0e 6b3d a2a6 413d
000001d0: 3ada c4bc 3568 81bd f38f 11be 0703 65bd
000001e0: 342b 7e3d 3ecd 87bc ad38 523d d247 ae3d
000001f0: fe8c 9dbd 1781 f23d 08d6 b73d bd87 9a3d
00000200: 1ae5 a73c f2d3 6d3d e020 f3bb c3e6 8cbd
00000210: d6e3 acbc 9cf9 663d 79b5 d13d 2009 45bd
00000220: 9bea b6bd 5d98 c43d f53c fdbc 8296 ebbd
00000230: 15b5 2abd 3dcf 4cbd 7a79 7dbd 7f2b 803d
00000240: 8867 83bd 098c e7bc 32c9 a6bd 05ca 833d
00000250: 8571 e83d abfe 0f3d c110 d7bc d9f6 793c
00000260: 822a aa3d 14e4 a03d 4c04 11bd 54b6 cdbd
00000270: 812d c53d d184 66bd 1302 e43d 3558 4cbd
00000280: 8a50 75bb d122 a83d eeb0 bfbd 5974 63bd
00000290: e718 0f3c d3d0 b13d 252d bb3c 064d 463d
000002a0: 1ac4 57bc 1c70 c63d ca7c 09bd 3b3c b9bd
000002b0: 6aeb 8c3d 3072 9cbd 7e9a 8b3d 7c1b 82bd
000002c0: f80b d33c dc61 29bc 7fb4 8cbb bddb 29bd
000002d0: 93b3 febd 52c7 e83d 620a debc 814f 34bd
000002e0: 1932 fd3d 18d9 10be 6b4b debd a6f1 bcbd
000002f0: 9258 df3d 6fc5 fd3a a3f2 84bd e5d3 8cbd
00000300: 21f4 083c 9af5 d33c b7d1 903d f80c b4bd
00000310: 281f 28bd b40b d9bd c3d9 76bd cbd1 8e3d
00000320: 88a6 22bd ecfc 1b3e 901d ccbd d94e 99bc
00000330: 36cf 27bd d86e 47bd fe68 f8bc cf58 c9bc
00000340: 2130 ec3b 2aa6 19bd 8d43 ae3d 41b6 05be
00000350: fccf df3c b34c a8bd 1787 9c3c 49eb ca3c
00000360: 5072 9f3d 7cae 273d 0930 043e 3cdf c2bd
00000370: 3a99 a6bc c251 c4bd a05d b83d d3a7 03be
00000380: 527f d7bd ded9 2e3d 2b42 e0bc 9054 d73d
00000390: caf8 fabb f0d8 40bd cf68 0ebe 0f20 11be
000003a0: 3b02 073d 1bdf f63d 3f83 04bd a152 debd
000003b0: 76c1 1c3d 9128 f3bb c785 d53c 90ec ec3d
000003c0: e90d ab3c b577 873b 2a42 eb3b 71bc 5f3d
000003d0: cd95 e03b c408 d3bd 34d3 973d 8cf5 f1bc
000003e0: 8c8c 20bd 13cf 7fbd 25e8 d7bd a158 023d
000003f0: 7207 a8bd 2e02 933d d317 74bd c35d 2fbd
-0.08781539 0.07429828 -0.030747093 -0.08677759 -0.0102957 -0.06204794 0.019327898 -0.085725516
-0.012302291 0.09243364 -0.0708822 -0.099946804 -0.03793307 0.018033607 0.11615524 0.027115293
-0.06150759 0.12479709 -0.069634035 -0.090053424 0.13181163 -0.04173587 -0.002270499 0.016395206
-0.116373576 0.10262758 -0.1512149 0.10830677 0.065662235 0.0077633657 0.083850875 -0.14826018
0.082401134 0.075224176 0.03959542 0.119313106 -0.09280141 0.114743695 -0.10703256 0.052521966
-0.0010596917 0.009111744 0.09755022 0.11076454 -0.12224553 0.023933034 -0.08157835 -0.027407223
-0.09153399 -0.008803698 0.069034666 0.02119428 0.08804178 -0.025640072 0.101417474 0.042111136
0.08848786 0.118696764 -0.05678832 0.09848639 0.06335422 -0.014487007 0.00023695579 -0.07519234
-0.028526548 -0.013195911 0.07298338 0.12233315 -0.031493377 0.08713538 -0.05925299 0.11712567
-0.08807529 -0.10075174 0.05670161 -0.01594645 -0.11669211 0.030149335 0.009744652 0.012380669
-0.0062118573 -0.029083677 0.008874068 0.06078759 -0.059846934 0.085610755 -0.10038822 0.05411392
-0.038488712 0.056774408 -0.028157918 0.07606398 0.044751454 -0.09706007 -0.012024277 0.011799534
0.04873257 -0.13406351 -0.056523617 0.068772174 -0.02490234 0.081231214 -0.09718006 0.019832049
-0.02473312 0.075172424 0.07511492 0.11891922 0.030005062 -0.03951883 -0.09325917 -0.062310196
0.114154 0.018445738 0.05738711 0.047278054 -0.02402984 -0.06318704 -0.14215069 -0.05591109
0.06205292 -0.01657736 0.05132358 0.085097924 -0.07692908 0.11841028 0.0897637 0.07545421
0.020494986 0.058063455 -0.0074196905 -0.06879952 -0.021104734 0.05639039 0.10239691 -0.048104405
-0.08931466 0.095993735 -0.030912856 -0.115033165 -0.0416766 -0.050002325 -0.061883427 0.06258296
-0.064162314 -0.028265016 -0.08143844 0.064350165 0.11349777 0.03515498 -0.026253106 0.015256607
0.08308889 0.078560024 -0.03540449 -0.10044542 0.0962782 -0.056279007 0.11133208 -0.04988881
-0.0037432038 0.08209766 -0.093599185 -0.05553088 0.0087339645 0.08682408 0.022848675 0.0484133
-0.013169313 0.09689352 -0.033566274 -0.09044691 0.06880839 -0.07638967 0.068165764 -0.063528985
0.025762543 -0.010338273 -0.0042939777 -0.041469324 -0.12436595 0.11366142 -0.02710456 -0.044021133
0.12363071 -0.14145315 -0.108542286 -0.09225778 0.10905565 0.0019361208 -0.06491592 -0.06876353
0.008358986 0.025873948 0.0707125 -0.08791536 -0.041045338 -0.10597935 -0.060266268 0.069736086
-0.039709598 0.15233201 -0.09966576 -0.018714355 -0.040969096 -0.048689693 -0.030323502 -0.02457848
0.007207886 -0.037511982 0.08508978 -0.13057806 0.027320854 -0.08217754 0.019107385 0.024770396
0.07785475 0.040937886 0.12908949 -0.09515235 -0.020336736 -0.095859066 0.090022326 -0.12856989
-0.10522331 0.042688243 -0.027375301 0.10514176 -0.0076590525 -0.047081888 -0.13907169 -0.14172386
0.03296111 0.12054273 -0.03235173 -0.10855604 0.038270436 -0.0074206074 0.026064767 0.11568558
0.020880656 0.0041341432 0.007179518 0.05462307 0.006853795 -0.10304406 0.07413331 -0.029536031
-0.039196536 -0.06245334 -0.10542325 0.031822804 -0.08204545 0.0717815 -0.059593033 -0.042814028

res_blocks.0.linear2.bias f4 [64]
00000000: 198f 243c 8741 09bd b36b f3bd 6447 633d
00000010: add3 63bd df09 5cbd f2f2 dbbd 4a64 413b
00000020: 9e59 813d b737 d5bc b335 86bd 4c34 35ba
00000030: 689b f63d b042 d3bd 7780 fa3d 6fad 96bd
00000040: 524a b1bd fe7c dfbc 32eb a23d 59cd 43bd
00000050: a84b 89bd e80f db3d 5f8f 64bd 2e4d 733d
00000060: bb6a fcbd 746f 233d 9994 cb3d 7a2f b73c
00000070: 6677 55bd 6a6f 413d 00d0 303b fe45 1e3d
00000080: b26b d53d 26e5 ae3d 91d2 8b3d d1cd 4bbc
00000090: ce1f 9f3d d052 35bd 9602 e93d 7241 70bc
000000a0: a9fe 94bd f52a 71bd 1aed 8b3c 3623 af3c
000000b0: e5d7 7e3d d37f aa3d 6ed2 86bd 93cc d5bd
000000c0: e328 933d 912f a7bd 01e3 ad3d 3af8 babd
000000d0: bba5 98bd a3f9 123d 808d 203d 154f da3d
000000e0: 0474 9c3d 86e5 34bd dc31 86bd 1955 3ebd
000000f0: b868 e63d 5783 e93d a855 55bd fac5 eeb8
0.010043883 -0.033509757 -0.11885776 0.055488005 -0.05562179 -0.05372035 -0.107396975 0.002950924
0.06315921 -0.026027543 -0.06553211 -0.0006912395 0.1204136 -0.10315454 0.12231534 -0.073572986
-0.086567536 -0.02728128 0.07955016 -0.047803257 -0.067038834 0.10696393 -0.05580079 0.059399776
-0.12325045 0.03990121 0.09940452 0.022361506 -0.05211582 0.047225393 0.0026979446 0.03864097
0.10420932 0.085398 0.06827272 -0.012439207 0.07769738 -0.04426843 0.11377446 -0.014664041
-0.07275135 -0.058878858 0.017080832 0.021379095 0.06221761 0.08325162 -0.06583105 -0.1043941
0.07185533 -0.081633694 0.08490563 -0.09129377 -0.074534856 0.035882603 0.039197445 0.10659615
0.07639316 -0.044164203 -0.06552479 -0.046467874 0.11250442 0.11402004 -0.05208364 -0.000113856004

res_blocks.0.bn2.weight f4 [64]
00000000: 056e 793f a3a6 803f 5adf 7e3f d8d9 7e3f
00000010: 0d9d 813f 58fd 7f3f c211 7a3f ce36 803f
00000020: 4465 7b3f a146 803f 0114 7c3f e84e 7c3f
00000030: a08c 803f d867 7a3f 64c7 803f 8e30 803f
00000040: f75e 7c3f 07a4 7b3f 3c34 7d3f 5a83 7f3f
00000050: e1f4 7f3f 4660 7c3f e05b 783f b196 763f
00000060: 7208 7e3f d6da 7e3f 427c 7b3f 6016 7c3f
00000070: fb49 763f a48d 783f c476 803f 65b3 7d3f
00000080: 5a33 7c3f 7e39 7a3f 9a04 7a3f 2a20 7d3f
00000090: 4098 783f 46cf 7c3f 5ae7 7a3f 9639 783f
000000a0: 8e5f 813f 0c3d 7c3f 3d61 783f 849c 7c3f
000000b0: d858 813f eb4f 7e3f b18a 7f3f d15e 7e3f
000000c0: 1494 7a3f c060 7b3f 7202 803f 0736 783f
000000d0: b696 813f 1fc7 7c3f 985b 7d3f 66e4 7d3f
000000e0: 8f0e 7a3f 5b0e 733f cc1d 813f 40c2 743f
000000f0: e032 783f d522 7d3f 3322 7f3f 7d61 803f
0.974335 1.0050853 0.9955956 0.99551153 1.0126053 0.99995947 0.97683346 1.0016725
0.98201394 1.0021554 0.98468024 0.985579 1.0042915 0.97814703 1.0060849 1.0014818
0.98582405 0.9829716 0.9890783 0.998098 0.9998303 0.985844 0.9701519 0.96323687
0.99231637 0.9955267 0.9823648 0.9847164 0.96206635 0.97091126 1.0036244 0.9910186
0.98515856 0.97743976 0.9766327 0.98877203 0.97107315 0.98753774 0.98009264 0.9696287
1.0107286 0.9853065 0.97023374 0.98676324 1.0105238 0.99340695 0.99821 0.9936343
0.978822 0.98194504 1.0000746 0.9695744 1.0124118 0.98741335 0.98967886 0.99176633
0.97678465 0.9494378 1.0087218 0.956089 0.9695263 0.98881274 0.9966156 1.0029751

res_blocks.0.bn2.bias f4 [64]
00000000: 06eb 2ebd cc8f ffbc c8af c0bc e45a f2bb
00000010: 611c 7abb 1312 b1bc a1ea 1ebc ad9f 653c
00000020: c744 243b 7f3b bc3b c493 bf3b 504c a1ba
00000030: 7359 84bb 2962 b0bc b0f2 53b9 193f 013c
00000040: 14dd 37bc a0e2 cbbc 0982 8bbc 425b 65bc
00000050: 6c0a 2fb9 35d3 b0bc 9a09 3bbd 47fe f8bc
00000060: 5182 06bc 9dd0 a5bb 90d2 aebc 0c38 0abb
00000070: 0e93 7cbc dea9 13bd ec7e 6f3b 0828 82bc
00000080: ce25 8a3b 4fd8 83bc 4541 88b9 c4e9 32bc
00000090: 9b62 02bd 1629 883b d88b 7cbc 1a36 85bc
000000a0: 3087 acbc 69f9 c9ba 911c b7bc 9f7a c6bc
000000b0: d3bb 333b b879 a9bb 4121 bcbc 6668 93bc
000000c0: 0390 d9bc a593 01bd fcc2 b8bc 9650 91bc
000000d0: 1d9f 323c 49b1 aebc 107d e2bb cf35 9bbb
000000e0: a3ca eebc c60a 60bd 7be6 92bc 624d 40bd
000000f0: ab78 bbbc 637e f03a bd18 813b 7fc8 b4bc
-0.042704605 -0.031196497 -0.023521319 -0.007396089 -0.0038163888 -0.021615064 -0.009699495 0.01401512
0.0025065409 0.005744397 0.0058464725 -0.0012306068 -0.0040389835 -0.021531181 -0.00020212936 0.007888579
-0.011222143 -0.024888337 -0.017029779 -0.013998808 -0.00016693183 -0.021585086 -0.045663454 -0.030394686
-0.008209781 -0.005060269 -0.021340638 -0.0021090535 -0.01541592 -0.03605067 0.0036544157 -0.015888229
0.0042159325 -0.016094355 -0.0002598857 -0.010919992 -0.03183232 0.0041552885 -0.015414201 -0.01626115
-0.021060556 -0.0015409413 -0.022352489 -0.024228392 0.0027425184 -0.0051719807 -0.022965075 -0.017994117
-0.026557928 -0.031634945 -0.022553913 -0.017738622 0.010902193 -0.02132477 -0.0069118813 -0.004736639
-0.02914936 -0.054697774 -0.017932167 -0.046948798 -0.022884687 0.0018348213 0.0039397166 -0.02206826

res_blocks.0.bn2.running_mean f4 [64]
00000000: e0af 4c3e ec67 0d3e 7a15 4fbe 1bfb 71be
00000010: 2e49 89be fecb edbc 073b 3d3e 6493 d1be
00000020: 476f 513e fae8 d43d 0237 55be 4111 afbe
00000030: b0ae 90bd fdfb 983d fc3e 5b3e 0ca2 b53e
00000040: 6693 3f3e 6615 94be 5a15 973d 624f 143e
00000050: 2aa6 373e 3283 eb3e 7dc1 bdbe c55c 5fbe
00000060: 19c2 54be 1367 ab3e a8fc 133e c63c 9e3d
00000070: 5f1b aabe d68f 2dbd b3ec c33e c365 3bbe
00000080: fe4d c3bd d477 f9bb bfd9 f43c ab36 e5be
00000090: 0d19 be3e c10f 7d3d 4017 1e3e 3588 36bf
000000a0: a420 8ebe b5e8 b03e 5ed0 823e 298b a2bc
000000b0: fb98 06be e3b0 d63e 88cd 87be 9807 99be
000000c0: b5e9 61bd 0be9 4cbd 8648 123e 677c 19bd
000000d0: c646 47be ff85 903d f42c f9bd 3a83 653d
000000e0: 977e a53d 3c4e 3a3d 6780 a8bd 9a0e b23d
000000f0: bc9c ea3d 1cb7 d83e 8337 5b3e 247a d7bd
0.19988966 0.13809174 -0.20223036 -0.23630945 -0.26813644 -0.029027935 0.18479548 -0.40932763
0.20452605 0.10395999 -0.20821765 -0.3419285 -0.07064569 0.07469938 0.21410745 0.35475194
0.18708572 -0.28922576 0.07377119 0.14483407 0.1793448 0.45998532 -0.37061682 -0.21812733
-0.20777167 0.33477077 0.1445185 0.07726435 -0.33224007 -0.0423735 0.38266525 -0.18300538
-0.0953636 -0.0076131616 0.029888986 -0.4476827 0.37128487 0.061782602 0.15438557 -0.71301585
-0.27759278 0.3455254 0.25549597 -0.019841747 -0.13144295 0.4193183 -0.26523995 -0.29888606
-0.05515452 -0.050026935 0.14285478 -0.037472155 -0.19460592 0.07056808 -0.12166777 0.05603335
0.08080786 0.045484766 -0.08227616 0.08694191 0.11455676 0.423272 0.21407895 -0.10521343

res_blocks.0.bn2.running_var f4 [64]
00000000: 96af 453e 0ff0 5f3e 8a6a a23e 16e9 023f
00000010: 9f8f a73d 20b6 2d3e 283a 2a3e ca31 643e
00000020: d741 6b3e 1a69 803e aef8 c63e becf 893d
00000030: ddd6 0f3e 4305 b83d 45a5 db3d 5221 9f3e
00000040: b7eb dd3d 2fed a83e 56ad 223e 402b d83d
00000050: f73d 103e 63fe a23e 64f4 c43d 1b21 493e
00000060: 0f7d 0d3e e850 143e 1900 913e 9682 293f
00000070: 85e3 f13e 6e1b 6e3e fa7c 533e 9f8a 4e3e
00000080: d9c1 543e 8515 5d3e bb26 6c3e f57f 203e
00000090: bd4c 933e fe02 eb3e a66a 033e 8716 cc3e
000000a0: 2194 9d3e ddb8 423e 2475 f73d 628d 433e
000000b0: 7954 333e d8bb cd3e 1b04 3e3f dada 903e
000000c0: e06a 953e 8884 6d3e d464 803e e28b 493e
000000d0: 29d5 243e 1b40 813e 371a 373e 4507 f43e
000000e0: 90f7 a83e c165 053e a0f7 673e 152a 143e
000000f0: 2195 9a3d e6d6 983e 5688 863e e503 0d3e
0.19305262 0.21868919 0.31721908 0.5113691 0.081816904 0.16964006 0.16623747 0.22284618
0.22974335 0.25080186 0.38861603 0.06729077 0.14046808 0.089853786 0.10724882 0.3108011
0.10835975 0.32993457 0.15886435 0.10555124 0.14086138 0.31834707 0.09616926 0.19641535
0.13817237 0.14483988 0.28320387 0.66214883 0.47243896 0.23252651 0.20653144 0.20170067
0.20777072 0.2159024 0.2306165 0.15673812 0.28769484 0.4590072 0.12833652 0.39860937
0.30777076 0.19015832 0.1208289 0.19096902 0.17512693 0.40182376 0.74225014 0.2829197
0.29183102 0.23195088 0.25076926 0.19682267 0.16096939 0.2524422 0.17881094 0.47661796
0.33001375 0.13027097 0.22653055 0.14469178 0.07547975 0.29851454 0.2627589 0.13771017

res_blocks.1.linear1.weight f4 [64, 64]
00000000: 82dc dc3d 1dbf 073e 7870 d5bd 2a04 603d
00000010: 8019 18be 6b46 bbbd f516 a63d c190 4cbd
00000020: 323c 70bc d381 2b3d 4f86 b33c 2ec5 a53c
00000030: 3fe7 a03d 6414 863d acbc d83d 26d6 7d3d
00000040: b471 11bd 247c d03d a63a ec37 d8e1 b6bd
00000050: 9f26 663d f735 9c3c 737d 923c 4d10 893d
00000060: c0f1 e13c 9e76 d53d a1c5 81bd bc95 d3bd
00000070: df0f c2bc bd09 38bc 57c4 6cbd 50ed 19bc
00000080: 360d c03d 434c 53bd 1ff5 2ebd 74ae 863d
00000090: 4432 393d cda8 c83c 4879 bc3d e5bc 6f3d
000000a0: f69e 993d 1d0b 213d 504a aabc f570 8d3d
000000b0: 8fa6 d1bc 2e49 dbbd 0f6b 9fbc 6d93 333d
000000c0: 5ac1 4abd 193f cc3d 4d2e c0bd 2a68 cc3d
000000d0: 946b 9abd e307 a1bd e926 433d d44d 99bd
000000e0: 7aac b1bd ca89 ba3d b2a6 26bd 0794 2d3c
000000f0: d635 b33d bb0e 693d a466 77bc c0c9 a43d
00000100: 5816 a3bd 4c89 d13d 11b8 7bbd 5278 c73c
00000110: 7b78 92bd a812 7bbd 0b11 ac3d 3ee2 cc3d
00000120: 1ddb 2e3d b350 a3bd 3318 05be d086 d4bd
00000130: 2840 00be 94e0 b53d a02a aabd b729 e2bd
00000140: af4d d4bd 74e7 4ebb 0a6a cd3d 503d 18bd
00000150: fd9c a23d 1cd3 883d e216 5a3d 6e9d 81bd
00000160: 6947 c2bd d2e6 a23c 26f5 7fbc 1483 47bd
00000170: 2456 f9bd 0b23 6a3d 2299 ddbd b95c b33d
00000180: 93cb 043d f7ea e23d 0222 02be 0e9b e6bc
00000190: f61d 43bd 81e8 98bc c23b d93d 43d9 a73c
000001a0: 0cde bbbc 1e67 0e3b e8f4 bbbd 4000 323c
000001b0: 6610 c13d 3f75 a03d 9353 e1bd 83dd a33d
000001c0: 57b9 3f3c c795 80bd 44bf 01bd 7a5c 0c3d
000001d0: dd26 c53d 73b0 c93d f4fe d53d 6aed 13bd
000001e0: 664e 4abd 3723 823d fcbe 33bd 6db2 b2bd
000001f0: 66b0 333c bf54 b43d a51e 913d 73ac 9fbd
00000200: 79d2 f8bc 4fee 92bd 0e50 0cbe 2a7d 27bd
00000210: 6e6f e5bd e51a 05be d136 8a3c 6c0c 9cbd
00000220: 2c0c be3d c8eb dcbd 8fcf 923c 7371 bdbd
00000230: d41a fc3d 85cc dcbd 5be7 b8ba bd68 19bd
00000240: 5bbf 0d3d f99e b7bb 0837 ca3d 9d11 c33b
00000250: 0ac1 69bc dbd3 afbd 7bc1 a9bd 6d2a 9ebd
00000260: f330 b13c 1773 a03d 86dc 763d 608d c1bc
00000270: 61ae 95bd 75bf bb3c 7477 533d 9b0f 163c
00000280: 76a8 c03d 9479 903d fb3c d9bc 2535 cc3b
00000290: c57a 58bd 311e 343d e73f 08bd 8f2f 8f3b
000002a0: 0880 b1bd 59d6 463b ed12 06bd cba7 7abc
000002b0: ac93 1d3d 7b3e b63c ceb7 a13d 293a 973d
000002c0: 18c4 c43c 5e54 393d 701d ae3d 088b 6bbd
000002d0: f015 d13b 4292 d5bd 240b e6bd 1e49 fbbd
000002e0: 11a8 ca3d 2ca1 45bc 66fe eb3d 4e80 53bd
000002f0: 83cf 51bd a783 52bd 2925 cebd cb33 a43d
00000300: 17c9 613b 28ce 903d 1dcc 25bd 9593 973d
00000310: 9b05 6bbd 16ab 0c3e a6d6 083d cfdd c83d
00000320: 6433 30bd 2e02 9f3d 61c1 aa3d c824 9ebb
00000330: 4784 22bc 1906 74bd cea6 543d a3a2 5cbd
00000340: 424f efbd 86bf b7bd 734e ce3d c032 8cbd
00000350: d3d8 8dbc 4442 bcbd fd74 bc3d d91d aabd
00000360: c77b a43b acd9 ec3d 852c 6e3d 8809 a63d
00000370: d4ba b5bc 765e 7f3d fad2 bc3d 9214 acbb
00000380: b2b4 a73c 73f5 303b 821b 353b 083d d9bd
00000390: dd10 bcbc 272e 8fbd 6ff9 bfbc 02b4 b3bd
000003a0: 31d4 783d d4e1 a33d 2d8c df3b 9a82 923a
000003b0: 85c2 40bd acf8 0a3d 32aa 903d a715 94bc
000003c0: 9fd7 403d ee20 05bd a9fa 5dbd db0c 85bd
000003d0: de25 e9bd 1d37 cc3d 9339 f03d d476 8a3c
000003e0: 373b a5bd 019e a13d 52f8 7cbb 594c 3cbd
000003f0: 1264 8a3d d197 c03c 75d8 45bd e991 e43d
0.10784246 0.13256498 -0.10421842 0.05469147 -0.14853477 -0.091442905 0.081098475 -0.049942736
-0.014662789 0.041871857 0.02191463 0.020235624 0.07856607 0.06546858 0.10582861 0.061971806
-0.035508826 0.10179928 2.8160703e-05 -0.08929795 0.056189176 0.019068701 0.017882084 0.06692562
0.027581096 0.10423015 -0.06336523 -0.10331294 -0.023689209 -0.011232791 -0.05780443 -0.009394959
0.0937752 -0.0515864 -0.042714234 0.06576243 0.045213953 0.024494553 0.0920282 0.058529753
0.075010225 0.03931724 -0.020787388 0.069063105 -0.025592117 -0.10707317 -0.01946023 0.043841768
-0.0495008 0.099729724 -0.09383831 0.09980805 -0.0754005 -0.078628324 0.04764453 -0.07485548
-0.086754754 0.091083124 -0.040686317 0.0105943745 0.08750503 0.056898814 -0.015100155 0.08046293
-0.07963246 0.102312654 -0.061454836 0.024349365 -0.07151886 -0.06129709 0.08401688 0.1000409
0.04268943 -0.079743765 -0.12997513 -0.10377276 -0.12524474 0.088807255 -0.08308911 -0.11043113
-0.103663795 -0.0031571062 0.10029991 -0.037167847 0.079400994 0.06680891 0.05324448 -0.063288555
-0.09486277 0.019885454 -0.015622413 -0.04870899 -0.12174633 0.057162326 -0.108202234 0.0875792
0.032420706 0.11079972 -0.12708285 -0.028150108 -0.047635995 -0.018665554 0.10607101 0.02048934
-0.022933029 0.0021728943 -0.091775715 0.010864317 0.09426956 0.07834863 -0.11002269 0.080012344
0.011701903 -0.06278568 -0.031676546 0.03426788 0.09626553 0.09848108 0.10449019 -0.036115088
-0.049391173 0.06354373 -0.04388331 -0.08725438 0.01096735 0.088052265 0.07085923 -0.07796564
-0.030373799 -0.0717436 -0.13702413 -0.04089085 -0.11202894 -0.1299854 0.016871842 -0.07619557
0.09279665 -0.10787159 0.017921237 -0.09250154 0.123098046 -0.107811965 -0.0014107035 -0.0374534
0.03460632 -0.005603668 0.09873778 0.0059530274 -0.0142672155 -0.0858533 -0.082888566 -0.07722936
0.021629786 0.07834452 0.0602689 -0.023626983 -0.07308651 0.022918442 0.05162759 0.009158994
0.094071314 0.07054439 -0.026518336 0.0062319213 -0.052851457 0.043974105 -0.033264067 0.004369683
-0.08666998 0.0030340164 -0.032732893 -0.015298794 0.03847091 0.02224659 0.07896386 0.0738414
0.024019286 0.045246474 0.085017085 -0.057505637 0.006380789 -0.10428287 -0.11232594 -0.12269805
0.098953374 -0.012062352 0.11523132 -0.051636033 -0.05122329 -0.051395085 -0.100656815 0.08017691
0.0034452134 0.07070571 -0.04047786 0.07401196 -0.057378393 0.13737139 0.03340783 0.09807932
-0.04301776 0.077640876 0.08337665 -0.004826162 -0.009919233 -0.059576128 0.05191689 -0.05386604
-0.11685039 -0.08972077 0.10073557 -0.06845617 -0.017315304 -0.09192327 0.09202001 -0.08306474
0.005019638 0.11564955 0.058147926 0.08107287 -0.022183813 0.062345944 0.09219928 -0.0052514756
0.020471904 0.0027001768 0.0027634804 -0.10607344 -0.02295726 -0.06991225 -0.023434369 -0.08774568
0.060749236 0.08002058 0.00682213 0.0011177838 -0.04706051 0.03392856 0.07063712 -0.01807673
0.047080632 -0.032502107 -0.054194126 -0.064965926 -0.11384176 0.099714495 0.117297314 0.016902365
-0.08067935 0.07891465 -0.003860016 -0.04597125 0.06757368 0.023509892 -0.048302133 0.11160643

res_blocks.1.linear1.bias f4 [64]
00000000: 64a9 a03c c343 b1bd 93d4 993d 645f 443d
00000010: decf 2fbd 8a82 f23c 174b 703d 6e70 583d
00000020: 966a 6bbd 355f d63d 569c a3bd c11e babd
00000030: d4e8 f9bd 9e01 e53d 34a2 19bd 95d5 ffbd
00000040: 4ece a4bd 3fd3 07bd b6a9 a0bd 35fc 743d
00000050: 8af6 14bd 6194 56bd d674 273d 6157 4abd
00000060: d02f 9d3d 6051 673c 583b 9fbc c0ce a53d
00000070: b82b e4bd d052 b9bd 34d6 9bbc 6c0f 11bc
00000080: a553 003e ac1c 503d 4e4d 8ebc 77d4 fbbd
00000090: 2fce c93d 2b9a ebbd 7604 edbd 251a b5bd
000000a0: 5990 c3bd 2a0b babc 1461 a43d 9df5 963d
000000b0: a388 2e3d e8f5 573d 3712 b6bd 7989 ab3d
000000c0: 3503 113d 43ec babd a099 e83c b08d 57bd
000000d0: 5223 5fbd 36df 8c3d 7cbf 69bd 1246 9ab9
000000e0: 4903 bd3d 7cf8 ed3d 3146 abbb 5203 b13a
000000f0: 3d1e dcbc ddc9 653d 4abe 81bd 57e7 f73d
0.019612022 -0.08655503 0.075112484 0.047942534 -0.042922847 0.029603262 0.05866536 0.052841596
-0.057474695 0.10467378 -0.07988803 -0.09087897 -0.122026116 0.11181949 -0.037508205 -0.124919094
-0.08047162 -0.033160444 -0.0784487 0.059810836 -0.03636793 -0.0523876 0.040882908 -0.049399737
0.07675135 0.014118522 -0.019437477 0.08096075 -0.11141151 -0.09048998 -0.019023038 -0.0088537745
0.12531908 0.050808594 -0.017370846 -0.12296384 0.098537795 -0.115040146 -0.115731165 -0.08842877
-0.095490165 -0.022710402 0.08026329 0.07371066 0.042610776 0.05272475 -0.08890193 0.0837583
0.03540345 -0.091270946 0.028393567 -0.052625358 -0.054477043 0.068785116 -0.05706738 -0.00029425375
0.09229142 0.1161966 -0.0052268733 0.0013505018 -0.026869887 0.056100715 -0.06335123 0.121046714
