model/poly_resnet_model.pt (torch, 188771 bytes, 44 tensors)

input_layer.0.weight f4 [64, 118]
000000 d1 b8 a1 bd 36 8c 7d be ef b2 75 be db 65 a9 be
       -0.07896579 -0.24760517 -0.23994039 -0.33085522
000010 41 4a 23 be 73 f9 61 be a1 7d 20 be 2f 3f 1b be
       -0.15946294 -0.22067814 -0.15672924 -0.15160821
000020 9e 28 ed bd 52 6a 4b bd 4f 4b 90 be 87 a6 76 be
       -0.11580013 -0.04966194 -0.28182456 -0.24086963
000030 21 d2 f5 bb 38 cb b4 be 45 c0 26 be fa 47 91 be
       -0.007501856 -0.35311294 -0.16284283 -0.28375226
000040 bf ae 33 3e bb 27 14 be ab 35 b7 3c 63 4c ae 3d
       0.17547129 -0.14468281 0.022364458 0.08510663
000050 12 36 65 bd 3b d9 2b be d8 b6 18 be 87 92 35 be
       -0.05595977 -0.16782086 -0.149135 -0.17731677
000060 ca eb 29 be 9c 79 1b be b9 0c 07 3e bb c7 d4 bd
       -0.16593853 -0.15183109 0.13188447 -0.10389658
000070 21 6e b6 bd 57 79 79 bd 60 23 0f be 4d 6e 18 bc
       -0.08907724 -0.060906734 -0.13978338 -0.0093036415
000080 7c 5a 69 be 70 80 92 be 66 ff c2 be 23 6c c1 be
       -0.22788423 -0.28613615 -0.3808548 -0.37777814
000090 4a 30 aa bd 27 d9 2c be c5 39 3e be c5 58 7a be
       -0.08309992 -0.16879712 -0.18576725 -0.24447925
0000a0 99 a5 5b be d9 18 81 bd 04 46 5f be 59 d1 8a be
       -0.21449889 -0.063035674 -0.21804053 -0.27112845
0000b0 e0 8d 9c bd f6 68 b4 bd 2c f9 87 be 99 fb a2 be
       -0.07644248 -0.08809082 -0.2655729 -0.3183258
0000c0 4e 01 c7 3c a4 fb 7d 3e 83 6f 21 3e c1 31 13 be
       0.024292614 0.24803025 0.15765195 -0.14374448
0000d0 55 4e 23 3b 77 b2 d4 3b 31 e1 fb bb 75 58 14 be
       0.0024918516 0.006491001 -0.007686757 -0.14486869
0000e0 0d 30 68 be fa f6 44 be 39 b5 a9 bb b9 53 c4 bd
       -0.2267458 -0.19234839 -0.005179074 -0.09586281
0000f0 e3 ba 31 3e 6f b0 3b be 7b 05 b4 bc 43 34 06 be
       0.17356448 -0.18329023 -0.02197527 -0.13105874
000100 57 da 17 be fa 6b 26 3e 31 66 3f 3d 1a 94 78 bd
       -0.14829384 0.16252127 0.046728317 -0.060688116
000110 56 7f ac be 69 45 8b be 35 1b 81 be 12 d1 4d be
       -0.336909 -0.27201393 -0.2521607 -0.20099285
000120 e5 89 f4 bd fc 00 2e be f7 2c 49 be 6b ad d6 bd
       -0.11940364 -0.16992563 -0.19646059 -0.104822956
000130 f7 51 53 be 00 a1 32 be 67 e4 85 be d0 e4 7b bc
       -0.20636736 -0.17444229 -0.2615082 -0.015374377
000140 ac 05 d8 3c a6 dd 62 be 95 2b 88 be 85 51 d1 3d
       0.026369892 -0.22154865 -0.2659575 0.10220627
000150 23 5b c4 bc 5e 81 c5 bd 03 27 29 bc 14 9d 8f bd
       -0.023969239 -0.096438155 -0.0103242425 -0.07012382
000160 4a 81 65 be 72 c4 4a be f0 7c 75 be 62 74 a7 be
       -0.22412601 -0.198015 -0.23973441 -0.3270598
000170 f2 73 11 be 54 01 87 be a1 2f 93 3d ca 04 95 3e
       -0.14204386 -0.263682 0.07186819 0.29105216
000180 47 5f e8 bd 36 f9 12 be 9d d9 36 bd 1d f2 9c bd
       -0.11346298 -0.14352879 -0.044641126 -0.07663367
000190 b8 78 e7 bd 35 b6 3d bd 44 db 83 be b8 a7 a4 be
       -0.11302322 -0.046316344 -0.25753224 -0.3215921
0001a0 59 1f 87 be f9 d1 33 be 87 8e 30 be 7c 0c 2e be
       -0.26391104 -0.17560567 -0.1724187 -0.1699695
0001b0 90 bd 13 be ac ae aa bd 6d 2e 34 be 57 de 37 be
       -0.14427781 -0.08334097 -0.17595835 -0.1795591
0001c0 42 6d 92 be 0f 6f c1 be d4 18 9d bd 61 c2 79 be
       -0.28598982 -0.37780043 -0.07670751 -0.24390556
0001d0 c6 5b a3 be e7 8d cb 3c a9 ad ba 3d f3 22 91 be
       -0.31905955 0.024847938 0.09115154 -0.28346977
0001e0 13 70 98 be 11 1f 71 be 34 6d 77 be 3a 79 aa be
       -0.29773006 -0.23547007 -0.24162751 -0.33295614
0001f0 8b 1b 5d be 39 06 59 be a6 64 25 be 17 28 90 bd
       -0.21592538 -0.2119378 -0.16151676 -0.070388965
000200 ef 65 3d be 96 d7 b1 be 89 ae 22 be a8 47 92 be
       -0.18495916 -0.34734792 -0.15886892 -0.28570294
000210 bb e9 44 be fc 80 17 be 98 da d6 3d 57 48 4d bd
       -0.19229786 -0.14795297 0.10490912 -0.050117817
000220 c3 04 e2 bd b7 ca 1b 3d 2e 7e ba bd b6 3f 2f be
       -0.110360645 0.03803512 -0.09106098 -0.17114148
000230 b5 36 47 be 21 16 b7 be 23 4e ec bd 1e cd 46 be
       -0.19454463 -0.3575907 -0.11538341 -0.19414183
000240 9e 12 5d 3e cb 4a 7c be ed 44 5d be 70 b6 b2 bd
       0.21589133 -0.24637906 -0.21608324 -0.087262034
000250 52 bc 87 be 3e 45 85 3d 0b a5 3d be 6c 34 8f be
       -0.26510864 0.065073475 -0.1851999 -0.27969682
000260 08 0a ae be 91 f6 9b be b0 39 cf bd 8e cd 3e be
       -0.33992028 -0.30461553 -0.10118425 -0.186331
000270 7e df 62 be 67 13 ff bd 84 0c c7 bd 1b 25 02 be
       -0.22155568 -0.124548726 -0.09719184 -0.12709467
000280 fa 04 23 be 25 9d 8c be 76 79 1c bd b3 a6 eb bc
       -0.15919867 -0.27463642 -0.03820177 -0.028766012
000290 3e 94 97 be 04 ee 74 be 4b b0 89 3d 05 58 82 3e
       -0.29605287 -0.23918921 0.06723078 0.2545778
0002a0 1e 58 11 3e 8a 85 df bd 4b 0e 04 be 25 0d df 3c
       0.1419377 -0.109141424 -0.12896077 0.027227947
0002b0 10 a3 aa bd 7b b5 52 be de f5 85 be 1b fe 6e be
       -0.08331883 -0.20577042 -0.26164144 -0.23339121
0002c0 2d 15 2f be 02 44 17 be 81 03 97 3e d8 0e 8c bd
       -0.17097922 -0.14772037 0.2949486 -0.06838769
0002d0 51 c6 e8 bd eb 4e b0 bd f5 c3 7c be 5d e7 26 3e
       -0.11365951 -0.086088024 -0.24684127 0.16299196
0002e0 fa 2a 08 3c 98 af 1b 3d 7f ab 2f be 99 e6 9b be
       0.008311028 0.038009256 -0.17155264 -0.3044937
0002f0 ef 57 58 be ea 3b c1 bd f1 68 3d be 7d 69 0b be
       -0.21127294 -0.09435256 -0.18497063 -0.1361446
000300 fe e4 76 be 97 ae 6c be e5 4b de bd 27 ad 1d be
       -0.24110791 -0.23113476 -0.108543195 -0.15398084
000310 ff b8 97 be 49 c8 49 3d c5 d7 b6 ba f6 2b c7 be
       -0.29633328 0.049263272 -0.0013949802 -0.38900727
000320 4f 88 11 be 0b 87 06 3e 49 ee 13 be f5 e5 e7 bd
       -0.14212154 0.13137452 -0.14446367 -0.11323158
000330 8e d0 9d bd de b0 ab bd e4 e8 20 be aa 1c a8 bd
       -0.07705794 -0.08383344 -0.1571384 -0.08208592
000340 4d ce 1f be 1c 8c 86 be 8e 74 b0 bd 3d b2 60 be
       -0.15606041 -0.2627877 -0.08615981 -0.21942993
000350 58 44 b5 3c 36 5c 19 3e c0 c8 5b be 92 c8 ef bd
       0.022127315 0.14976582 -0.21463299 -0.117081776
000360 d0 02 2a 3d 52 42 be bc e5 f8 84 be 00 90 8d 3d
       0.04150659 -0.023224983 -0.2597114 0.069122314
000370 57 29 b1 be 19 23 98 be 1a 45 3b be 29 49 01 be
       -0.34601852 -0.29714277 -0.18288079 -0.12625565
000380 fc 9c 8c be e4 a6 51 be aa e5 f1 bd e7 32 a2 bd
       -0.2746352 -0.2047382 -0.11811383 -0.07919865
000390 28 ae d7 bd 3f 5e 30 be 3e 5b 09 be 64 53 80 be
       -0.105312645 -0.17223452 -0.13413712 -0.25063622
0003a0 e3 71 d6 bd ae 5d a6 be e3 f0 84 be 34 3d e1 3c
       -0.10470941 -0.32493347 -0.25965032 0.027495004
0003b0 b7 3e 45 3d 24 34 36 be ea 61 be be 5b fc 96 be
       0.048155513 -0.17793328 -0.37184078 -0.29489407
0003c0 2e 14 98 3d f5 92 2f 3d 0b 83 37 be c4 df b6 bd
       0.07425724 0.04286476 -0.17921083 -0.08929399
0003d0 b2 8b 4d bd 91 76 bc 3b 6f c2 94 be 6c 1f bf be
       -0.050182052 0.005751439 -0.2905459 -0.3732866
0003e0 3e c0 02 be a6 68 a5 be d9 9c 0a bf 23 02 2c be
       -0.12768647 -0.32306403 -0.5414558 -0.1679769
0003f0 ec c6 de 3d 8e d9 58 3b f3 93 76 3d e0 fc 91 3d
       0.10877785 0.0033088657 0.06019969 0.0712831

input_layer.0.bias f4 [64]
000000 e7 98 c4 be 94 80 76 3e 07 ae 07 3f ea c7 32 3f
       -0.38397905 0.24072486 0.5299992 0.69836295
000010 82 98 87 3d 30 17 6c be 88 08 24 bd c3 7d 00 3f
       0.066208854 -0.2305572 -0.0400472 0.501919
000020 13 d2 58 be e5 db 1b be bc 00 f7 3e 23 58 9c bd
       -0.21173887 -0.15220602 0.48242748 -0.07633998
000030 c4 ff 38 3d a8 17 c3 3d 8b f2 30 bf 45 37 6b be
       0.045165792 0.095259964 -0.6912009 -0.22970302
000040 39 37 25 be 9a cd 19 be a3 15 19 bd ae e9 07 be
       -0.16134347 -0.15019837 -0.03737415 -0.13272735
000050 a5 dc 4c 3c 61 f7 6b be 47 d3 2b be 0c 0e 45 3e
       0.012503778 -0.23043586 -0.16779815 0.1924364
000060 34 ee 60 be 66 84 b5 3d f1 80 0d be ab 01 1e 3e
       -0.21965867 0.088631436 -0.13818718 0.15430324
000070 68 74 f3 bc 57 f4 b4 3d 37 d0 03 bf 70 17 bd bc
       -0.029718593 0.088356666 -0.51489586 -0.023082465
000080 36 aa c3 be 0d 79 fa bb 9a 5f 86 3e 04 d4 8e 3c
       -0.38215798 -0.007643825 0.26244813 0.017435081
000090 50 a3 7d be fd 40 f6 3d 3a 01 af bc d9 cc ab 3e
       -0.2476933 0.12024114 -0.02136289 0.33554724
0000a0 7e 7a 7a bc 83 a3 d6 be d1 10 03 3e e6 f5 f1 3e
       -0.0152879935 -0.41921625 0.12799384 0.47257918
0000b0 e4 d2 8b 3e a7 fa ed bb 43 c4 0d bc a9 23 40 3e
       0.27309334 -0.007262546 -0.0086527495 0.18763603
0000c0 cd a4 be 3e 7e 29 a0 be a3 1f 82 3d 6e e5 f9 bd
       0.37235108 -0.31281656 0.063536905 -0.12201963
0000d0 df 33 72 be 73 86 3a be d7 ff 04 be a8 10 eb 3e
       -0.236526 -0.18215351 -0.1298822 0.45911145
0000e0 7b 00 6b 3e 55 9a 10 bf 4b 3f 8e 3e 8e f0 98 be
       0.22949402 -0.5648549 0.27782664 -0.2987103
0000f0 a4 09 94 3c 92 b6 0e be 85 f8 76 3f 3d de 28 bc
       0.018071003 -0.13936833 0.9647296 -0.010306892

input_layer.1.weight f4 [64]
000000 50 ba 6f 41 65 b0 4f 41 df 78 f7 41 cf f3 71 41
       14.982986 12.980565 30.93402 15.122024
000010 98 c5 71 41 5c c9 13 41 b8 51 3a 41 91 4c 6d 41
       15.110741 9.23666 11.644951 14.831193
000020 5e 58 ee 41 82 fa 2a 41 bb 5c 67 41 c8 10 00 41
       29.793148 10.686159 14.460139 8.004097
000030 8b f3 46 41 32 7d 5b 41 f4 16 f1 41 3c 99 71 41
       12.434459 13.718065 30.136208 15.099911
000040 01 17 20 41 ad 35 63 41 e5 9f 0b 41 c9 a0 1c 41
       10.005616 14.200604 8.726537 9.789254
000050 5b b3 1f 41 6b f9 60 41 90 98 eb 40 3d 33 19 41
       9.981288 14.060893 7.3623734 9.575009
000060 92 6d 14 41 ec c0 17 41 e4 33 2c 41 4d 5f a1 41
       9.276751 9.4846 10.762669 20.171534
000070 ec db fb 40 71 90 1d 41 cc de 5c 41 de 6c 62 41
       7.870596 9.847764 13.804394 14.151579
000080 9a 12 76 41 dd 52 f4 40 7f 88 5d 41 e5 45 4a 41
       15.379541 7.635115 13.845824 12.642064
000090 d3 fe a9 41 91 d2 5d 41 ea 82 f0 41 a5 51 02 41
       21.249426 13.863908 30.063923 8.144933
0000a0 e8 8c 45 41 e8 ef 01 41 32 8f 44 41 19 f6 e0 41
       12.346901 8.121071 12.28496 28.120165
0000b0 42 88 9c 41 dd 4b 29 41 02 7a 76 41 7a 7d 30 41
       19.566532 10.581021 15.404787 11.030634
0000c0 ca e4 66 41 9f b9 1c 41 8e c4 67 41 05 4d 52 41
       14.430857 9.795318 14.485487 13.143804
0000d0 21 47 22 41 19 ad 41 41 46 1b 74 41 10 8b 82 41
       10.142365 12.10476 15.256659 16.317902
0000e0 40 7d 89 41 6e b8 90 41 21 a5 82 41 ca 99 1b 41
       17.186157 18.090054 16.33063 9.725046
0000f0 96 c1 84 41 9e 74 58 41 bd b2 c1 41 dd 3f 58 41
       16.594524 13.528471 24.212275 13.515592

input_layer.1.bias f4 [64]
000000 cc 89 dc 41 88 33 cc 41 30 7d 02 42 52 74 d7 41
       27.567284 25.525162 32.622253 26.931797
000010 bb b3 cf 41 2b 77 c8 41 11 a3 d3 41 ad c5 cb 41
       25.962759 25.058187 26.454622 25.471521
000020 cc 43 01 42 42 a6 b4 41 73 97 a1 41 e6 d2 4e 41
       32.316208 22.58118 20.19895 12.926489
000030 11 ac c7 41 3e 32 ca 41 31 0f 00 42 4c b7 db 41
       24.959017 25.274532 32.014835 27.4645
000040 5c 53 ca 41 a7 d8 b2 41 06 1f 51 41 17 e3 bb 41
       25.290703 22.355787 13.070074 23.485884
000050 6d 70 dc 41 a8 63 db 41 3a 11 91 41 8c 69 cd 41
       27.554895 27.42366 18.133411 25.676537
000060 a6 bb cb 41 22 a2 bf 41 c7 7b d8 41 22 19 de 41
       25.466625 23.954166 27.060438 27.762272
000070 56 dc 4e 41 38 54 c4 41 06 9c cd 41 02 bb cb 41
       12.928793 24.541122 25.701183 25.466312
000080 3f 7a cb 41 b1 40 32 41 fb 9a d4 41 a9 13 c4 41
       25.43469 11.140794 26.575674 24.5096
000090 db 36 e5 41 87 6f aa 41 ff b0 00 42 07 da af 41
       28.651785 21.304457 32.172848 21.981459
0000a0 77 4b c4 41 d1 ae 4d 41 42 97 c8 41 5b 3a fd 41
       24.536848 12.85518 25.073856 31.653494
0000b0 37 48 db 41 b2 ee 8f 41 56 64 df 41 d5 c8 c6 41
       27.410261 17.99155 27.923992 24.848063
0000c0 cb b9 b3 41 50 d7 cd 41 6d ca d7 41 00 45 d2 41
       22.46572 25.730133 26.97384 26.283691
0000d0 c7 e1 8a 41 b2 0f cd 41 b1 e1 d9 41 51 0f b5 41
       17.360243 25.632664 27.2352 22.632479
0000e0 df 6d e6 41 a5 28 ce 41 73 71 e9 41 02 2a cb 41
       28.803648 25.769846 29.180395 25.395512
0000f0 6e cd e2 41 45 fd c6 41 4b 31 e9 41 99 1a d2 41
       28.350307 24.873667 29.149069 26.262987

input_layer.1.running_mean f4 [64]
000000 0a cd cb be 83 e1 61 3e 58 87 04 3f 4e 96 31 3f
       -0.3980487 0.22058682 0.5176902 0.6936997
000010 98 55 97 3d eb 86 1e be 41 d5 99 3b ff 76 f9 3e
       0.073893726 -0.15481155 0.0046946113 0.487236
000020 a7 6a 4c be ff 3e fd bd 3d 74 08 3f e0 cd 8f bd
       -0.1996256 -0.12365531 0.53302366 -0.070216894
000030 f8 a2 8f 3d 53 cd c3 3d 30 08 31 bf f1 63 57 be
       0.07013506 0.09560647 -0.6915312 -0.21034218
000040 7f 6d 98 bd e4 6c 06 be ac 00 ba bc 2b 9d 1f be
       -0.0744276 -0.13127476 -0.022705398 -0.15587299
000050 f6 68 0d bc 49 fe 65 be f4 06 17 be 1d 2d f7 3d
       -0.008630982 -0.22460283 -0.14748746 0.120691516
000060 da 39 8b be 32 a4 03 3e 52 ec fa bd c6 02 55 3e
       -0.27192575 0.12855604 -0.12252106 0.20801839
000070 34 b2 ab bc f6 3f 39 3d 2d bc 09 bf 7e eb 26 bd
       -0.020958997 0.045227014 -0.5380276 -0.040751927
000080 47 91 bd be 55 ce ce 3b 1f 65 7a 3e 73 c4 11 3c
       -0.370249 0.006311218 0.24452637 0.008896935
000090 9e 5b 55 be 24 7f 0f 3e cd fd 37 3c 10 da d3 3e
       -0.2083573 0.14013344 0.011229944 0.41377306
0000a0 26 01 04 bd 82 f9 d3 be bf 8a d9 3d 94 f1 ec 3e
       -0.032227658 -0.41401297 0.10622167 0.4627806
0000b0 d8 ff 6c 3e c5 a2 de bb 4e 61 1f bc 0c 96 78 3e
       0.23144472 -0.006794306 -0.009727789 0.24275988
0000c0 ff 8a c8 3e bb 30 6b be b1 c1 90 3d 32 3f 24 be
       0.39168546 -0.22967808 0.07068194 -0.16039732
0000d0 0a 7f 6a be 96 e2 2a be ae 0c a8 bd b8 5e 0a 3f
       -0.22900024 -0.16687998 -0.082055435 0.5405078
0000e0 1f fd 99 3e 79 df 0c bf 32 53 6d 3e 79 72 81 be
       0.3007593 -0.5502849 0.23176268 -0.25282648
0000f0 04 c1 a7 3d 72 dd 21 be 5f 4f 78 3f 2b 5a 98 bc
       0.08191112 -0.15807131 0.9699611 -0.018597683

input_layer.1.running_var f4 [64]
000000 10 a2 35 43 94 8b 49 43 49 6f 65 42 cd d7 02 43
       181.63306 201.54523 57.358677 130.84297
000010 70 6b 61 43 b1 dc 6d 41 a4 7a f8 42 22 a9 4a 43
       225.41968 14.86638 124.23953 202.66068
000020 5e 52 9e 42 6d 56 82 42 15 03 cf 41 cc c8 a2 42
       79.16087 65.1688 25.876505 81.39218
000030 08 cd 1c 43 df 89 4d 43 34 86 0a 43 33 3d 50 43
       156.8009 205.53856 138.52423 208.23906
000040 d9 9d 4c 41 fc 1e 74 42 ee 6f 95 42 5a fa 29 43
       12.788537 61.03026 74.71861 169.97794
000050 88 38 0e 43 f0 ac 47 43 25 45 e2 42 45 70 01 43
       142.22083 199.67554 113.13505 129.43855
000060 33 1c dd 42 38 82 a5 41 11 6e 94 40 37 37 84 41
       110.55508 20.688583 4.638436 16.52696
000070 71 95 aa 42 4a 24 f0 42 00 ca 48 43 7e ce 36 43
       85.29188 120.07088 200.78906 182.80661
000080 ed 47 30 42 c9 57 93 42 e6 e4 55 43 be 6e 3c 43
       44.07024 73.671455 213.89413 188.43259
000090 2b f9 af 41 84 09 c7 42 10 fe e3 42 ac 1e 88 41
       21.996664 99.518585 113.996216 17.014977
0000a0 e3 7a 42 43 02 0d bb 42 42 f5 4e 43 16 00 0c 43
       194.48003 93.525406 206.95804 140.00034
0000b0 0b e3 07 43 bc 5b ce 42 52 25 07 43 ae 60 ba 41
       135.88689 103.17917 135.14578 23.297207
0000c0 06 9a a4 42 1d 46 d6 42 9b 71 5c 43 66 66 46 43
       82.30083 107.13694 220.44377 198.4
0000d0 39 14 9a 42 b2 4e 0c 43 2e 3f 30 43 73 a1 a8 42
       77.0395 140.3074 176.2468 84.31533
0000e0 7e 77 b8 42 0f 32 b0 42 59 fc 0c 43 2f 25 0c 43
       92.23338 88.09777 140.98573 140.14525
0000f0 73 e7 14 43 bf 1c 52 43 37 16 54 41 9d fd 48 43
       148.9041 210.11229 13.255424 200.99068

res_blocks.0.linear1.weight f4 [64, 64]
000000 12 82 ca bd 3b a2 30 3e af 59 e5 bd af 9e 80 be
       -0.0988809 0.17249386 -0.111987464 -0.25121066
000010 72 82 c5 3e 79 6f f9 bd c5 27 57 be 43 8c df 3e
       0.38576084 -0.12179465 -0.21011265 0.436617
000020 ac 6e 37 3e bb db 28 be 3a 6c 8f 3e 37 23 3b be
       0.17913312 -0.1649007 0.28012258 -0.18275152
000030 28 44 8a be 6a ae f0 3e c7 39 6c 3e ee 2c 71 be
       -0.27005124 0.47008067 0.23068915 -0.23552296
000040 46 c6 f3 bd a9 fb a1 3d 58 7b a4 be 0b 34 e5 be
       -0.11903052 0.079093285 -0.32125354 -0.44766268
000050 ad af 24 be 28 b9 ee 3d bc a8 2e bd bf 9a d7 be
       -0.1608264 0.116564095 -0.042641386 -0.4211025
000060 72 49 89 be 03 c1 80 bc 31 83 e2 bd 74 b5 2e 3e
       -0.26813847 -0.015717035 -0.11060179 0.17061406
000070 c8 78 2b be 76 7c 0f bf 85 13 98 3e 10 dc 2a 3e
       -0.16745293 -0.5604929 0.29702392 0.1668551
000080 58 a8 11 bb 9b 50 d3 bd e7 8b 5f be 15 4f 31 3e
       -0.0022225585 -0.10318109 -0.21830712 0.17315324
000090 01 97 f9 3c a2 68 81 3e 2a 05 c6 3e a8 14 74 3d
       0.030467512 0.2527514 0.38675815 0.05959001
0000a0 23 20 94 3e 9c 59 06 be 84 6b 02 be 90 54 af 3e
       0.28930768 -0.13120121 -0.12736326 0.34244204
0000b0 d3 82 b9 3e ef 5f 50 be 5d 1e b4 be a6 65 18 3e
       0.36232623 -0.20349096 -0.35179415 0.14882526
0000c0 27 99 93 3d 45 6b 00 3e 0e 1d 32 bd d8 3e 07 be
       0.07206946 0.1254092 -0.04348474 -0.13207567
0000d0 48 00 29 be 15 4c 6e be a7 ca 95 3b b1 46 76 3e
       -0.16504014 -0.2327121 0.004571277 0.24050404
0000e0 bc c6 98 bd 8a 51 4e 3e 55 d1 15 bf f9 d4 da bd
       -0.074597806 0.20148292 -0.5852254 -0.106851526
0000f0 b0 c8 3e be 61 e7 d3 3e 67 96 ee 3d 5c 5f 71 bd
       -0.18631244 0.41387466 0.11649781 -0.058928832
000100 a4 84 91 be 93 7c 9a bc 18 a2 91 bd a4 d8 05 3e
       -0.2842151 -0.01885823 -0.07110995 0.13070923
000110 5c c0 84 be 60 24 a4 3e 81 6b 3d 3e be dd b7 be
       -0.2592801 0.32059002 0.1849804 -0.35911363
000120 d7 a9 55 3d 7d 6b 57 3d 8b c8 fa bc 89 35 8e be
       0.052163925 0.052592743 -0.030613204 -0.2777522
000130 9d 81 89 3e 29 e3 73 be 10 9e 02 3d f3 14 d7 be
       0.268567 -0.23817123 0.03188902 -0.4200817
000140 84 59 65 3e be 0d 76 be ba d3 09 bf d3 c7 70 3e
       0.22397429 -0.2402868 -0.53838694 0.23513727
000150 6a 7b 76 be d1 ee d5 bd 8e 93 d6 bd 7c 12 86 3e
       -0.24070516 -0.10445941 -0.104773626 0.26185977
000160 f9 cc 04 3e 5b 69 82 3e 3c 9b 71 3e 26 90 d0 bc
       0.12968816 0.25471005 0.23594373 -0.02545936
000170 3f ea cf bd 37 fa 3c 3e 99 4d a5 be 75 b0 08 bf
       -0.10152101 0.18454824 -0.32285765 -0.5339425
000180 60 08 72 3e f2 2e cc be 75 7c f6 be 9b bc 5f be
       0.23636007 -0.39879566 -0.48141828 -0.21849291
000190 21 32 bb 3d 07 57 58 be e0 d8 14 be de 9c 99 3e
       0.09140421 -0.21126948 -0.14535856 0.30002493
0001a0 cf 49 9c bd 81 5f 8f be bd a6 ae be 60 16 73 bd
       -0.07631265 -0.2800255 -0.34111586 -0.05934751
0001b0 87 6c 81 bd d6 2b b0 be d0 fb b0 be d4 1b 53 3e
       -0.06319528 -0.34408444 -0.34567118 0.20616084
0001c0 af 4c ab be 99 21 a4 3b 5f 68 a3 be 9e a8 2d be
       -0.33456942 0.005008888 -0.31915566 -0.16958854
0001d0 8a 69 d6 bd 26 f8 91 be 45 52 8f be cc e9 cb bc
       -0.10469349 -0.28509635 -0.27992454 -0.024891756
0001e0 19 11 ee be f8 6b 76 3c a0 af c8 be ba 22 59 3e
       -0.4649742 0.01504039 -0.3919649 0.21204653
0001f0 b8 1c 8d be 79 66 c6 be c4 6f ce bd aa fa a1 bd
       -0.27560973 -0.38750055 -0.10079911 -0.079091385
000200 96 b2 c3 bc 3c 5b db 3d 5d 8f 24 be 6c f8 3a 3e
       -0.023888867 0.10710761 -0.16070314 0.18258828
000210 cb 37 d7 bc 7c c8 95 3e 75 f1 3a 3e cc d6 c1 bc
       -0.026271721 0.2925452 0.18256171 -0.023661993
000220 f4 63 d8 3d 87 7f 6e 3e d0 d5 be bd ce bc 54 be
       0.105659395 0.23290835 -0.09318125 -0.20775148
000230 5c 90 b3 3e dc 74 e0 bc 84 4f 44 3d 16 a2 45 3b
       0.35071075 -0.027399473 0.047927395 0.0030156425
000240 62 86 8f 3e 5d 6a 81 be 9a 08 4d bf 83 62 81 3e
       0.28032213 -0.2527646 -0.8009125 0.2527047
000250 fd 94 76 bd c2 b0 41 3e 4c 12 33 3e 19 5e 36 bd
       -0.06020068 0.18915084 0.17487448 -0.044523332
000260 3e c3 52 3e 43 a6 ad 3e 2c d7 23 3e ef a3 65 3e
       0.20582291 0.3391591 0.1600005 0.22425817
000270 13 f7 88 be 62 b5 10 3e 99 ec 9e 3d 33 a7 44 3c
       -0.26751003 0.14131692 0.07759971 0.012002754
000280 1c 7c 02 3e fb 1a 42 bf 31 d2 f2 bd 54 1d 81 3b
       0.12742656 -0.7582242 -0.11856497 0.0039402638
000290 a4 bc 02 bd 66 d1 89 be 1c 50 b7 3d 68 a5 f1 3e
       -0.031918183 -0.2691757 0.089508265 0.47196507
0002a0 78 fd e3 3c 7d 33 95 be 09 bb a4 3d 9d 2c f5 bc
       0.027830824 -0.29140845 0.080434866 -0.0299285
0002b0 f3 b3 32 be 94 b3 7f be ae aa 26 be 79 29 93 3e
       -0.17451458 -0.24970847 -0.16276047 0.2874258
0002c0 d6 d6 5d be cf 28 2f 3e c1 e9 d8 bd 7f 6d 99 3d
       -0.21663985 0.17105411 -0.1059146 0.07491588
0002d0 be 66 ce bd da 7f 18 be 83 e5 0e 3d e4 fc 0c be
       -0.1007819 -0.14892522 0.03488685 -0.13768345
0002e0 ce 95 d7 bd cf 61 3c be ae f3 f4 3c 79 63 d6 3e
       -0.1052662 -0.18396686 0.029901352 0.41872767
0002f0 b1 ff e4 bd f9 71 c1 3d 8f f8 02 be 5c 65 18 3e
       -0.11181582 0.09445567 -0.1279013 0.14882416
000300 bf 83 59 be 24 b8 ce be 8c fd b6 bd bf f6 1f be
       -0.21241663 -0.40374863 -0.08935079 -0.1562147
000310 0f fd 66 bf fb 87 40 3c d0 0a 8d 3d 52 67 6b bf
       -0.90229887 0.01175117 0.06886828 -0.9195453
000320 22 ab 1b 3e e5 06 89 bd 33 28 21 be 15 3e 73 bc
       0.15202 -0.06690768 -0.15737991 -0.0148463445
000330 78 06 04 be 52 87 47 bf 7e d9 f5 ba 5c ef b2 be
       -0.12893093 -0.7794086 -0.0018756834 -0.34948242
000340 52 51 41 be 25 75 8a bc b9 58 35 3d bd f5 d3 bd
       -0.18878677 -0.016901562 0.044274066 -0.10349605
000350 be a1 43 be 7d 8a fe bd 1a c5 38 be a0 01 d1 3c
       -0.19104668 -0.12428758 -0.18043938 0.02551347
000360 9f ef 04 be f1 6a 8c 3d 41 e2 a2 3d 76 c8 0f 3d
       -0.12982033 0.06856335 0.07953311 0.035103284
000370 2c fc dc bd 83 4d 60 be d7 da 36 bf 11 07 4f bf
       -0.107902855 -0.21904568 -0.71427673 -0.8087016
000380 58 e3 89 3d 88 2e 31 3d 27 b5 94 be be 69 00 bf
       0.067328155 0.043257266 -0.29044458 -0.5016135
000390 eb 29 ee 3d c2 20 71 3b 75 d3 ef 3d a7 37 68 be
       0.11629089 0.0036793207 0.11710254 -0.2267748
0003a0 aa 0d f2 be ee a9 19 3b b0 bb d2 be 3d a5 1a 3e
       -0.4727605 0.0023447233 -0.4115882 0.15102096
0003b0 d0 47 4f bd 93 63 44 be 78 64 25 bd 2d aa 19 be
       -0.050605595 -0.1917861 -0.040379018 -0.15006323
0003c0 87 4b b5 3a fa b3 4b be 9a 09 bc be a5 c8 93 be
       0.0013831713 -0.19892874 -0.36726075 -0.28864017
0003d0 39 8d 47 be 6d cb 5c be 76 71 cc be 47 e6 3a be
       -0.19487466 -0.21561976 -0.39930314 -0.18251906
0003e0 cf 2e ee be 9c 2c 2d 3d a8 6d 4b bb 01 02 18 be
       -0.46520087 0.04227887 -0.0031040702 -0.14844514
0003f0 4f ec 9e be 86 6d 2e bf e9 a7 06 be c3 28 b5 be
       -0.31039664 -0.6813587 -0.1314999 -0.3538266

res_blocks.0.linear1.bias f4 [64]
000000 fd fc b9 3d c4 80 21 3e 08 aa 42 be 87 e4 a5 bc
       0.09081457 0.15771776 -0.19010174 -0.020250572
000010 71 f3 a3 bd f1 f5 c1 bd 25 6c ba 3d c2 48 a5 bd
       -0.08005417 -0.09470738 0.09102658 -0.08070518
000020 62 6b c1 bc e6 8f 57 bd 8c 89 29 3e b3 7c 10 3d
       -0.023610774 -0.052627467 0.16556376 0.035275172
000030 11 91 d0 3e 68 be 40 3e c4 be e2 bb 41 ce ff 3d
       0.40735677 0.18822634 -0.0069197137 0.12490512
000040 6c c3 cd 3d 07 44 23 be 10 ef 19 be 23 c2 bc 3d
       0.100470394 -0.15943919 -0.15032601 0.09216716
000050 f6 fb ad be 87 ef 15 3e d8 a1 09 3e 3d ef 67 3e
       -0.33981293 0.14642154 0.13440645 0.22649856
000060 0f 5b 5e be 61 b2 51 be 66 54 27 3c 74 34 ed bc
       -0.21714424 -0.20478202 0.010212993 -0.028955676
000070 59 97 c0 be 0c 72 20 3e ec 56 41 be 62 f8 68 3e
       -0.3761547 0.15668505 -0.18880814 0.22751
000080 63 d5 e8 bd 4f d9 af 3e 4d 54 69 3c ac 86 3e 3e
       -0.11368825 0.3434548 0.01424129 0.1860606
000090 0d f4 76 be 05 c0 a9 bd 01 ea 3a bd f2 af 87 be
       -0.24116535 -0.08288578 -0.04563332 -0.26501423
0000a0 a5 d4 31 be 42 0c d7 3e a8 0e 98 3d 9e 11 92 bd
       -0.17366274 0.4200154 0.074246705 -0.071322665
0000b0 34 fe 37 3e 14 40 8e 3d aa ca 2f 3a b6 7b e9 bd
       0.17968065 0.06945816 0.00067059195 -0.11400549
0000c0 96 87 af 3e 38 1b 86 bd 99 0c 3c be 7b 71 24 3d
       0.3428313 -0.0654816 -0.1836418 0.040147286
0000d0 43 b7 08 3e 6d 16 f3 3e 47 29 26 3e a6 19 44 be
       0.13351159 0.47478047 0.16226684 -0.19150409
0000e0 3f f8 b9 3e 00 f6 6f 3e 23 9d cf bd 54 54 d5 bd
       0.3632221 0.23433685 -0.10137393 -0.10416475
0000f0 a1 c3 86 3e 6e 23 b0 3e bd 5b e5 3e 1e 55 4e be
       0.26321128 0.3440203 0.44796553 -0.20149657

res_blocks.0.bn1.weight f4 [64]
000000 b5 0c 0d 3f b9 e9 81 3e 89 ae e9 3e 80 ab ce 3e
       0.55097514 0.2537363 0.45640972 0.4036522
000010 4f 60 fb 3e f4 39 b4 3e 9b af 0a 3f 7e c6 23 3f
       0.49096915 0.35200465 0.541742 0.6397475
000020 fa c0 10 3f 65 fd 2b 3f 96 7e 05 3e f3 70 05 3f
       0.5654446 0.67183524 0.1303657 0.5212547
000030 76 9c 2b 3f b1 d6 16 3f db 2e 2a 3f e6 60 29 3f
       0.67035615 0.58921343 0.66477746 0.6616348
000040 45 76 16 3f 36 61 d8 3e 88 f4 4b 3f b8 3c a0 3e
       0.58774215 0.42261666 0.7967 0.31296325
000050 0b f7 0e 3f c2 6d a9 3e 38 a2 17 3f c8 be 01 3f
       0.5584571 0.3309155 0.592319 0.50681734
000060 56 cd 1c 3f 3a a4 c3 3e 04 04 bd 3e 89 88 2b 3f
       0.6125082 0.38211232 0.36917126 0.6700521
000070 40 11 1f 3f b9 4a 13 3f c3 fa 23 3f 6d 95 23 3f
       0.62135696 0.5753589 0.64054507 0.6389988
000080 94 1a b5 3e ec 28 2c 3f af 05 ea 3e d3 77 e3 3e
       0.3537184 0.6724994 0.4570746 0.44427356
000090 18 58 07 3f 3d 19 09 3f d3 d2 0b 3f a6 45 40 3f
       0.52868795 0.53554136 0.5461857 0.75106275
0000a0 ed 1a 1a 3f a8 b9 3f 3f f5 77 4e 3e 47 d4 d9 3e
       0.60197335 0.74892664 0.20162947 0.42544767
0000b0 0b c3 b2 3e bc 74 00 3f 87 f6 19 3f 81 42 24 3f
       0.3491443 0.5017812 0.60141796 0.64163977
0000c0 5c 61 1c 3f 3c 08 da 3e 10 fa 2c 3f d0 31 44 3f
       0.6108606 0.42584407 0.67569065 0.7663851
0000d0 dd 09 c1 3e 12 ce a2 3e 69 b4 08 3e 21 f1 06 3f
       0.37702838 0.31797844 0.13350071 0.52711684
0000e0 f7 f4 bf 3e 2f 5c 36 3e ac 31 d8 3e bd 11 39 3f
       0.3749158 0.17808603 0.42225397 0.7229269
0000f0 09 ac 80 3e 19 86 1c 3f d9 aa 0d 3f ee 15 30 3f
       0.25131252 0.61142117 0.5533882 0.6878346

res_blocks.0.bn1.bias f4 [64]
000000 42 67 26 bf 40 5c ba be 94 f0 0d bf 49 09 3d bf
       -0.6500131 -0.36398506 -0.5544522 -0.73842293
000010 30 b7 a3 be af 0e 22 bf 91 60 fe be e6 5b 27 bf
       -0.31975698 -0.63303655 -0.4968305 -0.653746
000020 42 af 79 bf d0 0e 45 bf 8c f3 85 3e 9a 53 53 bf
       -0.9753305 -0.7697573 0.26162374 -0.8254944
000030 ef cc 4a bf 20 07 6a bf 63 dc 48 bf d3 a7 47 bf
       -0.79218954 -0.9141712 -0.78461283 -0.77990454
000040 aa 89 81 bf 0d c6 11 bf 93 23 59 3f 80 dd 1f bf
       -1.0120137 -0.56942827 0.84819907 -0.6244736
000050 51 48 61 bf a8 3b a4 bd 02 2b 80 bf 60 26 1c be
       -0.8800097 -0.08019191 -1.0013125 -0.15249014
000060 b5 58 86 bf c0 0c c2 be 38 17 36 bf 7f 43 4b bf
       -1.0495821 -0.37900352 -0.7112918 -0.79399866
000070 0e 24 4f bf b1 3a 76 bf cc 32 46 bf a2 db 22 bd
       -0.8091439 -0.96183306 -0.7742126 -0.03976024
000080 76 30 b2 be 0d f2 84 bf d6 d3 dc be 52 e6 1e bf
       -0.34802598 -1.0386368 -0.43130368 -0.6207019
000090 a6 6f 50 bf 56 4d 3e bf 20 91 5a bf 0d 2a 62 bf
       -0.8142036 -0.74336755 -0.85377693 -0.88345414
0000a0 99 76 34 bf 72 15 47 bf 22 40 ca be f2 ae 1a bf
       -0.70493466 -0.777671 -0.39502054 -0.60423195
0000b0 bd 46 f2 be ab 02 69 bf 8b bb 72 bf e4 98 77 bf
       -0.47319594 -0.91019696 -0.9481742 -0.9671767
0000c0 81 81 4d bf 53 fe 44 bf 26 18 2b bf 89 06 66 bf
       -0.8027573 -0.7695057 -0.6683372 -0.8985372
0000d0 e8 2d dd 3e d5 f2 cd be be 0b de 3d 5e 5d 4e bf
       0.43199086 -0.4022433 0.108420834 -0.8061122
0000e0 a2 bf 0e bf 55 b8 c0 3e b2 09 82 bf 06 bd 7e bf
       -0.5576116 0.37640634 -1.0159209 -0.99507177
0000f0 d7 59 8d be da bc 56 bf fc e1 71 bf 33 d0 41 bf
       -0.27607605 -0.83881915 -0.9448545 -0.7570831

res_blocks.0.bn1.running_mean f4 [64]
000000 94 07 f6 bf 1f c7 1d c3 0f 2a 19 42 c9 c5 9a c3
       -1.9221063 -157.77782 38.291073 -309.5452
000010 70 00 9a 41 b2 95 df c2 70 e5 87 42 99 fa c7 c1
       19.250214 -111.79237 67.94812 -24.997362
000020 7c 73 13 c3 0f aa 15 42 00 28 57 c3 45 3e 32 c3
       -147.45111 37.416073 -215.15625 -178.24324
000030 af 7a ac 41 6a 1b 2b c3 56 93 72 3f b1 0f ba 41
       21.559904 -171.10709 0.94756067 23.257662
000040 26 15 1a c3 3b d6 dd 41 8b 04 30 41 6e 13 a1 42
       -154.08261 27.729605 11.001109 80.53795
000050 56 06 42 c3 66 0f 6a c3 7b d9 6e c3 df b8 6f 42
       -194.02475 -234.06015 -238.84953 59.93054
000060 e7 b2 47 c3 49 67 2b c2 c7 37 84 42 c9 b4 bf 41
       -199.69884 -42.850864 66.10894 23.963274
000070 27 41 86 41 9d d2 af c3 f3 09 0e c3 94 ba 27 43
       16.781813 -351.64542 -142.03886 167.72882
000080 d3 ae 0a c3 66 d7 62 c3 21 ed 8b c2 c9 4c db bf
       -138.6829 -226.8414 -69.96314 -1.7132808
000090 f0 75 01 c2 a3 49 a3 41 0b 33 87 43 fd dc 43 41
       -32.365173 20.410955 270.39877 12.241452
0000a0 8b 2c b5 42 25 3f 9f c1 a1 32 2d c3 99 8f 71 41
       90.587 -19.905832 -173.19777 15.097558
0000b0 1a f5 07 c3 c1 ef 57 c3 7e 9f 39 c3 36 64 d5 c2
       -135.95743 -215.93654 -185.62302 -106.695724
0000c0 56 5f ba c1 40 a4 a6 c3 11 a7 c4 bf 65 cf a7 41
       -23.29655 -333.2832 -1.5363485 20.976267
0000d0 68 4e 02 41 d0 d2 14 c3 b9 6b fe 42 c6 51 4b c3
       8.144142 -148.82349 127.210396 -203.31943
0000e0 39 a1 65 c1 e2 04 4c c3 fa a7 14 c3 3c 52 7d c3
       -14.351861 -204.01907 -148.65616 -253.32123
0000f0 19 84 57 c3 bb e0 77 c2 0a d6 8d c3 cd f9 1b 42
       -215.516 -61.969463 -283.67218 38.993946

res_blocks.0.bn1.running_var f4 [64]
000000 e3 16 15 45 d7 42 bf 45 5f 18 16 44 93 03 1b 46
       2385.4304 6120.355 600.3808 9920.894
000010 41 7d e3 44 d4 53 26 46 f9 91 e0 44 b2 59 29 45
       1819.9142 10644.957 1796.5616 2709.606
000020 ad dc 66 46 63 40 68 45 02 a0 d4 45 6d 71 e1 44
       14775.169 3716.0242 6804.001 1803.5446
000030 70 0d de 45 e9 e1 83 46 bf 4c 1e 46 d7 f5 b2 45
       7105.6797 16880.955 10131.187 5726.73
000040 0e b8 54 46 18 9d c6 44 b6 28 8b 44 82 cb 64 44
       13614.014 1588.9092 1113.2722 915.1798
000050 5c 4d 03 46 22 ac ca 44 31 6d b1 46 82 89 18 45
       8403.34 1621.3792 22710.596 2440.5942
000060 e0 9a a3 46 51 20 35 45 d4 54 02 46 3b ad cb 45
       20941.438 2898.0198 8341.207 6517.654
000070 9e 22 0a 46 14 ad 8e 46 36 4b 96 44 87 87 f2 43
       8840.654 18262.54 1202.3503 485.0588
000080 9f 9e 4a 44 d6 b0 9f 46 f0 52 61 45 13 9b 94 45
       810.47845 20440.418 3605.1836 4755.3843
000090 95 20 41 46 e3 04 9d 46 69 aa 34 45 90 77 c0 45
       12360.1455 20098.443 2890.6506 6158.9453
0000a0 b2 00 a2 44 c0 45 65 43 38 f2 8d 45 c1 6d 16 44
       1296.0217 229.27246 4542.2773 601.7149
0000b0 a8 35 2d 46 06 03 18 47 4d eb 8a 46 32 97 20 46
       11085.414 38915.023 17781.65 10277.799
0000c0 5c 92 11 46 7d 54 4e 46 08 1f a8 44 8b f8 59 45
       9316.59 13205.122 1344.9697 3487.534
0000d0 dc 21 21 45 c4 a4 a3 44 2c 82 b2 44 95 fb f4 46
       2578.1162 1309.1489 1428.0679 31357.791
0000e0 ba 1c 63 46 4f cf c7 44 5a f5 87 44 58 a7 c6 46
       14535.182 1598.4784 1087.6672 25427.672
0000f0 2f d4 70 44 c1 17 2b 46 36 7b d4 46 c7 ce 1b 45
       963.31537 10949.938 27197.605 2492.9236

res_blocks.0.linear2.weight f4 [64, 64]
000000 06 23 f8 3e c6 f8 20 3f c6 44 9a 3d 9a 83 8b bd
       0.4846422 0.628796 0.07532649 -0.068122104
000010 ad 6d 95 3d 0d 6e 38 3f 65 e9 98 3e 44 bb 8a bc
       0.072963096 0.72042924 0.29865566 -0.016934998
000020 02 34 7a 3f 1f df 95 3e 1e d3 a0 bc c6 21 48 3e
       0.9773561 0.2927179 -0.019631919 0.19544134
000030 34 91 2d 3e 0d 53 e1 be 8f 76 48 3e f9 69 3d 3e
       0.16949922 -0.44008675 0.19576477 0.18497457
000040 f1 5a d6 be f6 bd ce 3e 4f 00 3d be 4f 6c d2 3e
       -0.41866258 0.40379304 -0.18457149 0.41098258
000050 dc ab 4e 3f c6 a9 bf 3c ff 03 25 bf 53 7a 06 3e
       0.80730987 0.023396384 -0.6445922 0.131326
000060 b5 75 64 bf cb d2 ba 3d 1e 86 b6 3e e7 64 44 3e
       -0.89242107 0.09122237 0.35649198 0.19179116
000070 f6 6c 67 3e 96 95 ac 3d 7d 78 38 3e d8 9a 37 be
       0.22600159 0.08426969 0.18014713 -0.17930162
000080 cf 56 9b 3b 9e 65 c8 be f8 b9 a1 be c0 44 1f 3f
       0.004740573 -0.39140028 -0.31587195 0.6221428
000090 a1 bf 34 3e 14 87 14 3f 03 24 9e bd 9c 97 15 3e
       0.17651226 0.5801861 -0.077217124 0.14608616
0000a0 2e ed 4c 3e 87 cc 2e 3c 47 6e ca 3b ec 97 39 be
       0.20012352 0.01066888 0.006177697 -0.1812436
0000b0 40 c7 86 3e 4a cb 92 3e 11 1d 5c bf ef 85 73 3f
       0.2632389 0.28670722 -0.8598185 0.9512624
0000c0 0a 2d 95 3e c4 89 f5 3d eb 00 6e bd e4 a4 7a 3e
       0.29135925 0.11989167 -0.058106344 0.24476963
0000d0 1e 59 b6 bd 17 11 5c 3e 1c c0 10 bd 5b a7 9d bd
       -0.089037165 0.21490894 -0.03533946 -0.07697936
0000e0 e2 77 2b 3e 1f ea f6 36 e3 a1 9b 3e cc 10 ff be
       0.1674495 7.3586266e-06 0.30396947 -0.49817502
0000f0 3d 4c d9 3d 33 dc 88 be cc 61 e9 be 53 c1 8d 3e
       0.106102444 -0.267305 -0.45582426 0.27686557
000100 02 b1 b5 3e 43 06 e3 3e 6f b9 97 bd 7b ad 0b bc
       0.3548661 0.44340715 -0.074084155 -0.008525248
000110 8f a0 eb bc 9f 5b 35 3f a5 d5 a6 3e e1 67 14 be
       -0.028763084 0.7084293 0.32584873 -0.14492752
000120 47 f1 80 3f 10 01 b5 3d 78 81 88 3d ec 39 da 3d
       1.0073632 0.08838093 0.06665319 0.10655579
000130 0b 38 6e 3c 15 65 d6 bc d6 ff 68 3d c9 c8 1f 3e
       0.014539729 -0.026171247 0.05688461 0.15603937
000140 40 0c d3 be 95 f9 48 3e 1a af 74 be 57 7c a8 3e
       -0.41220284 0.19626458 -0.23894921 0.32907364
000150 90 ff 52 3f d9 72 11 3d b9 21 c3 be 86 33 32 3e
       0.8242121 0.035509918 -0.38111666 0.17402467
000160 ba d2 2f bf 5a 93 2b be 2d c1 9d 3e db 7d 00 3e
       -0.6868092 -0.16755429 0.30811444 0.1254801
000170 53 01 fc 3d 98 31 95 3d 1b 3d 3f 3e c5 2f 8b be
       0.1230494 0.0728485 0.18675654 -0.27184883
000180 2a 62 ac bb 30 a2 bf be dd 12 89 be c5 de 1e 3f
       -0.0052607255 -0.37428427 -0.26772204 0.6205867
000190 ee 49 56 3d e8 18 f1 3e 01 94 5b be c2 8b 0c 3d
       0.0523166 0.47089314 -0.21443178 0.03431297
0001a0 a3 48 35 3e 07 3c b0 3c 1a 7d 1e 3e 7f ed a0 be
       0.1770349 0.021512998 0.1547741 -0.31431195
0001b0 43 a3 95 3e fc 30 cf 3e 95 b7 83 bf f6 82 7d 3f
       0.2922612 0.4046706 -1.02904 0.99027956
0001c0 a9 55 26 3e 7a 01 8f 3e 9f 6a 8f bd af 8f 28 3e
       0.16243614 0.27930814 -0.07002758 0.16461061
0001d0 f2 0a c0 3c f9 62 a8 3d c0 4d 83 bd 32 12 5d be
       0.02344272 0.082220025 -0.06411314 -0.21588972
0001e0 90 d9 18 bd 59 c2 2b 3e 4b d5 b5 3e 11 de 6e bf
       -0.03731686 0.16773356 0.35514292 -0.93307596
0001f0 46 03 9a 3d 0d 5a 25 be 04 0e e9 be ae 45 b9 3d
       0.075201556 -0.16147633 -0.45518506 0.090464935
000200 44 5a f4 3d f4 a5 9d 3e be 79 40 3e 0f 99 0f be
       0.11931279 0.30790675 0.18796441 -0.14023231
000210 25 11 35 3e f2 24 81 3f 04 d0 bc 3e 61 c6 44 3e
       0.17682321 1.00894 0.36877453 0.192163
000220 cd 5b ac 3f 3a 4a 49 3e 96 17 29 3d cd fe 7a 3e
       1.3465515 0.19657221 0.04128226 0.24511261
000230 d2 7d 04 3e c6 6a 46 3f ed e8 f3 3d ec 3c 80 3e
       0.12938622 0.77506673 0.119096614 0.2504648
000240 e1 44 25 bf 6c a6 db 3e 90 03 2d be f6 54 d5 3e
       -0.64558226 0.42900407 -0.1689589 0.41666383
000250 7f 6e d8 3f 72 e2 6d 3c 7c 92 07 bf 11 76 ce 3e
       1.6908721 0.014519321 -0.5295789 0.40324453
000260 a2 90 86 bf c8 00 c8 3d e2 05 6d 3d 9f eb 82 3e
       -1.0512888 0.09765774 0.05786694 0.2557039
000270 04 63 65 3e 62 53 62 be 5e bd 18 3e f2 c7 f1 bd
       0.22401053 -0.2210212 0.14915988 -0.11805715
000280 0f 7c 0a 3d e5 28 94 be 5f d5 49 bd 9f 15 cb 3e
       0.033809718 -0.2893745 -0.049275752 0.39664933
000290 10 95 09 3e 68 a2 5b 3e ac 18 f0 bd f2 c1 63 3e
       0.13435769 0.21448672 -0.11723456 0.22241953
0002a0 e4 8b 1b 3e d6 2a 3d 3e 11 61 18 be f2 b0 93 be
       0.15190083 0.18473372 -0.14880778 -0.28845936
0002b0 61 80 db 3e 85 a3 a9 3e 71 65 7a bf ce e8 7a 3f
       0.42871383 0.33132568 -0.9781104 0.9801148
0002c0 19 3a 1b 3e 38 eb c6 3d 81 30 68 be 74 c5 5b 3e
       0.15158881 0.09712833 -0.22674753 0.21462041
0002d0 e2 59 09 3e 50 13 c5 3d 08 32 ad be c9 93 32 3e
       0.13413194 0.09622824 -0.33827233 0.17439188
0002e0 21 65 c8 3d 5b a9 46 bc c1 ab 79 3f ac 9e 09 bf
       0.09784914 -0.012125338 0.975277 -0.5375774
0002f0 e9 4f 4c 3e 23 25 00 bf 44 c0 f7 be b5 83 65 3e
       0.19952358 -0.50056666 -0.48388875 0.22413523
000300 1e ba 8e 3d 0b d0 ac be d2 ee 2b bf 12 3f cc 3d
       0.06969093 -0.33752474 -0.67161286 0.09972967
000310 f4 ea 88 be 7f 04 97 be 04 b3 5d bf 66 22 27 bd
       -0.26741755 -0.29495618 -0.8660128 -0.04080429
000320 64 db 8c be 4b a3 6f bf 38 ae b5 bd f6 fd 33 3d
       -0.27511132 -0.9360854 -0.0887112 0.043943368
000330 60 88 55 bf c4 91 89 3d 5b 45 38 bf ba 32 93 bf
       -0.83411217 0.06717256 -0.7198083 -1.1499856
000340 ed 7e 16 3e ea d0 ac bd 72 da 81 3e c0 05 07 be
       0.14696856 -0.08438285 0.25361973 -0.13185787
000350 e0 6c b3 be 1b 9a 0f 3c 4c 32 a9 3d 41 e7 0c bf
       -0.35044003 0.008764769 0.082615465 -0.55040365
000360 7c f5 13 3c f5 e5 96 be 79 5d f1 3d b5 f2 36 bf
       0.009030696 -0.29472318 0.117854066 -0.7146409
000370 23 80 ab be c2 8a 78 3d be 6c 6e be d4 b8 18 ba
       -0.33496198 0.060679205 -0.2328367 -0.00058258814
000380 2c 1f a1 3c 0b 55 14 3e 57 92 1f 3e 89 63 be be
       0.019668184 0.14485566 0.15583168 -0.37185314
000390 2c 76 bc be f6 b2 94 3d 3f 53 8f 3e 80 39 24 bf
       -0.36808908 0.072606966 0.279932 -0.6415024
0003a0 e8 a0 2a bf 36 50 3b be 3d b9 82 3d ca 11 73 3f
       -0.66651773 -0.18292317 0.06382988 0.9494902
0003b0 20 10 f1 bd fa 3e 67 3d 7a 3b 9e bd 31 e1 7c be
       -0.11770654 0.056456544 -0.07726188 -0.24695279
0003c0 b2 56 77 bf 05 40 40 3a 0e 4e cf 3d 83 45 b6 bf
       -0.9661666 0.00073337584 0.101223096 -1.4239963
0003d0 b7 3e 61 be 31 fd 4d 3d dc 8d 93 be 1a 75 5a 3c
       -0.2199658 0.05029029 -0.28819168 0.013333583
0003e0 36 b4 d9 bc 75 c7 f1 bd 18 3e 98 be b0 9a b4 3d
       -0.02657519 -0.118056215 -0.29734874 0.08818567
0003f0 61 28 ad bc f1 30 94 3d 33 5a 8f 3d fb a3 7a be
       -0.021137418 0.07235897 0.06999626 -0.24476616

res_blocks.0.linear2.bias f4 [64]
000000 34 03 d1 c0 ba 6c ce c0 43 90 e5 c0 13 08 cb 40
       -6.531641 -6.4507723 -7.17386 6.3447356
000010 33 b8 ea c0 2a 9b 08 40 a0 43 b2 40 f6 ed c2 c0
       -7.3349853 2.1344705 5.570755 -6.091548
000020 fa 17 ea c0 e6 9e 64 40 fe c4 c7 c0 ac 14 3d c0
       -7.315427 3.5721984 -6.242797 -2.9543867
000030 37 07 bc 40 af e5 df c0 41 2a da c0 ee 13 c8 c0
       5.8758807 -6.9967875 -6.817658 -6.252433
000040 9f 77 57 3f 77 ea b1 c0 a7 df ac 40 8a 0f 96 3f
       0.841669 -5.559871 5.4023013 1.1723492
000050 68 de 57 c0 49 61 c0 c0 c3 23 bb 40 b7 e1 b7 c0
       -3.3729496 -6.0118756 5.8481154 -5.746303
000060 1c 11 08 40 bc 42 a5 c0 8e ba 46 c0 94 b7 d5 40
       2.1260443 -5.1643963 -3.1051364 6.6786594
000070 de a5 85 40 0c 74 6b c0 ec 65 c9 c0 aa a0 f3 c0
       4.1764975 -3.678958 -6.2936916 -7.6133623
000080 6c e7 d2 40 e7 c2 ab 40 af a9 d5 c0 bb cc c3 c0
       6.5907497 5.367542 -6.6769633 -6.1187415
000090 69 a0 ce c0 f6 6c 85 40 d8 78 ec c0 22 22 23 c0
       -6.4570813 4.169551 -7.3897514 -2.5489583
0000a0 ea 8e c9 c0 28 6d 57 40 c5 ca b6 c0 6d 30 ea c0
       -6.2986956 3.3660374 -5.712252 -7.3184114
0000b0 ef 5b 4b 40 7d 78 77 40 3a c6 c1 c0 49 36 67 40
       3.1774862 3.866729 -6.0554476 3.6126883
0000c0 74 b2 ad c0 b9 36 67 c0 1a bd f5 c0 18 68 ba c0
       -5.428034 -3.612715 -7.6793337 -5.8252068
0000d0 90 ab d6 40 f8 ff 9d c0 1b a1 e0 c0 35 1c d8 c0
       6.7084427 -4.937496 -7.019666 -6.7534432
0000e0 3b 39 c9 c0 bf f2 be c0 17 fe b3 c0 4c ba 86 c0
       -6.288236 -5.967132 -5.624767 -4.2102413
0000f0 62 45 eb c0 ef 20 f3 c0 1a 70 52 40 9a 5b fc c0
       -7.3522196 -7.59777 3.2880921 -7.886182

res_blocks.0.bn2.weight f4 [64]
000000 4d 95 f6 41 c3 e2 01 42 c3 b3 05 42 4b a2 01 42
       30.8229 32.471447 33.42555 32.40849
000010 16 83 01 42 e4 47 ad 41 96 b4 e7 41 ba 39 fb 41
       32.378014 21.660103 28.963177 31.403187
000020 58 be 06 42 97 ea 01 42 de 50 fd 41 88 af f7 41
       33.685883 32.47909 31.664486 30.960709
000030 da e1 01 42 7e 57 06 42 a7 8f 03 42 fc 6f f9 41
       32.47056 33.58544 32.890285 31.17968
000040 42 16 ae 41 03 6d fc 41 f1 a4 00 42 6c 9b b0 41
       21.760868 31.553228 32.161076 22.07589
000050 0a 92 9f 41 e0 17 f9 41 56 e4 e3 41 96 e5 b4 41
       19.946308 31.136658 28.486492 22.612103
000060 43 3f 9d 41 b6 fd bb 41 ce b0 b3 41 70 89 f8 41
       19.65589 23.498882 22.46133 31.067108
000070 4f d7 d2 41 f0 d0 a4 41 29 c7 02 42 c7 47 06 42
       26.355131 20.60202 32.694492 33.570095
000080 5e b0 00 42 ad c5 f8 41 a0 d4 f7 41 eb bc f8 41
       32.172234 31.096521 30.97882 31.092245
000090 4b 8f fc 41 8e ab fb 41 d1 65 06 42 87 b9 94 41
       31.569967 31.458767 33.59943 18.59059
0000a0 89 83 f9 41 27 27 01 42 de ef f0 41 39 93 01 42
       31.189226 32.288235 30.117123 32.393772
0000b0 b3 e5 ff 41 c8 c7 c3 41 b1 e1 f1 41 1f ae c3 41
       31.987158 24.47255 30.2352 24.46002
0000c0 66 ec 01 42 bb 6a a0 41 50 d1 05 42 86 4e fb 41
       32.480858 20.052114 33.454407 31.413342
0000d0 ae d4 ff 41 bf 9e cf 41 ce 59 04 42 03 4e 02 42
       31.978848 25.952513 33.0877 32.576183
0000e0 79 e3 fa 41 6d f8 00 42 74 02 e2 41 2d 1f c1 41
       31.36107 32.242603 28.251198 24.140223
0000f0 b4 e5 00 42 a6 f3 05 42 6b d3 00 42 04 ee 05 42
       32.22432 33.487938 32.206463 33.482437

res_blocks.0.bn2.bias f4 [64]
000000 c9 96 02 42 8a f8 02 42 68 2e 03 42 00 f2 01 42
       32.64725 32.742714 32.79532 32.48633
000010 60 24 02 42 b1 6e f9 41 84 92 01 42 02 6c 01 42
       32.535522 31.179049 32.39308 32.355476
000020 34 3e 03 42 ef 12 02 42 77 66 00 42 29 11 01 42
       32.810745 32.51849 32.100063 32.266758
000030 6e 02 02 42 6e 0e 03 42 17 01 02 42 2b 8f 02 42
       32.502373 32.76409 32.501064 32.639812
000040 97 6b f9 41 a9 b7 00 42 61 07 01 42 59 b1 f9 41
       31.177534 32.179356 32.257206 31.211596
000050 18 04 f4 41 ea 74 02 42 94 43 00 42 1e fc fb 41
       30.501999 32.614174 32.065994 31.498104
000060 21 f8 f3 41 5f c0 fc 41 da 81 fa 41 3b fe 00 42
       30.496157 31.593931 31.313404 32.248272
000070 67 c8 fc 41 f6 bd f5 41 4b e5 02 42 d8 3c 03 42
       31.597853 30.717754 32.72392 32.809418
000080 91 8e 01 42 1a 86 ff 41 4e a7 02 42 83 f8 01 42
       32.389225 31.94048 32.663383 32.492687
000090 47 6a 01 42 b0 9c ff 41 8e 1a 03 42 e5 ba f0 41
       32.353786 31.951508 32.775932 30.091257
0000a0 9e 76 02 42 24 6a 01 42 20 0a 02 42 c3 cf 01 42
       32.615837 32.353653 32.509888 32.452892
0000b0 94 02 01 42 53 29 fa 41 81 c7 01 42 87 ec fd 41
       32.252518 31.270178 32.444828 31.740492
0000c0 3a cf 01 42 2f 99 f3 41 5b 48 03 42 48 66 02 42
       32.45237 30.449797 32.82066 32.599884
0000d0 17 0e 01 42 35 be fe 41 2e ef 02 42 a4 de 01 42
       32.26376 31.842875 32.733574 32.467422
0000e0 a2 88 02 42 fa 83 01 42 ee c4 00 42 53 f5 fd 41
       32.63343 32.378883 32.192314 31.744787
0000f0 d3 d3 02 42 e9 d4 02 42 5a 67 01 42 9f ad 02 42
       32.70686 32.70792 32.35093 32.66955

res_blocks.0.bn2.running_mean f4 [64]
000000 e3 40 d7 c0 bb e3 d3 c0 d3 58 e6 c0 12 77 c3 40
       -6.7266707 -6.621549 -7.198343 6.108285
000010 ed b5 eb c0 92 96 f7 3f 44 2c af 40 f3 1f c3 c0
       -7.3659577 1.9342825 5.4741535 -6.09765
000020 2b 59 e9 c0 13 83 59 40 f9 cf c9 c0 52 c6 42 c0
       -7.292135 3.3986251 -6.3066373 -3.0433545
000030 c4 4f b7 40 d9 ee e2 c0 bb 03 da c0 e2 bb cd c0
       5.728487 -7.091656 -6.8129554 -6.429185
000040 9c 05 3d 3f 08 6d b6 c0 62 f3 a9 40 9f 25 a0 3f
       0.73836684 -5.7008095 5.31096 1.2511481
000050 1d 8c 5c c0 e6 2d cc c0 a7 82 b6 40 d0 20 b9 c0
       -3.4460518 -6.380603 5.703449 -5.7852554
000060 17 60 01 40 f6 e7 a8 c0 2c e3 42 c0 6c c5 d1 40
       2.0214899 -5.2783155 -3.0451155 6.5553493
000070 fa a0 85 40 7c b7 68 c0 fe a5 d1 c0 04 ff fa c0
       4.1759005 -3.636199 -6.5515127 -7.84363
000080 6a a8 cb 40 1c 86 a7 40 98 89 d8 c0 67 ab c7 c0
       6.3643084 5.235121 -6.766796 -6.239673
000090 b9 4d d3 c0 31 f4 80 40 71 45 e8 c0 11 82 29 c0
       -6.6032376 4.0298085 -7.2584767 -2.6485636
0000a0 7a 68 cb c0 53 58 57 40 85 f2 b9 c0 60 24 e8 c0
       -6.3565035 3.364766 -5.8108544 -7.2544403
0000b0 4e 52 4a 40 16 8a 7a 40 c6 4b c3 c0 07 45 5b 40
       3.1612735 3.914678 -6.1029997 3.426088
0000c0 51 2f af c0 64 1b 63 c0 8a e0 f8 c0 9d 17 c3 c0
       -5.474526 -3.5485468 -7.7774096 -6.0966325
0000d0 5b e7 d3 40 2f 14 9d c0 cb 51 e3 c0 8b ca d4 c0
       6.6219916 -4.908714 -7.1037345 -6.6497245
0000e0 7e b4 d0 c0 9a 94 b7 c0 11 a7 bb c0 97 2f 8c c0
       -6.5220327 -5.73689 -5.864144 -4.3808093
0000f0 ef 8a ec c0 6b 7c fb c0 db 22 50 40 44 a1 01 c1
       -7.3919597 -7.8589377 3.2521274 -8.1018715

res_blocks.0.bn2.running_var f4 [64]
000000 f6 43 1f 3e 12 1e 46 3e ae 5e 14 3e 9d b4 35 3f
       0.15553269 0.19347408 0.14489242 0.7097872
000010 7b 5a 4d 3e 69 1b 9f 3e df a1 a5 3e 2f 6e 2d 3e
       0.20054047 0.310756 0.3235006 0.16936563
000020 fb 5a 6b 3e e7 b9 e3 3e 1b d4 1d 3f 80 08 86 3e
       0.22983925 0.4447777 0.6165177 0.2617836
000030 bb 3a 11 3f d2 bf dd 3e 4c 9c 46 3e 53 07 7e 3e
       0.5673024 0.4331041 0.1939556 0.24807481
000040 b8 da dc 3e 4a 93 ec 3e cc 61 25 3f 25 05 09 3f
       0.4313562 0.46206123 0.6460235 0.53523475
000050 c3 b5 dd 3e 03 d3 67 3e e4 d7 4f 3e 22 0a fb 3e
       0.43302736 0.22639088 0.202972 0.49031168
000060 ee 31 d8 3e b6 01 61 3e 4c dd b6 3e a0 c9 50 3e
       0.42225593 0.21973309 0.3571571 0.20389414
000070 21 bd 51 3e b5 5a fe 3e 56 d5 9e 3e 1a af 82 3e
       0.20482303 0.4967858 0.31022137 0.25524217
000080 e8 9b a6 3e c0 65 81 3e 02 b8 1b 3e 97 28 27 3e
       0.32540822 0.25272942 0.15206912 0.16324078
000090 1b 49 30 3e 60 9a cc 3e 23 96 7f 3e 79 84 d1 3e
       0.17215388 0.3996153 0.24959616 0.4092138
0000a0 95 7c 2a 3e 67 a1 20 3f ea 41 51 3e ac ec 45 3e
       0.16649087 0.6274628 0.204353 0.19328564
0000b0 c0 78 3d 3f 15 ea bb 3e 78 3b 1f 3e 19 9d 7d 3e
       0.74012375 0.36702028 0.1555003 0.24766959
0000c0 09 40 35 3f 9e db c8 3e d4 36 5a 3e 02 eb 6b 3e
       0.70800835 0.39230055 0.21309978 0.23038867
0000d0 1e 3b 2e 3f a4 0a 00 3f 84 05 70 3e 8b da 14 3f
       0.68058956 0.50016236 0.23439604 0.5814597
0000e0 a2 69 f0 3e b5 32 2c 3f 3c 71 4a 3e ea 06 a8 3e
       0.4695559 0.6726487 0.19769758 0.32817775
0000f0 c4 46 9c 3e 82 90 30 3e 1d 69 44 3f 3e 68 3e 3e
       0.3052274 0.17242625 0.7672289 0.18594453
