model/poly_resnet_model_500epoch_lambda.pt (torch, 156243 bytes, 43 tensors)

input_layer.0.weight f4 [64, 118]
-0.052967004 0.2559985 0.10772611 -0.2955271 0.2801286 -0.46800068 0.035473943 -0.0067516263
-0.114640534 0.076310396 0.12697943 0.049108487 0.0105786575 -0.18098016 -0.63774556 -0.029618757
-0.16870445 -0.041569553 0.13139945 -0.07356359 -0.20077989 -0.07583556 -0.14922974 0.16499768
0.13969505 -0.04173927 -0.30159968 0.329944 0.5316051 0.21411988 -0.015487064 -0.08326747
-0.29108986 0.22175479 0.076804504 -0.19251986 0.26660717 -0.39356238 -0.004875526 -0.06654926
-0.104077764 0.04527495 0.13714729 -0.06931487 -0.032975055 0.018676586 -0.20919566 -0.068496555
-0.23446128 0.032225743 -0.11768367 -0.027616914 0.021208063 -0.05661779 -0.17278725 -0.06582183
-0.031789005 0.13819753 0.13157648 0.085238606 -0.18892944 0.34409884 0.5201691 0.251478
-0.07837868 0.15704416 -0.02492926 0.04690158 0.18879654 0.0753252 -0.30950022 0.28407916
-0.47585878 0.030822182 -0.07333534 -0.048652753 0.004293222 0.12675622 -0.0349777 -0.0719248
-0.021351697 -0.18724717 0.07057447 -0.16600639 -0.13175094 0.011308052 0.037868403 -0.06938908
-0.00096256065 -0.6137646 -0.047348287 0.008908758 0.2264233 0.014171052 -0.038497422 -0.14177977
0.36682904 0.4042768 0.35969475 -0.108845666 0.06544916 -0.100972086 0.29223624 0.14696628
-0.22042397 0.33942047 -0.3550444 0.119310446 -0.10706371 -0.07298136 -0.008594123 0.08407967
0.07737839 0.022992311 0.028082555 -0.24752755 0.07294936 -0.24522462 -0.07715534 0.29780924
0.069134295 -0.17689413 0.28947937 -0.43901744 0.060619257 -0.048831612 -0.15159844 0.040014263
0.031016674 -0.08441017 -0.0078036254 -0.21521515 -0.5963799 0.0016161521 -0.13553783 -0.18751523
0.06955512 -0.054237932 -0.09909471 -0.13059525 -0.11213181 0.07200151 0.2739255 -0.007495842
-0.17552626 0.45761463 0.29430604 0.31549582 0.067812264 -0.06871319 -0.25583112 0.25126904
0.17281376 -0.22724196 0.3878724 -0.4701037 0.119254485 -0.106652625 -0.14158134 -0.025415976
0.037231304 -0.09180913 0.021026524 -0.038793497 -0.29811993 0.015313932 -0.07425638 0.07479534
-0.11007054 -0.17878911 0.026136607 -0.05445431 -0.14533398 -0.1368047 -0.12214755 -0.03291742
0.15581264 0.095138095 -0.10934453 0.30923742 0.37387842 0.42506132 -0.02087786 0.23146719
-0.0842876 -0.038722172 0.19158804 0.06092872 -0.21161363 0.33278534 -0.4335308 0.064288065
-0.058045145 -0.07433489 0.022266015 0.17359436 0.06199587 -0.0414701 0.011678807 -0.20676161
-0.02125888 -0.13539034 -0.09317102 -0.015911026 0.049960397 -0.13321082 -0.007835727 -0.46693084
-0.1931573 0.02783889 0.23682928 0.15152271 -0.012600284 -0.13783255 0.33623526 0.4129263
0.28728062 -0.09670142 0.06308827 -0.077782206 0.2407891 0.06522432 -0.19636105 0.30686563
-0.4331085 0.06613751 -0.12755108 0.09101228 -0.009416495 -0.027905695 0.099734075 0.06807594
-0.032545093 -0.18894799 0.066058196 -0.043993786 0.17528757 -0.2728381 0.036907207 -0.24258508
0.037828494 0.034808997 -0.017741116 0.08224966 0.16686314 0.05104757 -0.32845157 -0.31725568
0.24306683 -0.40193835 -0.37235728 -0.20622346 0.12437035 0.12812614 0.16819124 -0.28846997
00000000: eef3 58bd 3c12 833e 829f dc3d 544f 97be
00000010: 046d 8f3e c99d efbe 204d 113d bf3c ddbb
00000020: a8c8 eabd a048 9c3d e506 023e fb25 493d
00000030: 1b52 2d3c dd52 39be 4b43 23bf 09a3 f2bc
00000040: dcc0 2cbe d644 2abd 948d 063e 82a8 96bd
00000050: 3e99 4dbe ad4f 9bbd aecf 18be 27f5 283e
00000060: 380c 0f3e ccf6 2abd 466b 9abe 6cee a83e
00000070: 4617 083f 3e42 5b3e 74bd 7dbc 2388 aabd
00000080: bb09 95be b013 633e ae4b 9d3d ed23 45be
00000090: bc80 883e 0281 c9be e0c2 9fbb fa4a 88bd
000000a0: b926 d5bd 3a72 393d 5770 0c3e f4f4 8dbd
000000b0: da10 07bd a4ff 983c 6337 56be ec47 8cbd
000000c0: 9e16 70be 24ff 033d 2304 f1bd de3c e2bc
000000d0: 88bc ad3c 0ee8 67bd 24ef 30be 98cd 86bd
000000e0: 3035 02bd a783 0d3e fcbb 063e 9491 ae3d
000000f0: b876 41be b92d b03e cd29 053f b9c1 803e
00000100: 0085 a0bd 2fd0 203e 7338 ccbc df1b 403d
00000110: e153 413e 1944 9a3d d076 9ebe d372 913e
00000120: c3a3 f3be cd7e fc3c d730 96bd 1c48 47bd
00000130: 28ae 8c3b 62cc 013e c744 0fbd 4f4d 93bd
00000140: c1e9 aebc b9bd 3fbe 5989 903d 94fd 29be
00000150: b8e9 06be 6845 393c e61b 1b3d dd1b 8ebd
00000160: 5a54 7cba ad1f 1dbf 47f0 41bd 0af6 113c
00000170: 82db 673e b32d 683c 79af 1dbd b72e 11be
00000180: 04d1 bb3e 5efd ce3e e929 b83e 7aea debd
00000190: 360a 863d 74ca cebd fd9f 953e 547e 163e
000001a0: d2b6 61be 85c8 ad3e 61c8 b5be 0959 f43d
000001b0: 3844 dbbd 4077 95bd 5dce 0cbc f631 ac3d
000001c0: 9078 9e3d 5f5a bc3c 630d e63c dd77 7dbe
000001d0: 7966 953d 2a1c 7bbe 9e03 9ebd 747a 983e
000001e0: 4896 8d3d bc23 35be a436 943e e5c6 e0be
000001f0: e64b 783d a803 48bd 9f3c 1bbe ffe5 233d
00000200: ae16 fe3c 3ddf acbd 8eb5 ffbb 5c61 5cbe
00000210: 5aac 18bf 11d5 d33a 6eca 0abe fe03 40be
00000220: ea72 8e3d 9828 5ebd 2bf2 cabd c3ba 05be
00000230: 5da5 e5bd 8775 933d f73f 8c3e ae9f f5bb
00000240: 28bd 33be 774c ea3e 48af 963e ab88 a13e
00000250: 28e1 8a3d 80b9 8cbd 4cfc 82be 56a6 803e
00000260: 17f6 303e 1eb2 68be 3697 c63e 6fb1 f0be
00000270: b23b f43d b16c dabd b3fa 10be 2a35 d0bc
00000280: da7f 183d 6d06 bcbd d13f ac3c eee5 1ebd
00000290: 2da3 98be 49e7 7a3c bb13 98bd 4d2e 993d
000002a0: aa6c e1bd 7e14 37be 701c d63c 7c0b 5fbd
000002b0: 6ed2 14be 8816 0cbe 7f28 fabd 6bd4 06bd
000002c0: 598d 1f3e c3d7 c23d 06f0 dfbd 5e54 9e3e
000002d0: fe6c bf3e a3a1 d93e 0c08 abbc bc05 6d3e
000002e0: fa9e acbd 249b 1ebd a82f 443e 6590 793d
000002f0: 3eb1 58be d762 aa3e c0f7 ddbe 76a9 833d
00000300: bfc0 6dbd e43c 98bd 3867 b63c b8c2 313e
00000310: 62ef 7d3d 8ddc 29bd 7858 3f3c 51b9 53be
00000320: 1a27 aebc c4a3 0abe 73d0 bebd d757 82bc
00000330: 46a3 4c3d 6b68 08be 6c61 00bc 8f11 efbe
00000340: 07cb 45be 620e e43c 6083 723e c528 1b3e
00000350: 6c71 4ebc fa23 0dbe 0727 ac3e 136b d33e
00000360: 7216 933e 650b c6bd 6c34 813d 474c 9fbd
00000370: 6b91 763e 5494 853d df12 49be 7e1d 9d3e
00000380: 66c0 ddbe 1a73 873d c09c 02be a564 ba3d
00000390: a547 1abc 7c9a e4bc 6141 cc3d 666b 8b3d
000003a0: 014e 05bd 957b 41be 8549 873d d432 34bd
000003b0: 967e 333e 6fb1 8bbe 032c 173d 3968 78be
000003c0: 0df2 1a3d e193 0e3d d155 91bc 8272 a83d
000003d0: 2cde 2a3e 4217 513d ce2a a8be 566f a2be
000003e0: 83e6 783e ddca cdbe 9da5 bebe 3e2c 53be
000003f0: e2b5 fe3d 8033 033e 533a 2c3e 56b2 93be

input_layer.0.bias f4 [64]
1.5953763 2.5171204 0.05097071 0.8396925 -0.8653195 -0.24237642 0.35153282 0.10498361
-0.050387185 -0.21740735 0.30835503 0.40264833 0.26744744 0.13904522 -1.8661896 -0.26342192
0.4724486 0.5341418 -0.19181858 0.5685957 0.36059356 0.1003883 2.9030242 -0.93268096
0.62058896 0.278577 0.45279646 -0.082742296 0.2139157 -0.22741836 -0.7158388 0.12874486
0.85659975 -0.029296977 -0.34345582 -0.115600586 0.12129348 -0.15927103 0.7746305 -0.03686347
0.022493875 0.18913493 -0.35413715 -1.0700791 0.23221874 0.49822098 -0.6076067 1.1499445
0.4591218 0.16724697 -0.08396478 0.6026714 0.37233424 0.18811445 0.054938134 -0.22464871
-0.124101706 -0.037488446 0.15437913 -0.011679703 0.004406675 0.37034672 -0.02024052 -0.31099725
00000000: 4a35 cc3f 8018 2140 aac6 503d 16f6 563f
00000010: 9485 5dbf 8631 78be 1cfc b33e a601 d73d
00000020: cb62 4ebd 08a0 5ebe b6e0 9d3e ec27 ce3e
00000030: dfee 883e df61 0e3e 4ddf eebf 3ddf 86be
00000040: c8e4 f13e 84bd 083f 176c 44be 7d8f 113f
00000050: b89f b83e 6298 cd3d 26cb 3940 2ec4 6ebf
00000060: ebde 1e3f a5a1 8e3e f0d4 e73e cb74 a9bd
00000070: b80c 5b3e 5ce0 68be 3641 37bf b1d5 033e
00000080: 1f4a 5b3f 3700 f0bc 71d9 afbe 00c0 ecbd
00000090: b768 f83d f217 23be 2f4e 463f 26fe 16bd
000000a0: 1345 b83c 96ac 413e 7751 b5be 5af8 88bf
000000b0: c0ca 6d3e d216 ff3e 1d8c 1bbf 6231 933f
000000c0: 0312 eb3e ca42 2b3e baf5 abbd ac48 1a3f
000000d0: 98a2 be3e 13a1 403e cf06 613d 500a 66be
000000e0: 0929 febd 7c8d 19bd 9015 1e3e 3a5c 3fbc
000000f0: df65 903b 169e bd3e 72cf a5bc 083b 9fbe

input_layer.1.weight f4 [64]
21.173836 28.420593 11.359475 29.00398 25.430851 12.222145 20.490389 15.059149
13.164615 25.182325 13.997994 27.084295 29.694159 25.769915 27.540014 15.145556
29.327427 15.643141 11.151086 12.560272 17.856749 14.730787 27.181145 30.126293
16.22319 11.259845 14.642722 30.548126 11.316483 26.36405 22.644949 15.656886
22.31241 11.265159 30.296549 10.932139 11.544789 15.510873 16.633312 11.021878
11.436639 11.047871 16.652098 30.05851 12.811342 29.808474 30.550522 28.847252
26.690584 14.596611 14.545731 27.74008 16.378391 13.502271 13.509807 15.142682
19.250418 16.29601 30.121368 13.578394 15.9289875 10.922031 12.988632 13.00638
00000000: 0464 a941 605d e341 69c0 3541 2708 e841
00000010: 6272 cb41 e88d 4341 51ec a341 46f2 7041
00000020: 43a2 5241 6775 c941 c9f7 5f41 a3ac d841
00000030: a38d ed41 c928 ce41 f351 dc41 3354 7241
00000040: 929e ea41 4e4a 7a41 d96a 3241 e0f6 4841
00000050: 9fda 8e41 4eb1 6b41 fc72 d941 a602 f141
00000060: 18c9 8141 5328 3441 9748 6a41 9062 f441
00000070: 5010 3541 93e9 d241 db28 b541 9b82 7a41
00000080: d17f b241 173e 3441 555f f241 0bea 2e41
00000090: 75b7 3841 892c 7841 0611 8541 9d59 3041
000000a0: 79fc 3641 14c4 3041 7f37 8541 d477 f041
000000b0: 42fb 4c41 c177 ee41 7867 f441 2cc7 e641
000000c0: 5186 d541 b88b 6941 50bb 6841 afeb dd41
000000d0: f206 8341 4d09 5841 2b28 5841 6d48 7241
000000e0: db00 9a41 3a5e 8241 90f8 f041 1a41 5941
000000f0: 22dd 7e41 a4c0 2e41 70d1 4f41 221a 5041

input_layer.1.bias f4 [64]
28.255716 30.13758 23.587023 30.198997 29.760927 22.994953 27.782679 25.404503
24.185888 29.179554 25.110529 29.90805 30.32134 29.31478 30.003687 26.274954
30.415956 27.125578 23.315134 23.47399 26.975 25.591448 30.132374 30.208784
26.99169 22.733656 24.171738 30.214674 23.455256 30.014065 28.949324 26.341726
28.989399 23.590435 30.331953 22.916208 21.69192 26.758114 27.185709 23.209135
23.368649 22.72106 27.108707 30.310966 24.031202 30.353874 30.3024 30.108198
29.206503 25.233723 26.953243 29.99911 27.147556 23.57579 24.993637 26.547068
27.700146 27.091785 30.168701 24.616053 26.140467 22.281666 23.7414 24.063044
00000000: b50b e241 c419 f141 39b2 bc41 8c97 f141
00000010: 6116 ee41 aaf5 b741 ed42 de41 6c3c cb41
00000020: b37c c141 ba6f e941 5de2 c841 b043 ef41
00000030: 1b92 f241 ab84 ea41 8d07 f041 1b33 d241
00000040: e153 f341 2f01 d941 6585 ba41 bbca bb41
00000050: cdcc d741 49bb cc41 1a0f f141 97ab f141
00000060: fbee d741 87de b541 b85f c141 a7b7 f141
00000070: 5da4 bb41 ce1c f041 3798 e741 dbbb d241
00000080: 4aea e741 36b9 bc41 d7a7 f241 6554 b741
00000090: 0d89 ad41 9e10 d641 557c d941 4fac b941
000000a0: fef2 ba41 bbc4 b541 a2de d841 dc7c f241
000000b0: e73f c041 bcd4 f241 516b f241 97dd f041
000000c0: eba6 e941 aade c941 3ea0 d741 2dfe ef41
000000d0: 322e d941 389b bc41 f8f2 c741 6560 d441
000000e0: e699 dd41 fabb d841 8059 f141 aded c441
000000f0: ad1f d141 da40 b241 63ee bd41 1d81 c041

input_layer.1.running_mean f4 [64]
1.5595733 2.5005598 0.018166168 0.84368956 -0.9024698 -0.3538594 0.41571835 0.1391383
-0.14880043 -0.16384542 0.2340705 0.39129978 0.2777004 0.18212622 -1.8854461 -0.3346082
0.5170938 0.46141005 -0.22245021 0.6082343 0.39252394 0.13283406 2.900914 -0.90217346
0.67056257 0.25219658 0.4364079 -0.040101767 0.18766747 -0.19993661 -0.71969926 0.043999705
0.83603364 -0.059752427 -0.30069986 -0.1444695 0.099701114 -0.22814164 0.8161868 -0.06836178
-0.0048704175 0.15919505 -0.3083862 -1.0753348 0.27297938 0.51159495 -0.5803527 1.1482124
0.5049948 0.20598501 -0.22625145 0.6046415 0.4340681 0.10773391 0.035958603 -0.2797181
-0.16668893 0.02612767 0.19272363 -0.1138422 -0.09960377 0.34326378 0.019594608 -0.2603069
00000000: 19a0 c73f 2c09 2040 37d1 943c 0afc 573f
00000010: 4308 67bf 0f2d b5be 09d9 d43e 457a 0e3e
00000020: 245f 18be 18c7 27be 2db0 6f3e 7258 c83e
00000030: bf2e 8e3e 4c7f 3a3e 4c56 f1bf c451 abbe
00000040: 4260 043f f03d ec3e fdc9 63be 3eb5 1b3f
00000050: e6f8 c83e a705 083e 93a8 3940 d7f4 66bf
00000060: fda9 2b3f e91f 813e db70 df3e c041 24bd
00000070: e72b 403e 2fbc 4cbe 363e 38bf 0939 343d
00000080: 4d06 563f f6be 74bd 55f5 99be d0ef 13be
00000090: 1930 cc3d f69d 69be 9ef1 503f 4301 8cbd
000000a0: 0698 9fbb 0704 233e cce4 9dbe 92a4 89bf
000000b0: f4c3 8b3e e3f7 023f ff91 14bf a0f8 923f
000000c0: 5747 013f bced 523e 76ae 67be c9c9 1a3f
000000d0: 2d3e de3e 99a3 dc3d 5449 133d 3637 8fbe
000000e0: 81b0 2abe b209 d63c 5859 453e 1926 e9bd
000000f0: 10fd cbbd 45c0 af3e df84 a03c f246 85be

input_layer.1.running_var f4 [64]
4.300618 1.656081 27.193947 8.195434 5.2542663 26.693413 17.118408 32.006603
22.578035 10.666438 14.353539 12.073091 7.213409 9.378398 1.8999963 11.969423
17.56869 14.099385 26.95273 23.818268 26.102753 26.338 0.95893556 7.531352
17.914917 27.942888 28.326265 6.86715 26.791603 11.141059 18.474995 17.974693
1.9646522 26.491724 5.171923 27.0784 32.298847 11.4332075 13.871493 27.38911
27.647997 28.302338 18.112465 5.6870646 23.174356 7.9278674 5.5087523 7.806755
8.830421 28.571962 53.17918 13.302455 24.90358 18.226456 26.694866 8.493573
4.974512 23.360315 7.0434866 26.099821 25.10536 28.79819 24.016762 22.249071
00000000: aa9e 8940 76fa d33f 348d d941 7f20 0341
00000010: f322 a840 1c8c d541 80f2 8841 c306 0042
00000020: d19f b441 bba9 2a41 19a8 6541 612b 4141
00000030: 3fd4 e640 eb0d 1641 1433 f33f c282 3f41
00000040: ad8c 8c41 1597 6141 319f d741 d08b be41
00000050: 70d2 d041 39b4 d241 cd7c 753f d600 f140
00000060: c051 8f41 098b df41 319c e241 b1bf db40
00000070: 3455 d641 c741 3241 cacc 9341 2ccc 8f41
00000080: b979 fb3f 0def d341 6580 a540 90a0 d841
00000090: 0532 0142 6bee 3641 a3f1 5d41 e61c db41
000000a0: 192f dd41 306b e241 54e6 9041 6ffc b540
000000b0: 1565 b941 17b1 fd40 b347 b040 f0d0 f940
000000c0: 6849 0d41 6193 e441 7bb7 5442 dbd6 5441
000000d0: 883a c741 c8cf 9141 168f d541 ade5 0741
000000e0: 342f 9f40 ede1 ba41 3e64 e140 6fcc d041
000000f0: c7d7 c841 b162 e641 5422 c041 19fe b141

res_blocks.0.linear1.weight f4 [64, 64]
0.01731077 -0.12647794 0.13969886 -0.0053503052 -0.141845 -0.2154164 -0.31540313 -0.28820622
-0.046612907 -0.3845498 -0.17979914 0.1464055 0.06362802 -0.14832853 -0.20669356 -0.022032844
-0.5635452 -0.11273933 0.09648214 -0.07142115 -0.22394754 -0.14100671 -0.08540736 -0.15788315
-0.5518098 0.09731787 0.033146933 -0.2207925 0.07993521 -0.63093394 0.07953951 -0.04345207
0.056911267 0.09755698 -0.13284755 0.032183357 0.12571889 -0.1347865 -0.49704036 0.037921734
-0.0030705945 0.085260086 -0.7173847 0.025765553 -0.068908915 -0.06623326 -0.161613 -0.07298825
0.05065452 -0.11462025 -0.25023374 0.07573194 -0.4212024 -0.16235262 0.04434728 -0.05577765
-0.12017453 -0.300167 -0.20366518 -0.10206569 0.0034647675 0.109198675 -0.100906745 -0.1565718
-0.33387986 -0.3030763 0.185023 0.18318923 -0.25431672 -0.1543489 0.025307858 0.10481992
-0.16716199 -0.10189562 -0.3134812 0.31559956 -0.014046277 -0.029698694 -0.26220882 -0.19543505
-0.19826905 -0.04609215 0.06436341 -0.0528451 -0.10203775 -0.010896059 -0.35713172 -0.043816607
-0.43503585 0.09545497 0.25523564 -0.022878943 0.1807931 -0.34519753 -0.035613477 -0.067240134
-0.34558597 0.14630514 -0.10414818 0.25711128 0.15414183 -0.13320076 -0.6208685 0.35181093
0.18816018 0.2566063 -0.33197975 0.22346376 0.0766536 -0.2332466 0.05743325 -0.07689923
0.07948297 0.07513603 -0.15679848 0.12954114 -0.52833736 -0.09955736 0.21923555 -0.3155746
-0.38102537 -0.34039235 0.11135904 -0.28172785 -0.14385827 0.19695982 0.09085908 0.09027691
0.31608963 -0.024677582 0.11422984 -0.013465857 0.08540623 -0.23987962 0.088612415 0.08405965
-0.3290683 -0.011333848 -0.2884579 0.08499058 -0.06996259 -0.20306166 -0.057202715 -1.1748883
0.17439374 -1.2915359 0.07369287 -0.17663999 -0.064813435 -0.09342378 0.0642754 0.08968545
-0.03145053 -0.1435256 0.064308465 0.016022988 0.10052649 0.26844928 0.07649672 -0.95491
0.072441615 0.13087875 -0.09488065 -0.11778715 -0.13353534 -0.35377207 0.05403037 0.10453041
-0.06952957 -0.03857776 0.10490619 0.029848948 -0.109036475 0.11231555 0.049718425 0.18292896
0.12957847 -0.1852922 -0.3939413 0.12445346 -0.019052638 0.19641015 0.05990991 -0.24743189
0.018157762 0.10441791 -0.016756117 -0.40551782 -0.745089 -0.00075547287 0.070467986 -0.087957755
0.16888317 0.036481135 -0.021474058 0.15985234 0.17902468 -0.91306955 -0.12720616 -0.0374587
-0.83185303 -0.0491397 -1.155904 -0.012866988 0.1623056 0.005076869 -0.039371237 -0.14646251
0.07799626 -0.13552897 -0.036016464 0.06938801 0.01258145 0.035527524 0.009307588 0.05699871
0.09498282 0.08807202 -0.017511562 -0.031089136 -0.09926488 0.07647981 -0.10479454 -0.282683
-0.024063295 0.069398366 -0.048247192 -0.07906769 0.06469865 -1.0330685 0.068941206 -0.031555686
-0.060766365 -0.0028840152 0.087529704 0.019012334 -0.036572035 0.04404257 -0.10811388 0.07396499
-0.011182266 -0.046561994 -0.64553475 0.10748116 0.10223256 -0.78486687 -0.04411016 -1.1539625
-0.065630004 0.04877041 -0.07946719 -0.98732805 -0.7219574 0.12774996 -0.0046363096 -0.08609067
00000000: 51cf 8d3c 6f83 01be 380d 0f3e 9d51 afbb
00000010: d13f 11be 1e96 5cbe 857c a1be c48f 93be
00000020: 2ded 3ebd b6e3 c4be 441d 38be 53eb 153e
00000030: 684f 823d 6fe3 17be 7aa7 53be 397e b4bc
00000040: 8044 10bf e1e3 e6bd 6e98 c53d 4045 92bd
00000050: 8152 65be 1064 10be 0eea aebd 1fac 21be
00000060: 6843 0dbf 974e c73d 14c5 073d 6e17 62be
00000070: 12b5 a33d e384 21bf 9ce5 a23d ccfa 31bd
00000080: ca1b 693d f4cb c73d 3009 08be b2d2 033d
00000090: 74bc 003e 7905 0abe 137c febe d253 1b3d
000000a0: 073c 49bb d79c ae3d 86a6 37bf 4812 d33c
000000b0: 1e20 8dbd 4ea5 87bd e17d 25be dd7a 95bd
000000c0: 1d7b 4f3d 06be eabd a31e 80be 5919 9b3d
000000d0: d7a7 d7be c43f 26be 7ea5 353d 1b77 64bd
000000e0: 101e f6bd 7daf 99be 9b8d 50be d107 d1bd
000000f0: 2711 633b 8ea3 df3d 32a8 cebd 5c54 20be
00000100: 4df2 aabe d12c 9bbe ab76 3d3e f595 3b3e
00000110: cd35 82be a30d 1ebe 6d52 cf3c d4ab d63d
00000120: 832c 2bbe a7ae d0bd 9c80 a0be 4496 a13e
00000130: 5b22 66bc ad4a f3bc 3c40 86be 2020 48be
00000140: 0b07 4bbe 1fcb 3cbd f7d0 833d 1b74 58bd
00000150: 2bf9 d0bd 6285 32bc f8d9 b6be 0b79 33bd
00000160: 05bd debe e57d c33d 3fae 823e 9f6c bbbc
00000170: d421 393e bbbd b0be 70df 11bd 32b5 89bd
00000180: a5f0 b0be 04d1 153e a44b d5bd 17a4 833e
00000190: 5bd7 1d3e c865 08be 3df1 1ebf 9020 b43e
000001a0: 10ad 403e e761 833e 40f9 a9be afd3 643e
000001b0: 90fc 9c3d 32d8 6ebe 213f 6b3d 587d 9dbd
000001c0: f8c7 a23d ebe0 993d c88f 20be 6fa6 043e
000001d0: 1e41 07bf bbe4 cbbd 497f 603e fe92 a1be
000001e0: c215 c3be e847 aebe 3510 e43d a23e 90be
000001f0: 954f 13be d6af 493e 5314 ba3d 1ae3 b83d
00000200: 80d6 a13e a428 cabc 56f1 e93d e69f 5cbc
00000210: 76e9 ae3d 01a3 75be 6d7a b53d 7727 ac3d
00000220: a47b a8be 9bb1 39bc c1b0 93be 8b0f ae3d
00000230: 8c48 8fbd 65ef 4fbe 654d 6abd bd62 96bf
00000240: 4694 323e 0c51 a5bf 4aec 963d 1de1 34be
00000250: e8bc 84bd f754 bfbd d2a2 833d 01ad b73d
00000260: 45d2 00bd 60f8 12be 28b4 833d a442 833c
00000270: d5e0 cd3d 2f72 893e 50aa 9c3d fb74 74bf
00000280: 455c 943d 1405 063e c950 c2bd 643a f1bd
00000290: 7dbd 08be 9d21 b5be f34e 5d3d 0a14 d63d
000002a0: 8565 8ebd b703 1ebd 0ed9 d63d c885 f43c
000002b0: 844e dfbd b205 e63d 8ca5 4b3d bb51 3b3e
000002c0: 38b0 043e 3dbd 3dbe adb2 c9be 75e1 fe3d
000002d0: 4714 9cbc be1f 493e 1864 753d c95e 7dbe
000002e0: 96bf 943c 0fd9 d53d 2044 89bc 08a0 cfbe
000002f0: 27be 3ebf ed0a 46ba 8551 903d 3223 b4bd
00000300: b6ef 2c3e 3e6d 153d 5dea afbc 55b0 233e
00000310: 3f52 373e edbe 69bf 5542 02be 4b6e 19bd
00000320: 52f4 54bf b646 49bd aaf4 93bf 0fd0 52bc
00000330: 7033 263e dd5b a63b bc43 21bd 45fa 15be
00000340: 81bc 9f3d 1bc8 0abe 0086 13bd 4d1b 8e3d
00000350: 6d22 4e3c 4f85 113d db7e 183c 7b77 693d
00000360: 5a86 c23d 1a5f b43d 6874 8fbc a5ae febc
00000370: 634b cbbd 72a1 9c3d 859e d6bd d4bb 90be
00000380: 6320 c5bc bb20 8e3d d99e 45bd 3eee a1bd
00000390: ba80 843d 973b 84bf 0c31 8d3d 8940 01bd
000003a0: 27e6 78bd bf01 3dbb c642 b33d c1bf 9b3c
000003b0: 8fcc 15bd fb65 343d cf6a ddbd f57a 973d
000003c0: d335 37bc cab7 3ebd c441 25bf 151f dc3d
000003d0: 4e5f d13d 09ed 48bf dbac 34bd 0bb5 93bf
000003e0: 0669 86bd 7bc3 473d b2bf a2bd 88c1 7cbf
000003f0: 33d2 38bf e3d0 023e 2fec 97bb 4e50 b0bd

res_blocks.0.linear1.bias f4 [64]
-0.013441911 -0.35231787 0.4610525 -0.100651845 -0.20929979 0.1305369 0.290092 -0.01922632
0.22012088 -0.061910506 0.20377372 -0.1807624 0.22684152 0.09313427 -0.24300534 0.38150105
-0.0017896072 0.28407976 0.027384302 0.061391953 -0.117426254 0.16507763 -0.06883542 -0.18107416
-0.21143109 0.112220354 0.41738656 -0.032871194 -0.0013919498 0.010414114 -0.024781829 0.26306376
0.26365268 -0.24446324 -0.105977274 0.12780389 -0.29409355 -0.07587201 0.23661958 -0.058312155
-0.035174634 -0.062357597 0.032890733 -0.07033904 0.07488581 -0.35492894 0.17866582 0.31672582
0.3252482 -0.050963674 -0.26141793 0.09814475 -0.012643659 -0.45446694 0.017668692 0.33697805
0.42210367 0.043778222 0.04349075 -0.09114181 0.042257857 -0.39176157 0.24227838 0.17024761
00000000: 763b 5cbc 0263 b4be 130f ec3e 8e22 cebd
00000010: af52 56be 77ab 053e f086 943e 8480 9dbc
00000020: 5e67 613e df95 7dbd 0faa 503e c719 39be
00000030: 2549 683e 2ebd be3d 64d6 78be 1b54 c33e
00000040: 4191 eaba e772 913e 0b55 e03c 2176 7b3d
00000050: 2d7d f0bd 1c0a 293e 96f9 8cbd 816b 39be
00000060: 6481 58be c9d3 e53d b1b3 d53e f2a3 06bd
00000070: 1672 b6ba f69f 2a3c 4303 cbbc 4bb0 863e
00000080: 7cfd 863e 9254 7abe 9d0a d9bd 06df 023e
00000090: 6e93 96be c962 9bbd 674c 723e bad8 6ebd
000000a0: 4713 10bd ae6a 7fbd 6fb8 063d ea0d 90bd
000000b0: bb5d 993d 3fb9 b5be 2cf4 363e e329 a23e
000000c0: ef86 a63e 49bf 50bd 92d8 85be 1d00 c93d
000000d0: 5927 4fbc e4af e8be efbd 903c 6388 ac3e
000000e0: f91d d83e cb50 333d 5b23 323d 8fa8 babd
000000f0: 9316 2d3d f994 c8be d317 783e 6455 2e3e

res_blocks.0.bn1.weight f4 [64]
0.28399435 0.27020872 0.54994994 0.4064344 0.4082791 0.6756355 0.45204407 0.56774646
0.19953999 0.1359816 0.6382583 0.4781313 0.32417476 0.67406666 0.60337925 0.5120509
0.65802556 0.2095655 0.80007064 0.57836044 0.5601899 0.7074005 0.7171457 0.6558887
0.6883037 0.6333293 0.48865455 0.65089667 0.45555526 0.57438964 0.6348591 0.5315613
0.5307526 0.47276425 0.79346645 0.10855925 0.7458338 0.462809 0.12152619 0.5359683
0.72497535 0.46944574 0.1659441 0.66087747 0.6936281 0.35969922 0.69805104 0.6391351
0.7505349 0.6992469 0.37639508 0.54494643 0.7714929 0.7263557 0.27167523 0.6217384
0.2988697 0.5098271 0.059430216 0.57736015 0.5356323 0.589157 0.50674033 0.31658852
00000000: b567 913e cc58 8a3e 85c9 0c3f 2b18 d03e
00000010: f509 d13e 73f6 2c3f 5272 e73e d557 113f
00000020: 3654 4c3e c33e 0b3e e564 233f a0cd f43e
00000030: 3cfa a53e a28f 2c3f 1077 1a3f c515 033f
00000040: 5d74 283f 5798 563e 6ed1 4c3f 6e0f 143f
00000050: 9b68 0f3f 3318 353f dc96 373f 52e8 273f
00000060: ac34 303f de21 223f ee30 fa3e 2aa1 263f
00000070: 8a3e e93e 330b 133f 2086 223f 6714 083f
00000080: 67df 073f 280e f23e 9e20 4b3f 5054 de3d
00000090: f7ee 3e3f 4df5 ec3e b9e2 f83d 3835 093f
000000a0: fc97 393f 315b f03e 40ed 293e 442f 293f
000000b0: 9c91 313f 7f2a b83e 79b3 323f 5c9e 233f
000000c0: 0e23 403f d801 333f dbb6 c03e 9c81 0b3f
000000d0: 8f80 453f 72f2 393f 0419 8b3e 3f2a 1f3f
000000e0: 7305 993e 0784 023f 196d 733d e0cd 133f
000000f0: 331f 093f fed2 163f bcb9 013f e417 a23e

res_blocks.0.bn1.bias f4 [64]
-0.5241615 -0.32462823 -0.66480327 -0.48015368 -0.63927543 -0.97326285 -0.7327991 -0.70762867
-0.44733435 -0.42856565 -0.6777046 -0.76628476 -0.46844032 -0.72999376 -0.86018777 -0.69326
-0.8839284 -0.50506496 -0.97592396 -0.8430709 -0.6813233 -0.88902205 -0.9026886 -0.95475054
-0.8306907 -0.92502314 -0.7085299 -0.8019825 -0.6863394 -0.5947351 -0.6961855 -0.63424104
-0.827843 -1.0531101 -0.8522178 0.111422405 -1.0210208 -0.7514343 -0.49538955 -0.5653208
-0.96440685 -0.74330497 -0.5017206 -0.71792775 -0.73840916 -0.42110288 -0.7520349 -0.8132606
-0.9851517 -0.77265495 -0.7533952 -0.8456209 -0.83568364 -0.7759208 -0.57124126 -0.8366835
-0.61044407 -0.520326 -0.2629229 -0.80961245 -0.8497908 -0.60502976 -0.8263094 -0.5367907
00000000: 732f 06bf ac35 a6be 8c30 2abf b4d6 f5be
00000010: 8ea7 23bf c127 79bf b998 3bbf 2727 35bf
00000020: 0209 e5be f56c dbbe 0c7e 2dbf 3d2b 44bf
00000030: 69d7 efbe dfe0 3abf 4435 5cbf 7d79 31bf
00000040: 2249 62bf f04b 01bf 27d6 79bf 7fd3 57bf
00000050: 346b 2ebf f396 63bf 9a16 67bf 886a 74bf
00000060: 25a8 54bf 51ce 6cbf 3762 35bf ba4e 4dbf
00000070: f0b3 2fbf 8f40 18bf 3739 32bf 9f5d 22bf
00000080: 85ed 53bf 50cc 86bf f22a 5abf 6e31 e43d
00000090: cfb0 82bf 005e 40bf b3a3 fdbe ddb8 10bf
000000a0: 5ee3 76bf 3c49 3ebf c370 00bf 1dca 37bf
000000b0: 6208 3dbf cc9a d7be 5c85 40bf d931 50bf
000000c0: e732 7cbf b7cc 45bf 82de 40bf 9c7a 58bf
000000d0: 5def 55bf bfa2 46bf de3c 12bf e430 56bf
000000e0: 1046 1cbf 1634 05bf d59d 86be c342 4fbf
000000f0: e48b 59bf 3be3 1abf 0389 53bf 1e6b 09bf

res_blocks.0.bn1.running_mean f4 [64]
-218.6983 -121.657585 -119.00875 -198.98383 -98.89075 -378.17822 -293.81558 -211.74026
-257.2007 -165.36613 -232.9074 -79.216545 -96.81918 -217.4981 -207.74417 -271.53043
-184.06953 -132.04988 -247.25157 -374.38266 -165.67493 -241.31375 -248.4039 -357.73413
-169.07365 -364.17255 -211.56166 -206.57802 -142.91457 -230.91385 -234.8006 -147.05678
-133.87474 -26.428102 -233.93282 -160.4969 -162.35446 -269.379 -53.5809 -115.49355
-279.0586 -109.80652 -220.16313 -239.05186 -218.69458 -36.194878 -240.45483 -259.95114
-297.71902 -279.74545 -14.073054 -188.35272 -248.66792 -221.87215 -154.60007 -343.3559
-210.31349 -270.52417 -73.90834 -238.12451 -362.88763 -232.7643 -207.31706 -188.38902
00000000: c4b2 5ac3 af50 f3c2 7b04 eec2 dcfb 46c3
00000010: 10c8 c5c2 d016 bdc3 65e8 92c3 82bd 53c3
00000020: b199 80c3 bb5d 25c3 4be8 68c3 df6e 9ec2
00000030: 6ca3 c1c2 837f 59c3 82be 4fc3 e5c3 87c3
00000040: cd11 38c3 c50c 04c3 6740 77c3 fb30 bbc3
00000050: c8ac 25c3 5250 71c3 6667 78c3 f8dd b2c3
00000060: db12 29c3 1616 b6c3 c98f 53c3 f993 4ec3
00000070: 21ea 0ec3 f2e9 66c3 f4cc 6ac3 890e 13c3
00000080: efdf 05c3 c16c d3c1 cdee 69c3 357f 20c3
00000090: be5a 22c3 83b0 86c3 d752 56c2 b3fc e6c2
000000a0: 8087 8bc3 f09c dbc2 c329 5cc3 470d 6fc3
000000b0: d0b1 5ac3 8ec7 10c2 7074 70c3 bff9 81c3
000000c0: 09dc 94c3 6bdf 8bc3 3b2b 61c1 4c5a 3cc3
000000d0: fdaa 78c3 45df 5dc3 9e99 1ac3 8ead abc3
000000e0: 4150 52c3 1843 87c3 12d1 93c2 e01f 6ec3
000000f0: 9e71 b5c3 a9c3 68c3 2b51 4fc3 9763 3cc3

res_blocks.0.bn1.running_var f4 [64]
5557.511 10198.329 9026.177 15322.749 1835.7269 28923.424 18929.965 26438.807
3815.7502 4597.5225 33947.645 9635.169 9164.292 31900.363 32051.564 9578.688
17803.035 7371.3926 20533.434 26364.637 13816.826 19167.268 20726.629 30676.127
17253.97 28479.37 15106.916 24491.678 10838.334 26411.883 32975.734 12550.741
8364.447 7636.1675 31061.234 1501.5134 14150.4375 17821.838 5674.414 7686.047
18214.805 9648.329 4838.1777 33176.777 28283.795 5509.986 34635.16 20085.713
21338.16 11342.646 3661.2273 5868.1216 37174.3 32206.402 5918.45 25100.1
2279.2288 22954.395 4502.4062 13174.223 22883.041 30395.428 8453.654 6069.4253
00000000: 17ac ad45 5159 1f46 b508 0d46 ff6a 6f46
00000010: 4377 e544 d9f6 e146 eee3 9346 9d8d ce46
00000020: 017c 6e45 2eac 8f45 a59b 0447 ad8c 1646
00000030: 2b31 0f46 ba38 f946 2167 fa46 c1aa 1546
00000040: 1216 8b46 245b e645 de6a a046 46f9 cd46
00000050: 4ee3 5746 89be 9546 42ed a146 41a8 ef46
00000060: f1cb 8646 bd7e de46 aa0b 6c46 5b57 bf46
00000070: 5659 2946 c457 ce46 bccf 0047 f71a 4446
00000080: cab1 0246 57a1 ee45 78aa f246 6eb0 bb44
00000090: c019 5d46 ad3b 8b46 5053 b145 6030 f045
000000a0: 9c4d 8e46 51c1 1646 6c31 9745 c798 0147
000000b0: 97f7 dc46 e32f ac45 294b 0747 6deb 9c46
000000c0: 52b4 a646 963a 3146 a3d3 6445 f960 b745
000000d0: 4d36 1147 ce9c fb46 9af3 b845 3318 c446
000000e0: a973 0e45 ca54 b346 40b3 8c45 e4d8 4d46
000000f0: 15c6 b246 db76 ed46 9e16 0446 67ab bd45

res_blocks.0.linear2.weight f4 [64, 64]
-0.007975724 -0.0460149 -0.022668414 0.51508904 0.0020004252 0.024166461 -0.23199551 0.9537736
-0.0020133099 -0.11863995 -1.4224222 -0.041887563 -0.38084182 -0.5035793 0.15623586 0.03274187
0.011270609 -0.0478244 0.14505509 0.12332791 0.10863445 0.006194137 0.066250324 0.06396117
1.4638437 0.11055034 -0.22793676 0.5628614 -0.05640376 -0.4378769 0.21812774 1.1032987
0.005166569 -0.081918254 -0.1770485 0.07748096 0.036062226 -0.18486547 -0.019242961 0.11213913
0.0146038225 -0.15023598 0.028225843 0.014728762 -0.12524913 -0.23436235 -0.4615562 0.036483787
0.043516397 0.13526788 0.0398133 -0.06607492 -0.08630667 -0.6961013 0.07406405 0.087295406
0.010522521 -0.19895853 0.0018987799 -0.015138341 -0.05031857 -0.4804348 -0.08374709 -0.07723175
0.004624723 -0.027687922 -0.070880726 0.52184033 -0.00040613097 0.025406215 -0.2610594 0.9809554
0.011814943 -0.09759011 -1.479512 -0.035765283 -0.48238856 -0.43639636 0.28153157 0.04213164
0.02359679 -0.06682602 0.1704174 0.1193562 0.11281297 0.04382405 0.0042844517 0.10808635
1.5058663 0.031187782 -0.25659776 0.62392664 -0.046469677 -0.3471963 0.14341854 1.1769024
-0.011824365 -0.097419865 -0.18108197 0.0658367 0.033544242 -0.21745194 -0.04256567 0.1566784
0.010075178 -0.16567439 0.052766044 0.05452642 -0.17767614 -0.27742425 -0.49182633 0.045293204
0.06735972 0.15065743 0.046330597 -0.079554304 -0.09903939 -0.71666056 0.070132464 0.10667056
0.06999719 -0.28349155 0.016083192 -0.039876856 -0.046349622 -0.5453904 -0.09326458 -0.089798935
-0.003670024 -0.024944026 -0.14925218 -0.12991418 0.002519145 -0.96929574 0.61198586 -0.2102367
-0.0080166655 -0.045271486 0.037871126 -0.037669 -0.049211264 -0.012414807 0.011175536 0.063867465
0.05747565 0.061186846 0.14139791 -0.43126476 0.06921556 -0.028059376 0.025259899 -0.62898964
-0.121147975 -0.48170385 -0.21524733 -0.17767288 -0.07266882 0.1362583 -0.06949463 -0.09918491
-0.047488183 0.0060928315 0.029629134 0.06441144 0.059659652 0.6562313 0.002974637 0.11638782
0.0044689663 -0.15902996 -0.01930376 0.137972 0.06929765 -0.11252572 0.08564927 0.013840017
0.08623964 0.10123482 -0.0763519 0.92690104 0.019194983 0.014919437 -0.051499873 -0.46486205
0.013658483 0.11774636 0.091039084 -0.06788319 0.3062904 0.15630545 -0.08851387 0.32203725
-0.013392577 -0.036408477 -0.13208136 -0.11983072 -0.010471653 -0.72269607 1.9749318 -0.16596268
-0.0009996685 -0.06747416 0.06797986 -0.043109827 -0.06940845 0.017708851 -0.0035725294 0.09180895
0.043826886 -0.029298112 0.11725882 -0.63434476 0.10087468 0.05372194 0.087646805 -0.56416196
-0.12034266 -0.57012 -0.22112553 -0.19164792 -0.10030506 0.08113948 -0.023248235 -0.08076189
-0.020718822 -0.13902897 0.009166393 0.07132263 0.03123875 1.1195557 0.06043247 0.019626679
0.03129306 -0.12096275 0.00043551964 0.015592976 0.07970795 -0.08318517 0.1646561 -0.058032453
0.05866787 -0.1822422 0.04191879 0.76166034 0.18134536 -0.0499136 0.042962402 -0.78795856
0.017617673 0.11950447 0.026141984 -0.050367918 0.28776994 0.10300789 -0.097822405 -0.29453886
00000000: 9cac 02bc 1f7a 3cbd 1cb3 b9bc e0dc 033f
00000010: 9119 033b bef8 c53c 3b90 6dbe 822a 743f
00000020: bcf1 03bb 81f9 f2bd ee11 b6bf 4b92 2bbd
00000030: b3fd c2be 93ea 00bf 4bfc 1f3e 571c 063d
00000040: 5ca8 383c 85e3 43bd 5289 143e 5893 fc3d
00000050: bd7b de3d 30f8 ca3b 40ae 873d 13fe 823d
00000060: 3b5f bb3f 3768 e23d 4168 69be af17 103f
00000070: a107 67bd 6731 e0be e15c 5f3e e438 8d3f
00000080: 524c a93b c2c4 a7bd 344c 35be 56ae 9e3d
00000090: fcb5 133d 604d 3dbe 6aa3 9dbc 33a9 e53d
000000a0: df44 6f3c 76d7 19be e239 e73c e850 713c
000000b0: 4f41 00be affc 6fbe 1851 ecbe 0670 153d
000000c0: 403e 323d aa83 0a3e 4513 233d 4a52 87bd
000000d0: 8dc1 b0bd b233 32bf e5ae 973d efc7 b23d
000000e0: a766 2c3c c9bb 4bbe 7be0 f83a ce06 78bc
000000f0: d81a 4ebd 8dfb f5be 9883 abbd ae2b 9ebd
00000100: fd8a 973b c8d1 e2bc ea29 91bd 5497 053f
00000110: faed d4b9 b220 d03c 94a9 85be e51f 7b3f
00000120: 7693 413c 53dd c7bd a660 bdbf 9e7e 12bd
00000130: a2fb f6be 586f dfbe e824 903e 3a92 2c3d
00000140: 0e4e c13c 15dc 88bd e681 2e3e 0671 f43d
00000150: 7d0a e73d d980 333d 9664 8c3b 605c dd3d
00000160: 3ac0 c03f 857d ff3c c860 83be a8b9 1f3f
00000170: fd56 3ebd b7c3 b1be 4fdc 123e bda4 963f
00000180: fbba 41bc 1184 c7bd 8d6d 39be 64d5 863d
00000190: b065 093d b9ab 5ebe 5759 2ebd 4d70 203e
000001a0: 5c12 253c 8ca6 29be 3521 583d 1857 5f3d
000001b0: bcf0 35be 8d0a 8ebe a9d0 fbbe 5e85 393d
000001c0: e5f3 893d f145 1a3e 27c5 3d3d 5eed a2bd
000001d0: 2ad5 cabd 1177 37bf 9ca1 8f3d 1876 da3d
000001e0: b05a 8f3d ce25 91be e6c0 833c ea55 23bd
000001f0: 1ad9 3dbd b59e 0bbf 8001 bfbd 81e8 b7bd
00000200: c984 70bb 6a57 ccbc 90d5 18be 3908 05be
00000210: 3d18 253b c423 78bf 1bab 1c3f 4a48 57be
00000220: 5558 03bc 986e 39bd c11e 1b3d cf4a 1abd
00000230: c091 49bd 7a67 4bbc 9819 373c f2cc 823d
00000240: 966b 6b3d 0f9f 7a3d 9dca 103e bcce dcbe
00000250: e3c0 8d3d c7dc e5bc d9ed ce3c 7705 21bf
00000260: 6e1c f8bd e3a1 f6be cc69 5cbe e1ef 35be
00000270: 64d3 94bd 4c87 0b3e 3353 8ebd 7521 cbbd
00000280: f882 42bd 60a6 c73b ccb8 f23c 25ea 833d
00000290: ae5d 743d c6fe 273f 21f2 423b bd5c ee3d
000002a0: 6870 923b c0d8 22be eb22 9ebc 8848 0d3e
000002b0: edeb 8d3d e273 e6bd e268 af3d 3dc1 623c
000002c0: 699e b03d 3454 cf3d 635e 9cbd 6349 6d3f
000002d0: cc3e 9d3c a770 743c 88f1 52bd 6602 eebe
000002e0: d4c7 5f3c 0125 f13d b372 ba3d 5806 8bbd
000002f0: 18d2 9c3e 890e 203e c346 b5bd 11e2 a43e
00000300: 8a6c 5bbc 0e21 15bd 5640 07be cf69 f5bd
00000310: 4c91 2bbc 9c02 39bf 91ca fc3f 1ff2 29be
00000320: 4f07 83ba e42f 8abd 0639 8b3d ee93 30bd
00000330: 0426 8ebd 2712 913c 1921 6abb 5506 bc3d
00000340: d283 333d 9802 f0bc 6425 f03d 6b64 22bf
00000350: 6297 ce3d 890b 5c3d 2b80 b33d eb6c 10bf
00000360: 3676 f6bd 62f3 11bf bb6e 62be 5a3f 44be
00000370: bd6c cdbd 752c a63d 1573 bebc 7d66 a5bd
00000380: 85ba a9bc 9c5d 0ebe a42e 163c 9911 923d
00000390: 68e8 ff3c 9a4d 8f3f 0a88 773d 21c8 a03c
000003a0: 272d 003d 51bb f7bd 7556 e439 ae79 7f3c
000003b0: ec3d a33d fd5c aabd 9c9b 283e 70b3 6dbd
000003c0: b84d 703d b39d 3abe 0ab3 2b3d 2cfc 423f
000003d0: 99b2 393e 3472 4cbd 58f9 2f3d a7b7 49bf
000003e0: f052 903c c2be f43d b727 d63c 974e 4ebd
000003f0: 9556 933e cdf5 d23d 1d57 c8bd cccd 96be

res_blocks.0.linear2.bias f4 [64]
-7.973106 -8.313454 -6.9296966 -7.296304 -8.708558 -7.467898 -7.4659867 6.497106
-6.7934065 -7.201613 -7.970021 -7.646535 -7.2688613 6.2902236 -7.859568 -7.0211973
-6.463422 -7.1032557 -6.246832 -6.660916 -7.847563 -7.6475635 -7.969326 7.0742846
-6.4017425 -6.35149 -7.3039126 -7.669176 5.374826 -7.0757623 -7.0388613 -7.075978
-8.476363 -5.80933 -7.662044 -5.7422967 -7.468352 -8.0351 -6.549326 -6.125563
-6.528058 -6.668599 -6.1867814 -7.516626 -6.755872 -7.1326303 -7.8385863 -8.273289
-7.528226 -7.6680717 -7.6835437 -7.2543297 -2.7442124 -8.706238 -7.048372 -8.861821
-8.193773 -6.618216 -7.3558836 -8.539831 -7.967789 -6.53377 -6.8571844 -6.9877234
00000000: af23 ffc0 e803 05c1 13c0 ddc0 537b e9c0
00000010: 4156 0bc1 05f9 eec0 5de9 eec0 4be8 cf40
00000020: 9663 d9c0 9d73 e6c0 690a ffc0 6ab0 f4c0
00000030: 839a e8c0 8349 c940 9581 fbc0 a6ad e0c0
00000040: 5ad4 cec0 df4d e3c0 0ce6 c7c0 3926 d5c0
00000050: 3c1f fbc0 d7b8 f4c0 b804 ffc0 8a60 e240
00000060: 13db ccc0 683f cbc0 a7b9 e9c0 e469 f5c0
00000070: 93fe ab40 a56c e2c0 5a3e e1c0 696e e2c0
00000080: 2f9f 07c1 08e6 b9c0 772f f5c0 e5c0 b7c0
00000090: bdfc eec0 c58f 00c1 1494 d1c0 9d04 c4c0
000000a0: dae5 d0c0 2a65 d5c0 1dfa c5c0 3388 f0c0
000000b0: 1a30 d8c0 823e e4c0 b3d5 fac0 645f 04c1
000000c0: 3ae7 f0c0 d860 f5c0 97df f5c0 7823 e8c0
000000d0: 2da1 2fc0 c04c 0bc1 438c e1c0 05ca 0dc1
000000e0: b219 03c1 6dc8 d3c0 6663 ebc0 26a3 08c1
000000f0: 21f8 fec0 a514 d1c0 0e6e dbc0 6e9b dfc0

res_blocks.0.bn2.weight f4 [64]
31.115139 31.045664 30.009329 30.964859 31.036032 28.51744 29.803417 29.281816
26.608803 30.79104 30.874529 30.907656 30.993406 31.035145 31.129534 27.217316
31.064756 27.593803 28.028437 28.856964 30.940159 30.735456 31.086908 31.028536
30.561224 28.483255 31.024584 31.093391 27.809645 31.158949 31.100407 27.453453
30.875582 27.543472 31.107943 28.045408 30.951897 30.257353 30.665823 27.500076
28.751041 28.90433 30.948742 30.979935 29.04112 31.074537 31.059153 31.055248
31.053816 29.923588 29.015038 30.941677 31.074219 30.858799 30.18168 30.779087
30.995674 30.465572 31.026527 30.636925 30.791239 29.309708 29.635908 29.278765
00000000: ceeb f841 855d f841 1b13 f041 08b8 f741
00000010: cb49 f841 b823 e441 666d ee41 2941 ea41
00000020: d4de d441 0d54 f641 09ff f641 e142 f741
00000030: 7ff2 f741 fa47 f841 4909 f941 10bd d941
00000040: 9f84 f841 1cc0 dc41 3d3a e041 10db e641
00000050: 7285 f741 37e2 f541 fdb1 f841 713a f841
00000060: 637d f441 b5dd e341 5932 f841 44bf f841
00000070: 277a de41 8745 f941 a2cd f841 aca0 db41
00000080: 3101 f741 0859 dc41 11dd f841 ff5c e041
00000090: 7c9d f741 0f0f f241 9b53 f541 2800 dc41
000000a0: 2202 e641 113c e741 0697 f741 e8d6 f741
000000b0: 3754 e841 a798 f841 2579 f841 2671 f841
000000c0: 376e f841 8263 ef41 cc1e e841 8e88 f741
000000d0: 0098 f841 d2de f641 1574 f141 923b f641
000000e0: 24f7 f741 7eb9 f341 5436 f841 6c18 f541
000000f0: 7554 f641 487a ea41 5716 ed41 e93a ea41

res_blocks.0.bn2.bias f4 [64]
30.507942 30.455767 30.54481 30.435778 30.56285 30.248028 30.261557 30.228636
29.844358 30.495897 30.394821 30.446014 30.487776 30.456161 30.5311 29.95872
30.575838 30.136242 30.232986 30.393408 30.421093 30.599655 30.607456 30.49222
30.535866 30.196693 30.503923 30.497185 30.147886 30.61238 30.622597 30.037745
30.473398 30.10433 30.54756 30.190422 30.447132 30.425026 30.60755 30.168976
30.304764 30.34127 30.553328 30.43094 30.396147 30.536705 30.50773 30.469671
30.48355 30.294712 30.252708 30.450012 30.6485 30.501581 30.409641 30.603365
30.508003 30.575146 30.497515 30.416058 30.49331 30.422667 30.522873 30.273441
00000000: 4410 f441 69a5 f341 c55b f441 797c f341
00000010: b880 f441 f6fb f141 ab17 f241 3fd4 f141
00000020: 3fc1 ee41 99f7 f341 9828 f341 7091 f341
00000030: f7e6 f341 38a6 f341 b13f f441 75ab ef41
00000040: 519b f441 0617 f141 28dd f141 b325 f341
00000050: 665e f341 18cc f441 12dc f441 11f0 f341
00000060: 7449 f441 d492 f141 0908 f441 3cfa f341
00000070: df2e f141 27e6 f441 14fb f441 4d4d f041
00000080: 85c9 f341 abd5 f041 6761 f441 fc85 f141
00000090: ba93 f341 7466 f341 43dc f441 105a f141
000000a0: 2870 f241 ecba f241 376d f441 9172 f341
000000b0: 4f2b f341 2c4b f441 d50f f441 e3c1 f341
000000c0: 4fde f341 925b f241 8c05 f241 a099 f341
000000d0: 2130 f541 3d03 f441 f246 f341 b1d3 f441
000000e0: 6410 f441 e699 f441 e9fa f341 1654 f341
000000f0: 4df2 f341 9f61 f341 d82e f441 0230 f241

res_blocks.0.bn2.running_mean f4 [64]
-8.007708 -8.352421 -6.957176 -7.328193 -8.753672 -7.4910755 -7.484916 6.475212
-6.814166 -7.2212 -7.999319 -7.68582 -7.3150473 6.269272 -7.8817096 -7.041122
-6.520726 -7.1245775 -6.274849 -6.702376 -7.8804994 -7.671444 -8.00173 7.0491915
-6.4410872 -6.3803425 -7.32771 -7.6970654 5.344785 -7.1270843 -7.0733 -7.1023793
-8.500662 -5.840061 -7.6810956 -5.767269 -7.498543 -8.058654 -6.5851316 -6.156357
-6.5597925 -6.6939144 -6.2248755 -7.5567594 -6.797291 -7.168207 -7.860084 -8.300932
-7.5589175 -7.6869564 -7.7264075 -7.2830105 -2.8019607 -8.729816 -7.0748754 -8.8903055
-8.211581 -6.65964 -7.365506 -8.575088 -8.012775 -6.565334 -6.895333 -7.0317492
00000000: 921f 00c1 84a3 05c1 30a1 dec0 8f80 eac0
00000010: 0a0f 0cc1 e4b6 efc0 6f84 efc0 f034 cf40
00000020: a60d dac0 1214 e7c0 6cfa ffc0 3df2 f5c0
00000030: de14 eac0 e09d c840 f736 fcc0 df50 e1c0
00000040: caa9 d0c0 8afc e3c0 90cb c8c0 dd79 d6c0
00000050: 0d2d fcc0 787c f5c0 1607 00c1 fa92 e140
00000060: 631d cec0 c42b ccc0 9a7c eac0 5c4e f6c0
00000070: 7b08 ab40 1311 e4c0 7958 e2c0 b146 e3c0
00000080: b602 08c1 c8e1 bac0 89cb f5c0 788d b8c0
00000090: 10f4 efc0 3ff0 00c1 66b9 d2c0 e000 c5c0
000000a0: d2e9 d1c0 8c34 d6c0 2e32 c7c0 f9d0 f1c0
000000b0: 6883 d9c0 f461 e5c0 cf85 fbc0 9ed0 04c1
000000c0: a7e2 f1c0 8cfb f5c0 bb3e f7c0 6c0e e9c0
000000d0: 5353 33c0 54ad 0bc1 6165 e2c0 b13e 0ec1
000000e0: a362 03c1 c51b d5c0 3ab2 ebc0 8f33 09c1
000000f0: 5434 00c1 3717 d2c0 91a6 dcc0 1704 e1c0

res_blocks.0.bn2.running_var f4 [64]
0.03828975 0.040031694 0.026844129 0.03567187 0.03931217 0.011172201 0.036045037 0.034522332
0.010162481 0.04316629 0.023591563 0.0378169 0.03858615 0.04562407 0.026170494 0.0100837005
0.07327709 0.009920451 0.023637846 0.0834999 0.047047462 0.05756605 0.0244298 0.037057336
0.05610751 0.023057189 0.03282341 0.026230145 0.020035524 0.08324859 0.041189913 0.0110482
0.017588474 0.02390835 0.03905778 0.024174849 0.029831424 0.014815856 0.051597796 0.022703415
0.021321861 0.023658954 0.056587387 0.046211634 0.080581635 0.040303025 0.03257223 0.03306532
0.03031787 0.036468774 0.026692374 0.029946856 0.0847749 0.020078758 0.024314662 0.019234126
0.023957768 0.06396025 0.024505576 0.016967975 0.03144959 0.027331475 0.07487196 0.06909431
00000000: b7d5 1c3d 46f8 233d 38e8 db3c ab1c 123d
00000010: cc05 213d 9b0b 373c f6a3 133d 4a67 0d3d
00000020: 8980 263c 23cf 303d 1843 c13c e5e5 1a3d
00000030: 830c 1e3d 4ee0 3a3d 8163 d63c 1b36 253c
00000040: 4d12 963d 6389 223c 28a4 c13c ff01 ab3d
00000050: d7b4 403d 61ca 6b3d 0121 c83c 6fc9 173d
00000060: fdd0 653d 6ee2 bc3c d771 063d 9ae0 d63c
00000070: 8a21 a43c 3d7e aa3d c1b6 283d 8203 353c
00000080: b415 903c 72db c33c 0dfb 1f3d 550a c63c
00000090: 0861 f43c 34be 723c 3658 533d 83fc b93c
000000a0: 2fab ae3c 6cd0 c13c 2dc8 673d 6948 3d3d
000000b0: fc07 a53d c914 253d 756a 053d 806f 073d
000000c0: 2f5d f83c 4860 153d f7a9 da3c 1c53 f53c
000000d0: 769e ad3d 357c a43c 8b2f c73c e390 9d3c
000000e0: 1543 c43c 97fd 823d ebbf c83c 6c00 8b3c
000000f0: 49d1 003d 42e6 df3c 7856 993d 5181 8d3d

res_blocks.1.linear1.weight f4 [64, 64]
0.052154113 0.006410116 -0.013147581 -0.06141852 0.048797037 0.027021844 0.00048527622 -0.12215997
0.08603773 0.001210221 -0.03666892 -0.008586563 0.08345099 0.026759842 -0.005322527 0.032033574
1.3143518 0.08896539 -0.2099352 -0.11140277 0.0243423 -0.07826722 -0.008062181 0.06589079
-1.4643315 -0.21022531 0.09122445 0.015428328 -0.12993933 -0.04687028 0.08741326 -0.05961812
-0.034680106 -0.22889997 0.024979932 -0.15857771 0.054682225 0.11170141 -1.5182592 0.004562057
-0.18720672 -0.21842457 -1.3188971 0.117397204 -0.00055720285 -0.053302437 0.094218045 0.03746794
0.15165459 -0.079142354 -0.059577543 -0.021326255 -1.3994446 -0.034043785 -0.13716847 0.074568115
0.015538631 -1.0818177 0.028464558 0.055855937 0.15989456 -0.14249618 -0.043970324 -0.00982034
-0.18384284 0.026321374 -0.16875741 -0.1497665 -0.07632518 0.08690854 -0.0055539487 0.029538907
0.021347245 -0.077452645 0.14628813 -0.07859374 -0.14993715 -0.050644517 0.079251766 0.15488887
0.58177465 -0.032038838 -0.08844946 0.0087909615 0.09013846 0.054028966 -0.13108626 0.08008897
-1.0256876 -0.099830076 -0.045926012 0.09675567 -0.09905844 -0.23453176 0.056152422 0.14877412
0.112338506 -0.15673818 -0.020760607 -0.09636712 -0.13212708 0.09934316 -0.90692437 -0.19634555
-0.15426357 -0.10008504 -0.66831696 -0.06596995 -0.04119975 -0.13736476 -0.06130607 -0.09480095
-0.06330941 0.0039949976 0.2636923 -0.039692275 -0.6622795 0.17710234 -0.058191672 0.08735619
0.09617951 -1.2180212 -0.09408522 0.10210479 0.23690738 -0.07394733 -0.09833977 -0.050285302
0.15205675 0.124194145 -0.11989744 0.18119895 0.09907284 0.24852468 0.098127395 -0.09939345
0.24487197 -0.09753861 0.015824432 0.17324048 0.20275286 0.039700545 0.08928756 0.41584498
-0.14896952 0.26377124 -0.18455456 0.008589055 0.026088297 -0.11250652 0.04828708 0.0474266
-0.07827691 0.023162035 0.089648426 0.07102435 -0.2734305 -0.13174966 -0.02986056 0.2351956
0.051386345 -0.22481763 -0.10379677 -0.0069039874 0.051119205 0.026032297 -0.11501794 -0.08817859
-0.013451492 -0.09877696 0.0052204006 0.09588229 -0.09671913 -0.00792881 0.030922739 0.046620425
-0.05739526 0.018866107 0.109274276 0.27707556 -0.07013657 0.18407598 -0.108784065 0.18727413
0.115495384 -0.15998633 -0.10056691 0.124852866 0.11515233 -0.06546679 0.10166168 -0.095421985
0.28862512 0.35254678 -0.050094128 0.018161168 -0.021381024 -0.22198029 -0.0016631344 0.14187713
-0.25813663 -0.0029043444 -0.49932602 -0.011708274 -0.09945665 -0.093472935 -0.20297483 -0.1363122
-0.020317294 -0.18070352 -0.041384272 0.1458213 0.04213375 0.12039342 -0.27445993 0.03098235
-0.038205933 0.040348057 -0.1571743 -0.037046757 -0.098958895 0.011331804 -0.1099837 -0.26946107
-0.85929435 -0.016720012 -0.028726174 -0.021666884 -0.059332278 -1.9496264 -0.04532482 -0.09214544
-0.080664 -0.013849849 -0.00023439754 -0.09231614 0.08608829 -0.027067179 0.042393398 -0.081448704
-0.03777351 0.026508104 -0.16273597 -0.0150922155 0.07865461 -0.46563196 0.020315144 -0.0059388555
-0.3394308 -0.038694795 -0.089480236 -0.1831132 -0.070356004 -0.05912938 0.14627966 0.102229424
00000000: 8d9f 553d f30b d23b f468 57bc fc91 7bbd
00000010: 67df 473d ea5c dd3c ac6c fe39 022f fabd
00000020: 8d34 b03d 47a0 9e3a 2632 16bd a8ae 0cbc
00000030: 5ae8 aa3d 7537 db3c 9868 aebb a335 033d
00000040: ae3c a83f 7d33 b63d 41f9 56be 2327 e4bd
00000050: 8169 c73c 904a a0bd 3d17 04bc c0f1 863d
00000060: 376f bbbf 4e45 57be e2d3 ba3d 19c7 7c3c
00000070: d10e 05be 0dfb 3fbd b905 b33d 2132 74bd
00000080: ba0c 0ebd c164 6abe b7a2 cc3c 3262 22be
00000090: 78fa 5f3d b5c3 e43d 5156 c2bf 4f7d 953b
000000a0: 1eb3 3fbe b1aa 5fbe 9fd1 a8bf f26d f03d
000000b0: 4011 12ba a853 5abd 64f5 c03d fc77 193d
000000c0: 574b 1b3e 6315 a2bd 9507 74bd 66b4 aebc
000000d0: 0021 b3bf 7f71 0bbd e475 0cbe 2bb7 983d
000000e0: be95 7e3c 0179 8abf 812e e93c 32c9 643d
000000f0: 66bb 233e 85ea 11be 3a1a 34bd 7ee5 20bc
00000100: 4c41 3cbe ec9f d73c bece 2cbe 645c 19be
00000110: 6050 9cbd 1bfd b13d e6fd b5bb 94fb f13c
00000120: 6be0 ae3c 7e9f 9ebd 8ecc 153e c1f5 a0bd
00000130: 2089 19be a070 4fbd c04e a23d 309b 1e3e
00000140: 2fef 143f 283b 03bd fe24 b5bd f707 103c
00000150: 839a b83d 7a4d 5d3d 7a3b 06be b005 a43d
00000160: bb49 83bf b673 ccbd ea1c 3cbd d627 c63d
00000170: 27df cabd 1829 70be 1500 663d 3e58 183e
00000180: bb11 e63d f97f 20be 2612 aabc 205c c5bd
00000190: 524c 07be 6d74 cb3d 322c 68bf cf0e 49be
000001a0: 45f7 1dbe 63f9 ccbd d216 2bbf 411b 87bd
000001b0: 12c1 28bd 59a9 0cbe 131c 7bbd 0027 c2bd
000001c0: 5da8 81bd 78e8 823b ad02 873e 5e94 22bd
000001d0: 268b 29bf 515a 353e 645a 6ebd cde7 b23d
000001e0: c3f9 c43d 1ee8 9bbf c0af c0bd 511c d13d
000001f0: d997 723e b371 97bd 5d66 c9bd f6f7 4dbd
00000200: c4b4 1b3e 8059 fe3d ca8c f5bd 388c 393e
00000210: b3e6 ca3d 417d 7e3e 04f7 c83d cb8e cbbd
00000220: b8bf 7a3e 53c2 c7bd 3da2 813c f465 313e
00000230: 729e 4f3e 0a9d 223d 65dc b63d a2e9 d43e
00000240: 778b 18be 060d 873e dffb 3cbe 1cb9 0c3c
00000250: 20b7 d53c d169 e6bd acc8 453d 6542 423d
00000260: a54f a0bd 4fbe bd3c 9899 b73d 3775 913d
00000270: 15ff 8bbe 62e9 06be 229e f4bc 1ed7 703e
00000280: 7d7a 523d 9836 66be 6793 d4bd d83a e2bb
00000290: 5f62 513d af41 d53c 878e ebbd fa96 b4bd
000002a0: a663 5cbc 934b cabd e50f ab3b ef5d c43d
000002b0: ae14 c6bd d7e7 01bc af51 fd3c 0ff5 3e3d
000002c0: 4b17 6bbd 188d 9a3c 31cb df3d d9dc 8d3e
000002d0: c3a3 8fbd 6a7e 3c3e 2eca debd cac4 3f3e
000002e0: d888 ec3d 75d3 23be 06f6 cdbd dcb2 ff3d
000002f0: fcd4 eb3d 7413 86bd 0034 d03d 9a6c c3bd
00000300: acc6 933e 0381 b43e 802f 4dbd bbc6 943c
00000310: 4227 afbc cd4e 63be 88fd d9ba 3d48 113e
00000320: 7c2a 84be d056 3ebb a9a7 ffbe 0fd4 3fbc
00000330: eeaf cbbd bd6e bfbd a2d8 4fbe 6d95 0bbe
00000340: 7470 a6bc 580a 39be 8e82 29bd 2e52 153e
00000350: 7094 2c3d d390 f63d 0386 8cbe b3ce fd3c
00000360: d37d 1cbd 0144 253d 4df2 20be 57be 17bd
00000370: f6aa cabd 08a9 393c 223f e1bd cdf6 89be
00000380: b7fa 5bbf 68f8 88bc 2753 ebbc c07e b1bc
00000390: 6706 73bd 5c8d f9bf 85a6 39bd c0b6 bcbd
000003a0: 2b33 a5bd 7aea 62bc 9cc8 75b9 3f10 bdbd
000003b0: 0f4f b03d fdbb ddbc b3a4 2d3d 94ce a6bd
000003c0: 65b8 1abd 8627 d93c 42a4 26be 5745 77bc
000003d0: ab15 a13d 5067 eebe f26b a63c bb9a c2bb
000003e0: e0c9 adbe 6f7e 1ebd 6a41 b7bd 0782 3bbe
000003f0: cf16 90bd a631 72bd 56ca 153e a95d d13d

res_blocks.1.linear1.bias f4 [64]
0.3686004 0.4316744 0.05780252 -0.0062877596 0.20649612 -0.3061936 0.1281524 -0.03256147
-0.13400897 0.10013993 -0.512878 0.07483963 -0.18597865 0.19807783 0.041838147 0.044169035
0.15522408 0.46659702 -0.17676915 0.17585915 -0.1673348 0.3407675 0.26499277 0.18233258
-0.24094696 0.030752303 -0.0014776909 0.24675958 0.2232978 0.2244902 0.0074231373 0.13646467
0.20785911 0.18370914 0.15411599 0.23912159 -0.06121641 0.12349493 0.15691078 0.34998387
0.23309535 -0.09794995 0.11021584 -0.09514816 0.3070622 0.2919906 0.08586161 0.2100197
-0.051996555 0.26322386 0.07024554 -0.03712443 0.45751408 0.18742828 0.2565712 -0.042222112
0.26531556 0.14908278 0.049504843 -0.07617463 0.42837077 0.10992554 0.37914008 0.15820011
00000000: 31b9 bc3e 6d04 dd3e 56c2 6c3d 8d09 cebb
00000010: b873 533e 68c5 9cbe 623a 033e 2d5f 05bd
00000020: a639 09be 2a16 cd3d f94b 03bf 8545 993d
00000030: 3071 3ebe ead4 4a3e 7a5e 2b3d 97ea 343d
00000040: 10f3 1e3e cee5 ee3e f902 35be 6c14 343e
00000050: d059 2bbe 1479 ae3e 22ad 873e 64b5 3a3e
00000060: cdba 76be 41ec fb3c 14af c1ba 8bae 7c3e
00000070: 2ea8 643e c2e0 653e ca3d f33b 65bd 0b3e
00000080: 05d9 543e 401e 3c3e 95d0 1d3e 4adc 743e
00000090: 0fbe 7abd e9ea fc3d 38ad 203e 1631 b33e
000000a0: 8cb0 6e3e fc99 c8bd d8b8 e13d 0add c2bd
000000b0: 4237 9d3e cb7f 953e 36d8 af3d 670f 573e
000000c0: 57fa 54bd 47c5 863e e5dc 8f3d c90f 18bd
000000d0: 493f ea3e 33ed 3f3e 4d5d 833e 18f1 2cbd
000000e0: 71d7 873e 28a9 183e 97c5 4a3d 7201 9cbd
000000f0: 6a53 db3e a420 e13d a61e c23e 36ff 213e

res_blocks.1.bn1.weight f4 [64]
0.6827558 0.64805853 0.20676817 0.5900627 0.62122273 0.7238114 0.5377712 0.19442086
0.17549893 0.5381346 0.15772593 0.50661457 0.63189703 0.10029166 0.6890557 0.2747832
0.44672865 0.6699563 0.59428704 0.6059855 0.58890665 0.43643677 0.5853343 0.5760984
0.56340224 0.34973627 0.5213999 0.51482415 0.60534286 0.4632262 0.38345706 0.4667267
0.5539079 0.37040794 0.5832084 0.4428537 0.72930485 0.52820504 0.45992056 0.62819564
0.6653599 0.011825319 0.3877919 0.60289025 0.562733 0.16095161 0.60803 0.6554033
0.81300056 0.6744401 0.5622089 0.5222372 0.7493223 0.28232753 0.637474 0.5242733
0.5179314 0.41277888 0.5686112 0.689604 0.63296014 0.5184004 0.6295086 0.72196776
00000000: 16c9 2e3f 2ae7 253f 09bb 533e 590e 173f
00000010: 7408 1f3f b44b 393f 60ab 093f 4316 473e
00000020: feb5 333e 30c3 093f e882 213e 7eb1 013f
00000030: 01c4 213f b765 cd3d f465 303f 62b0 8c3e
00000040: 9eb9 e43e 4282 2b3f 3223 183f de21 1b3f
00000050: 96c2 163f a474 df3e 78d8 153f 2f7b 133f
00000060: 213b 103f a210 b33e 777a 053f 84cb 033f
00000070: c0f7 1a3f fc2b ed3e 7c54 c43e cdf6 ee3e
00000080: e8cc 0d3f 1ca6 bd3e 254d 153f b8bd e23e
00000090: b9b3 3a3f 7238 073f b57a eb3e 6ed1 203f
000000a0: 0755 2a3f fcbe 413c a98c c63e 0457 1a3f
000000b0: 450f 103f 80d0 243e dba7 1b3f 83c8 273f
000000c0: ce20 503f 1ba8 2c3f ecec 0f3f 56b1 053f
000000d0: 96d3 3f3f 3c8d 903e 7f31 233f c636 063f
000000e0: 2797 043f c157 d33e 8190 113f e389 303f
000000f0: ad09 223f e3b5 043f 7a27 213f e1d2 383f
