model/poly_resnet_model_50epoch_lambda.pt (torch, 156188 bytes, 43 tensors)

input_layer.0.weight f4 [64, 118]
-0.23531023 0.21975857 -0.027403008 0.21307465 -0.12705332 0.21280731 0.10658549 -0.1420585
0.0023370925 -0.08272434 -0.069981925 -0.07033692 -0.1238118 0.019658392 0.099324435 0.14924489
-0.24366236 -0.07121285 -0.044482417 0.12557754 0.011366644 -0.23283291 0.05917295 0.04847306
0.04727754 -0.12450724 -0.36378923 -0.009476057 -0.07525703 -0.0941443 0.05236517 -0.106701076
0.1893654 0.1537174 -0.02298098 0.15731874 -0.027379403 0.12924235 0.11129135 -0.034521993
-0.012970953 -0.1949682 -0.009671307 -0.034745645 0.007886702 -0.07969591 0.008243915 0.20339033
0.14960165 -0.022543779 -0.14045584 -0.212465 -0.10813726 0.14485417 -0.060672138 -0.21514829
0.06297441 0.01919827 0.03663918 -0.17977108 -0.19543006 0.15119869 -0.079344735 -0.16547295
-0.07443501 0.075574584 -0.19819264 0.014454781 0.07752853 0.043019507 0.2223952 -0.088886045
0.14596118 0.03213634 -0.04295283 -0.038121864 -0.07892721 -0.01575345 -9.964745e-05 0.044079382
-0.13212173 -0.0011707736 0.1942054 -0.26283914 -0.106075905 -0.07688224 0.09108175 0.01661402
-0.10240831 -0.08917323 0.0685755 0.00713502 0.10536378 -0.2075513 0.13175197 -0.28292814
0.06658513 -0.014124445 -0.11747852 0.08714573 0.03549349 -0.15105048 0.13144496 0.0780592
0.17101121 -0.110466555 0.09144388 -0.045840897 -0.031007499 0.031551093 -0.069898486 -0.07446726
0.058005463 0.033870764 -0.07268007 -0.040577535 0.059060793 -0.24289441 0.089295 0.051938593
0.14992927 -0.12599657 0.24129415 -0.11209119 -0.02645414 -0.11408211 0.08256366 0.03530602
0.024740579 -0.079073526 -0.04336307 -0.11303915 -0.16825625 -0.067197725 -0.05150652 0.0664265
0.04813465 -0.11824238 -0.1257657 0.108348735 -0.07917465 0.19985291 0.21855791 0.052908793
-0.150175 0.08430875 0.37825316 0.103936374 -0.004520214 -0.018679911 -0.13571557 0.11341841
0.19265446 -0.15558071 0.16194397 -0.021798937 -0.06772876 0.06245104 0.07404505 -0.0014846835
0.11055369 -0.08530123 -0.19855541 -0.041325465 -0.018214073 0.07570483 -0.121941745 -0.045746993
-0.0396505 0.06568263 0.023577176 -0.094679095 -0.22530071 0.05077688 0.03743097 0.26809302
0.08858247 0.06572148 -0.08895162 -0.020754876 0.44615483 0.18872061 0.019693188 -0.024157586
-0.049019333 -0.0737822 0.14763334 0.11033967 -0.19461755 0.2994113 -0.08892979 0.0863557
-0.014553615 0.11404828 0.09621231 0.08152703 0.034658935 -0.07639604 -0.034231212 -0.09363858
0.05159737 -0.120422564 0.16021538 0.12764594 -0.22480616 -0.13571574 0.028513754 -0.26220393
0.050137732 0.13900185 0.12422412 0.018748058 -0.011743407 -0.18407331 0.07732106 0.32310638
0.18143068 -0.062006965 -0.025192987 -0.058131415 -0.012118864 0.14456038 -0.05110146 0.22472975
-0.08279731 0.049944434 -0.08330387 -0.027354317 0.071372434 0.13305756 0.13054669 -0.05296025
-0.123272985 -0.058918715 -0.07057186 -0.057587605 -0.08064135 0.03965516 0.19432208 -0.18428263
0.22149923 0.108852744 -0.06744266 -0.05565997 -0.013976315 0.1017245 0.15191369 0.07475039
-0.08052735 0.05313211 -0.12390365 -0.10847591 -0.14659624 0.1466973 0.026500862 -0.1136691
00000000: 2af5 70be 6408 613e 467c e0bc 3e30 5a3e
00000010: 441a 02be 29ea 593e 7e49 da3d c977 11be
00000020: e829 193b 616b a9bd af52 8fbd ce0c 90bd
00000030: 0a91 fdbd a30a a13c 9c6a cb3d a7d3 183e
00000040: a082 79be 0bd8 91bd 3233 36bd 6697 003e
00000050: 293b 3a3c c06b 6ebe 565f 723d b08b 463d
00000060: 18a6 413d a7fd febd 9542 babe 7741 1bbc
00000070: 5c20 9abd bace c0bd dc7c 563d 1886 dabd
00000080: 01e9 413e 1868 1d3e 9c42 bcbc 2a18 213e
00000090: c54a e0bc 1b58 043e b8ec e33d ef66 0dbd
000000a0: 1f84 54bc bea5 47be 6774 1ebc 7351 0ebd
000000b0: 3a37 013c 9c37 a3bd 7c11 073c 8e45 503e
000000c0: 2d31 193e bbad b8bc a8d3 0fbe 6d90 59be
000000d0: 1177 ddbd a754 143e 5983 78bd d54f 5cbe
000000e0: baf8 803d b145 9d3c f712 163d e915 38be
000000f0: d11e 48be d4d3 1a3e 7e7f a2bd be71 29be
00000100: 6271 98bd d9c6 9a3d 03f3 4abe bfd3 6c3c
00000110: 47c7 9e3d 3935 303d 91bb 633e e309 b6bd
00000120: d976 153e 65a1 033d 4fef 2fbd ac25 1cbd
00000130: 97a4 a1bd 610d 81bc d1f9 d0b8 958c 343d
00000140: eb4a 07be a574 99ba c8dd 463e da92 86be
00000150: 533e d9bd 7074 9dbd 1289 ba3d 201a 883c
00000160: 73bb d1bd 74a0 b6bd 5071 8c3d e3cc e93b
00000170: f7c8 d73d 5488 54be fde9 063e f5db 90be
00000180: c95d 883d 376a 67bc 9498 f0bd 7679 b23d
00000190: 9f61 113d faac 1abe 8299 063e 80dd 9f3d
000001a0: 901d 2f3e 4a3c e2bd ee46 bb3d aac3 3bbd
000001b0: 7003 febc b83b 013d f026 8fbd 4a82 98bd
000001c0: 2397 6d3d 12bc 0a3d 4ad9 94bd a134 26bd
000001d0: bbe9 713d 50b9 78be 4ce0 b63d 90bd 543d
000001e0: 0f87 193e 3f05 01be d015 773e 1190 e5bd
000001f0: 5ab6 d8bc e2a3 e9bd 2317 a93d 0c9d 103d
00000200: c1ac ca3c 4df1 a1bd 799d 31bd 1281 e7bd
00000210: 5e4b 2cbe f69e 89bd 80f8 52bd 9e0a 883d
00000220: d728 453d 1029 f2bd b9c8 00be f1e5 dd3d
00000230: 5226 a2bd 3ea6 4c3e a5cd 5f3e e4b6 583d
00000240: 7ac7 19be 11aa ac3d 66aa c13e 98dc d43d
00000250: 4e1e 94bb 9d06 99bc 06f9 0abe e947 e83d
00000260: 3647 453e 8d50 1fbe a4d4 253e af93 b2bc
00000270: 60b5 8abd a9cc 7f3d eea4 973d b699 c2ba
00000280: f969 e23d 69b2 aebd 1c52 4bbe e444 29bd
00000290: ae35 95bc 220b 9b3d 98bc f9bd 3361 3bbd
000002a0: 9068 22bd 9d84 863d ec24 c13c 1de7 c1bd
000002b0: 3bb5 66be 6bfb 4f3d 3851 193d 7d43 893e
000002c0: ba6a b53d fc98 863d 442c b6bd 2106 aabc
000002d0: 686e e43e fa3f 413e 9c53 a13c 21e6 c5bc
000002e0: 7fc8 48bd 1f1b 97bd 322d 173e c4f9 e13d
000002f0: d349 47be 704c 993e d220 b6bd 42db b03d
00000300: 4972 6ebc 2592 e93d f60a c53d a5f7 a63d
00000310: 87f6 0d3d 8775 9cbd 0736 0cbd 95c5 bfbd
00000320: c457 533d 1ba0 f6bd 800f 243e 9eb5 023e
00000330: 9633 66be 11f9 0abe ad95 e93c 983f 86be
00000340: 395d 4d3d 8056 0e3e 3769 fe3d 8795 993c
00000350: 6b67 40bc b77d 3cbe 815a 9e3d 336e a53e
00000360: f7c8 393e 04fb 7dbd 8661 cebc 351b 6ebd
00000370: 338e 46bc a307 143e c44f 51bd 8e1f 663e
00000380: a391 a9bd 8992 4c3d 389b aabd 2916 e0bc
00000390: b62b 923d 3e40 083e 08ae 053e d9ec 58bd
000003a0: 8c76 fcbd c054 71bd fb87 90bd fbe0 6bbd
000003b0: 4b27 a5bd 736d 223d 5efc 463e 96b4 3cbe
000003c0: b2d0 623e 30ee de3d 611f 8abd b5fb 63bd
000003d0: eafc 64bc ef54 d03d 438f 1b3e bc16 993d
000003e0: 86eb a4bd 0ea1 593d 32c1 fdbd 9e28 debd
000003f0: 531d 16be d137 163e 5618 d93c 58cb e8bd

input_layer.0.bias f4 [64]
-0.24657261 0.10399525 -0.049130075 -0.25265008 0.26413435 0.024702888 0.0048462083 0.14583024
-0.1788365 0.3758759 -0.03810069 -0.07770885 -0.14612144 -0.10429007 0.04478895 -0.028202794
-0.08155622 0.020165298 -0.28411376 0.042974245 -0.03739626 0.15544273 -0.029472964 -0.05554084
0.017348103 -0.199622 0.5058297 0.05016988 0.3318034 -0.08652041 -0.24196276 -0.034025252
0.022872245 -0.091115065 0.20024785 -0.036351316 0.07701898 0.31183925 0.31959316 0.102201
-0.007468692 -0.01897486 -0.16069494 0.020230673 -0.07251263 0.16761233 -0.17084257 0.17250484
0.108375974 -0.006026598 -0.09067341 -0.04469195 -0.18893437 -0.017336126 0.05053081 0.037883397
-0.08119658 0.004764837 -0.18790528 -0.2409285 0.002244663 -0.04212006 -0.06418613 0.20246795
00000000: 887d 7cbe 76fb d43d 9e3c 49bd 5a5b 81be
00000010: 9e3c 873e b65d ca3c f1cc 9e3b 8654 153e
00000020: ea20 37be ce72 c03e 780f 1cbd d125 9fbd
00000030: dca0 15be 0896 d5bd 9e74 373d 8c09 e7bc
00000040: f306 a7bd b231 a53c 5c77 91be c305 303d
00000050: d22c 19bd 612c 1f3e 4971 f1bc cb7e 63bd
00000060: 9c1d 8e3c b669 4cbe 0e7e 013f ef7e 4d3d
00000070: 23e2 a93e 9d31 b1bd 16c5 77be 105e 0bbd
00000080: 935e bb3c 899a babd c60d 4d3e 1ee5 14bd
00000090: 21bc 9d3d 65a9 9f3e b7a1 a33e c24e d13d
000000a0: eebb f4bb 2a71 9bbc 378d 24be ccba a53c
000000b0: 8081 94bd 91a2 2b3e 5bf1 2ebe 1ca5 303e
000000c0: 39f4 dd3d c57a c5bb fbb2 b9bd e80e 37bd
000000d0: 0378 41be 7e04 8ebc 65f9 4e3d 9f2b 1b3d
000000e0: 644a a6bd 5a22 9c3b 3e6a 40be f6b5 76be
000000f0: 321b 133b 1686 2cbd 0574 83bd c253 4f3e

input_layer.1.weight f4 [64]
5.153044 5.667342 6.7078404 7.917799 7.143858 5.0011153 8.012439 5.3293266
6.590692 7.364455 4.6037307 7.476228 7.797645 5.283226 5.514823 4.7309704
7.3021016 7.697116 5.8850555 7.265439 6.8448696 5.7902927 5.971329 5.4434357
7.117653 7.8831964 7.881225 7.2167597 5.487825 4.793352 7.5609174 6.6332417
7.647673 2.6240687 5.1635356 7.7591214 5.4376016 7.4433227 7.391628 7.7430496
7.3781514 7.076656 6.282574 7.135315 6.383368 7.4820848 4.4633527 7.6295714
5.157191 5.019796 7.8936768 6.8444767 5.12251 4.883585 7.257587 4.8126945
7.3621225 5.821267 6.1585665 7.526907 7.2878656 6.554435 5.311029 8.021792
00000000: bde5 a440 de5a b540 a1a6 d640 9c5e fd40
00000010: 7c9a e440 2309 a040 f332 0041 d889 aa40
00000020: f3e6 d240 9ea9 eb40 c351 9340 433d ef40
00000030: 4f86 f940 3010 a940 6e79 b040 1c64 9740
00000040: d1aa e940 c64e f640 6052 bc40 7a7e e840
00000050: 2c09 db40 144a b940 2115 bf40 a030 ae40
00000060: d0c3 e340 2543 fc40 ff32 fc40 b2ef e640
00000070: 439c af40 2463 9940 09f3 f140 8443 d440
00000080: bdb9 f440 bef0 2740 af3b a540 b94a f840
00000090: d500 ae40 b32f ee40 3788 ec40 10c7 f740
000000a0: d119 ec40 f773 e240 d90a c940 8054 e440
000000b0: 8d44 cc40 3d6d ef40 c9d3 8e40 7325 f440
000000c0: b507 a540 2ba2 a040 0099 fc40 f405 db40
000000d0: 9aeb a340 5446 9c40 273e e840 9801 9a40
000000e0: 8296 eb40 d247 ba40 fa12 c540 6cdc f040
000000f0: 3236 e940 eebd d140 f3f3 a940 4359 0041

input_layer.1.bias f4 [64]
7.2607193 6.7532487 5.3498793 7.49154 6.4889846 6.1365867 7.460101 7.1159134
5.9642615 7.3034806 5.717754 6.8782606 7.4460187 6.368486 6.54833 5.8849745
7.3004656 7.3602667 6.8766613 7.3686557 7.2299194 6.7696476 6.789968 6.5938644
5.7588267 7.493198 7.403646 6.700777 6.498784 5.830746 7.562565 7.344436
7.108078 4.804263 6.3482833 7.486096 6.4764786 7.4438987 7.4102597 7.4826837
7.422103 7.2862306 7.2439713 6.420814 7.2998266 7.3180823 5.6498537 7.3947716
6.337597 4.628659 7.2736573 7.4605446 6.284894 6.0564165 7.4912667 5.911269
7.444196 6.781126 7.2254214 7.3422704 6.709707 7.316494 7.3647575 7.5616956
00000000: d057 e840 9d1a d840 3632 ab40 b2ba ef40
00000010: c3a5 cf40 eb5e c440 26b9 ee40 90b5 e340
00000020: 3bdb be40 1db6 e940 d7f7 b640 b61a dc40
00000030: c945 ee40 a3ca cb40 eb8b d140 b651 bc40
00000040: 6a9d e940 4e87 eb40 9c0d dc40 07cc eb40
00000050: 805b e740 f4a0 d840 6b47 d940 f000 d340
00000060: 4f48 b840 47c8 ef40 abea ec40 c46c d640
00000070: 0af6 cf40 7995 ba40 8800 f240 9f05 eb40
00000080: 6075 e340 86bc 9940 2325 cb40 198e ef40
00000090: 503f cf40 6b34 ee40 d920 ed40 2572 ef40
000000a0: de81 ed40 cd28 e940 9dce e740 4f77 cd40
000000b0: 2e98 e940 bb2d ea40 9acb b440 f8a1 ec40
000000c0: 98cd ca40 f91d 9440 cdc1 e840 c8bc ee40
000000d0: da1d c940 2ace c140 75b8 ef40 1e29 bd40
000000e0: db36 ee40 fcfe d840 a736 e740 e1f3 ea40
000000f0: ebb5 d640 b820 ea40 18ac eb40 69f9 f140

input_layer.1.running_mean f4 [64]
-0.37704027 0.17044954 0.011168262 -0.21633483 0.3255171 0.14632893 0.09568842 0.253201
-0.12637517 0.41804153 0.041896947 -0.03960941 -0.043995675 0.023075335 0.16558938 0.039790362
0.022694321 0.056974933 -0.2233344 0.15468547 0.07468555 0.27806923 0.098317206 0.0128770415
0.083087936 -0.09496364 0.51888186 0.10306971 0.4551029 -0.009464387 -0.20185965 -0.1184543
0.061705947 -0.07205574 0.27182558 0.06799031 0.19131383 0.41649768 0.43094543 0.22743799
0.04454054 0.022423083 -0.2356949 0.085104294 0.05005481 0.2007829 -0.09399412 0.27045444
0.23262721 0.044503994 -0.07134675 0.06893057 -0.117468 0.10620307 0.15969914 0.12723084
0.042216755 0.12785634 -0.058770422 -0.2114536 0.043528832 -0.11584114 -0.15089771 0.3156425
00000000: 6c0b c1be 538a 2e3e 16fb 363c e186 5dbe
00000010: 2daa a63e 40d7 153e 4af8 c33d 90a3 813e
00000020: 7e68 01be 8a09 d63e 229c 2b3d 7a3d 22bd
00000030: cf34 34bd 7c08 bd3c 4390 293e 38fb 223d
00000040: 71e9 b93c 8c5e 693d c6b1 64be de65 1e3e
00000050: bdf4 983d 175f 8e3e 885a c93d 3afa 523c
00000060: 022a aa3d 4c7c c2bd 71d5 043f 3616 d33d
00000070: 3f03 e93e 8410 1bbc 4cb4 4ebe 2b98 f2bd
00000080: 60bf 7c3d f691 93bd b92c 8b3e 813e 8b3d
00000090: c6e7 433e 2f3f d53e e1a4 dc3e 81e5 683e
000000a0: 2470 363d 9db0 b73c 015a 71be 294b ae3d
000000b0: 4606 4d3d 089a 4d3e fd7f c0bd 0179 8a3e
000000c0: d435 6e3e d249 363d 3f1e 92bd 782b 8d3d
000000d0: 1093 f0bd ff80 d93d 2c88 233e cd48 023e
000000e0: 7aeb 2c3d c6ec 023e 41b9 70bd 4b87 58be
000000f0: 4a4b 323d 1f3e edbd ee84 1abe e59b a13e

input_layer.1.running_var f4 [64]
15.447636 11.252795 17.537058 2.947386 10.216528 10.50142 5.473032 14.172772
7.3427396 4.862796 17.259548 2.4105394 6.6878276 10.635848 10.357376 14.285426
7.9922934 2.7844474 10.012388 8.717658 8.840392 10.625928 10.604577 11.070471
8.974505 6.6051893 0.67569315 6.951484 10.530581 14.501178 4.2653217 13.336554
5.026202 49.448734 11.031069 7.297527 10.70541 7.260505 8.566851 6.975505
6.2677183 3.6344106 11.400782 9.953471 11.383488 2.8437111 17.925585 7.952973
10.546765 12.209176 0.97080773 10.765851 11.052234 10.873142 8.4858465 23.878536
7.767605 10.439123 12.176044 1.3118285 3.7591803 11.200452 11.071088 7.2960324
00000000: 8429 7741 730b 3441 e54b 8c41 f9a1 3c40
00000010: e676 2341 d105 2841 1423 af40 adc3 6241
00000020: b9f7 ea40 069c 9b40 8e13 8a41 4746 1a40
00000030: af02 d640 6f2c 2a41 d0b7 2541 1b91 6441
00000040: dec0 ff40 6334 3240 be32 2041 877b 0b41
00000050: 3f72 0d41 cd03 2a41 59ac 2941 a620 3141
00000060: 9397 0f41 b65d d340 3afa 2c3f 8f72 de40
00000070: 437d 2841 d304 6841 847d 8840 8662 5541
00000080: a6d6 a040 81cb 4542 427f 3041 5785 e940
00000090: 5c49 2b41 0f56 e840 d211 0941 5637 df40
000000a0: 2691 c840 2f9a 6840 9a69 3641 6b41 1f41
000000b0: c422 3641 5dff 3540 9967 8f41 c17e fe40
000000c0: 8dbf 2841 c958 4341 db86 783f ed40 2c41
000000d0: f3d5 3041 64f8 2d41 07c6 0741 3e07 bf41
000000e0: 3890 f840 a606 2741 14d1 4241 ffe9 a73f
000000f0: 6996 7040 0d35 3341 2d23 3141 1979 e940

res_blocks.0.linear1.weight f4 [64, 64]
0.004726756 -0.25476 -0.54183745 -0.18523581 -0.34352934 0.10613599 -0.00013424864 0.12320489
-0.10723508 -0.35031816 0.0025799724 -0.105074406 -0.16722272 0.17992502 -0.017052589 0.036356796
0.025286853 -0.08835745 -0.26680055 -0.16024962 0.0043285624 0.10172429 0.11237885 -0.054813538
-0.3581496 -0.07764826 -0.15577011 -0.27018997 -0.037086222 0.059938364 -0.13895224 -0.068795435
-0.08465233 0.09854375 -0.0103917 -0.11553616 0.048886225 0.08252257 -0.09118547 -0.07813376
-0.19446443 -0.020181485 -0.033149675 -0.26156113 0.03351753 -0.38797492 0.120566905 -0.011659652
0.050441895 -0.35159302 -0.092902325 -0.045784257 -0.29125708 0.06706083 0.06733325 -0.20419435
0.04328188 0.024549507 0.116902485 -0.17347349 0.0010002303 0.04082256 0.03435475 -0.117135026
-0.14988637 -0.004631948 -0.6412179 0.039893452 -0.1678522 0.14267687 0.15785287 -0.09066407
-0.051443826 -0.020403972 0.040141482 -0.24655944 -0.031536624 0.09910394 0.13351214 0.048601296
0.010624888 0.14012785 -0.16030735 0.018530037 0.05214251 0.00404477 -0.011248792 0.13118869
-0.33671263 -0.054125115 0.029715575 -0.1308303 0.17909196 -0.08876815 -0.10913416 0.03448065
-0.05748334 -0.1347489 0.02704429 -0.068037234 0.11473796 -0.033590965 0.02080375 0.13502
-0.123774625 0.13779542 0.04136832 -0.15099905 0.062345862 -0.03936369 0.14852652 -0.044570874
0.16787823 -0.3248454 -0.08452612 -0.09474073 0.09889543 0.14005327 0.17195253 -0.25766987
-0.048613448 0.06778532 0.10293386 0.08028763 -0.09666846 -0.06956165 -0.040380176 -0.0478043
0.00541362 -0.15136078 -0.39393353 -0.12356414 -0.12372145 -0.13311619 0.08807746 -0.09254979
-0.2002228 -0.20269963 -0.07969625 -0.0845425 0.038563553 0.0655583 -0.11460236 -0.11403525
0.084336884 -0.21239437 -0.19985011 -0.12620911 -0.061425276 -0.036465038 0.01554211 -0.011174044
-0.26390752 -0.09215966 -0.22130297 -0.3422587 -0.08305481 -0.11421015 -0.32791537 -0.035875384
-0.25190595 0.012329763 0.111143336 -0.20723255 -0.08066298 0.10514712 0.044169273 -0.15450853
-0.19680259 0.112201996 -0.04019456 -0.19968814 -0.026868718 -0.0930636 -0.056144442 -0.09085683
-0.04763243 -0.11125247 -0.07683706 0.044809755 -0.01434124 -0.05298144 0.086294435 -0.36397693
-0.015819779 0.0043482194 0.04243789 -0.0343726 -0.15795863 0.023053154 -0.025968976 -0.20322314
-0.31491077 0.18385376 -0.05484253 -0.05137406 0.028336886 -0.058055848 -0.011847072 -0.035785787
0.03017541 0.12940527 0.06560368 0.009514261 -0.09910741 -0.088626 0.08814926 0.19830543
0.016896898 -0.0804379 0.06952206 -0.12536089 0.07790272 -0.12020969 -0.03272676 0.06193103
-0.09981516 -0.06598897 0.026047138 0.043120377 0.0861327 0.074651 0.09719291 -0.14646414
-0.014206717 -0.5228929 0.09508712 -0.13598734 -0.012790758 -0.10204658 -0.021941768 0.13669369
0.11795603 -0.031180566 -0.06618387 0.09849984 -0.24728554 0.047886353 0.05341958 -0.03948983
-0.060997624 -0.28966853 0.047584973 -0.042623777 0.06602207 -0.08438574 0.034648765 0.17771488
0.033733793 -0.13343342 -0.21002387 0.05021623 -0.050525796 -0.15065283 -0.22090776 0.07342461
00000000: e7e2 9a3b e76f 82be dcb5 0abf 75ae 3dbe
00000010: 14e3 afbe d35d d93d 18c5 0cb9 d852 fc3d
00000020: 119e dbbd e75c b3be c114 293b 4031 d7bd
00000030: 6f3c 2bbe 443e 383e dfb1 8bbc ddea 143d
00000040: 6026 cf3c c0f4 b4bd 159a 88be 7a18 24be
00000050: 9dd6 8d3b d354 d03d e226 e63d 2984 60bd
00000060: 625f b7be 0d06 9fbd 3382 1fbe 5756 8abe
00000070: b9e7 17bd ee81 753d 7f49 0ebe 9fe4 8cbd
00000080: 335e adbd 4ed1 c93d f341 2abc 399e ecbd
00000090: ec3c 483d 9801 a93d 73bf babd 9804 a0bd
000000a0: af21 47be a453 a5bc f4c7 07bd 57eb 85be
000000b0: ad49 093d a6a4 c6be c8eb f63d 2008 3fbc
000000c0: 299c 4e3d 0004 b4be 9343 bebd 4688 3bbd
000000d0: a61f 95be 3057 893d 04e6 893d 5318 51be
000000e0: 5748 313d 0c1c c93c 926a ef3d 09a3 31be
000000f0: 291a 833a 8f35 273d 91b7 0c3d 7de4 efbd
00000100: d07b 19be 99c7 97bb db26 24bf 5167 233d
00000110: 72e1 2bbe e319 123e 2fa4 213e 15ae b9bd
00000120: c3b6 52bd 3b26 a7bc 656b 243d 147a 7cbe
00000130: 8c2c 01bd 02f7 ca3d 68b7 083e 2712 473d
00000140: 0314 2e3c ad7d 0f3e 9c27 24be 4ecc 973c
00000150: 6293 553d fd89 843b da4c 38bc 5456 063e
00000160: 9965 acbe 4cb2 5dbd 146e f33c 61f8 05be
00000170: e263 373e 13cc b5bd bb81 dfbd 953b 0d3d
00000180: a773 6bbd 9efb 09be fd8b dd3c 1b57 8bbd
00000190: bcfb ea3d ae96 09bd a06c aa3c af42 0a3e
000001a0: 8d7d fdbd 3e1a 0d3e d471 293d 7f9f 1abe
000001b0: 605e 7f3d d23b 21bd 5617 183e f38f 36bd
000001c0: 45e8 2b3e 2352 a6be 081c adbd 6e07 c2bd
000001d0: b089 ca3d 206a 0f3e 5314 303e 4eed 83be
000001e0: e51e 47bd 08d3 8a3d fdce d23d d76d a43d
000001f0: 1dfa c5bd 5776 8ebd af65 25bd 71ce 43bd
00000200: bc64 b13b 52fe 1abe a8b1 c9be 320f fdbd
00000210: ac61 fdbd 9c4f 08be f561 b43d bf8a bdbd
00000220: 3507 4dbe 7e90 4fbe ca37 a3bd 9e24 adbd
00000230: d1f4 1d3d 6e43 863d a4b4 eabd 508b e9bd
00000240: d1b8 ac3d e97d 59be 82a5 4cbe f63c 01be
00000250: 1299 7bbd 5d5c 15bd 56a4 7e3c 5613 37bc
00000260: e31e 87be 34be bcbd 3f9d 62be 883c afbe
00000270: a418 aabd 03e7 e9bd 86e4 a7be 11f2 12bd
00000280: d1f9 80be c602 4a3c 1e9f e33d c534 54be
00000290: a232 a5bd 6057 d73d d7ea 343d 7c37 1ebe
000002a0: 9e86 49be 29ca e53d 0da3 24bd 0c7b 4cbe
000002b0: c91b dcbc 2198 bebd b7f7 65bd 2513 babd
000002c0: 391a 43bd 56d8 e3bd c05c 9dbd 6f8a 373d
000002d0: 85f7 6abc 1103 59bd 23bb b03d 2f5b babe
000002e0: 7b98 81bc 827b 8e3b 5ad3 2d3d 49ca 0cbd
000002f0: e8bf 21be f8d9 bc3c e4bc d4bc ba19 50be
00000300: fc3b a1be 2944 3c3e 90a2 60bd 9b6d 52bd
00000310: c222 e83c f8cb 6dbd 391a 42bc 1e94 12bd
00000320: 6c32 f73c d182 043e 395b 863d b4e1 1b3c
00000330: d3f8 cabd 8c81 b5bd 9987 b43d 9410 4b3e
00000340: 5d6b 8a3c a0bc a4bd 9561 8e3d 9b5e 00be
00000350: 768b 9f3d 7f30 f6bd 7f0c 06bd 64ab 7d3d
00000360: e46b ccbd 3a25 87bd cf60 d53c fe9e 303d
00000370: 5766 b03d a0e2 983d 140d c73d b2fa 15be
00000380: 4ac3 68bc 4fdc 05bf 09bd c23d 4440 0bbe
00000390: 5490 51bc ccfd d0bd 39bf b3bc 6ef9 0b3e
000003a0: ee92 f13d 636e ffbc 698b 87bd 49ba c93d
000003b0: 6c38 7dbe 7b24 443d 7dce 5a3d 17c0 21bd
000003c0: a5d8 79bd 6f4f 94be 76e8 423d 4596 2ebd
000003d0: 9436 873d 6ed2 acbd ddeb 0d3d e4fa 353e
000003e0: 722c 0a3d c5a2 08be 7f10 57be 89af 4d3d
000003f0: 23f4 4ebd bc44 1abe a535 62be a45f 963d

res_blocks.0.linear1.bias f4 [64]
-0.095796615 0.063834704 0.049146757 0.12066269 0.018068103 0.10408634 0.06422433 0.14512534
-0.10443124 0.019730598 0.21739772 -0.17806378 0.060677048 -0.19065098 0.19010322 0.07976882
-0.06802936 -0.12058427 -0.031827297 0.00020901074 -0.29430264 0.01951289 0.13854884 -0.06382342
0.115821905 0.11179893 -0.0086666085 0.1682696 0.105002336 -0.07563777 0.06297498 -0.082195915
-0.010449382 0.012487521 -0.09597478 -0.078896746 -0.08814228 0.23956725 -0.0010745358 -0.011269521
0.109468885 -0.048000786 -0.08569958 0.07926516 0.23436975 -0.053556584 -0.28266436 -0.16232784
-0.20957488 0.37824017 -0.033059973 -0.0032510725 -0.062541366 0.03356327 0.06635143 -0.21777609
0.16833386 0.15432207 -0.038977087 0.016030097 -0.12208886 0.031870205 0.16009048 -0.06287348
00000000: 0431 c4bd c5bb 823d 1c4e 493d 001e f73d
00000010: 8f03 943c 382b d53d 0c88 833d bd9b 143e
00000020: 0ce0 d5bd 10a2 a13c 829d 5e3e 5a56 36be
00000030: 7f88 783d 033a 43be 6baa 423e d65d a33d
00000040: fa52 8bbd e3f4 f6bd 575d 02bd e529 5b39
00000050: d6ae 96be 7fd9 9f3c bfdf 0d3e dab5 82bd
00000060: 0934 ed3d d6f6 e43d 64fe 0dbc de4e 2c3e
00000070: 770b d73d fae7 9abd 07f9 803d 5556 a8bd
00000080: e233 2bbc 7698 4c3c 6d8e c4bd 9e94 a1bd
00000090: f183 b4bd 1e51 753e 70d7 8cba cca3 38bc
000000a0: 3931 e03d 799c 44bd 4383 afbd c655 a23d
000000b0: a0fe 6f3e 265e 5bbd 62b9 90be 4539 26be
000000c0: cc9a 56be b2a8 c13e e569 07bd f20f 55bb
000000d0: b015 80bd a479 093d 42e3 873d b200 5fbe
000000e0: b65f 2c3e 9b06 1e3e 70a6 1fbd 8d51 833c
000000f0: b909 fabd 558a 023d c2ee 233e d0c3 80bd

res_blocks.0.bn1.weight f4 [64]
0.73977107 0.66685015 0.70610756 0.54400444 0.5812228 0.64489585 0.81524783 0.57794946
0.7518642 0.9090886 0.5477603 0.6630296 0.6841735 0.80531985 0.7260369 0.6063029
0.56088644 0.8856068 0.72595316 0.82573175 0.3793774 0.66352123 0.58251125 0.78407544
0.84243524 0.7350083 0.6538774 0.6711056 0.336889 0.61297387 0.5971609 0.69032145
0.5718523 0.4220862 0.69532263 0.7255032 0.7106491 0.9324958 0.73510015 0.57025695
0.76227474 0.48201862 0.6858108 0.5738862 0.76547545 0.5351211 0.79369134 0.6477498
0.644371 0.78362435 0.74214005 0.61280054 0.75187254 0.846648 0.8949839 0.37289754
0.6958157 0.6224036 0.4096954 0.7446702 0.55684507 0.7141143 0.65854466 0.7110152
00000000: a361 3d3f b1b6 2a3f 77c3 343f e043 0b3f
00000010: 04cb 143f e517 253f 15b4 503f 7ff4 133f
00000020: 2c7a 403f 08ba 683f 053a 0c3f 4fbc 293f
00000030: ff25 2f3f 7129 4e3f 8edd 393f ab36 1b3f
00000040: 4196 0f3f 21b7 623f 11d8 393f 2863 533f
00000050: c13d c23e 87dc 293f 751f 153f 2bb9 483f
00000060: d6a9 573f 8129 3c3f 8264 273f 94cd 2b3f
00000070: b77c ac3e dbeb 1c3f 89df 183f e8b8 303f
00000080: ea64 123f af1b d83e aa00 323f 94ba 393f
00000090: 19ed 353f 0bb8 6e3f 862f 3c3f 5cfc 113f
000000a0: 7024 433f 25cb f63e 4c91 2f3f 35ea 123f
000000b0: 33f6 433f b2fd 083f 5b2f 4b3f eed2 253f
000000c0: 7ff5 243f 9b9b 483f e4fc 3d3f 7fe0 1c3f
000000d0: b87a 403f ecbd 583f aa1d 653f 6dec be3e
000000e0: fa20 323f d855 1f3f 98c3 d13e b5a2 3e3f
000000f0: 668d 0e3f 32d0 363f 6296 283f 1805 363f

res_blocks.0.bn1.bias f4 [64]
0.15209581 0.13589905 0.10898001 0.7074682 -0.5015764 0.18323767 -1.0824571 -0.39228463
-0.9956318 -0.17560305 -0.01573444 -0.6354061 0.21369904 -0.75535995 -0.30343002 0.771441
-0.044352785 -0.21467635 -0.93101954 -1.0373849 -0.35508996 0.14211147 -0.11985214 -0.77482665
0.13723695 -0.17206159 -0.3135052 0.19358072 0.16026555 0.5829676 -0.7575096 -0.70447385
-0.5815741 -0.45936233 -0.272493 -0.7350802 -0.7058308 -0.83542967 -0.9391155 -0.14187047
0.13174565 0.6218718 -0.17178614 -0.028297106 0.19801933 0.029523842 -0.7552787 0.8609295
-0.48575532 -0.56652915 -0.5811841 -0.05299882 -0.9971254 -0.76290035 -0.2203368 -0.30982
-0.9303107 0.79195154 -0.4078519 -0.9910056 -0.55570555 -0.33874476 -0.8423415 -0.95192313
00000000: 01bf 1b3e 1f29 0b3e e930 df3d a31c 353f
00000010: 5067 00bf a8a2 3b3e f48d 8abf 88d9 c8be
00000020: bae1 7ebf 49d1 33be 83e5 80bc f9a9 22bf
00000030: ecd3 5a3e 455f 41bf 2e5b 9bbe 287d 453f
00000040: 44ab 35bd 1ed4 5bbe 4c57 6ebf 07c9 84bf
00000050: 5ace b5be ab85 113e 0a75 f5bd 0a5b 46bf
00000060: d887 0c3e ea30 30be c183 a0be 063a 463e
00000070: a71c 243e 5d3d 153f 26ec 41bf 6658 34bf
00000080: 0ae2 14bf 8a31 ebbe 3484 8bbe 372e 3cbf
00000090: 54b1 34bf b8de 55bf e069 70bf 7e46 11be
000000a0: 55e8 063e fe32 1f3f b5e8 2fbe 55cf e7bc
000000b0: 94c5 4a3e fcdb f13c f259 41bf e065 5c3f
000000c0: ecb4 f8be 0e08 11bf 7bc8 14bf 4a15 59bd
000000d0: 9c43 7fbf 704d 43bf f89f 61be baa0 9ebe
000000e0: d828 6ebf 56bd 4a3f f7d1 d0be 8bb2 7dbf
000000f0: b842 0ebf f46f adbe b1a3 57bf 3cb1 73bf

res_blocks.0.bn1.running_mean f4 [64]
-34.501595 -6.5119104 -40.166782 -10.869282 -29.13668 -33.06103 -58.49034 -27.409725
-65.16435 18.815674 -41.494366 -6.8227177 8.4851885 -14.300545 -29.887836 -12.321396
-4.0361013 -36.287983 -27.665367 -27.100222 10.128853 -28.711603 -23.50355 -5.488619
-37.312756 -11.682182 -18.436253 -38.25351 -26.973417 -9.90873 -48.92457 -7.4904895
-29.488033 -36.131397 -41.380863 -31.08136 -8.56921 -17.139101 -52.748302 -25.721025
-24.648497 -10.143615 -30.441856 -41.554432 -14.124743 -33.115765 -10.036214 -15.19154
-18.748142 -18.651386 -30.801723 -29.09773 -68.13582 -19.504196 -33.494614 -24.054321
-62.276436 -15.392141 -38.509712 -56.906193 -32.15953 -32.08983 -38.318623 -64.23376
00000000: a201 0ac2 9261 d0c0 c9aa 20c2 94e8 2dc1
00000010: ec17 e9c1 7f3e 04c2 1cf6 69c2 1e47 dbc1
00000020: 2654 82c2 8086 9641 3bfa 25c2 b453 dac0
00000030: 55c3 0741 08cf 64c1 4a1a efc1 7024 45c1
00000040: be27 81c0 e526 11c2 ac52 ddc1 41cd d8c1
00000050: c80f 2241 5db1 e5c1 4507 bcc1 c4a2 afc0
00000060: 4340 15c2 38ea 3ac1 727d 93c1 9803 19c2
00000070: 8fc9 d7c1 288a 1ec1 c2b2 43c2 17b2 efc0
00000080: 7ee7 ebc1 8d86 10c2 0186 25c2 a0a6 f8c1
00000090: 7c1b 09c1 e11c 89c1 43fe 52c2 a9c4 cdc1
000000a0: 1f30 c5c1 3f4c 22c1 ec88 f3c1 bd37 26c2
000000b0: f3fe 61c1 8b76 04c2 5594 20c1 8c10 73c1
000000c0: 32fc 95c1 0a36 95c1 ee69 f6c1 27c8 e8c1
000000d0: 8a45 88c2 9808 9cc1 7cfa 05c2 406f c0c1
000000e0: 121b 79c2 3646 76c1 f209 1ac2 f19f 63c2
000000f0: 5ca3 00c2 fc5b 00c2 4546 19c2 af77 80c2

res_blocks.0.bn1.running_var f4 [64]
894.7388 227.58775 650.46454 71.88504 153.19681 215.82462 935.9081 528.48193
1074.3251 135.31798 461.00146 96.53609 342.95996 103.04613 643.4452 45.045197
116.09561 60.69447 307.8861 309.1802 112.43357 39.852577 210.72426 140.44269
860.7359 144.79926 342.99246 221.49701 311.69498 114.06074 742.5349 176.91278
125.91153 467.73666 795.4682 120.02581 156.16911 85.67134 857.83154 589.70087
24.43976 63.674667 292.9751 954.5169 134.02197 149.94655 100.605354 55.247463
288.51526 67.08575 246.98518 669.1594 1218.675 65.29344 353.05438 531.42883
934.83887 29.630188 846.92865 1045.4855 284.73193 428.66196 584.5566 1085.7886
00000000: 48af 5f44 7796 6343 bb9d 2244 24c5 8f42
00000010: 6232 1943 1ad3 5743 1efa 6944 d81e 0444
00000020: 674a 8644 6751 0743 3080 e643 7a12 c142
00000030: e07a ab43 9e17 ce42 7edc 2044 482e 3442
00000040: f430 e842 23c7 7242 6cf1 9943 1197 9a43
00000050: fddd e042 0a69 1f42 69b9 5243 5471 0c43
00000060: 192f 5744 9ccc 1043 097f ab43 3c7f 5d43
00000070: f5d8 9b43 191f e442 3ca2 3944 ace9 3043
00000080: b4d2 fb42 4bde e943 f7dd 4644 370d f042
00000090: 4b2b 1c43 ba57 ab42 3875 5644 db6c 1344
000000a0: a184 c341 dcb2 7e42 d07c 9243 15a1 6e44
000000b0: a005 0643 51f2 1543 f135 c942 67fd 5c42
000000c0: f441 9043 e72b 8642 35fc 7643 344a 2744
000000d0: 9a55 9844 3e96 8242 f686 b043 72db 0444
000000e0: b0b5 6944 a00a ed41 6fbb 5344 89af 8244
000000f0: b05d 8e43 bb54 d643 9f23 1244 3cb9 8744

res_blocks.0.linear2.weight f4 [64, 64]
-0.018650971 0.062060066 0.06216684 0.08620004 0.010697655 -0.017220693 -0.051238813 0.08481217
-0.068908095 0.03539144 -0.019473225 0.014048941 -0.019869782 0.03505794 -0.17824472 -0.12782611
-0.05027285 0.008313658 -1.1457084 -1.2339655 0.012762107 0.0017964848 0.10195389 -0.048454378
-0.045765694 -0.026818436 0.12572269 0.055236857 -0.033791196 0.03691605 0.09007584 0.035525646
0.035767898 -0.012240765 0.013360219 -0.011718777 -0.044094414 -0.03430193 -0.0785562 0.02256617
-0.0090026455 -0.08367171 -0.06869684 0.075651 -0.017741203 -0.05284829 0.06067014 0.08416376
-0.11886395 0.014759954 0.022371098 0.10398749 0.0043497626 -0.028803749 0.0005710168 0.07673047
-0.017588273 0.017490229 0.03432905 0.133609 -0.044464197 -0.014775851 0.0565833 0.041452292
0.089013435 0.023973921 0.046196498 0.068841636 -0.067292094 -0.065122396 0.048174385 -0.03204071
-0.018171482 0.13435932 0.015517883 -0.041799124 0.049142994 -1.0466511 0.027054787 0.09130746
-0.010821734 -0.09560521 -0.06321363 0.06721825 0.06908658 0.06365255 -0.030432627 -0.3197553
0.07199959 0.05158924 -0.068718806 0.017975666 -0.021311283 -0.15415108 0.08607402 -0.41994473
0.09927084 0.055564977 0.072805695 0.05046056 -0.47638786 -0.9776157 0.031089555 0.015553036
-0.13065973 0.035971884 -0.068571396 -0.033745408 -0.0542506 0.0743352 -0.65130633 0.11100533
0.019012015 -0.091450006 -0.096966825 -0.050336715 -0.086265326 0.20859356 -0.09534142 0.008777565
0.00712787 0.0787053 -0.10579746 0.048621386 -0.17065899 0.053312115 -0.040184956 0.08719879
0.04704648 0.052757397 -0.022392154 0.0355054 -0.06542408 -0.040873665 -0.02603407 0.05746157
0.04448134 0.099729 -0.0076546893 -0.062135786 0.0049967053 -1.494085 -0.1921442 0.073093556
-0.09958447 -0.041317716 0.042858843 -0.0035827602 0.08498387 0.0384132 0.028830823 0.002961352
0.09061671 0.07522223 -0.030027034 0.00050376216 -0.035678964 -0.16259193 0.014309018 -0.26040325
0.038198292 -0.036128122 0.08764627 -0.0019024754 -0.39478377 -1.3308496 -0.06193054 -0.033426996
-0.12094741 0.09358212 -0.01269109 -0.06537742 -0.049813703 0.03948662 -0.29289752 0.08997603
0.041677374 -0.031036321 -0.12592798 0.09107801 0.14591385 0.2226282 -0.07636685 0.09096625
-0.060018558 0.05289626 -0.14496022 0.07267492 -0.07866629 0.055755645 0.07470493 -0.015508046
0.117791876 0.018239833 0.0067312806 0.07976821 -0.042869497 -0.042124603 -0.02054948 -0.000103774735
0.03333229 0.16574763 -0.004811746 -0.04581226 0.03349606 -0.7096454 0.028907757 0.11654228
-0.016138835 -0.10261394 0.05312499 -0.01709099 0.0986381 0.065819316 -0.0150045175 -0.56268543
-0.036701202 0.016767278 0.07514936 0.03729102 -0.03715669 -0.19551304 -0.012107503 -0.30067495
0.062587894 -0.09660829 -0.020757368 0.09797897 -0.3879604 -0.60258543 0.06591066 -0.04031492
-0.11581761 -0.034961708 -0.011993893 -0.018981414 -0.05131546 0.009747803 -0.6966051 0.1595156
-0.060409337 -0.09650167 0.05561171 0.061270673 0.044371452 0.1825171 -0.06389342 0.043528475
-0.0054828417 0.040852413 -0.04684465 -0.022505408 -0.062369347 -0.012649784 0.07265482 -0.04511156
00000000: ecc9 98bc b232 7e3d a8a2 7e3d a689 b03d
00000010: 3845 2f3c 6912 8dbc cadf 51bd 01b2 ad3d
00000020: b01f 8dbd 9df6 103d 5086 9fbc 882d 663c
00000030: f4c5 a2bc ea98 0f3d c985 36be d9e4 02be
00000040: e7ea 4dbd 0236 083c 93a6 92bf 95f2 9dbf
00000050: 2818 513c 0778 eb3a 33cd d03d 1978 46bd
00000060: cf74 3bbd 56b2 dbbc 73bd 003e 0b40 623d
00000070: a368 0abd 4935 173d af79 b83d 5783 113d
00000080: 5c81 123d 7d8d 48bc d2e4 5a3c 1d00 40bc
00000090: 589c 34bd 2e80 0cbd 13e2 a0bd b0dc b83c
000000a0: d57f 13bc 135c abbd eeb0 8cbd e9ee 9a3d
000000b0: 0056 91bc 7377 58bd 4181 783d 0d5e ac3d
000000c0: f16e f3bd bcd3 713c 9843 b73c 65f7 d43d
000000d0: 7488 8e3b d7f5 ebbc 4ab0 153a dd24 9d3d
000000e0: 4815 90bc ab47 8f3c 9e9c 0c3d ccd0 083e
000000f0: 1720 36bd 6916 72bc e4c3 673d e1c9 293d
00000100: ad4c b63d f564 c43c 8a38 3d3d d8fc 8c3d
00000110: 70d0 89bd e45e 85bd 8152 453d 1f3d 03bd
00000120: 5cdc 94bc 7d95 093e b83e 7e3c 8f35 2bbd
00000130: 2a4a 493d aaf8 85bf 00a2 dd3c 68ff ba3d
00000140: a44d 31bc aacc c3bd 2676 81bd b9a9 893d
00000150: 447d 8d3d 455c 823d d84d f9bc f7b6 a3be
00000160: 8574 933d 3d4f 533d 72bc 8cbd b441 933c
00000170: 0095 aebc c8d9 1dbe 9347 b03d ff02 d7be
00000180: 834e cb3d 1a98 633d 271b 953d bbaf 4e3d
00000190: 1ce9 f3be 0645 7abf 86af fe3c 29d2 7e3c
000001a0: aacb 05be 4157 133d 296f 8cbd a038 0abd
000001b0: e135 5ebd 0e3d 983d 03bc 26bf c356 e33d
000001c0: 16bf 9b3c 244a bbbd 8b96 c6bd df2d 4ebd
000001d0: e0ab b0bd 8d99 553e 5d42 c3bd c7cf 0f3c
000001e0: e890 e93b 3f30 a13d 57ac d8bd 3827 473d
000001f0: 3bc1 2ebe ce5d 5a3d fb98 24bd 4795 b23d
00000200: cfb3 403d 2418 583d c06f b7bc 1c6e 113d
00000210: 0ffd 85bd 256b 27bd 6745 d5bc d35c 6b3d
00000220: 1132 363d b83e cc3d 30d4 fabb 1882 7ebd
00000230: 67bb a33b 2d3e bfbf 73c1 44be 13b2 953d
00000240: f1f2 cbbd c43c 29bd c18c 2f3d becc 6abb
00000250: 060c ae3d 2957 1d3d 9e2e ec3c 3e13 423b
00000260: 4195 b93d 1d0e 9a3d 41fb f5bc e80e 043a
00000270: 1b24 12bd 807e 26be 5f70 6a3c 9353 85be
00000280: d075 1c3d 15fb 13bd e37f b33d 7b5c f9ba
00000290: 1921 cabe 4859 aabf e1aa 7dbd bfea 08bd
000002a0: 47b3 f7bd fca7 bf3d 4aee 4fbc 99e4 85bd
000002b0: 7409 4cbd b9bc 213d aaf6 95be 5a45 b83d
000002c0: e5b5 2a3d e23f febc 44f3 00be 1c87 ba3d
000002d0: 716a 153e a6f8 633e 3966 9cbd 834c ba3d
000002e0: 05d6 75bd c0a9 583d 7470 14be 97d6 943d
000002f0: cb1b a1bd 0860 643d e6fe 983d 7615 7ebc
00000300: de3c f13d b46b 953c 1392 dc3b 845d a33d
00000310: ed97 2fbd d98a 2cbd 6257 a8bc a3a1 d9b8
00000320: 7087 083d bfb9 293e daab 9dbb a3a5 3bbd
00000330: 2a33 093d 52ab 35bf f6cf ec3c b8ad ee3d
00000340: 9735 84bc 4227 d2bd 9799 593d 6702 8cbc
00000350: c602 ca3d 47cc 863d 82d5 75bc 270c 10bf
00000360: 0054 16bd 885b 893c e8e7 993d 78be 183d
00000370: 9d31 18bd 9234 48be 8c5e 46bc 11f2 99be
00000380: 152e 803d 91da c5bd 5b0b aabc 33a9 c83d
00000390: bfa2 c6be 0a43 1abf 2bfc 863d 4221 25bd
000003a0: c831 edbd 0234 0fbd 0982 44bc e97e 9bbc
000003b0: 2930 52bd 40b5 1f3c b654 32bf 0f58 233e
000003c0: c86f 77bd aba2 c5bd 1bc9 633d f5f6 7a3d
000003d0: d7be 353d c3e5 3a3e 8eda 82bd ea4a 323d
000003e0: 69a9 b3bb dc54 273d 2de0 3fbd 435d b8bc
000003f0: 0077 7fbd 0a41 4fbc 0dcc 943d e6c6 38bd

res_blocks.0.linear2.bias f4 [64]
1.0156155 1.5119382 -1.4433643 0.26974946 1.8811603 -1.3681942 -1.0969436 -1.1576716
0.9029017 1.541566 1.6502937 1.58026 -0.5594898 -1.7036338 -1.394904 1.6454954
-1.705779 0.7100936 1.6340305 -1.5147446 -1.3601047 -1.8276168 -1.6436311 1.6814437
1.525682 -1.574015 1.6649531 1.6810825 -1.5681682 0.42855585 -1.6094636 -1.869219
1.4728556 0.49136126 1.0745692 -1.6694002 -1.3063388 -1.5538847 -1.6448988 -1.54655
-1.661182 1.5527762 -1.740428 1.0301068 -1.0739524 1.7579155 1.281653 -0.9548416
-1.17364 0.8722069 1.6968313 -1.6210608 1.5646342 -1.8687564 0.6487432 0.96349293
-1.6929476 -1.8558953 -1.4819913 1.7310644 1.8020378 -1.9400477 -1.6305699 -1.5970212
00000000: b0ff 813f 3187 c13f 29c0 b8bf 9a1c 8a3e
00000010: dcc9 f03f fd20 afbf a668 8cbf 952e 94bf
00000020: 9124 673f 0952 c53f d33c d33f f645 ca3f
00000030: b93a 0fbf ac10 dabf 378c b2bf 989f d23f
00000040: f756 dabf b2c8 353f e927 d13f 27e3 c1bf
00000050: e917 aebf 59ef e9bf 8162 d2bf 8c39 d73f
00000060: 8c49 c33f 5379 c9bf 2f1d d53f b62d d73f
00000070: bcb9 c8bf ac6b db3e e702 cebf 9142 efbf
00000080: 8886 bc3f b493 fb3e 7c8b 893f e8ae d5bf
00000090: 1c36 a7bf b2e5 c6bf 0b8c d2bf 5af5 c5bf
000000a0: 9da1 d4bf 5fc1 c63f 58c6 debf 8ada 833f
000000b0: 4677 89bf 6003 e13f 350d a43f 8070 74bf
000000c0: d639 96bf f448 5f3f c531 d93f ec7e cfbf
000000d0: ef45 c83f 6933 efbf 0914 263f 79a7 763f
000000e0: 82b2 d8bf fa8d edbf e4b1 bdbf 8593 dd3f
000000f0: 2da9 e63f 7c53 f8bf 84b6 d0bf 316b ccbf

res_blocks.0.bn2.weight f4 [64]
8.165371 8.200737 8.22388 8.099233 8.212473 8.150241 8.170867 8.189111
7.529502 8.15015 7.6139874 7.830332 8.287871 8.228668 8.127795 7.980237
8.153904 8.088998 8.19633 8.099714 8.186545 8.208501 8.112957 8.241759
8.070148 8.20229 8.069168 8.1991825 8.140098 7.409774 8.21427 8.22667
8.172494 7.9135556 8.001345 8.165856 7.9851403 8.127059 8.187788 8.225256
8.180148 7.972634 8.180378 8.16772 8.089045 7.9459043 7.649249 8.195604
8.055815 8.110791 8.25218 8.164571 7.709606 8.1616335 8.179878 8.021578
8.231574 8.211133 8.094283 8.126395 8.268988 8.229018 8.16038 8.196047
00000000: 5ca5 0241 3836 0341 0395 0341 7596 0141
00000010: 4a66 0341 6367 0241 dfbb 0241 9906 0341
00000020: aef1 f040 0467 0241 c9a5 f340 1492 fa40
00000030: 1f9b 0441 a0a8 0341 730b 0241 1a5e ff40
00000040: 6476 0241 896c 0141 2b24 0341 6e98 0141
00000050: 17fc 0241 0556 0341 acce 0141 3fde 0341
00000060: 541f 0141 943c 0341 501b 0141 da2f 0341
00000070: d73d 0241 de1c ed40 a66d 0341 71a0 0341
00000080: 89c2 0241 d93b fd40 8205 0041 59a7 0241
00000090: 4586 ff40 6f08 0241 2e01 0341 a69a 0341
000000a0: e3e1 0241 d11f ff40 d4e2 0241 fbae 0241
000000b0: ba6c 0141 d944 fe40 a6c6 f440 3221 0341
000000c0: 9ee4 0041 cdc5 0141 ee08 0441 15a2 0241
000000d0: 18b5 f640 0d96 0241 c8e0 0241 6258 0041
000000e0: 87b4 0341 cd60 0341 2f82 0141 b705 0241
000000f0: c64d 0441 0faa 0341 eb90 0241 0223 0341

res_blocks.0.bn2.bias f4 [64]
7.4768324 7.560264 7.487903 7.5277467 7.535675 7.5355186 7.4187818 7.440173
7.368163 7.459609 7.373999 7.383183 7.536404 7.527405 7.4882355 7.4478903
7.47912 7.4418716 7.579785 7.4594917 7.5177298 7.5662913 7.4573107 7.6026306
7.433657 7.525717 7.4384418 7.4920177 7.4954085 7.3148975 7.6749177 7.5003886
7.5538416 7.399229 7.549217 7.5047746 7.4192133 7.444667 7.545224 7.4926815
7.5095387 7.415621 7.4559817 7.4846997 7.4263053 7.3993554 7.383695 7.3837204
7.4218836 7.383999 7.589318 7.5011735 7.370421 7.5192857 7.5264387 7.4403586
7.5374446 7.587828 7.4462204 7.4683576 7.60087 7.53162 7.480934 7.5200915
00000000: 3642 ef40 afed f140 e79c ef40 4de3 f040
00000010: 4024 f140 f822 f140 a966 ed40 e615 ee40
00000020: fec7 eb40 1eb5 ee40 cdf7 eb40 0943 ec40
00000030: 392a f140 80e0 f040 a09f ef40 1e55 ee40
00000040: f354 ef40 d023 ee40 998d f240 28b4 ee40
00000050: 3e91 f040 0f1f f240 4aa2 ee40 c048 f340
00000060: 85e0 ed40 acd2 f040 b707 ee40 9cbe ef40
00000070: 63da ef40 a413 ea40 ed98 f540 2f03 f040
00000080: 12b9 f140 7cc6 ec40 3093 f140 1d27 f040
00000090: 326a ed40 b63a ee40 7a72 f140 0cc4 ef40
000000a0: 244e f040 c44c ed40 6797 ee40 a982 ef40
000000b0: 4ba4 ed40 85c7 ec40 3b47 ec40 7047 ec40
000000c0: 1280 ed40 b849 ec40 b1db f240 9d09 f040
000000d0: 7dda eb40 fd9d f040 96d8 f040 6b17 ee40
000000e0: bf32 f140 7dcf f240 7047 ee40 c9fc ee40
000000f0: 543a f340 0803 f140 d063 ef40 97a4 f040

res_blocks.0.bn2.running_mean f4 [64]
0.926333 1.4945487 -1.5299635 0.25554416 1.8556694 -1.6866463 -1.3233643 -1.4401573
0.8882264 1.4540561 1.6025673 1.5613475 -0.7654226 -2.0103545 -1.6740466 1.6220506
-1.9752514 0.6795712 1.6159614 -1.8149285 -1.6805769 -2.1454632 -1.9402654 1.6523007
1.5236585 -1.9324921 1.6529435 1.6782069 -1.8156039 0.36303726 -1.6661471 -2.1720104
1.5059594 0.47937486 1.0530967 -2.0040202 -1.5548882 -1.8663207 -1.9412133 -1.8726879
-1.7178816 1.5591424 -1.845644 1.0143348 -1.3613456 1.744303 1.2094235 -1.1808591
-1.4695103 0.816157 1.6720113 -1.9429117 1.5532056 -2.206794 0.3849933 0.87627053
-2.0195053 -2.1217952 -1.8339623 1.6908424 1.7828686 -2.0605278 -1.7095865 -1.90147
00000000: 2924 6d3f 5f4d bf3f d8d5 c3bf afd6 823e
00000010: 9386 ed3f 07e4 d7bf 0064 a9bf 1357 b8bf
00000020: ce62 633f 831e ba3f ed20 cd3f 3cda c73f
00000030: bcf2 43bf a6a9 00c0 2947 d6bf 5b9f cf3f
00000040: 0ad5 fcbf 61f8 2d3f d3d7 ce3f 944f e8bf
00000050: 251d d7bf 454f 09c0 9e5a f8bf 977e d33f
00000060: 3e07 c33f e75b f7bf a793 d33f 7ccf d63f
00000070: b565 e8bf 05e0 b93e 4f44 d5bf 3802 0bc0
00000080: 47c3 c03f 9f70 f53e dfcb 863f de41 00c0
00000090: 9406 c7bf 99e3 eebf ad79 f8bf 3db4 efbf
000000a0: 8be3 dbbf fa91 c73f 103e ecbf b9d5 813f
000000b0: 9340 aebf 5245 df3f 64ce 9a3f 6426 97bf
000000c0: ea18 bcbf aaef 503f 7704 d63f 55b1 f8bf
000000d0: 71cf c63f 1d3c 0dc0 d81d c53e 4453 603f
000000e0: 933f 01c0 7ecb 07c0 47bf eabf 866d d83f
000000f0: 0a35 e43f b0df 03c0 bbd3 dabf 5e63 f3bf

res_blocks.0.bn2.running_var f4 [64]
0.13096023 0.38216674 0.3968176 0.24647257 0.3074849 0.66173595 0.57216597 0.8995623
0.19401726 0.3012387 0.19656427 0.16861354 0.5648308 0.9408308 0.5759631 0.23904526
0.61928844 0.26795438 0.23058979 0.9930615 1.0085437 0.7396221 0.6363108 0.3333926
0.2549299 1.142034 0.23658985 0.31247264 0.5959828 0.16438296 0.43521005 0.30074528
0.23832849 0.23743595 0.21806763 1.0452777 0.42110008 0.9462385 0.7841436 1.1414335
0.24929328 0.15909405 0.22226244 0.31962496 0.6600205 0.19802538 0.19091587 0.61423206
0.6605321 0.36575982 0.31300828 0.88655853 0.19070716 0.689942 0.58742684 0.26715916
0.766799 0.8159692 0.858477 0.27959526 0.26912144 0.19833995 0.16803873 1.0692083
00000000: 701a 063e 5cab c33e ad2b cb3e 4e63 7c3e
00000010: a96e 9d3e 8767 293f 7879 123f b749 663f
00000020: 76ac 463e f53b 9a3e 2548 493e 07a9 2c3e
00000030: c098 103f 4ada 703f 5172 133f 48c8 743e
00000040: b089 1e3f 5131 893e bb1f 6c3e 4739 7e3f
00000050: f617 813f e057 3d3f 44e5 223f 6fb2 aa3e
00000060: 2c86 823e 2c2e 923f 9c44 723e 6afc 9f3e
00000070: 5492 183f 0254 283e dad3 de3e 49fb 993e
00000080: 620c 743e 6922 733e 1f4d 5f3e a9cb 853f
00000090: 6e9a d73e b03c 723f a3bd 483f 7e1a 923f
000000a0: bd46 7f3e 8de9 223e c498 633e e2a5 a33e
000000b0: 1af7 283f 2ac7 4a3e 737f 433e 503e 1d3f
000000c0: a218 293f df44 bb3e 9f42 a03e 80f5 623f
000000d0: bd48 433e 0aa0 303f 9b61 163f 16c9 883e
000000e0: f04c 443f 5ce3 503f 26c5 5b3f 1c27 8f3e
000000f0: 49ca 893e a119 4b3e 5812 2c3e d1db 883f

res_blocks.1.linear1.weight f4 [64, 64]
-0.037716497 -0.08581993 -0.053121146 0.008995235 -0.06602777 -0.42631885 -0.000753175 -0.07576843
-0.07331489 0.08367824 0.09419248 -0.0017039955 -0.07721288 -0.23976889 -0.3916952 -0.033770274
-0.21562193 -0.012130043 0.08572976 0.039023936 -0.2982995 -0.38641143 -0.29775536 0.0064020585
0.012387735 -0.081877045 -0.06591576 0.098105274 -0.21954401 -0.04300644 0.033576913 -0.05899937
0.10383714 -0.031421818 0.08344255 -0.18206921 -0.26666167 -0.033276673 0.22780687 -0.21172926
-0.05062456 -0.018444166 -0.21377064 0.043028627 -0.38015482 0.029429251 0.029980766 -0.08424835
-0.28580618 0.08134944 0.051108636 -0.29619446 -0.018144371 -0.23150015 -0.09199082 -0.041201554
-0.049869306 -0.13056767 -0.34394765 -0.11857693 -0.154658 0.15386225 0.034387242 0.04074096
0.05891293 -0.07181521 -0.323671 -0.16805027 -0.21404774 0.11339795 -0.116709694 0.045190826
-0.05378199 -0.108091064 -0.19163753 -0.19109017 -0.10952458 0.012987104 0.10387671 -0.15036032
0.08629962 -0.1224338 0.0076480797 0.04681249 0.04766018 -0.03102596 -0.054479703 0.105763614
-0.15811628 0.034678567 -0.0013564215 -0.06440883 0.14128558 -0.12996726 -0.15090394 0.024466168
0.053647555 -0.2292118 -0.085717686 0.13682961 -0.01380649 0.1257258 -0.0036253517 -8.626734e-05
-0.12835404 -0.26519072 -0.09522424 0.030528726 0.025684962 -0.23454677 -0.054692235 0.057281982
0.05335425 -0.24817523 -0.086566165 0.010966671 -0.13425764 0.12042754 0.024478203 -0.06605894
0.08534964 -0.034208056 0.08749764 -0.13519797 -0.13782994 0.15486433 0.0760241 0.11007029
0.117912844 -0.04413574 -0.1555117 -0.0274502 -0.092376515 0.1229866 0.19577198 -0.017689934
0.003666283 -0.06363597 -0.053591553 -0.04349912 -0.048193473 -0.051587146 0.049029034 -0.047873758
0.091522746 0.0064831306 -0.15222679 -0.05659336 0.035718728 0.15398395 0.2021324 -0.14442179
-0.005137147 0.13713299 -0.1608301 0.036081195 0.10538045 -0.18755953 -0.3844321 -0.06908006
-0.073896855 -0.22248435 0.025227604 0.090341985 0.054522205 -0.051138096 -0.09678606 0.07879089
-0.15664649 0.13428073 0.06705844 -0.053888787 0.031912882 -0.011206605 -0.18233363 0.124217056
0.11373294 -0.0682036 -0.021347571 0.18137023 -0.15884532 0.14210105 0.16796213 -0.33618236
0.084568225 0.09139912 0.16153544 -0.1474857 -0.16172406 -0.029643202 0.0031388004 -0.060764335
0.078921035 -0.018429479 -0.0934731 -0.23501611 0.1336022 -0.077820376 0.05910367 -0.010426089
-0.27090868 -0.022450829 -0.26963815 -0.29655138 0.0060974066 0.028510977 0.013436669 -0.2225739
-0.06263378 -0.02941758 0.15975556 -0.04197572 -0.056327052 0.05353632 0.054612678 -0.10757557
-0.17515825 -0.065248065 0.08507442 0.18240269 -0.06215887 -0.37376338 -0.06592044 0.030344477
0.2660529 -0.13724132 -0.23258719 0.04254671 0.0026857357 0.05801091 0.09977655 -0.07327587
-0.20571308 -0.30978605 0.03937615 0.06616072 -0.021634687 -0.21023728 -0.25426543 -0.029759081
-0.048967775 -0.06947515 0.010312578 -0.026316408 -0.35811967 0.026061926 0.057273082 -0.06065421
-0.008190241 -0.0481192 0.055337034 0.14432767 0.118078545 -0.08866254 0.002845016 0.047356326
00000000: 9d7c 1abd 5cc2 afbd 8f95 59bd c060 133c
00000010: 9139 87bd 7746 dabe b870 45ba 7b2c 9bbd
00000020: 1e26 96bd 7f5f ab3d fde7 c03d 9a58 dfba
00000030: c921 9ebd fa85 75be 468c c8be b352 0abd
00000040: ffcb 5cbe 16bd 46bc 1693 af3d 90d7 1f3d
00000050: b6ba 98be b8d7 c5be 6473 98be 5cc8 d13b
00000060: edf5 4a3c 27af a7bd d8fe 86bd 6beb c83d
00000070: 25d0 60be 8527 30bd f287 093d 53a9 71bd
00000080: 91a8 d43d 2ab4 00bd ede3 aa3d 5a70 3abe
00000090: e187 88be 1f4d 08bd 3446 693e 8ecf 58be
000000a0: b35b 4fbd 3818 97bc b1e6 5abe c93e 303d
000000b0: a7a3 c2be 9d15 f13c 399a f53c 668a acbd
000000c0: 3055 92be 899a a63d 4a57 513d cda6 97be
000000d0: 81a3 94bc 600e 6dbe af65 bcbd f6c2 28bd
000000e0: c243 4cbd 88b3 05be e819 b0be 76d8 f2bd
000000f0: ab5e 1ebe 118e 1d3e a3d9 0c3d fedf 263d
00000100: af4e 713d da13 93bd 35b8 a5be 5f15 2cbe
00000110: 552f 5bbe 2f3d e83d 7e05 efbd 041a 393d
00000120: 814a 5cbd d95e ddbd a13c 44be 24ad 43be
00000130: 6c4e e0bd ddc7 543c 50bd d43d 0ef8 19be
00000140: dbbd b03d 92be fabd be9c fa3b 74be 3f3d
00000150: 5237 433d 272a febc 1c26 5fbd 989a d83d
00000160: 3ce9 21be 1d0b 0e3d f4c9 b1ba c7e8 83bd
00000170: 2bad 103e 2316 05be 9086 1abe 466d c83c
00000180: 8abd 5b3d 80b6 6abe c18c afbd 101d 0c3e
00000190: 9e34 62bc 44be 003e 4f97 6dbb 6dea b4b8
000001a0: 3e6f 03be 14c7 87be ed04 c3bd 6117 fa3c
000001b0: 4569 d23c 072d 70be f704 60bd 83a0 6a3d
000001c0: fc89 5a3d a621 7ebe 9a49 b1bd 8dad 333c
000001d0: d67a 09be b7a2 f63d 8386 c83c e949 87bd
000001e0: cbcb ae3d bf1d 0cbd f631 b33d 5671 0abe
000001f0: 4b23 0dbe c194 1e3e 86b2 9b3d 886c e13d
00000200: 4a7c f13d adc7 34bd 763e 1fbe 3edf e0bc
00000210: e62f bdbd 66e0 fb3d 7378 483e 7bea 90bc
00000220: 0646 703b 9353 82bd d182 5bbd 222c 32bd
00000230: 8566 45bd 0b4d 53bd abd2 483d 4617 44bd
00000240: 4770 bb3d 7170 d43b 57e1 1bbe 70ce 67bd
00000250: cd4d 123d f8ad 1d3e ccfb 4e3e 4ee3 13be
00000260: 8355 a8bb 976c 0c3e a5b0 24be e0c9 133d
00000270: b5d1 d73d 9b0f 40be 49d4 c4be d979 8dbd
00000280: 3c57 97bd f0d2 63be 1faa ce3c 3805 b93d
00000290: ad52 5f3d 2e76 51bd c537 c6bd 1e5d a13d
000002a0: f067 20be e380 093e ef55 893d 7dba 5cbd
000002b0: 15b7 023d e89b 37bc abb5 3abe 8365 fe3d
000002c0: d1ec e83d 54ae 8bbd 1ae1 aebc 1eb9 393e
000002d0: 59a8 22be f082 113e 44fe 2b3e 1820 acbe
000002e0: 1b32 ad3d 762f bb3d 8c69 253e 7e06 17be
000002f0: fe9a 25be 4dd6 f2bc 55b4 4d3b 06e4 78bd
00000300: 5aa1 a13d 6bf9 96bc d36e bfbd 10a8 70be
00000310: 04cf 083e 4a60 9fbd b116 723d 30d2 2abc
00000320: 8bb4 8abe cdea b7bc 030e 8abe 95d5 97be
00000330: c1cc c73b da8f e93c 7925 5c3c 6aea 63be
00000340: 2446 80bd 23fd f0bc f696 233e bcee 2bbd
00000350: 32b7 66bd e648 5b3d 8bb1 5f3d 9550 dcbd
00000360: af5c 33be c7a0 85bd 7f3b ae3d c5c7 3a3e
00000370: 4d9a 7ebd ea5d bfbe 4c01 87bd fb94 f83c
00000380: 1638 883e fd88 0cbe 562b 6ebe 7645 2e3d
00000390: 2b03 303b d99c 6d3d a657 cc3d a911 96bd
000003a0: 73a6 52be 479c 9ebe e348 213d 467f 873d
000003b0: 3a3b b1bc 7148 57be 142f 82be 51c9 f3bc
000003c0: 6f92 48bd fd48 8ebd 16f6 283c 8295 d7bc
000003d0: 765b b7be d27f d53c 2e97 6a3d 8d70 78bd
000003e0: 5c30 06bc a318 45bd 16a9 623d a2ca 133e
000003f0: 2ad3 f13d b594 b5bd 7373 3a3b b5f8 413d

res_blocks.1.linear1.bias f4 [64]
0.16173 0.12433504 0.09827272 -0.2816607 0.002678974 0.03542882 0.11841353 0.04480538
-0.08224302 0.19870755 0.13195598 0.108306356 0.13792999 0.034484193 -0.025202073 0.093964376
-0.13121715 0.10656744 -0.1621551 0.15505475 0.10208518 0.099728346 0.18361661 0.04149449
0.10898511 -0.08198634 -0.15064068 0.14175951 0.014187132 -0.245088 0.1102838 -0.006626634
0.14168847 -0.1329995 0.03882693 0.15787677 -0.0012971474 0.14189798 0.22924 0.10359187
0.20791289 0.046407375 0.041958045 0.08635393 0.029137935 0.03121857 -0.03136522 -0.18205948
-0.011702827 0.15977147 0.070899285 -0.085944355 -0.03113898 0.055187035 0.09917721 0.22315255
0.18049583 0.07805137 0.14132728 0.125989 0.117258616 0.039462473 0.25179532 0.1493577
00000000: 8d9c 253e 5fa3 fe3d 3543 c93d d535 90be
00000010: ba91 2f3b cf1d 113d cb82 f23d d985 373d
00000020: 076f a8bd fe79 4b3e 781f 073e b9cf dd3d
00000030: 853d 0d3e 4c3f 0d3d 9474 cebc 6570 c03d
00000040: ca5d 06be 0840 da3d fd0b 26be acc6 1e3e
00000050: 0912 d13d 603e cc3d fe05 3c3e 20f6 293d
00000060: 9633 df3d 74e8 a7bd 8d41 1abe 6829 113e
00000070: 2571 683c 59f8 7abe 79dc e13d 3c24 d9bb
00000080: c816 113e 0531 08be fd08 1f3d 73aa 213e
00000090: 0b05 aaba b44d 113e e4bd 6a3e f927 d43d
000000a0: 1ee7 543e a915 3e3d 33dc 2b3d 54da b03d
000000b0: aeb2 ee3c 16be ff3c d178 00bd cd6d 3abe
000000c0: 37bd 3fbc 229b 233e a533 913d 9803 b0bd
000000d0: 2d17 ffbc cd0b 623d 6c1d cb3d 1a82 643e
000000e0: e6d3 383e 66d9 9f3d 19b8 103e 4303 013e
000000f0: 4925 f03d 67a3 213d 51eb 803e 3af1 183e

res_blocks.1.bn1.weight f4 [64]
0.5863023 0.4844817 0.71185887 0.7128825 0.30864108 0.51684296 0.5492742 0.5399354
0.5439218 0.74529743 0.5435049 0.6623996 0.5711107 0.52943707 0.5219604 0.56904626
0.3789029 0.45327866 0.47027785 0.4616118 0.6067358 0.4917348 0.42449617 0.55996937
0.6769974 0.63242203 0.7988467 0.61645347 0.60650253 0.8665453 0.6704243 0.48938465
0.4034619 0.7971126 0.48282558 0.6335888 0.58704835 0.4316235 0.57944894 0.64875704
0.4437162 0.7394048 0.65788317 0.59864414 0.66421944 0.5247687 0.6284829 0.55888313
0.6499092 0.60218227 0.61421067 0.6361592 0.55917495 0.6460375 0.68268174 0.5992351
0.6058403 0.5241671 0.68180543 0.6649618 0.5413283 0.61431205 0.6667771 0.6125532
00000000: e817 163f fc0d f83e 623c 363f 787f 363f
00000010: 3406 9e3e d24f 043f 3c9d 0c3f 3539 0a3f
00000020: 763e 0b3f d0cb 3e3f 2323 0b3f 0593 293f
00000030: 5034 123f 3089 073f 329f 053f 04ad 113f
00000040: 90ff c13e 2414 e83e 42c8 f03e 6258 ec3e
00000050: 0a53 1b3f aac4 fb3e 9057 d93e 275a 0f3f
00000060: b44f 2d3f 69e6 213f 3881 4c3f e5cf 1d3f
00000070: c043 1b3f ead5 5d3f eda0 2b3f a090 fa3e
00000080: 8f92 ce3e 920f 4c3f ea34 f73e e032 223f
00000090: cd48 163f c1fd dc3e c456 143f f114 263f
000000a0: c52e e33e a249 3d3f 086b 283f be40 193f
000000b0: 490a 2a3f 3e57 063f 41e4 203f f712 0f3f
000000c0: 7360 263f 9e28 1a3f e93c 1d3f 54db 223f
000000d0: 1726 0f3f b762 253f 3bc4 2e3f 7967 193f
000000e0: 5a18 1b3f d12f 063f cd8a 2e3f f03a 2a3f
000000f0: 7e94 0a3f 8e43 1d3f e7b1 2a3f 49d0 1c3f
