ProgressAfterOpening/model/best_resnet_model.pth (torch, 169571 bytes, 44 tensors)

input_layer.0.weight f4 [64, 118]
00000000: c8a8 b4bb 9fa5 a6bb c013 c13c faa3 b0bd
00000010: ef19 f03c 93e7 863d 3355 43bd 6c29 57bc
00000020: 86a0 c63d 7799 abbc d573 e73d 3d4c 96bd
00000030: d535 af3d 4921 16bd d69d 88be 67f1 41bd
00000040: 1bbc 6f3c 4744 093e b6fc 223d cf78 b4bb
00000050: 7051 b43d 0ff9 823d 9c71 a63d fc18 32bc
00000060: f75a aa3e fab3 c1bb 18df cc3d 9817 bbbc
00000070: 0e76 d9bb 4409 2cbd 1971 0a3d 0568 2abe
00000080: 38c3 52be 3f95 bd3b 7d76 85bd dcba 693a
00000090: 3d66 bfbd b127 313d 3f6a 953d 1cee da3d
000000a0: 0b12 ad3c aebb 91bd 09d1 c03d c192 923c
000000b0: 268c 22be 61b1 98bd 5ef7 d93d 6ff0 aabd
000000c0: 8f48 92be aa17 413d ab19 123c 66a6 243d
000000d0: 8e4e 1e3e d0c1 93bd a859 b33d 54ed 093e
000000e0: 149b 18bd 3107 703d 7ab4 983e 84e8 6fbb
000000f0: 92d6 053d 9bd3 0a3d a6be 753d 4512 553b
00000100: cfd7 ae3d 36e5 18be 09e6 33bd 701e 38bd
00000110: f88b 4f3d ffca 583c be9e a8bd 1d90 63bc
00000120: 8c3e c33c cb51 073d 624b 133e 392a 5c3d
00000130: 519a 4b3d 19e3 8e3b b61e 33bc e0cf 0fbe
00000140: 1be4 73bd 14a0 c33d 7b8e f23b 691e c13d
00000150: b934 133e 3c8f c13d 7530 913c 2c16 adbc
00000160: 13d6 913d 4f5e 00be ac14 453d 80ef 8cbc
00000170: 08bf 8f3e a4e7 9f3c a2dd 50be b679 633d
00000180: 5aeb 1fbb 23cd 1d3e 28e8 03be 83d0 20bd
00000190: 528d 533b f987 0bbe adaf a63d da42 3a3d
000001a0: b080 b13b c24d ffbb a6ca d63d 6b97 733d
000001b0: 4ca7 de3c 5d1e 21be d90a 39bd 6450 6fbd
000001c0: 81b2 05bd 3f72 89bc 938a 40bd 21d8 0d3e
000001d0: d879 c5bd 2901 33bc 0cad 303d 119b bebb
000001e0: a2f3 97bb f25d 0f3a faa6 b9bd 0cd6 94bd
000001f0: 2fb9 663d 9e36 10bd fc73 4abd c578 2c3e
00000200: 3412 1e3e 1be8 b63c 10e4 ba3c 3058 8f3d
00000210: ba8e 7bbd 03ba a8bd c37f 7cbc ea4c f93c
00000220: 953e 2d3d 864a a0bb f9a2 e0bc d34a 39bd
00000230: 907c 193e 7e5b c4bd a12f 2ebd c51d eabc
00000240: b0c6 793d 47bd 01bd 8901 6abe 6ee0 dabb
00000250: b3e4 53bb bcd4 8a3c b249 cabd 63be 0a3d
00000260: 2d54 b1bc b41e 61bd 98e1 96bd 46d3 a7bc
00000270: 98a4 1abd b96c c7bd 2ae1 583d a160 10bc
00000280: 73f8 133e 8bad bd3c 0bd9 babd 5416 713d
00000290: d44f 6b3d 0aaf 72bd d30c c93c 158d b93d
000002a0: 4bc5 06be 58ea e8bd b39d 61bd 4a44 8fbb
000002b0: aa8d 453d 5eb1 50bc a7e4 ab3d 605f 86bd
000002c0: 660d 583d 4bba a1bd b950 063e fc8a ef3b
000002d0: 7b32 44be dbe1 213d 540d b2bd 1db3 b73d
000002e0: b452 543d 8c3d 9cbd 7dc4 b1bd fe97 2f3d
000002f0: 9848 57bd 2d59 94bc f038 b0bc 837c 98bd
00000300: 8e0d 2fbd 219f 863d 5996 283e 45b1 4b3d
00000310: ade2 65bd bbd3 8dbd 32a9 42bd 96fa 9bbd
00000320: 4b29 0ebe f5b1 883c b440 93bd 469d 8c3d
00000330: 81a8 443c 137b 733a bbda 833c 3226 013f
00000340: d035 0f3d 0dfc 3cbe 61b5 4ebd ad79 cc3b
00000350: 84dd 04bd 3fa8 9d3d 48c5 d2bd ed65 4fbe
00000360: a9d9 153e 6cd0 ec3c 7461 923d 59d7 cdbd
00000370: a750 bf3c a949 96bc 4fd6 fabd f1ab 1b3d
00000380: f894 9fbd 399e b03d 4e72 4f3d 41d3 183d
00000390: ea2c 5e3d 5b3d 293e 1223 393e a2ae 94bd
000003a0: 3b32 fe3d 6023 62bd 503f 5e3c e7a2 28bd
000003b0: d0e6 c1bd c8e2 cebc 22b5 e4bc 8b57 9ebc
000003c0: 18c2 10be 3368 463d ba24 153b 1775 953d
000003d0: 761e 283e d311 c53d 3928 a23d a81f d43a
000003e0: 8cfd 933b 4fd2 723d 0ad1 3cbe f5a8 dcbd
000003f0: 45b1 a9bc fcb2 ba3d 9e31 993d 7521 6cbd
-0.0055132844 -0.0050856615 0.023568988 -0.08625026 0.029309241 0.06587138 -0.047688674 -0.013132434
0.09698586 -0.020947201 0.1130139 -0.0733876 0.085551895 -0.036652837 -0.2668292 -0.04734936
0.01463225 0.13404952 0.039791785 -0.0055075656 0.088045955 0.063951604 0.08127138 -0.010870215
0.33272526 -0.0059113475 0.10003489 -0.022838399 -0.0066363877 -0.042001024 0.033799265 -0.16641243
-0.20582283 0.005785614 -0.065167405 0.0008916089 -0.09345672 0.043250743 0.072956555 0.10689947
0.021126768 -0.07115875 0.0941487 0.017892243 -0.15873775 -0.07455707 0.10642885 -0.0834664
-0.28570983 0.04714171 0.0089172525 0.040197752 0.15459654 -0.07214701 0.08757335 0.1346944
-0.03725727 0.05860061 0.29825193 -0.0036607096 0.032675333 0.03389321 0.05999627 0.003251211
0.08537256 -0.14931187 -0.04392055 -0.044950902 0.050670594 0.013231992 -0.08233403 -0.01388934
0.023833536 0.03303699 0.14384225 0.053751204 0.049707714 0.0043605682 -0.010932615 -0.14044142
-0.05954371 0.09552017 0.007402239 0.094296284 0.14375581 0.09451148 0.017723301 -0.021128736
0.071209095 -0.12535976 0.048115417 -0.017204046 0.28075433 0.019519635 -0.20397046 0.055535994
-0.0024401755 0.15410285 -0.1288153 -0.039261352 0.0032280278 -0.13626088 0.08138976 0.04547391
0.005416952 -0.007791252 0.10487871 0.059470575 0.027179383 -0.15734239 -0.04517636 -0.058426276
-0.032640938 -0.01677811 -0.047007155 0.13851978 -0.096423805 -0.01092557 0.04313378 -0.005816825
-0.0046371976 0.0005469016 -0.090650514 -0.07267389 0.05632895 -0.035208337 -0.049427018 0.16842945
0.15436631 0.022327473 0.022813827 0.06999242 -0.06141541 -0.08238604 -0.01541132 0.030432183
0.04229601 -0.0048916964 -0.027421461 -0.045237374 0.14988923 -0.09587763 -0.04252589 -0.028578648
0.0609805 -0.03167465 -0.22852148 -0.006679586 -0.003233236 0.016947143 -0.098773375 0.033872973
-0.021646583 -0.05496092 -0.07367247 -0.020486485 -0.037754625 -0.09737534 0.05294911 -0.008812101
0.14450245 0.02315404 -0.09123429 0.058859184 0.057449177 -0.05924896 0.024542248 0.090601124
-0.13161199 -0.113728225 -0.055082034 -0.0043721544 0.048230805 -0.0127376 0.08393221 -0.0656116
0.052747153 -0.07896861 0.13116731 0.0073102694 -0.19159882 0.039522033 -0.086939484 0.0896971
0.051836684 -0.07628927 -0.08680055 0.04286956 -0.052559465 -0.018108929 -0.021511525 -0.07445624
-0.042737536 0.0657332 0.16463603 0.049729604 -0.056124378 -0.0692515 -0.04752464 -0.07616155
-0.1388294 0.016686419 -0.071900755 0.06865935 0.012003065 0.0009288054 0.01609551 0.50448906
0.03496343 -0.18455525 -0.050465945 0.006240091 -0.032437816 0.07698106 -0.10291535 -0.20253725
0.14633812 0.028907977 0.07147494 -0.1005084 0.023353888 -0.01834567 -0.12247907 0.038005773
-0.077920854 0.086239286 0.05064612 0.037310842 0.054242052 0.16527312 0.18079785 -0.07259871
0.124119245 -0.055209517 0.0135649 -0.04117098 -0.09467852 -0.025254622 -0.027918402 -0.019328853
-0.14136541 0.048439216 0.0022757486 0.07297724 0.1641787 0.0962254 0.07917828 0.0016183751
0.004516309 0.059282597 -0.18439117 -0.107744135 -0.020714412 0.0911617 0.07480167 -0.057649095

input_layer.0.bias f4 [64]
00000000: faa1 b8bd 0f90 dd3c 6adc 20be cd86 d2bd
00000010: 0682 83bc dece 3d3e d7c1 87bc bdd0 70bd
00000020: 3dca b6bd 21a1 e13d 144d 64bd 119b 993d
00000030: 0258 d2bd b655 ea3c 74d6 e3bc 71d6 23bd
00000040: 1e30 ef3c b88e 083d b33d 9c3d 233a 763d
00000050: 2d97 033c 67d3 68bd 0223 a6bc defc 423d
00000060: a233 acbd 2e89 623d 7f2f 0e3e e900 483d
00000070: 1633 243d 3516 8ebd 2521 2c3a 738b 333d
00000080: f435 9e3d 9c77 a9bc 44ea 93bc 0b28 333d
00000090: ddc3 a2bd 00d5 11bd 5d24 b13d e34c 61be
000000a0: 3a1c 94bc 8003 573c 38e8 303e c056 ac3d
000000b0: 64cd abbd 02c1 913d ce0e af3d bac0 d3bd
000000c0: 1e6f 093d 1911 1abd ac2c f8bc c1e8 2b3d
000000d0: e019 afbd 79f1 ba3d f70b 17be 355f f53d
000000e0: f989 7ebd d907 d1bc 5cfb fabd be0f dabc
000000f0: 7922 0b3c 8529 bdbd 8014 1dbd 4d54 b2bd
-0.090152696 0.027046232 -0.15709081 -0.102796175 -0.016053211 0.18535945 -0.016571922 -0.05879282
-0.08925293 0.11017061 -0.05573757 0.0750028 -0.102706924 0.028605323 -0.02781222 -0.03999943
0.029197749 0.033339232 0.07628956 0.060114037 0.008031649 -0.056842234 -0.020280365 0.047604434
-0.08408286 0.055306606 0.13885306 0.048828993 0.04008778 -0.069378294 0.0006566218 0.04383416
0.077251345 -0.020686917 -0.018056042 0.04373936 -0.07947514 -0.035603523 0.08649514 -0.22001986
-0.018079866 0.013123393 0.17276084 0.08414984 -0.083887845 0.071168914 0.08547746 -0.10339494
0.033553235 -0.03761396 -0.030294739 0.04197002 -0.08549857 0.091280885 -0.14750658 0.1198105
-0.0621433 -0.025516437 -0.12254974 -0.026618835 0.008492106 -0.09236435 -0.03834963 -0.08707485

input_layer.1.weight f4 [64]
00000000: b4d7 ee3f c3d3 ee3f f663 e53f b2f6 e33f
00000010: 7790 df3f 9484 e23f 4d61 ea3f a1e0 e63f
00000020: f55d e23f 6487 e63f 6f54 e73f 73f7 e83f
00000030: d09a e13f c17d f03f 4845 b33f 13fd ef3f
00000040: 982c f43f a801 e43f 5eec e73f 8d1c e53f
00000050: 05e1 de3f 177c ee3f 5dd5 e63f be2c ef3f
00000060: 7ec2 f43f 2b21 de3f 9ca6 da3f 29e6 f23f
00000070: d1eb e03f 93e0 e03f 1ab3 eb3f 15cb de3f
00000080: e8cc e73f da99 ee3f 69ab ef3f 82c2 e33f
00000090: fd5b ec3f 3320 d63f 0855 e93f 8a48 ff3f
000000a0: c217 f13f c8b5 ee3f 9b05 e23f 2dfc d13f
000000b0: 1718 df3f bd13 eb3f 16ca db3f fdbf e53f
000000c0: 6c39 eb3f 8d12 f23f d2b1 f43f c7d4 f33f
000000d0: 46fb e73f 7182 f23f 56c4 ec3f 2946 f03f
000000e0: b9fb ea3f 91d1 df3f 651e f83f e8b7 e33f
000000f0: 1860 eb3f 2c2f e23f f360 f03f 2aba ec3f
1.8659577 1.8658375 1.7921131 1.780966 1.7465962 1.769671 1.8310944 1.8037301
1.7684923 1.8010068 1.8072642 1.8200516 1.762537 1.8788377 1.4005518 1.8749107
1.9076109 1.7813005 1.8119009 1.7899338 1.741242 1.8631619 1.8033863 1.8685529
1.9121854 1.7353872 1.7082095 1.8976489 1.7571965 1.7568535 1.8414032 1.7405726
1.8109407 1.8640702 1.8724185 1.7793734 1.8465573 1.6728576 1.8229074 1.9944012
1.8835375 1.8649225 1.7657961 1.6405083 1.7429227 1.8365399 1.7171047 1.7949215
1.8376899 1.8911911 1.9116766 1.904931 1.8123558 1.8946058 1.8497417 1.8771411
1.835807 1.748583 1.9384276 1.7790499 1.83887 1.7670646 1.8779587 1.8494313

input_layer.1.bias f4 [64]
00000000: c0b1 523f 73fd 7b3f ef30 4b3f 9bb1 4d3f
00000010: 7c21 493f f705 623f 67ac 5b3f d04e 793f
00000020: e22a 443f 711b 823f c285 5c3f 7362 603f
00000030: 7352 523f a198 803f 48b3 aa3e 33f6 673f
00000040: 8534 733f 540c 643f 310e 7a3f 6fb1 7a3f
00000050: e943 583f 4b8b 6c3f 4908 513f 8139 6e3f
00000060: 63c2 693f c059 5f3f 8954 563f bc4d 7c3f
00000070: bd57 7b3f 9a6d 663f 0d47 5f3f b910 6c3f
00000080: 7f51 563f a7f5 5f3f 415d 7d3f b5d3 5b3f
00000090: 7b4a 723f bd94 683f 96ff 573f 9029 833f
000000a0: 23a1 713f 3acf 633f 52a1 4d3f 54e4 6b3f
000000b0: 25bb 373f c7b5 583f 7893 653f f5b3 5a3f
000000c0: fb2d 613f 7f06 833f ed37 773f a5a5 6a3f
000000d0: 5ab5 6e3f 1e0b 793f cb70 783f 0f57 7c3f
000000e0: 1ef2 793f 72d1 2a3f 22c5 6a3f 3766 5d3f
000000f0: 10f5 563f 90ef 7c3f 120f 823f 37bb 863f
0.82302475 0.9843361 0.7937154 0.8034913 0.7856672 0.8829035 0.8580994 0.97385883
0.76627934 1.0164624 0.861416 0.8765022 0.8215706 1.0046579 0.33339906 0.90610045
0.95002013 0.8908131 0.97677904 0.9792699 0.8447862 0.92400044 0.8165327 0.93056494
0.91312236 0.8724632 0.8372274 0.98556113 0.98180753 0.9001099 0.8721779 0.92213017
0.83718103 0.8748421 0.9897042 0.85869914 0.946449 0.90851957 0.8437437 1.0247059
0.943865 0.8898808 0.8032428 0.92145276 0.71769935 0.8465237 0.89678144 0.8543084
0.87960786 1.0236357 0.9656971 0.91659003 0.9324547 0.9728259 0.9704711 0.9857034
0.97635067 0.6672584 0.9170705 0.8648409 0.83967686 0.98803043 1.0160849 1.0525883

input_layer.1.running_mean f4 [64]
00000000: 342e ddbd c46c 03bc a00e 3ebe 950b b2bd
00000010: a0c6 cd3a 86bf 3f3e f0b0 4ebd 94e4 99bd
00000020: bf97 b5bd 0428 b13d 5c68 84bd bebd c13d
00000030: bcd6 62bd 558b 083c c312 72bd f732 22bd
00000040: 14a0 073d e879 3e3d 5f82 bb3d 96a7 a93d
00000050: d251 e83c cd4d 41bd b8b4 2fbc 3000 ab3c
00000060: 7596 30bd cdbc 8c3d 23d3 0c3e baf2 953d
00000070: 6d97 3b3d 9797 92bd a27e 3a3c be67 6b3d
00000080: 6941 a43d 10ae 2a3b f694 01bd 8f8d c33c
00000090: 84f0 b5bd 88d2 7bbb d34c cc3d d72f 78be
000000a0: 2883 eabb b8b6 60ba db0a 1f3e 1c57 923d
000000b0: 8eec 5fbd 26f0 7e3d f076 c23d d15a a6bd
000000c0: e00a 123d 2188 9fbc a152 d9bc 35b4 a93c
000000d0: 3f12 90bd 9e75 053e a812 22be ce77 e63d
000000e0: 79d9 6ebd a786 09bc 2d13 ddbd e1e3 b8bc
000000f0: acba d53c 9b25 b8bd 5034 84bc ad05 c8bd
-0.10799828 -0.008021537 -0.18560266 -0.08693615 0.0015699454 0.18725404 -0.05046171 -0.07514301
-0.08866834 0.086502105 -0.064652175 0.094600186 -0.055380568 0.008334001 -0.059099924 -0.039599385
0.033111647 0.046502978 0.09155726 0.082839176 0.028359327 -0.047193337 -0.010724239 0.020874113
-0.043112237 0.068719484 0.13752417 0.07321687 0.045798708 -0.0715782 0.011382731 0.057471983
0.080202885 0.002604369 -0.0316362 0.023871211 -0.08883765 -0.0038425047 0.099755906 -0.24237
-0.0071567483 -0.0008572149 0.15531485 0.07145521 -0.054668956 0.062240742 0.09495342 -0.081227906
0.035654902 -0.019474091 -0.026528658 0.020715812 -0.0703473 0.13033149 -0.1582743 0.1125332
-0.058312867 -0.00839392 -0.10794673 -0.022569599 0.026089989 -0.08991548 -0.016138226 -0.097667076

input_layer.1.running_var f4 [64]
00000000: 54c4 3441 19a9 0740 4576 aa40 32c4 ed40
00000010: 9b07 8b41 5f97 1e41 4e06 4b40 fae8 5440
00000020: 81bd 1040 dc1f ce40 b5be 1c41 20e4 1740
00000030: 8595 a940 cefc d53f 5b0a af40 aab0 1b41
00000040: 960f ab41 af04 8e40 f057 5240 2ad6 d33f
00000050: cc75 4c40 cfbc cb41 21ac db41 fb62 6940
00000060: ef01 3341 ab1d 6340 1421 9441 d801 a041
00000070: acb7 3340 3b02 b73f b224 1f40 84e7 6141
00000080: cb12 1641 34aa f340 1edb 1440 7180 3940
00000090: 22ae 0540 3753 be40 aa55 3140 59f6 a53f
000000a0: 0a7c 5a41 d276 1c40 8a32 f040 6b3f 9e40
000000b0: 23df 4e40 a04d 4040 d54a b53f f8f1 7b40
000000c0: 0894 4041 8312 3c40 c1f1 0941 7b1f c940
000000d0: 5cea db3f d88a 1f41 5b6c 0541 24d9 fe3f
000000e0: 3eff 9041 d08f 3740 2013 5b40 f927 4441
000000f0: ffa1 d640 a61a 0a41 9907 9d41 a11a 0b41
11.297932 2.119696 5.326937 7.4301996 17.378714 9.911956 3.1722598 3.3267198
2.2615664 6.441389 9.796559 2.3732986 5.299502 1.6717775 5.470014 9.730631
21.38261 4.4380717 3.2866173 1.6549733 3.1946898 25.467192 27.459047 3.6466663
11.187972 3.5486858 18.516151 20.0009 2.8080854 1.4297556 2.4866147 14.119022
9.379588 7.6145267 2.3258739 2.8984644 2.0887532 5.947658 2.7708535 1.2965804
13.655283 2.4447522 7.5061693 4.9452415 3.2323692 3.0047379 1.4163462 3.9366436
12.03614 2.9386299 8.621522 6.285093 1.7180896 9.971397 8.338954 1.9910016
18.12463 2.8681526 3.4230423 12.259759 6.707275 8.631506 19.62871 8.694001

res_blocks.0.linear1.weight f4 [64, 64]
00000000: 974f 76bd ee86 b23d df91 22bb 7cd7 ca3c
00000010: dd06 2cbd bb9d 67bd 9e0c febd b215 c4bd
00000020: de68 1ebe 273d 51be 9e0a 6bbd 3ecf 82bc
00000030: 9e07 f0bd 7a6c d8bd ec4a 59be d3b4 10be
00000040: bc75 e3bc 02d6 75bd 7836 c8bd 8f0f a03d
00000050: 85f1 3f3c d06a 49be 8ee8 2ebe e7a0 283d
00000060: 5b3e 34be cef4 59be 3f10 febd 3225 70be
00000070: 2545 1e3a a4f4 86bd ac4b 8bbc 8b5a e53c
00000080: 2096 82be 104b 1fbe f2f8 c3bd b55f e9bc
00000090: a01c 8dbd ba1b 05be 7d03 d3bb 513b 363c
000000a0: 2406 48bd 9270 c63c 9902 8d3d a3f5 303b
000000b0: 9a3d a0bd 20be b1bd 5679 003d 3073 273d
000000c0: a002 23be 1382 023d 2cee 17be ad7c 60bd
000000d0: 1af6 aabd 1e7b 4cbc 2d6c 0abe bc11 13be
000000e0: 653a 01be ebf8 de3c df47 64bd 9d9a aabd
000000f0: 3ab0 1bbe 1e69 febd 3c1c 2ebd 2fbb 48bd
00000100: bdc3 b1bd b252 463c 88d4 793d 807d dfbd
00000110: cedf b8bb c1b8 94bd 0e11 36bd b7f7 cdbd
00000120: 7bb6 a03d ea50 a1bd a9c9 0fbd f410 c9bd
00000130: 98d4 2abe 9b37 cb3d 17ee dabd 9c42 f33b
00000140: 5147 83bd 40c0 c83d e066 83be bbdb cbbe
00000150: 8a82 833d 6e13 c0bd 24aa b3bd 763e b1bc
00000160: 0f57 303c 2f92 cdbd 64c3 953a bfae d0bd
00000170: df80 07bd 4283 b8bd 8a9d 013b bb80 adbd
00000180: abdb b93c 6f07 de3c 21a6 d1bc 6a9c 543d
00000190: 1cac 68bd bfb9 1e3d e89c d93c 4235 1e3e
000001a0: 5f97 713c 67a7 0cbd 8c0b ab3c 13be f7bc
000001b0: 12bc 103d 019c f53d b9b3 13be fe79 3abe
000001c0: 4628 da3d d261 77be 0c10 b7bd 296d 30be
000001d0: 9875 4ebe 4b17 4ebe 8dc9 a13d 34da 02be
000001e0: c60f 9ebd 3d8e 5dbd 672d cb3c 430c 80bd
000001f0: c5c3 123d 9614 a5bd c8e0 f53b 3e18 80bd
00000200: d3fe 6e3d 3670 c1bc b35c 9fbd 870c 633d
00000210: 300c 163d 05b9 4dbe 467e 6cbd 4e0a 143d
00000220: 8baa 973d 94a3 f43b bcd6 4fbe 3c79 1f3e
00000230: 159b 58be 64cf 95bc d34d 433d 81ad 003e
00000240: f738 81bd 0d65 0cbd 9966 273d 80ea 923d
00000250: 78b1 c93d b7ab f63c 6d97 8b3b fae7 bfbc
00000260: ebe7 273c ae82 2ebe 47a0 e4bd 6aab cd3d
00000270: f719 953d b4e6 6f3d 78c7 253e 04de 2bbe
00000280: 12b2 783d c4c3 aa3d 3e26 0f3d b7c5 a1bc
00000290: 71c5 fc3c 21d6 29bc 971d be3d dbba 46be
000002a0: 1a18 df3d 2e68 c4bd 202f e0bd 847e c23d
000002b0: 1cd6 0fbe 7b21 59bd 1ca1 843d 3057 cb3c
000002c0: f826 1e3e 0c94 a33d 3634 bb3d 2a78 29bc
000002d0: 43c2 833c 08a8 05bb 76ba 073e b3ab 7b3b
000002e0: 3c86 e03d 33c8 813e 7750 bcbc b54d aabd
000002f0: 4f64 d1bd 14fe cbbd ec43 2a3d 82ea aa3c
00000300: 136a 9fbc 0798 51be df79 04be c224 2d39
00000310: 3b08 fe3b 62df 03be 6ad5 d1bd 4b25 4ebc
00000320: f4fc 8b3d 835e 1c3d 925a a3bd e84d 653e
00000330: 9455 b0bd 6a71 8aba 16fb 3ebe b1ff 90bd
00000340: 6f95 33bd 38a6 f4bd d0b7 b53d 212f 7b3e
00000350: a624 01be 231d fa3d 01ae 963d bfb0 04be
00000360: 1c18 c13d 1767 a2bd 1587 333c 037d 97bc
00000370: 9c1e 733e fc85 9f3d 5b42 fc3d d44a b1bd
00000380: 128a b9bd d245 c6bd 9a68 20bc ef2a df3c
00000390: bd4e f7bd 0735 f33d 1fb4 b13d 60bf 78be
000003a0: 8dfa bb3d db94 b8bb 08de 933c 9f49 053a
000003b0: 2ab7 03be deaa 2cbd 2da1 8b3d 5b22 433e
000003c0: d7e3 83bd ad20 4b3e 269a 5bbd 0859 31bd
000003d0: a213 833c 0601 bf3d 480d d23c cdaa 64bd
000003e0: a140 6f3d 6bf5 ec3d b79a ed3b 4cc2 273c
000003f0: b47c 46bd 3429 cb3c 8531 d53d 7d61 193d
-0.060134497 0.08717142 -0.0024806184 0.024760954 -0.041998733 -0.056546908 -0.1240475 -0.095744506
-0.15469691 -0.20433484 -0.057383172 -0.015967961 -0.11720203 -0.10567565 -0.21219987 -0.14131479
-0.027766101 -0.060018547 -0.09776014 0.078154676 0.011715298 -0.19669652 -0.170809 0.041169073
-0.17601912 -0.21284792 -0.124054424 -0.23451689 0.0006037525 -0.0658963 -0.017003857 0.027997276
-0.2550516 -0.15555978 -0.09568967 -0.02848802 -0.068902254 -0.12998858 -0.006439625 0.011122541
-0.04883398 0.0242236 0.06885261 0.002700188 -0.078242496 -0.086788416 0.031365715 0.040881336
-0.1591897 0.03186233 -0.14836949 -0.0548064 -0.083477214 -0.012480525 -0.13517828 -0.14362234
-0.12619932 0.027218303 -0.055732604 -0.083302714 -0.15203944 -0.12422393 -0.042507395 -0.049006637
-0.08679912 0.012104677 0.0609937 -0.10912609 -0.005641914 -0.072618015 -0.04444986 -0.100570135
0.078473054 -0.07876761 -0.035104427 -0.09817687 -0.1668266 0.09922715 -0.10689943 0.007423712
-0.06410087 0.09802294 -0.25664425 -0.3981608 0.06421383 -0.09378706 -0.08772686 -0.021636229
0.010762944 -0.10037648 0.0011426029 -0.1018958 -0.033081885 -0.090094104 0.0019777738 -0.08471819
0.022687754 0.027103154 -0.025591912 0.05190698 -0.05680476 0.03875136 0.026564077 0.15450004
0.014745562 -0.034339335 0.02087953 -0.030242002 0.035335608 0.11992646 -0.14424028 -0.18210599
0.10652213 -0.24158409 -0.089386076 -0.17229141 -0.20162046 -0.20126073 0.07899771 -0.1277855
-0.07717852 -0.054090727 0.024801923 -0.06252339 0.03583123 -0.08060567 0.0075036027 -0.06254624
0.058348488 -0.023613077 -0.07781353 0.05543187 0.036632717 -0.2009011 -0.05773761 0.03614264
0.07405575 0.007465789 -0.20296758 0.15573591 -0.21152909 -0.018287368 0.04768164 0.12566186
-0.06309693 -0.034276057 0.04086933 0.071736336 0.098483026 0.030111177 0.0042599947 -0.023426045
0.010248165 -0.17042038 -0.11163383 0.1004246 0.07280343 0.058569625 0.16189373 -0.16783911
0.060716696 0.083381206 0.03494858 -0.019747598 0.030855866 -0.010365994 0.092829876 -0.19407217
0.10893269 -0.09590183 -0.109464884 0.09496787 -0.1404652 -0.053010445 0.06476042 0.024821848
0.15444553 0.07987222 0.09140818 -0.010343591 0.016083842 -0.0020394344 0.13254723 0.0038401901
0.10963103 0.25348052 -0.022987587 -0.08315603 -0.102242105 -0.09960571 0.04156868 0.020863775
-0.01945976 -0.2046815 -0.12937115 0.00016512259 0.007752446 -0.12878183 -0.102457836 -0.0125821335
0.06835356 0.03817607 -0.07976259 0.22393 -0.08610073 -0.0010562364 -0.18650469 -0.07080019
-0.043843683 -0.11945766 0.0887295 0.24529697 -0.12611637 0.12212589 0.07357407 -0.12958048
0.094284266 -0.07929819 0.010957499 -0.018492227 0.23742145 0.07789227 0.12317344 -0.086568505
-0.09059538 -0.09681286 -0.009790564 0.027242152 -0.12075565 0.118753485 0.086769335 -0.24291754
0.09178648 -0.0056329793 0.018050209 0.0005084518 -0.1286284 -0.04215514 0.06817851 0.19056074
-0.064399414 0.19836684 -0.053613804 -0.043297797 0.016000573 0.09326367 0.025641099 -0.05582695
0.058411244 0.11570247 0.0072511095 0.010239195 -0.04845877 0.02479992 0.10409836 0.037446488

res_blocks.0.linear1.bias f4 [64]
00000000: 851b d2bd a5ac 97ba 2846 18be b0f4 823d
00000010: 289e 85bd e613 2fbd 65c0 063d 8643 e43d
00000020: cb45 10be edff 72bd 842f d1bd 82eb 10be
00000030: 3f67 bfbc c02c 15bd 8ffd 583d 81fe 9abd
00000040: 70a5 debd f71a 31bc b763 893d c65e 9b3d
00000050: 9b90 31bc e50d f9bd 3b29 afbd 7896 c5bc
00000060: 8374 40bc 3c7a d03d 633d 593d 7161 cd3d
00000070: 5c22 7cbc 7f2d b2bd 5c74 a13d 86e0 ba3c
00000080: 16f7 dfbd 47f5 183e 890d 9f3d eb00 b93d
00000090: 884a d83d cf17 113e 64e7 953b 601d 22bd
000000a0: bbbe 533c 1320 fe3d b952 963c 503b a0bd
000000b0: 63e7 333c 7961 5ebd 9300 433e 118a 68be
000000c0: 3c7a 9c3d 86c9 c4bd 684a babd a8bc d0bd
000000d0: 912e 28bd aae9 f9bd 6262 393e ff83 0a3e
000000e0: 3284 e0bb 0e82 83bb dd86 d53d 4d41 f53c
000000f0: 9325 103e da8f c53c 5851 b0bd 452f 31bd
-0.10259155 -0.0011571838 -0.14870512 0.06394327 -0.065243065 -0.042743586 0.032898325 0.111456916
-0.14089124 -0.0593261 -0.10214141 -0.14152339 -0.023364661 -0.03641963 0.052976187 -0.07568074
-0.108713984 -0.010809652 0.06708472 0.07586436 -0.010837699 -0.12160853 -0.08552786 -0.0241196
-0.011746529 0.10179564 0.05303706 0.10028351 -0.015389051 -0.08700084 0.07883522 0.02281214
-0.109358 0.14937316 0.077662535 0.09033378 0.10561091 0.14169239 0.004574703 -0.039578795
0.012923892 0.124084614 0.018349992 -0.07823813 0.01098046 -0.054292176 0.19043188 -0.22708918
0.07640502 -0.0960875 -0.09096223 -0.10192233 -0.041060034 -0.12202771 0.18103936 0.13526915
-0.0068516964 -0.0040133065 0.10426114 0.029938364 0.14076833 0.024116445 -0.08609265 -0.04325797

res_blocks.0.bn1.weight f4 [64]
00000000: b552 433f 8710 693f 34b8 943f 2c67 7b3f
00000010: 1810 883f c2a0 843f 22c4 833f 3e1c 8a3f
00000020: 9f7e 523f ee4b 743f 2316 633f b0b2 8c3f
00000030: 9f9a 983f b2b5 6f3f 83ad 823f 015a 5c3f
00000040: c34e 643f 56b3 5d3f a8ac 813f a468 773f
00000050: 9643 713f f446 893f 9f68 6b3f 9eae 893f
00000060: 3f6b 6e3f bc99 843f 0d62 763f e1b0 723f
00000070: e319 7c3f be08 7b3f 718a 6f3f edc0 7e3f
00000080: 4cef 553f f379 743f 821f 803f 71d0 623f
00000090: 0659 693f e113 863f afab 873f f1cf 773f
000000a0: 678b 573f a22e 653f 31aa 6e3f 876b 653f
000000b0: 053c 733f 3452 353f d7d4 603f 25ea 843f
000000c0: de7a 803f bb16 753f 0030 5a3f a298 553f
000000d0: 6531 723f 1cd2 783f eb5e 803f 880d 713f
000000e0: 41db 3b3f daf3 7f3f df17 6d3f 8ccf 873f
000000f0: d945 573f fc5a 5d3f a600 773f 0070 7f3f
0.76298076 0.91040844 1.1618714 0.982043 1.0629911 1.0361559 1.029423 1.0789869
0.8222446 0.9542836 0.8870565 1.0992031 1.1922187 0.9363662 1.0209202 0.86074835
0.8918268 0.8660177 1.0130816 0.96644044 0.9424375 1.0724778 0.91956514 1.0756414
0.93132395 1.0359416 0.96243364 0.94801146 0.98477 0.98060215 0.9357062 0.9951313
0.83568263 0.9549858 1.0009615 0.88599306 0.91151464 1.0474817 1.0599269 0.9680167
0.84197086 0.8952428 0.9322844 0.896172 0.9501346 0.70828557 0.8782477 1.0383955
1.0037496 0.9573781 0.8522949 0.83436024 0.9460662 0.971956 1.0028967 0.9416127
0.7338143 0.9998146 0.9261455 1.0610213 0.84090954 0.86466956 0.96485364 0.99780273

res_blocks.0.bn1.bias f4 [64]
00000000: 79cf 9e3e b409 46be 680d 2abe ddc2 30bb
00000010: 4964 18be bd38 693c ee75 12be 6af6 aebe
00000020: c01f 073f f93e cfbd 9b81 81bd 3b53 7bbe
00000030: 8c45 24be ef9c 3cbe e794 2abe 0a75 c83e
00000040: a6b5 8abd ad4a 68be 75b2 4ebe c01d c3be
00000050: 3fb8 e1bb f636 9ebd b4e1 2dbd b6dd aebd
00000060: 20b1 19be c214 28be 9784 7bbe dc8c 6abb
00000070: 3c95 933c cc51 c0be b8de 89be ce7a 913e
00000080: 9dbd 8bbe 83b0 56be 76de 53bd d7c4 3dbd
00000090: c752 073e 130a 3abe 4cb5 69be f92e 8ebe
000000a0: 7e81 2ebe 8c66 19be 538b 643e dcd8 043e
000000b0: 054e c7bc c65b fe3e 916e 1d3e 3230 89be
000000c0: 674c 39bb 44ed 9abc 08c2 fe3d fc75 bb3d
000000d0: 494e 77be 2656 2bbe fdad afbd cf49 35be
000000e0: 2f8a cf3e dfb7 6cbe 0cd0 453e 5135 723d
000000f0: 3421 a4bd 0246 3f3e 6b55 92be ecf3 1f3e
0.31017664 -0.19339639 -0.16606677 -0.0026971616 -0.14882006 0.014234719 -0.14302799 -0.34172374
0.5278282 -0.10119433 -0.063235484 -0.24543469 -0.16042155 -0.1841924 -0.16658364 0.39151794
-0.06772928 -0.22684737 -0.20185263 -0.38108635 -0.006888419 -0.07725327 -0.042451575 -0.08538382
-0.15008974 -0.16414168 -0.24562298 -0.0035789525 0.018015496 -0.37562406 -0.26927733 0.28414005
-0.272931 -0.20965771 -0.051725827 -0.0463303 0.13215171 -0.18167906 -0.22823066 -0.27770212
-0.17041585 -0.14980525 0.22318773 0.1297335 -0.024329195 0.49679393 0.15374209 -0.26794583
-0.00282743 -0.018911965 0.12439352 0.09153363 -0.24150957 -0.16732082 -0.085781075 -0.17703937
0.40535113 -0.23117016 0.19317645 0.059132878 -0.080141455 0.1867905 -0.28580794 0.15620393

res_blocks.0.bn1.running_mean f4 [64]
00000000: 2181 bbc0 6918 6ec0 00a9 e13e c0cd 853e
00000010: b41f 833f 73bd 1240 bce5 95c0 c84d 80be
00000020: ba6a a0c0 2a31 ce3f c697 63c0 cf91 8840
00000030: 509f 903e 94c2 6040 ac24 b43d 4542 48c0
00000040: e4b4 2ec0 865d 4a3f a05b fb3f 362d e3bf
00000050: 2ab9 83c0 92d9 10c0 db40 92c0 83f6 58bf
00000060: ebb4 15c0 4448 97c0 b512 1240 11bf 29c0
00000070: 19c9 6d40 bc7e a1bf 63a2 14c0 388f 75c0
00000080: a36b 793f 4450 9c40 58de 7940 05a2 63c0
00000090: 144c bbc0 b22f 6fbe b99c 9540 5e79 0a40
000000a0: cedb 113f 9ccb 90c0 7681 78c0 a2e9 84c0
000000b0: c25d b2bf cdb2 94c0 a835 70c0 6e7e 9dbe
000000c0: ba6a 53bf 7edf e7bf c904 33c0 b87d 49c0
000000d0: 7bd0 ffbf a408 4340 84e5 2e3f 541c 7ec0
000000e0: 4e62 8cc0 74e3 35bf b35b 7dc0 17b8 6dc0
000000f0: 4825 3fbe 1db8 90c0 32b4 00c0 3daf 7dc0
-5.859513 -3.7202399 0.4407425 0.26133537 1.024405 2.292813 -4.6842937 -0.25059342
-5.013028 1.6108754 -3.5561385 4.267799 0.28246546 3.511876 0.08796057 -3.1290448
-2.7297907 0.79048955 1.9637337 -1.7748172 -4.116353 -2.2632794 -4.570417 -0.8475115
-2.3391674 -4.7275715 2.2823918 -2.6522868 3.715399 -1.2616801 -2.3224113 -3.8368664
0.97429866 4.884798 3.9041958 -3.556764 -5.853037 -0.23358038 4.675381 2.1636577
0.5697602 -4.5248547 -3.8829017 -4.1535196 -1.3934863 -4.6468263 -3.753275 -0.3076052
-0.82584727 -1.8115079 -2.797167 -3.1482983 -1.9985498 3.0474024 0.68318963 -3.970479
-4.387 -0.7105019 -3.9587219 -3.714361 -0.18666565 -4.522475 -2.0109982 -3.9638207

res_blocks.0.bn1.running_var f4 [64]
00000000: e659 6340 d8f8 0440 b8f2 c23f 21d5 f53f
00000010: 4bc5 3740 0599 9c40 5d49 9540 29ce 2f40
00000020: 0590 5c40 5d95 f43f d095 0440 b800 1140
00000030: dea1 e43f 6a4e 0840 90e7 6941 af38 6e40
00000040: addc 1e41 aa18 c23f 3bd2 3640 0e95 9e3f
00000050: 8b8c a141 14bc 0640 8c34 2a40 2e95 6b41
00000060: 39d0 e640 5ecf 9340 7ce2 e03f 4c8d 4540
00000070: 72d9 7740 c190 ae3f da99 993f aae5 1440
00000080: 2e4b 3b41 dec3 4240 28e1 4840 edaf f440
00000090: 79ef 5b40 1799 2440 1eb4 0740 ab7b 0840
000000a0: 0b17 7840 c840 3841 7cfa 7540 fbde 3841
000000b0: b255 8b41 c023 3240 9007 8e40 4196 1640
000000c0: 6932 d441 813f 8241 1001 803f 116e 8b40
000000d0: 80f5 1740 85ef 1840 935d 0e40 a568 7d40
000000e0: 35db 2240 9188 3f41 cbad 1b41 56e5 1840
000000f0: 6bb5 3c40 10af 9140 5deb c83f 5060 8541
3.552362 2.0776882 1.5230322 1.9205667 2.8714168 4.893679 4.6652055 2.746958
3.4462903 1.9108082 2.0716438 2.2656689 1.7861898 2.129786 14.619034 3.7222097
9.928876 1.5163777 2.8565814 1.2389238 20.193624 2.1052294 2.6594572 14.723921
7.212918 4.6190634 1.7569118 3.086749 3.8726468 1.3637925 1.2000077 2.3265176
11.705854 3.0432048 3.1387424 7.6464753 3.4364913 2.5718439 2.1203685 2.132548
3.8764064 11.515816 3.8434134 11.554439 17.416843 2.783432 4.438423 2.3529208
26.524614 16.281008 1.0000324 4.357186 2.3743591 2.389619 2.2244613 3.959512
2.5446293 11.970841 9.72993 2.3889976 2.9485729 4.55262 1.5696827 16.672028

res_blocks.0.linear2.weight f4 [64, 64]
00000000: c625 5e3d 02a6 73bd 24df b6be 4e38 f8bd
00000010: ec30 d3bd c0ca 073e 9484 e23b dc34 55be
00000020: 8847 303d 1f52 033e ccc4 b1bc b6e2 9bbd
00000030: 43c3 9dbe cb32 db3d b706 02be 79a4 0c3c
00000040: 8da6 c4bd c91f 063c 7385 2bbd 04f0 20bd
00000050: 571d e13d 7a67 28be 2860 15be deec 12be
00000060: ad58 933d 4034 203e c246 7abd b371 aabd
00000070: 6d02 1c3e 69d5 3fbd 95c5 ae3d 28dd 47bb
00000080: ca75 543d f7c3 713e 0fc7 ee3d 8ebf 70bc
00000090: 5031 c4bc b981 8dbd 1d2e 223e f203 c03d
000000a0: d9b5 a73d 433d 123d b021 733d 8705 babd
000000b0: a872 2c3d 06ce 03bc d6f9 8dbd f70f 87be
000000c0: 97a2 8bbd 418b 60bd 9253 153e 3bda 7c3d
000000d0: 6e85 02bd 83c0 363e 836a 0fbe c54a 8e3c
000000e0: 5136 b8bc 0767 253c 846c 7bbe 0dfb 063e
000000f0: 1736 60bd 72cf 32be e2b6 173e d29f a7bc
00000100: 78b3 2d3d 8a99 243d 931c af3d 55e9 d73d
00000110: 237c 753e b828 73be 4d72 9ebc 65a7 b23d
00000120: 2892 8a3c 0616 4abd 84a7 1abe f811 f33d
00000130: d8bd 823e dd07 48be d4dc e73d 170e b4bd
00000140: 72da f2bd ba5f 49bc 6506 9c3c aed2 d73d
00000150: 9f4b 0abd a39c 513c 53bf ad3d 317b 183e
00000160: 69cb 0ebe 5559 fd3c 4061 4e3d d60d febc
00000170: b6ef c53d d571 f6bd c2d6 f5bd e239 11be
00000180: dcb8 a7bd 7c1f 84bc 84f1 873d 53dc c1bd
00000190: f663 063e be00 f63b cdf5 d93d 7a43 e0bc
000001a0: 418b 05bd 8dd1 793c b5e7 f7bc 7e8f 893d
000001b0: abe8 163d a8e6 263d 274c 05be f545 423e
000001c0: d422 95bd 28fa b7bb 5657 893d b864 753d
000001d0: dfc1 663d 0813 4e3c a77e bc3d cb29 f63c
000001e0: e043 5ebc 765c 16bd 799e 47bd 5c0a 11be
000001f0: 0613 48bd 4364 91bd e8e3 c3bd 8810 fd37
00000200: 19da e8bd c09e 49bc 29c3 98be c31c 3fbe
00000210: daf3 d9bd c4f1 023d d6b1 b6bd 3453 94be
00000220: 3396 e33d 35ed 653e 949e 34bc 4a76 5c3c
00000230: 386a b8be 542c c7bc 2f22 81be 42be 82bd
00000240: 5f21 6cbd e83c 0f3d 81c9 fc3c ccde bebc
00000250: 1eb6 a7bb 3c1b bdbd e3e7 b7bd 1e10 7f3d
00000260: 26e1 da3d 8638 943d 6e0e 00be e764 47bd
00000270: 1f1c febc c092 27bd fc36 133e 4b7a 14bd
00000280: 02c7 993d 19e8 123e 7176 883d 12d1 033e
00000290: 2464 eb3c c821 b8bd 18e6 0b3e 83f5 a3bb
000002a0: 4a97 143d 7e27 63bc 7245 9d3d e6ff 663a
000002b0: e0b0 cebd d327 033d d703 2bbd 13bb 8cbe
000002c0: 068f 20be ead8 80bc bda5 8c3c 8780 66bc
000002d0: 9e62 d13c 2f43 5e3e 27c1 7b3d b721 0f3e
000002e0: 0c07 dcbd 7684 81be f960 65bd 9e00 6ebd
000002f0: 00e1 0d3d c1da d1bc 6dc8 1d3e 5b32 c33d
00000300: 0507 a73c 98ad bc3b 64ad 3fbe ba07 58bd
00000310: 677e f3bd 799d fd3c 560c 13bd a577 cf3d
00000320: 3b5d 88bd c779 18bd 9111 74bd a77a 8bbe
00000330: 0245 a53c 4053 1abd 8103 5dbd d934 063d
00000340: 5b75 8c3d 61df a7bd cd75 8bbe 68ed a9bb
00000350: 6360 853d 3352 613d 5d67 313e a4ce babd
00000360: dca2 82bc d95f 1b3e 31cc acbd 7c17 c03d
00000370: cb70 5ebd 2f05 c6bd f8e4 cfbc 9864 633c
00000380: 6de2 893c 537e dcbd 8cd9 41be 2313 2cbc
00000390: 28fe e9bd d7ac 05be 49c7 72be b7e6 40bd
000003a0: f2f3 e43c 6f4c fd3d 0ffb 073c 5c4f eb3d
000003b0: 4094 1ebe 9805 eb3d 1427 32bd 553d 21bd
000003c0: 4a46 ab3c caba 1d3d 7afd bc3d 5a11 403d
000003d0: 6fa0 4abe 5ba0 9ebd 4767 e1b9 e90b 523d
000003e0: 8a01 79bc ac1c a7bc 5891 83bd c91f 9f3c
000003f0: 6f28 4f3c 6fa0 dbbd a051 a73d 9b9d 94bd
0.054235242 -0.05948449 -0.35717118 -0.12120114 -0.103120655 0.13260937 0.006912777 -0.20820946
0.043036968 0.12824295 -0.021700285 -0.07611601 -0.30813035 0.10703047 -0.12697874 0.008584135
-0.096020795 0.008186289 -0.041875314 -0.039291397 0.10991924 -0.16445723 -0.14587462 -0.1434817
0.07194648 0.15644932 -0.061102636 -0.08322468 0.152353 -0.046834383 0.085337795 -0.003049681
0.051870145 0.23609911 0.11659061 -0.014694108 -0.023949295 -0.06909508 0.15837903 0.093757525
0.081889816 0.035702955 0.0593583 -0.090830855 0.042101532 -0.008044725 -0.06932418 -0.26379368
-0.06818121 -0.054820303 0.14582661 0.06173156 -0.03186553 0.17846875 -0.14005475 0.017369637
-0.022486838 0.010095364 -0.24553114 0.13181706 -0.054739084 -0.17461947 0.14815858 -0.02046195
0.042407483 0.04018549 0.08550372 0.105425514 0.23973136 -0.23746002 -0.019341612 0.08723334
0.016915396 -0.04933741 -0.15102965 0.11868662 0.25535464 -0.1953425 0.113214165 -0.0879175
-0.118580714 -0.012290889 0.019046018 0.10538231 -0.033763524 0.012793693 0.08483758 0.14890744
-0.13944782 0.030926386 0.050385714 -0.031012457 0.09664862 -0.120334305 -0.120038524 -0.14182237
-0.08189556 -0.016128294 0.06637862 -0.09465852 0.1312407 0.0075074127 0.10642586 -0.027375925
-0.032603506 0.015247715 -0.030261854 0.06716822 0.036842983 0.040747315 -0.13017331 0.18971999
-0.072820336 -0.0056145377 0.06706111 0.059910506 0.056337234 0.01257778 0.092038445 0.030049225
-0.013565987 -0.03670927 -0.048735116 -0.14164108 -0.048846267 -0.070992015 -0.09564954 3.0167648e-05
-0.11369724 -0.012305915 -0.29836395 -0.18663315 -0.10642214 0.031968847 -0.08920638 -0.2896973
0.111126326 0.22453769 -0.011024136 0.013455937 -0.36018538 -0.02431313 -0.25221393 -0.06383945
-0.057649013 0.034970194 0.030857803 -0.023299597 -0.0051181456 -0.0923371 -0.08979776 0.06227123
0.10687475 0.072373435 -0.12505504 -0.048680212 -0.031019269 -0.040911436 0.14376444 -0.03624944
0.07508661 0.1434635 0.06663216 0.12872723 0.028734274 -0.08990818 0.13661993 -0.0050036325
0.036277093 -0.013864396 0.07679261 0.00088119355 -0.1009233 0.0320204 -0.04175171 -0.27486476
-0.15679559 -0.015728433 0.017168874 -0.014068729 0.02555972 0.21705316 0.0614635 0.13977705
-0.107435316 -0.25296372 -0.056000683 -0.058106057 0.034638405 -0.025617005 0.15408488 0.09531089
0.02038909 0.0057579987 -0.18718487 -0.052741744 -0.11889344 0.030958878 -0.035900436 0.10130242
-0.06658407 -0.03722551 -0.059587065 -0.27242014 0.020174507 -0.03767705 -0.05395842 0.032765243
0.06858321 -0.08196903 -0.27238312 -0.0051857717 0.06512525 0.055010032 0.17324586 -0.09121445
-0.015946798 0.15173282 -0.08437384 0.09379479 -0.054306787 -0.096689574 -0.025377735 0.013878964
0.016831601 -0.10766282 -0.18930644 -0.010502609 -0.114254296 -0.13054214 -0.23708834 -0.047095027
0.027948353 0.12368094 0.008299603 0.11489746 -0.1548624 0.11475676 -0.0434943 -0.03936513
0.02090754 0.038508214 0.09228034 0.046891548 -0.19787763 -0.07745429 -0.00042992292 0.05128089
-0.015198121 -0.020399414 -0.064242065 0.019424336 0.012643917 -0.1072396 0.081698656 -0.07256623

res_blocks.0.linear2.bias f4 [64]
00000000: 8ab1 ac3b f794 7abd 718c 5f3c 8439 a6bd
00000010: 9bd8 d13d f5f0 b73d 1b36 71bd f397 323d
00000020: e2fa 8dbc 2046 513d dd09 81bd 0e70 30be
00000030: 92ab eb3c 1ed5 bfbd fc37 efbd de86 9bbd
00000040: 71fa c03d f542 e33d 689d 943d 1cb4 ce3d
00000050: c49e b5bd abaa a3bd 326e a03c 5607 bf3b
00000060: 75ff 7abc 76e9 943d dd70 b83c 37bf e1bd
00000070: 0496 af3d efc3 acbd 2a00 81bb 31b0 a8bd
00000080: 4ea1 a4bd 900e b6bd 7780 353c 1f7d ebbc
00000090: 0a85 003e 6d70 a03d f85d 993d 3b62 973d
000000a0: 9ec1 7c3d 48ae de3d a6e9 5ebd 1742 9e3c
000000b0: fcda 67bd 18cd 773d e204 68bd 3683 93bd
000000c0: c6b7 d73c 2a23 efbd cc2d d0bd c6ee 7a3d
000000d0: c5a5 abbd be3c d0bc 33f2 003e c995 2fbe
000000e0: d0d4 c33d 39aa 02be 6d82 4b3d fed8 ccbd
000000f0: 27bc 613d 7e80 af3d 4e48 78bd 4aa3 fa3d
0.0052701877 -0.06117722 0.013644324 -0.08116439 0.10246392 0.08981506 -0.05888949 0.04360194
-0.017331544 0.051092267 -0.063007094 -0.17230245 0.028768335 -0.09366821 -0.116806 -0.07594083
0.09422768 0.110967554 0.07256585 0.10092947 -0.08868173 -0.07991537 0.019583795 0.005829732
-0.015319695 0.07271092 0.022514755 -0.110227995 0.08573535 -0.08435809 -0.003936787 -0.08236731
-0.08038579 -0.08889496 0.011077992 -0.028746186 0.1255075 0.078339435 0.07488626 0.07391783
0.061708085 0.10873085 -0.054422043 0.019318623 -0.056605324 0.060498327 -0.05664528 -0.07202761
0.026332747 -0.11676629 -0.10164985 0.06126287 -0.083812274 -0.02541959 0.12592392 -0.17146982
0.09562075 -0.12760247 0.04968493 -0.100023255 0.055111077 0.0856943 -0.06061583 0.12238176

res_blocks.0.bn2.weight f4 [64]
00000000: 39ce ef3f b07b f63f d645 e73f af69 dd3f
00000010: aa67 e43f 9c28 ef3f 3e3e 0440 73d4 eb3f
00000020: d47d e03f c6b7 eb3f c05f eb3f cc3e ef3f
00000030: 15c7 e53f 0a3c f93f c588 f63f 4ee6 f03f
00000040: 9bae f53f 50ad e83f e55f f13f 33fe f73f
00000050: 9199 e03f b238 ec3f 2fe9 ea3f 1cae f63f
00000060: f6c7 fe3f 43c3 e73f d063 e93f 6e92 f33f
00000070: 25d3 ed3f cf00 dc3f 584d e33f ed78 e73f
00000080: ca0d e63f a163 eb3f b239 e83f 3ef0 e63f
00000090: 20ab ef3f b28d e93f 8695 e73f 0827 0140
000000a0: 5509 f43f 60f1 ed3f 9584 dd3f 442d e83f
000000b0: 2f56 d83f 110e eb3f 1e20 f43f e4e2 ea3f
000000c0: 855a e63f 764b f73f ce0a 0540 6143 fd3f
000000d0: e875 f23f b9db fb3f 977e ee3f 0a91 ee3f
000000e0: 5d44 e63f 7073 ef3f 791c fb3f b197 ec3f
000000f0: 8c3e f43f c96e e73f a7bc f43f d7f4 ef3f
1.8734809 1.9256496 1.8068187 1.7297877 1.7844136 1.8684268 2.066299 1.8424209
1.75384 1.8415458 1.8388596 1.8691039 1.795138 1.9471447 1.9260489 1.8820283
1.919391 1.8177891 1.885739 1.937445 1.7546865 1.8454802 1.8352412 1.9271884
1.9904773 1.8106464 1.8233585 1.9029062 1.8580061 1.7187747 1.7757978 1.8083779
1.7972958 1.8389779 1.8142607 1.8042066 1.8724098 1.8246367 1.8092506 2.0180073
1.9065348 1.8589287 1.7306086 1.8138814 1.6901301 1.8363668 1.9072301 1.8350492
1.7996374 1.9319904 2.0787845 1.9786187 1.8942232 1.9676429 1.8632382 1.8638012
1.7989613 1.8707104 1.9618064 1.8483793 1.9081588 1.8080684 1.9120072 1.8746594

res_blocks.0.bn2.bias f4 [64]
00000000: 6dbc 6f3f 582c 653f 1c14 623f 98a4 783f
00000010: 9561 5f3f 77ea 663f bd81 5b3f 7eab 763f
00000020: 9fc1 5c3f 9c38 7e3f 3642 753f 85b1 6d3f
00000030: 8f74 6f3f 9341 6e3f 5520 843f b967 663f
00000040: 3039 6f3f 803d 713f a035 6a3f fe99 7f3f
00000050: 5e72 753f 91d7 783f e404 573f a155 6c3f
00000060: 0f6b 683f 0601 733f e950 6b3f a53a 803f
00000070: b85b 763f 1c18 803f 60cd 673f 07c9 763f
00000080: 6c9d 6c3f 6f90 7f3f 855e 833f 1c24 643f
00000090: 0641 773f a145 7f3f f97a 6b3f 86f1 793f
000000a0: df20 703f 64a4 663f a7e2 793f 1b5a 873f
000000b0: 8a62 563f db0b 633f 5d87 783f 155c 683f
000000c0: 0d4b 6a3f d305 833f ceb2 7b3f 04bb 803f
000000d0: 2053 753f 9591 7a3f 8cb1 773f 1a5d 823f
000000e0: ed2d 793f af72 813f 0c4b 6a3f 7107 6b3f
000000f0: 8304 763f 844c 813f 007d 783f 8772 843f
0.9364689 0.8952079 0.88311934 0.9712615 0.87258273 0.90201515 0.8574484 0.96355426
0.8623294 0.9930513 0.95804155 0.92849 0.9353723 0.9306881 1.0322367 0.9000202
0.93446636 0.94234467 0.91488075 0.9984435 0.95877635 0.9720393 0.8399184 0.9231816
0.9078836 0.94923437 0.91920334 1.0017897 0.962337 1.0007358 0.9054775 0.96400493
0.92427707 0.99829763 1.026322 0.891176 0.9658359 0.9971562 0.91984516 0.9763416
0.9380016 0.9009459 0.9761147 1.0574373 0.8374411 0.88689965 0.9708155 0.90765506
0.9152077 1.0236152 0.9831971 1.0057073 0.95829964 0.9787839 0.9675529 1.0184662
0.973357 1.0113124 0.9152076 0.9180823 0.96100634 1.0101476 0.97065735 1.0347451

res_blocks.0.bn2.running_mean f4 [64]
00000000: bb8a d8be 317a c03c ed1f 04bf be67 29bf
00000010: 67ea 283f 0043 5fbf 12cc 8bbf 4b56 4ebd
00000020: b31a 6d3f 2c08 9d3e b8a1 2e3f eee8 4cbf
00000030: a99d 323f 00b5 c83e fe2f c2be d6e6 cbbe
00000040: 73bb eb3e df62 733f bba5 19bf 3fe4 f9be
00000050: a7f4 cabe 1c24 4ebe 9e1f bdbd ad9a 89be
00000060: c4d3 30bc 1307 363f 8e7b 213f 619b d1be
00000070: a9b1 803e f58d 29bf 5703 5bbe 197e c7be
00000080: aa9b 803d 3465 babe fc73 9abd 36c1 b9be
00000090: 6a6d 3f3f 2267 fdbe b476 98be dfe8 6b3e
000000a0: 8779 5fbd adb3 41be 82ac 53be 3f34 dcbd
000000b0: b992 d6bd 5fd6 2ebf 9e60 1f3e 5a18 ecbe
000000c0: 181a 9b3e 1e05 8abf 36f6 003f 7912 3a3e
000000d0: 1c60 7a3e 57fd 4fbf 32c8 a4bd 5481 21bf
000000e0: b0ab a7bd b180 08be 7794 27bf 5b0c f73e
000000f0: 4f1b 1b3f 3e87 4dbd a374 3abe e41f 93be
-0.42293343 0.023495765 -0.51611215 -0.66173923 0.6598267 -0.8721161 -1.0921652 -0.050375264
0.92618865 0.30670297 0.68215513 -0.8004292 0.6977182 0.39200592 -0.3792724 -0.3982455
0.4604145 0.9507274 -0.6001851 -0.4880695 -0.3963978 -0.20130962 -0.09234546 -0.2687582
-0.010792676 0.71104544 0.63079154 -0.40938857 0.25135544 -0.66232234 -0.21387993 -0.38963392
0.062796906 -0.36405337 -0.075416535 -0.3628022 0.7477633 -0.49492747 -0.29778063 0.23038052
-0.054559257 -0.18916197 -0.20671275 -0.10752153 -0.10477204 -0.68295854 0.155642 -0.4611233
0.30293345 -1.0782812 0.5037569 0.1817111 0.24450725 -0.8124594 -0.08045997 -0.63087964
-0.08187044 -0.13330342 -0.65460914 0.48251614 0.60588545 -0.050177805 -0.18208556 -0.28735268

res_blocks.0.bn2.running_var f4 [64]
00000000: 46d0 963e ba3f a63e 8aa7 bd3e 670c 1b3f
00000010: 4808 5f3f b7f6 3d3e 10ee 0a3e 2ca9 a83e
00000020: aaa3 2c3f 571a 703e 004a f13e 1da2 523e
00000030: e72d 383f 89e1 a43e 0fe6 7c3f 42f6 383f
00000040: 241a 813e 99fa 693f 4eaa 9a3e f493 213e
00000050: 5b3a ae3e d7cd 743e 88b1 8a3f e73c 6f3e
00000060: fea3 923e 7b6e 263f bf31 923e 7f47 7e3e
00000070: 0d70 103f 66f4 193f 259a 873e a4cb 183f
00000080: 1d7c 5a3f 1199 513f a52d 093f e42c ab3f
00000090: 0f34 0e3f 6114 313e 7c65 353e dd8e 7b3e
000000a0: e4f5 743e e64d ab3e 514d 073f 186b b33e
000000b0: 37c5 523f 6ee5 0b3f b73d 963e 5551 303e
000000c0: f188 8d3f 647a a53e 9212 8e3e 8798 b03e
000000d0: ac7d 613e 68c4 633e 9453 943e 634f a73e
000000e0: eb34 433f d200 1b3e b57b 293e 9efe af3e
000000f0: 09d6 433e d504 093f 56c8 c73e c0eb ab3e
0.29455775 0.32470495 0.37041885 0.605658 0.8712201 0.18551145 0.13567376 0.32941568
0.6743723 0.23447548 0.4712677 0.20569654 0.7194504 0.3220332 0.9878854 0.7225076
0.25215256 0.91398007 0.30208057 0.15779096 0.34028897 0.23906647 1.0835428 0.23363076
0.2864074 0.6501233 0.28553578 0.24831961 0.56420976 0.6013855 0.2648479 0.5968573
0.8534563 0.81874186 0.53585273 1.3373075 0.55548185 0.1729293 0.17714494 0.24566217
0.23921925 0.3345787 0.5285235 0.35042644 0.82332176 0.54646957 0.2934396 0.17218526
1.1057416 0.3231994 0.27748543 0.3449137 0.22020596 0.22242892 0.28970015 0.32677755
0.7625262 0.15137032 0.16551097 0.34373945 0.19124617 0.53523 0.39020032 0.335783

res_blocks.1.linear1.weight f4 [64, 64]
00000000: df15 563d cd5b 673a fc2a dabd 2682 d9bd
00000010: c37f 953d 0d07 d33c 28cd a8bb 0a1c a6bd
00000020: f3b0 38bd 01e4 fdbd f60d 12be 16ef a43d
00000030: 0833 45bd f893 46bc d4b1 073d 260b d7bb
00000040: 9c11 dfbd a52f 103d 35dc c9bc a963 2ebc
00000050: 4b34 06be 2bb4 bf3c 6a49 5bbe b5f4 9a3d
00000060: ccfd 49bd 28ac b63c 89d6 b43d 3a2f dcbd
00000070: 47aa 03be fdc7 593b 87d9 37be 92e9 8bbd
00000080: b924 3ebe 91a2 19be 37a0 0abe d22f 5fbe
00000090: 3829 45be 484a 6b3b 7eba 2cbe e239 863c
000000a0: c896 52bd d243 143d 5bf9 25be 0c58 393c
000000b0: c64f 88be 4fa9 cd3b 1081 e7bd 0e23 1d3d
000000c0: 7e19 88be 3176 a63d 7799 20be 9006 6ebc
000000d0: d01f 083e 6d30 bb3c 6217 f9bd e3fa 93bd
000000e0: ed36 d8bd 92c2 973d 39c7 6b3d fc76 d8bc
000000f0: 1dfe 27be 8190 57bd 9d29 fbbc 5bdf b73d
00000100: a5f9 0d3e 7156 f23b 9707 21bc 9a1a 053e
00000110: 65b4 1b39 924a 193e 4f86 2cbe cd4e 55bd
00000120: ccbf d7bc 485f bfbd f383 75be 8b00 2a3e
00000130: 8e93 36be 2d52 c8bc 2f9c 903d 6315 20bd
00000140: e2da 02bd 1ca0 11bd 12b6 3c3e 57d0 443b
00000150: d162 2d3d 7585 113e 17a0 0e3e bbc1 dbbc
00000160: 4446 de3d 46c1 623a 6b1d 793c 9fe8 0a3d
00000170: 8217 3abe 4def b7bd 3ad2 d73c b436 b33d
00000180: 76d3 ee3d 3be2 a33e 5548 463c 6eb8 773d
00000190: daa3 3d3e 02b3 ac3d 730c 88bc 3045 6dbd
000001a0: 3559 ff3d f213 57be 72cb 35be a4b4 06be
000001b0: a4c2 8e3e 0b67 fa3d 787c c0bd 2705 28bc
000001c0: b700 54bc 3816 8d3c d225 3b3d 0150 ba3b
000001d0: f967 97bd e08d b53d d08f e43c 7fc1 773d
000001e0: 5e66 3abd 1a54 17be e81e 0dbd daf0 15bd
000001f0: 56c7 0dbe 2ab2 34be 1e4f 3d3e dd0f 26bd
00000200: a530 9c3c f6a3 d23d 2023 743d 37f6 553e
00000210: d63e 28bc 8610 743d 613b 8bbe e47a a33c
00000220: 4667 ba3d 41fc 123e e650 5b3d b9ca 60bd
00000230: 0e96 1b3e 18b0 683d 6360 f4bc 5f17 d6bd
00000240: 7977 61be 35b5 383d 6c15 84bd 7155 5bbd
00000250: 0844 573d 62a7 b4bd 18fd f8bd 4d59 c4bd
00000260: f720 21be 5066 48bd 0b23 2fbc c7a1 dabd
00000270: cea8 ce3c 06b7 f2bd 6823 af3d dcbf 183e
00000280: 89cb 8f3d 64e0 de3d 4565 973c 2269 06be
00000290: e9f6 f4bd f7f1 d5bd 40a8 28be d5c2 99bd
000002a0: 5302 453d 3f19 2c3d 9980 1fbd a7cb 123e
000002b0: 7551 15bc dbdf 013e 67e0 993b a47e 97bd
000002c0: 2904 d53d ff59 b33c 6415 993d 2466 abbc
000002d0: 05c0 0bbe dc19 6fbe e237 e53d ef08 753e
000002e0: 1658 acbd d33c 0c3e 21b5 133d ceb4 9d3d
000002f0: 8987 bb3d 7776 483e 9324 14be 0e3f 413e
00000300: eb57 303e 92f6 07be a959 913e e924 25bd
00000310: fe3b 0bbd 2fbd 3b3e b5fd b0bd 788e 00be
00000320: 29a9 93ba e1ea abbd 13fa fe3c b4cb c03b
00000330: 05ce 173e a4ae b0bd 5d6f 21be 3681 36bc
00000340: 673b 133d a850 853d e9bb 183e 7c0f 96bd
00000350: 7642 743d 76f2 713d f7d8 1f3e 2791 24be
00000360: 2846 1c3d d813 3cbd 962a 273c a6fc 2cbe
00000370: cbe6 0ebd ae86 35bc 3ce2 cc3c c55b 1f3d
00000380: b723 dfbc 8e98 473e 815e 073e f028 aa3b
00000390: d61e f03d 06a5 883d 6bc3 17be a254 16bd
000003a0: fa77 d7bd 3b3b 0bbe aaac 043c bbe1 193e
000003b0: dc54 483d 9701 cb3d c4db c5bd c1fb c73d
000003c0: dd45 8bbd cccd 04bb 3ebd acbd 0567 89bc
000003d0: 1ae0 253d 1b61 f93d 8b5e 423e e182 973d
000003e0: b431 80bd 028b 813d 6dfb 913d 9056 003e
000003f0: 0a69 253e e63d 153e ce62 053e 9987 513e
0.05226695 0.000882563 -0.1065273 -0.10620527 0.07299759 0.025760198 -0.0051514097 -0.08110817
-0.045090627 -0.12397004 -0.14263138 0.080534145 -0.04814437 -0.012120239 0.033128574 -0.0065626083
-0.108920306 0.035201687 -0.024641136 -0.010643878 -0.13105886 0.02340134 -0.21414724 0.075662054
-0.049314305 0.022298887 0.08829982 -0.10751195 -0.12857924 0.0033230775 -0.17954074 -0.068316594
-0.18568696 -0.1500342 -0.1353768 -0.21795586 -0.19254005 0.003590243 -0.16868016 0.016385023
-0.051413327 0.03619749 -0.16208403 0.011312496 -0.26623362 0.0062762867 -0.113039136 0.03836351
-0.2658195 0.08128012 -0.15683542 -0.014527932 0.13293386 0.02285024 -0.12162663 -0.07225587
-0.10557351 0.07410158 0.05756304 -0.026423924 -0.1640553 -0.052628044 -0.030659491 0.089781485
0.13864763 0.0073955585 -0.00982847 0.12998429 0.00014849154 0.14969853 -0.1684811 -0.052077103
-0.026336573 -0.09344345 -0.23976116 0.1660177 -0.17829725 -0.024453247 0.0706104 -0.039082896
-0.031947024 -0.035553083 0.1842883 0.0030031407 0.042330567 0.14211066 0.13928257 -0.026825776
0.10853246 0.0008650016 0.015204768 0.03391325 -0.1817303 -0.0898119 0.026345361 0.08750668
0.11661427 0.32008538 0.012102206 0.06047862 0.18519536 0.084325805 -0.016607499 -0.05792731
0.12468187 -0.21003702 -0.1775339 -0.13154846 0.27882874 0.12226685 -0.093987405 -0.010255135
-0.012939624 0.017222509 0.045690365 0.0056858067 -0.07392878 0.08864951 0.027900606 0.060487267
-0.04550778 -0.14778176 -0.034453303 -0.036606647 -0.13845572 -0.17646089 0.18487212 -0.040542472
0.019066164 0.10285179 0.05960381 0.20894705 -0.0102688875 0.05958607 -0.2719374 0.01995606
0.09101729 0.1435404 0.053543948 -0.05488083 0.1519396 0.05680856 -0.029831117 -0.104536764
-0.22018231 0.045094687 -0.064493984 -0.05354828 0.052555114 -0.08820988 -0.12157649 -0.09587345
-0.15735231 -0.048925698 -0.010689507 -0.10675388 0.025226977 -0.11851315 0.08551675 0.14916939
0.07021243 0.10882643 0.018480906 -0.13126042 -0.11961157 -0.10446542 -0.16470432 -0.075078644
0.04809792 0.042016264 -0.038941 0.143355 -0.009113659 0.1268305 0.0046959403 -0.07397202
0.10401184 0.0218935 0.07474783 -0.020922728 -0.13647468 -0.23349708 0.111922994 0.23929189
-0.084152386 0.13695078 0.03606141 0.077005014 0.09156711 0.19576441 -0.14467077 0.1887171
0.17221038 -0.13277653 0.28388718 -0.040318403 -0.03399276 0.18333887 -0.08642141 -0.12554348
-0.0011265624 -0.08394409 0.031125104 0.0058836583 0.14824684 -0.0862706 -0.15765138 -0.011139205
0.035945322 0.065095246 0.14915432 -0.07327172 0.059633695 0.05906912 0.1561011 -0.16070996
0.038152844 -0.045917362 0.010203024 -0.16893253 -0.03488807 -0.011079473 0.02501022 0.038905878
-0.02723871 0.19491789 0.13219644 0.0051928684 0.117246315 0.06672101 -0.1482064 -0.036701806
-0.105209306 -0.13596813 0.008097807 0.15027516 0.048909053 0.099124126 -0.096610576 0.09764815
-0.06800435 -0.0020264266 -0.084345326 -0.016772756 0.040496923 0.121767245 0.18981378 0.0739801
-0.0625948 0.06325342 0.07128034 0.12533021 0.1615335 0.14574394 0.13025972 0.20461883

res_blocks.1.linear1.bias f4 [64]
00000000: afa3 323e 089d 4dbd 44a7 cebd b5fb 86bd
00000010: 5b7e a83d 0685 efbd 99f4 b4bc 9993 a2bd
00000020: 54a5 9a3d 7cb2 8dbd 422a d33d dfe8 c4bd
00000030: ed71 0c3d a637 aabd ff75 66bd 4cd6 9b3d
00000040: 8cde 4d3c 5b54 55bd bb43 543d efdf dabd
00000050: 1b57 c03d 36a1 32be 497b 0c3d a089 873c
00000060: facb e33c cb38 cc3d 1bbd fd3d 7191 7cbd
00000070: 10d8 913d 3c94 413e 530a b73c 8f32 05bd
00000080: 551f 60bd 89bb d63d 52f7 553d d4bf eebd
00000090: 34ec 113e 0c50 b4bc b6a9 88bd 171a 9a3c
000000a0: 0356 c43d 534d 9f3c ca6e 023e 5d41 0fbd
000000b0: e910 833e 41d9 66bb ebbb 303e 1eac 8f3e
000000c0: 2c70 af3d b253 94bd b2ba a0bd b4a8 983d
000000d0: d355 0bbc c676 bbbc 9b09 253e cb65 413c
000000e0: abb4 dcbc 93d4 6fbd de33 c93d 04bb a5bd
000000f0: 8458 0abd 8d2a ad3b ecfc 703d 5209 253e
0.17445253 -0.050198585 -0.10090497 -0.06590978 0.082272254 -0.11695294 -0.02208929 -0.07938308
0.07551065 -0.06918809 0.103107944 -0.09614729 0.034288336 -0.08311395 -0.056264874 0.07609233
0.012565266 -0.0520824 0.051822405 -0.10687243 0.09391614 -0.1744431 0.03429726 0.016545117
0.027807225 0.0997177 0.12389585 -0.06166214 0.07121289 0.18904203 0.02234379 -0.03251892
-0.05471738 0.10484988 0.052237816 -0.11657682 0.1425026 -0.022010826 -0.06672995 0.018811269
0.09586718 0.01944605 0.12737575 -0.034974445 0.2559884 -0.0035224708 0.17259185 0.28061002
0.08566317 -0.07242526 -0.07848109 0.074540526 -0.008504349 -0.022883784 0.16116945 0.0118040545
-0.026941618 -0.058552336 0.09824346 -0.08092311 -0.03377582 0.0052846135 0.058834955 0.16116837
