ProgressAfterOpening/model/best_resnet_model_poly.pth (torch, 189174 bytes, 44 tensors)

input_layer.0.weight f4 [64, 118]
00000000: 33d8 60be 63a7 d63f 4e72 af3e 096e 32bf
00000010: 31ff fe3f 068a f83e 54f6 a63e 433f d1bd
00000020: d9ca 833f 49c1 933e 9cf0 b73e a0a4 b03d
00000030: c14d 023d 9c9f dbbe f64a a9bd ccf2 013f
00000040: e821 a3be 8087 4a3f a4d7 963f 91f6 0cbf
00000050: 6c76 5d3f 1311 613e aa8a 25be 158a 9a3f
00000060: 0980 af3f e6af 90be 8ef1 5abf a851 083f
00000070: 7474 1f40 5b13 043f 20ce c43e d4f7 6dbe
00000080: 93e8 e3be d23c cf3f 0250 a63e cd63 2dbf
00000090: 07b1 0240 e686 063f 10ba 8e3e 21a4 d9bd
000000a0: 79b6 7a3f 3d59 a53e 2530 c63e 32b1 343d
000000b0: 1421 9c3e 2063 acba dbd1 8cbe d001 103f
000000c0: bd64 dabe d202 df3e 4efe 91be d7eb 4d3f
000000d0: 1394 a23f d139 1dbf d1a5 493f 76b3 683e
000000e0: a3bc 6fbe 1326 a53f ed40 b63f d533 a4be
000000f0: 10e7 52bf 6292 e53e 6bac 2340 c9fa e63e
00000100: 8654 cf3e a9da d63d 3c07 25be 1aae 2c3e
00000110: a2ea d53f 343f af3e cd80 09bf 4477 0340
00000120: b552 023f fe11 903e f6e6 43be 1ff2 883f
00000130: d0a5 a03e 0800 c03e 68cd 49bd 5285 49be
00000140: 27a9 093d 0d34 a6be e35c 033f 3674 9cbe
00000150: 7a6e 323f 5e23 a73f fd7c 00bf 76ed 483f
00000160: 416b c53d 6c36 c7bf 1e8a 28be dd2b 993f
00000170: 7cb0 ad3f 29fd b5be 0c5a fe3c 7db8 74bf
00000180: 7f30 f23e f3e2 2240 81bf dc3e e47c c6bf
00000190: dfab b53e 95d8 6fbe 3307 c73f a8e1 b43e
000001a0: 2759 21bf ef9d 0440 53db 113f 9ec3 943e
000001b0: ae69 f8bd c96c ac3e ecd3 703f af61 353e
000001c0: 42c6 c63e ef4f 873c b969 84bd 883f cdbe
000001d0: fe1a eb3e c203 62be c9a3 1a3e 1c0a e1bf
000001e0: 31b8 22bf 1119 a1bf 6256 9abe d49d 9bbf
000001f0: c225 fbbe 24c6 6fbf df2a 73be a274 b6be
00000200: e298 04bf 04f9 0bbf d6a8 abbe 1ee5 08bf
00000210: e39c 70be 363b 2bbf a056 0ebe dc9a 03bf
00000220: eca5 43bf 6933 3bbe ca2b 4bbf 3498 20bf
00000230: b91e 32bf 913e 66bf 1062 c4bf 7d83 d1be
00000240: 1d12 2d3e d323 83be 09b6 e0be 6d9c e03e
00000250: ce53 33bf 3de4 503e 3377 13be ebad d5bf
00000260: 727d 36bf da61 9dbf a4c6 67be 243d 94bf
00000270: 8134 07bf 638d 6cbf 6632 d6bd 172a afbe
00000280: f5ad eabe 6a1f 08bf 064e 27bf 8b67 6bbe
00000290: 6714 1bbf 69b8 24bf eee8 f63d 5501 0a3e
000002a0: 6dd5 d93a f8b8 0fbf 92d8 28bf 2547 6dbe
000002b0: 7ae9 31bf e388 febe 33fb 1bbf 21ec 71bf
000002c0: 8187 bcbf 5407 cebe e8d8 193c b1a7 0cbe
000002d0: af97 17bf 341b f43e b3d6 23bf db22 923d
000002e0: 667f e03d 4ac6 0dbf 9953 e3bf d3c7 31bf
000002f0: b47b a2bf 0e50 6fbe 3d80 9abf 70b8 11bf
00000300: 6bf8 81bf 6064 77be 9df8 c6be 88cf cdbe
00000310: ce1f 04bf 5e72 b03d 86b2 6cbe 23c6 f9be
00000320: 238c 38bf 29c2 d5bb 3eeb 0dbf 3eea 31bf
00000330: 8e47 30be df69 4bbf c89c 19bf 138c 533d
00000340: e501 33bf 2fae 6dbf 3adb c5bf 73df b6be
00000350: dde6 0a3e e7d7 193d d52f 4fbe 3fdb e5be
00000360: 0af1 a53e 8ce2 35be 5ddd 23bf 5fcd 753e
00000370: 9f01 dcbf 1594 1ebf f896 98bf 6640 aebe
00000380: a494 9cbf de66 ffbe 43c3 85bf 532f 26bf
00000390: 5814 dfbd 72f7 b1be 3d2d e0be d2b6 eebe
000003a0: 00f9 86be 333f 26bf 1296 2ebf a5b6 033d
000003b0: 18f0 f0be 120e 673f db24 c23e 4059 05bf
000003c0: fc74 b93f 629e 0b3f e31c 2e3e f9cc 89be
000003d0: e455 823f b75b 993e e345 cfbd 1a20 e93c
000003e0: 9d02 b63d 259e acbb 6603 d6be 2a7d 253f
000003f0: eebe 03bf 2b41 333f a29e 833f bf5c 84be
-0.21957473 1.6769832 0.34266895 -0.6969915 1.9921628 0.48542804 0.32609808 -0.10217144
1.0296279 0.28858402 0.35925758 0.0862515 0.031812433 -0.4289521 -0.08266251 0.50761104
-0.31861806 0.79113007 1.1784558 -0.5506373 0.8650882 0.2197917 -0.16166177 1.2073389
1.3710948 -0.282592 -0.85524833 0.532496 2.4914827 0.51592034 0.3843851 -0.2323907
-0.44513378 1.6190436 0.32482916 -0.6773041 2.042055 0.5254959 0.2787633 -0.10627008
0.9793468 0.32294646 0.38708606 0.0441143 0.30493987 -0.00131521 -0.27503857 0.56252766
-0.42654982 0.4355684 -0.28514332 0.8043799 1.2701439 -0.61416346 0.7876864 0.22724709
-0.23411803 1.2902244 1.4238564 -0.32070795 -0.82383823 0.44838244 2.5573986 0.4511321
0.40494174 0.10490925 -0.16116041 0.1686329 1.6712229 0.34227908 -0.5371216 2.0541544
0.5090745 0.28138727 -0.19131073 1.069889 0.31376505 0.37500024 -0.049268156 -0.19679764
0.033608582 -0.32461587 0.5131361 -0.30557412 0.69699824 1.3057668 -0.50190717 0.78487337
0.09639598 -1.5563483 -0.16458938 1.1966511 1.3569484 -0.35544708 0.031048797 -0.95594007
0.47302625 2.545102 0.43114856 -1.5506864 0.3548269 -0.23422463 1.5549072 0.35328412
-0.6302666 2.0721395 0.5697529 0.29055494 -0.12129532 0.33676746 0.9407337 0.17713045
0.38823134 0.016517607 -0.064654775 -0.40087533 0.4591903 -0.22071746 0.15101542 -1.758121
-0.63562304 -1.2585775 -0.3014403 -1.215754 -0.49052244 -0.93661714 -0.23746823 -0.3563586
-0.5179578 -0.5467684 -0.3352725 -0.53474605 -0.23497348 -0.66887224 -0.13900232 -0.5140817
-0.7642505 -0.1828133 -0.7936369 -0.62732244 -0.6957813 -0.8993922 -1.5342426 -0.4092063
0.16901441 -0.2561327 -0.43888882 0.43869343 -0.7004975 0.20399566 -0.1440094 -1.66937
-0.71285164 -1.2295487 -0.22634369 -1.1581159 -0.5281449 -0.9240324 -0.104588315 -0.342118
-0.45835844 -0.53172934 -0.6535343 -0.22988717 -0.60578007 -0.6434389 0.120561466 0.1347707
0.0016619392 -0.56141615 -0.6595546 -0.2317167 -0.6949688 -0.4971381 -0.60930175 -0.9450093
-1.4728853 -0.40239966 0.009390093 -0.13735844 -0.59215826 0.47677004 -0.6399948 0.071355544
0.10961799 -0.5538069 -1.7759887 -0.6944553 -1.2694001 -0.23370382 -1.2070385 -0.56922054
-1.0153936 -0.24159384 -0.38861552 -0.40197396 -0.5161103 0.08615564 -0.23114976 -0.4878398
-0.7208883 -0.00652339 -0.55437076 -0.6949805 -0.17214796 -0.7945842 -0.60004854 0.051647257
-0.69924766 -0.9284391 -1.5457528 -0.35717353 0.1356463 0.037559416 -0.2023309 -0.44893834
0.3241046 -0.17762202 -0.6400965 0.24004124 -1.7187995 -0.61944705 -1.1921072 -0.34033507
-1.2232862 -0.4988317 -1.0450214 -0.6491596 -0.10892552 -0.34759098 -0.43784514 -0.46623856
-0.26361847 -0.64940184 -0.6819774 0.032156605 -0.47058177 0.90255845 0.37918743 -0.5208931
1.4488826 0.5453855 0.17003207 -0.26914194 1.0182462 0.29952785 -0.10120752 0.02845769
0.08887217 -0.0052678757 -0.41799468 0.6464411 -0.5146321 0.70021313 1.0282786 -0.2585201

input_layer.0.bias f4 [64]
00000000: 141f 133f 0866 e8bc 72dd aa3d 9c0a 993f
00000010: ce1b 7f3f 384b 933d e3f4 62bf 9fb4 dcbe
00000020: f1b1 5b3e 87b7 7bbe 033e e9be 690f 693e
00000030: 57bc a23e c5ac 31bf cfaf bdbf b6fb 5dbd
00000040: 7969 aebe c4c2 833f aa18 a23e b2d7 313e
00000050: ff4a 393f c626 68bf d76d cebf 2c57 ccbd
00000060: e2fb 993f 426b 2f3f 4646 953e 8d54 363e
00000070: 9ac2 453f b87d 1d3f 5c3d 843c 9752 54be
00000080: 71a3 9abe 1380 83be 2181 663e 5765 83be
00000090: 019d bc3e 91f1 bebe 33ba d6bc eefe 133f
000000a0: 6698 46bf b34f 46bf ff08 a83f ad57 053f
000000b0: 345d f9be ae67 103f 2121 203f 55db b5bd
000000c0: fffb 99bf 6866 d8bf 0c59 d9be e904 883f
000000d0: 2577 03be 631d 783d d1cb d3bf b70a 1c3f
000000e0: acf9 523f 39a0 ccbe 161f 5bbe dea3 86be
000000f0: 2465 8ebf 964b 62bf e0ce 8b3f 7fc5 ca3e
0.57469296 -0.028368965 0.083430186 1.1956363 0.996518 0.07192081 -0.8865492 -0.43106553
0.21454598 -0.24581729 -0.45555124 0.22759785 0.31784317 -0.6940425 -1.4819278 -0.05419513
-0.34064844 1.0293813 0.31659442 0.17367437 0.7238006 -0.90684164 -1.612727 -0.09977564
1.2029994 0.6852304 0.29155177 0.17805691 0.77250063 0.61519957 0.01614254 -0.2073463
-0.3020282 -0.2568365 0.22510196 -0.25663254 0.36838534 -0.37293676 -0.026211834 0.57810867
-0.7757629 -0.7746536 1.3127745 0.5208691 -0.4870392 0.564082 0.6255055 -0.08879725
-1.2030028 -1.6906252 -0.4245075 1.0626498 -0.12838419 0.0605749 -1.6546575 0.6095385
0.8241222 -0.3996599 -0.21398577 -0.26296896 -1.1124616 -0.88396585 1.0922508 0.39603803

input_layer.1.weight f4 [64]
00000000: 55fc 6b41 277c e141 99b4 5041 bfbb b541
00000010: deeb 7441 7633 d541 d3b2 5941 3728 dc41
00000020: 8df5 8c41 18dc 5041 3a4d a341 2d4e 6341
00000030: a518 6d41 283a 6941 4d0f 2e41 1824 6441
00000040: e77a e341 2eac 7841 dd7c be41 642f c141
00000050: 0411 6f41 3d1b 6c41 6ef6 be41 d863 8841
00000060: 15c0 4341 fb20 6a41 36d3 c141 fd9b 2e41
00000070: de0c 6641 53b1 5141 3dd8 c441 08d5 e641
00000080: fa7c 4a41 8b27 4141 8d17 4e41 41bc 9741
00000090: d3ec 5541 3c4d 4d41 986a 7d41 de72 6341
000000a0: d043 8241 01bf 6541 8675 6341 4354 b241
000000b0: 0462 5841 9e67 bf41 8555 9241 7c51 c741
000000c0: c685 d441 7823 8241 9faf 1741 761c 6441
000000d0: b4c4 5341 78e5 5d41 81bc 6241 bd87 4741
000000e0: 9e14 6a41 0d55 6541 39f0 d341 0fd0 9d41
000000f0: 84bf 5341 0af3 8e41 5137 6741 104c 3d41
14.7491045 28.185621 13.044091 22.716673 15.307585 26.650127 13.606158 27.519636
17.619898 13.053734 20.412708 14.206586 14.818517 14.576698 10.878736 14.258812
28.43501 15.542036 23.810968 24.14814 14.941654 14.75665 23.870327 17.048752
12.234395 14.633052 24.22813 10.913083 14.378141 13.105792 24.605585 28.85402
12.655512 12.072154 12.88075 18.96692 13.370318 12.831356 15.838524 14.215544
16.283112 14.359132 14.216192 22.291143 13.52393 23.925594 18.291758 24.914787
26.56532 16.267319 9.480376 14.256948 13.235523 13.868523 14.171021 12.470639
14.6300335 14.333264 26.492296 19.726591 13.234257 17.868671 14.451005 11.83107

input_layer.1.bias f4 [64]
00000000: 610e c141 298b ee41 ad07 d241 c7dd e641
00000010: b36a d541 7c96 ec41 049c d241 d7b1 ec41
00000020: 6c7d e241 e784 cc41 8041 d541 8e22 b741
00000030: c4a3 d141 e917 d041 85de ce41 02ef bc41
00000040: fbb9 ed41 31a2 d541 1e86 e441 71bd ec41
00000050: f533 e341 256e cf41 acbc e741 ee56 de41
00000060: 7033 dc41 89b3 d441 7eff e541 1e96 dd41
00000070: 498a d041 594a cc41 c110 f041 658f ef41
00000080: dc8c d841 baaf d541 814e e241 ab8c e841
00000090: 4d98 bc41 b2b5 d241 b376 d641 9def de41
000000a0: a5b9 db41 9108 c641 00cf dc41 06d6 df41
000000b0: 8c4e d141 9522 f041 55e2 e341 b267 e741
000000c0: 30af e841 3334 dc41 3a1e cc41 b593 d841
000000d0: c2e7 c841 2e51 bb41 57b1 bf41 dd2c d541
000000e0: 6e34 c141 e325 e241 a7b0 ed41 5784 e841
000000f0: 5ae0 bd41 a45a e241 da3b cf41 50ab d641
24.13202 29.81795 26.253748 28.85829 26.6771 29.573479 26.32618 29.586836
28.311241 25.564894 26.656982 22.891872 26.204964 26.011675 25.858652 23.616703
29.71581 26.704195 28.565487 29.5925 28.40037 25.928782 28.967125 27.792446
27.525116 26.587664 28.749752 27.6983 26.067522 25.536303 30.00818 29.945017
27.068779 26.710804 28.288332 29.068686 23.574366 26.338718 26.807959 27.866999
27.465647 24.754183 27.601074 27.979504 26.163353 30.016886 28.485514 28.925632
29.08554 27.525488 25.51476 27.072123 25.113163 23.414639 23.961592 26.646906
24.1506 28.2685 29.711256 29.06462 23.734547 28.294258 25.904224 26.833649

input_layer.1.running_mean f4 [64]
00000000: 6d95 333e 7d60 843e 51ab 95be b6d2 8d3f
00000010: 3323 8e3f 2842 0b3e 3e5a 4cbf 86cb a2be
00000020: 6641 aa3e 0f59 22be f4e5 62bf ad0a 3bbe
00000030: 8c2f ce3e 6cd3 1abf d2df f0bf 918f efbe
00000040: 49fa 37bd dfc7 8f3f 079c 8b3d e3ad 9f3e
00000050: 4f03 163f de28 52bf e9ac e6bf a9ab 033d
00000060: 216d 8a3f 77bf 933e c0fa 8c3c 4b5a 6cbe
00000070: f85a 5a3f c024 333f fd34 9c3c da0e 4cbd
00000080: b2c1 11bf 268b 0fbf b24f 83be 1f15 16be
00000090: f0ba 5c3c 5d52 48bf 41b4 a53d 7fa0 743e
000000a0: 82d0 30bf 3343 99bf f092 893f 9eca 4e3e
000000b0: 08f0 50bf 6524 1f3f bd08 433f 497c abbe
000000c0: ce2a 89bf 3e48 ccbf 4aab 4fbf 129e 623f
000000d0: f4d5 57bd 3c36 b3be 7b6b 04c0 fbe4 883e
000000e0: d52e e33e 22d1 4dbf 4ddc d9bd bb39 cbbd
000000f0: e6e9 c1bf dea1 42bf b992 323f 60db 133d
0.1753747 0.25854865 -0.29232267 1.1079929 1.1104492 0.13599455 -0.798252 -0.317959
0.3325302 -0.15854286 -0.8863213 -0.18265791 0.4027065 -0.60478854 -1.8818305 -0.4678922
-0.044916425 1.1232871 0.06816869 0.31187353 0.585988 -0.8209361 -1.8021518 0.03214613
1.0814553 0.28857014 0.01720941 -0.23081319 0.8529506 0.6997795 0.019068236 -0.04981885
-0.5693618 -0.560717 -0.2564674 -0.14656495 0.013472304 -0.78250676 0.08091021 0.2388935
-0.6906816 -1.1973633 1.0747967 0.2019448 -0.8161626 0.6216491 0.7618521 -0.3349326
-1.0716188 -1.5959547 -0.8112074 0.88522446 -0.052694276 -0.35002315 -2.06906 0.26737198
0.44371668 -0.80397236 -0.10637722 -0.099231206 -1.5149505 -0.7602824 0.6975513 0.036097884

input_layer.1.running_var f4 [64]
00000000: 7ee7 f844 282b 3a45 8a0a 9644 f42b 9943
00000010: 123c 6045 9766 0245 71de 5645 42e1 3e45
00000020: ffac 7545 dca0 5c45 b411 ec44 e38c a544
00000030: 8a7a 5745 2b38 5445 f980 0f45 5904 de44
00000040: b4f5 4645 0153 5e45 8a2c 3945 6074 1b45
00000050: c914 e044 c048 6245 5bfc 2545 8dd6 6845
00000060: 9e93 c144 dfde cf44 fee5 f044 c787 dd44
00000070: 68bb 5745 b736 5945 1ec9 1144 e5be 8145
00000080: d9f0 bf44 89d3 d544 fd77 3345 cf66 2c45
00000090: cdc2 cf44 c497 9244 a620 7c45 3b4b 1645
000000a0: 649d 6345 1936 0c45 1efa 0845 c5e8 0b45
000000b0: ba46 ce44 b8d4 2e44 503c 5f45 294f 8c44
000000c0: 43ef fe44 e314 6c45 067c 0d45 5017 2b44
000000d0: 0a01 5a45 2255 f244 0226 0545 5615 c644
000000e0: 35d6 fa44 7330 1945 0192 f744 3f2e 1245
000000f0: c408 f344 d4da 6745 1156 0a45 91d8 0d45
1991.2341 2978.6973 1200.3293 306.34338 3587.7544 2086.4119 3437.9026 3054.0786
3930.8123 3530.0537 1888.5532 1324.4027 3447.6587 3395.5105 2296.0608 1776.1359
3183.3564 3557.1877 2962.7837 2487.2734 1792.6495 3620.5469 2655.7722 3725.4094
1548.613 1662.9647 1927.1873 1772.243 3451.713 3475.4197 583.14246 4151.862
1535.5265 1710.6105 2871.4993 2758.4255 1662.0875 1172.7427 4034.0405 2404.702
3641.837 2243.381 2191.6323 2238.548 1650.2102 699.3237 3571.7695 1122.4738
2039.4769 3777.3054 2263.7515 684.36426 3488.065 1938.6604 2130.3755 1584.6667
2006.694 2451.028 1980.5626 2338.8904 1944.2739 3709.6768 2213.3792 2269.5354

res_blocks.0.linear1.weight f4 [64, 64]
00000000: dcf1 9bbe 4a0f 5e3b d3fd 89bf 0522 fbbd
00000010: 5437 b63d 0107 3cbe c121 2fbc ca22 6f3d
00000020: 4efc b0bd dcfc 03bd 1c8a b23d 1606 2bbf
00000030: 5daa 793d 0104 d5bb 5734 d2bf 9a86 a7be
00000040: ffd4 dcbc 7673 c13d b045 94be 5ab6 2b3d
00000050: 7633 1abf 4ae5 7d3d a0ca 51be 4a5b 03be
00000060: 2bdd 89bf 2bdd 41bf 8bfb 843e ee9a 6fbf
00000070: bd61 913d 0582 083d bbe5 f6be dc5f 213d
00000080: 3cbe 2abf b16b 68bf 6d6e 3dbf d76f e83c
00000090: f2ec 32bf 2558 98bf 3544 8d3d f2bd 08bf
000000a0: 6edb a3bd 39f3 b3be 17b5 2cbf 5a8c 53be
000000b0: 7ce2 9cbe c426 22bf 6509 67bd 927c 7a3e
000000c0: 7e60 743d f2bb 92bc 4b26 b6bf 59c5 0bbf
000000d0: 0e44 9a3a 4fef ebbe f9c4 f9bc c939 6dbf
000000e0: 4840 3a3b efaa 14bf 2830 b53d 92fe 8e3d
000000f0: cf91 2cbf da2f a43c fc33 73be bf5d 7dbf
00000100: bf9e fbbf cea2 133e df63 a0bf 6046 9c3f
00000110: 0bec 753e 9d9b c83d aca4 963d 16d9 3f3d
00000120: d454 613e 2ffe 323d d7fe b93f f209 1ec0
00000130: 36a6 56bc 3248 3c3e 449e ecbe 76b6 07c0
00000140: 29f4 04bd 5ee4 5a3e 9fa9 703f 2010 c73d
00000150: d6b9 49be 7364 5c3e 4320 2e3f b486 203d
00000160: 0b5c 20bf 22e7 b3bf 8039 7b3f 544b 0abf
00000170: 6e32 9b3c db09 1ebd 550b babe 3660 13bb
00000180: 31d4 b6be 5544 05bf e62b d4be c21a ec3c
00000190: 8230 06c0 1423 85bf 5c5e 663e dc6e 49be
000001a0: c17f 8abd e1de dcbf 8eea aabe a568 8b3f
000001b0: b82c 82bf 7124 13bf 9183 3e3b 2b95 2c3f
000001c0: 70e7 5cbc b72c cf3c c5b9 51bf 8445 94be
000001d0: 6daa 853d dac4 fbbf bb82 e0bf 0045 5bbf
000001e0: 5e36 c9bf bca9 cebe 1569 153e 4cc1 a53c
000001f0: 0d9e 07c0 5a51 043e 0b54 9bbf d842 b7be
00000200: 6e9d b4bd 7ebc 3f3f 2890 c83e 4a75 113d
00000210: 91bd 0bc0 f87b 913e 7ff9 11c0 af99 7f3e
00000220: cf55 c7bf c238 f3bf 90ff 39bd ebf5 b83e
00000230: d899 26c0 dfd2 1fc0 9d23 da3e 29c0 3a3c
00000240: 80b3 0f3f e33f 1bc0 acb0 983d 949f 23be
00000250: 50d7 a63e 82e1 2fc0 caea 36be d550 babf
00000260: b4f8 b43e f4b6 743e 4cd2 fd3d 941e 32be
00000270: f063 31c0 a35d 28c0 5106 953e ab9c 6d3e
00000280: 86bc 5d3d 0ebc 51be 3b83 cbbe 5703 8ebf
00000290: 78c1 0a3e 6228 da3d 76b7 2bc0 8845 283c
000002a0: de6f f2bf cd83 1bbe 57ae 7c3e c2f3 fd3d
000002b0: 6d3e 303e 23c7 0c3e 7330 a0bf 2d1f 3a3e
000002c0: bb54 02be c132 01c0 fb39 da3d 6a29 fcbc
000002d0: 5d6c 24c0 5955 39bd 3ccf 483c 661e 773e
000002e0: c948 a2bd a7c6 27be 5265 1bbe 60fc 9cbf
000002f0: 50a3 e93d 303c b4bf 4edc 6e3e 1a6d 90bd
00000300: 73d0 4ebf ad48 af3c 9267 a9bf fe7e 193d
00000310: f4f1 b93e 4c1c 8eba 1d25 7ebc fb62 a73d
00000320: dfc0 813e 7a01 be3c 0950 893e fe4e 65bf
00000330: a1a7 d03d 3f34 5d3e a6d5 cbbf 881a 2abf
00000340: 5004 a93e ad7b 813e 05b4 d1be 90bb 11bd
00000350: 0472 06bf 7b6f d23d ae08 87be cd32 6f3d
00000360: 3e6c 6bbf 90b7 83bf 4bf2 593e c525 6bbf
00000370: a9fa e13d ec90 923e 0833 b8be 5d20 c43d
00000380: e586 3fbf f86c 7fbf 85b7 4dbf 8dd2 403e
00000390: 4aa9 46bf 0314 b6bf daa1 923d bd96 00bf
000003a0: 002e 3a3d 708c 09bf 442b 14bf 8710 3c3d
000003b0: 3da0 debe 4e51 fcbe 0ef7 a03c 6c60 6b3e
000003c0: 08ce 893e c0a1 5e3e 7cd0 adbf a9b2 41bf
000003d0: 725f a33d 57df 12bf 698f a5be 32c8 71bf
000003e0: 22c8 9dbe 8be5 37bf 10f4 8d3e 5f26 7f3e
000003f0: dbc7 74bf e7ef d83d 7ef2 90be 3fa5 43bf
-0.30457962 0.0033883625 -1.0780586 -0.12262348 0.08897272 -0.18362047 -0.0106892 0.058382787
-0.08641873 -0.032223567 0.087177485 -0.6680616 0.060953487 -0.0065007214 -1.6422223 -0.3271988
-0.026957033 0.094458506 -0.28959417 0.04192195 -0.60234773 0.061986245 -0.20487452 -0.12827793
-1.077062 -0.757281 0.25973162 -0.9359578 0.0709872 0.03332712 -0.48222145 0.03939806
-0.66696525 -0.90789324 -0.7399662 0.028373642 -0.698928 -1.19019 0.06897775 -0.53414834
-0.08000837 -0.35146502 -0.6746382 -0.20659009 -0.30641544 -0.633404 -0.056405444 0.24461582
0.059662335 -0.017911885 -1.4230436 -0.54598004 0.001176955 -0.46081015 -0.030489432 -0.926663
0.0028419662 -0.58073324 0.08847076 0.06982149 -0.67409986 0.020042349 -0.23750299 -0.9897117
-1.965782 0.14417574 -1.2530478 1.2208977 0.24015824 0.09795306 0.073556274 0.04683789
0.22005016 0.04369944 1.4530896 -2.469357 -0.013101151 0.18386915 -0.46214497 -2.1205115
-0.03245941 0.21376178 0.9400882 0.097198725 -0.19699797 0.21522693 0.6801798 0.039190963
-0.62640446 -1.4054911 0.98134613 -0.5402119 0.018944945 -0.038583618 -0.3633677 -0.0022487766
-0.35708764 -0.5205739 -0.41439742 0.028821353 -2.0967107 -1.040133 0.22496933 -0.19671196
-0.067626484 -1.7255517 -0.33382076 1.089131 -1.0169897 -0.5747748 0.002907012 0.6741511
-0.013482913 0.025289876 -0.81924087 -0.28959286 0.06526647 -1.9669449 -1.7539896 -0.8565216
-1.5719717 -0.40363872 0.14590867 0.020233773 -2.1190217 0.12921658 -1.2135023 -0.35793185
-0.0881909 0.7489699 0.39172482 0.035512246 -2.1834452 0.28414893 -2.280853 0.2496097
-1.5573062 -1.9001696 -0.04540974 0.3612512 -2.6031399 -2.4972456 0.42605296 0.011398354
0.5613327 -2.4257743 0.074555725 -0.15978843 0.32586145 -2.748139 -0.17863002 -1.4555918
0.35345995 0.23897916 0.123936266 -0.17394477 -2.7717247 -2.6307151 0.29106382 0.23204295
0.054134868 -0.20481893 -0.39748558 -1.1094769 0.13550365 0.10652234 -2.6830726 0.010270484
-1.8940389 -0.15186997 0.2467588 0.12400009 0.17211314 0.1374784 -1.2514786 0.18175955
-0.12727635 -2.0187228 0.1065559 -0.030781467 -2.569114 -0.04524741 0.01225644 0.2413269
-0.07924039 -0.16384374 -0.1517537 -1.2264519 0.114081025 -1.4080868 0.23326227 -0.070520595
-0.8078682 0.02139696 -1.3234732 0.037474625 0.36317408 -0.0010842173 -0.015511778 0.08173176
0.2534246 0.023194063 0.26818874 -0.8957366 0.10188223 0.21601962 -1.5924575 -0.66446733
0.33011103 0.2528967 -0.40957657 -0.035579264 -0.52517724 0.102751695 -0.2637381 0.058398057
-0.9196204 -1.0290394 0.21283834 -0.91854507 0.11034138 0.28626192 -0.35976434 0.09576485
-0.7481521 -0.9977565 -0.80358154 0.18830319 -0.77602065 -1.4224857 0.07159777 -0.5023001
0.045454025 -0.53729916 -0.5787852 0.0459142 -0.43481627 -0.4928078 0.019649055 0.22986001
0.26915002 0.2174139 -1.3579249 -0.7566324 0.07977189 -0.5737204 -0.32335976 -0.944461
-0.30816752 -0.7183463 0.27725267 0.24916981 -0.95617455 0.10592633 -0.28310007 -0.7642402

res_blocks.0.linear1.bias f4 [64]
00000000: c863 d03e d301 963f e1ac abbf 3fb6 56bf
00000010: 8020 c3bd f485 af3c 93b3 2d3d 4da2 a8be
00000020: 7768 c7be 2a42 e13e dde2 483d 7478 64be
00000030: 7556 19bf 13fb 393f 38b7 9fbe 1e16 353f
00000040: 1e86 603e dfcc 28be cb2a c83d 29f6 923e
00000050: 47c3 78be 229d bcbe 59d0 b33e d9df f7be
00000060: 2871 8c3f 1fef 38bf f14a ffbf 5082 e03d
00000070: 92d0 fc3d 5e21 d53e f207 d23d 789a d43e
00000080: 1999 e4be b27d dd3d 46dd 383f 5079 433e
00000090: 2ad6 7f3e eb01 273f b98e 093f 2a1f 193f
000000a0: 44ff e13d 0d71 3fbf 4b28 c4be d15d 01bc
000000b0: de90 b23f 85af 0a3f 5f54 983f 6a1b c33d
000000c0: 1519 b6be b4ae 57bf a600 82be 3236 05bf
000000d0: 98e9 4cbc d390 f5bd 8fd2 e13e 9dbd 553e
000000e0: 699d b3be 06b3 b83f 5f08 e3be 4555 5c3e
000000f0: 0809 043f 9647 4f3f e2b9 b73c cd77 10bd
0.40701127 1.1719307 -1.3412133 -0.83871835 -0.09527683 0.021426179 0.042407583 -0.32936326
-0.38946888 0.43995792 0.04904448 -0.22311574 -0.5989755 0.72648734 -0.31194472 0.70736873
0.21926162 -0.16484402 0.09773787 0.2870343 -0.24293242 -0.36838633 0.35119894 -0.4841297
1.0972033 -0.7223987 -1.9944745 0.10962355 0.12344469 0.4162702 0.10255422 0.415241
-0.44648054 0.1081499 0.72212636 0.19089246 0.24984041 0.652373 0.537334 0.5981318
0.11035016 -0.74781877 -0.3831199 -0.007895903 1.395046 0.5417407 1.1900748 0.09526713
-0.3556601 -0.8425095 -0.2539112 -0.5203582 -0.012506865 -0.11990514 0.44105956 0.20873113
-0.35081032 1.4429634 -0.44342324 0.21516903 0.5157628 0.80968606 0.022427503 -0.0352705

res_blocks.0.bn1.weight f4 [64]
00000000: 7bf0 df3e 42fe 413f 9917 113f 91e1 d93e
00000010: bf42 853d 6d35 153f cfec 063f 475f e93e
00000020: cbdf 4c3f e6da 843f 699e cd3e 9898 d93e
00000030: 4e2c 093f b7d3 d13e a5d4 eb3e 142b 153f
00000040: 64b1 d33d 31ca 973e fc9d 0a3f a913 953e
00000050: e7d8 e73e 1909 053f 5bfa 6a3e f158 323f
00000060: 6eea ec3e f7ef 093f b13f af3f 2cc7 7d3e
00000070: abd1 f83e 4869 da3e 97f8 883f 77b5 3c3e
00000080: 6586 2f3f 7585 e83e 1e83 193f 9d45 063f
00000090: 17b6 c23d 681a f33e 16a5 b53e d7d4 df3e
000000a0: 9889 e93e eb35 033f 1e5d ad3e e341 133e
000000b0: 420b 7d3f 1e9b 8a3e 4d0b 0b3f a7a0 d63e
000000c0: 92e6 643e 6165 1e3f 8bd8 b03e 85a1 333f
000000d0: c08f 1b3f f5b9 f63e 0077 cc3e 366a 6f3e
000000e0: 369c a33e 60de 913f d21d 783f 31f8 823e
000000f0: 868e 503f 9a4d 5d3f 26a2 96be f981 8b3e
0.4373816 0.7577859 0.5667663 0.42554906 0.065068714 0.58284646 0.5270509 0.45580503
0.8002898 1.0379303 0.4015992 0.42499232 0.5358323 0.40981838 0.46060672 0.58268857
0.10336569 0.29646447 0.54147315 0.29116562 0.4528267 0.51967007 0.22947066 0.69666964
0.46272606 0.5388178 1.3691312 0.2478301 0.48597464 0.42658448 1.0700864 0.18428598
0.68564445 0.4541432 0.59965694 0.5244997 0.09507387 0.47481084 0.35477513 0.4371707
0.45612788 0.5125415 0.33860105 0.14380603 0.98845303 0.2707147 0.5431412 0.41919443
0.2235358 0.6187344 0.3454021 0.70168334 0.6076622 0.4818875 0.3993454 0.2338036
0.31955117 1.1395988 0.969205 0.2557998 0.81467474 0.86446536 -0.29420584 0.272476

res_blocks.0.bn1.bias f4 [64]
00000000: 806d 65bf 8575 a5bf 6042 a6bf 7b4d 8abf
00000010: 06ed 9abe 9d87 a6bf 0eeb 92bf 6ae0 81bf
00000020: 4af7 8abf 3093 c7be 2baf 7fbf 179f 8bbf
00000030: cda9 b7bf ba07 7cbf a4e3 7ebf 4135 8dbf
00000040: f251 a0be aa1f 4fbf 4278 97bf 7f67 3fbf
00000050: 5ef4 8dbf 1daf 94bf a81c 6ebf 2d83 9abf
00000060: 6612 9cbf 20c8 98bf baa4 ddbe 7f83 39bf
00000070: 205e 93bf 40fe 90bf a985 91bf 402d 07bf
00000080: f7df 79bf e60c 72bf 5916 99bf dd37 97bf
00000090: 46bf 2bbf 4e39 63bf 62c2 6bbf c943 87bf
000000a0: 090d 8abf e59c 81bf 0ee0 4cbf 5518 0abf
000000b0: 528e 8ebf a104 42bf 09ce 9ebf aeca 8bbf
000000c0: 5be0 8cbf 4662 b6bf 9b15 44bf 294e a2bf
000000d0: cd36 b8bf 31e3 7bbf 0378 7dbf d737 8dbf
000000e0: 2180 2fbf 812f d5bf 8e26 87bf 4700 00bf
000000f0: 050a aebf c78c a8bf 2893 26bf 2f6f 8cbf
-0.8962021 -1.2926489 -1.2989006 -1.0804895 -0.3025896 -1.3010136 -1.1477983 -1.0146611
-1.0856717 -0.38979483 -0.9987666 -1.0907925 -1.4348694 -0.9844929 -0.995661 -1.1031877
-0.3131252 -0.8090769 -1.1833575 -0.747673 -1.10902 -1.161594 -0.93012476 -1.2071282
-1.2193115 -1.1936073 -0.4328974 -0.7246627 -1.15131 -1.1327591 -1.1368915 -0.5280342
-0.9760737 -0.9455093 -1.1959945 -1.1813923 -0.67088735 -0.88759315 -0.9209348 -1.0567561
-1.0785228 -1.0126005 -0.8002938 -0.5394338 -1.1137183 -0.75788313 -1.2406627 -1.0921228
-1.1005968 -1.4248741 -0.7659547 -1.2680103 -1.4391724 -0.9839354 -0.9901125 -1.1032666
-0.68554884 -1.6655122 -1.0558641 -0.50000423 -1.3596808 -1.3167962 -0.6506829 -1.097143

res_blocks.0.bn1.running_mean f4 [64]
00000000: 6fba 07c4 4d3c 01c4 3a38 6ac4 e650 fac3
00000010: a590 8ac3 2df9 79c4 9cb5 34c4 15af 08c4
00000020: 5c63 23c4 1e67 31c4 bac0 17c4 8de4 4ec4
00000030: 9bf3 7a43 e3ff 2ec4 dbef f2c3 361e 0ec4
00000040: 1f3d ebc3 5b3e 3ec4 0df3 4cc4 3566 9cc3
00000050: 576f 04c4 4369 ecc3 e866 d0c3 4c8e 1cc4
00000060: ef5f 25c4 c2e1 87c4 db84 cc43 4e25 04c4
00000070: a043 f7c3 0d51 0ac4 2441 e042 cfce 25c4
00000080: 475e f1c3 83c2 0ac4 41e4 2ac4 60a2 b4c3
00000090: 0a42 b7c3 74c8 3dc4 1efb f6c3 9dd9 32c4
000000a0: 04a0 aac3 ba24 1ec4 5994 04c4 0436 87c3
000000b0: f208 ed42 f27e 33c4 5cb6 13c4 9b60 ebc3
000000c0: ac24 f3c3 191c d8c3 6638 f8c3 992c 16c4
000000d0: 8756 9e43 dbf7 02c4 93e2 1bc4 4c59 aac3
000000e0: 097e ddc3 4915 4ac3 5ae5 76c3 d0c8 9ec3
000000f0: 5d93 44c4 8630 21c4 a183 6043 c610 f1c3
-542.913 -516.9422 -936.87854 -500.63202 -277.13004 -999.8934 -722.83765 -546.73566
-653.5525 -709.6112 -607.01135 -827.5711 250.95158 -699.9982 -485.87387 -568.47205
-470.4775 -760.9743 -819.79767 -312.7985 -529.7397 -472.82236 -416.80396 -626.2234
-661.49896 -1087.0549 409.03793 -528.5829 -494.52832 -553.2664 112.12723 -663.2314
-482.73654 -555.03925 -683.56647 -361.26855 -366.51593 -759.1321 -493.96185 -715.4002
-341.25012 -632.57385 -530.31793 -270.422 118.51747 -717.9835 -590.84937 -470.75473
-486.2865 -432.2195 -496.4406 -600.69684 316.676 -523.87274 -623.5402 -340.69763
-442.98465 -202.08315 -246.8959 -317.56885 -786.30255 -644.7582 224.51418 -482.13104

res_blocks.0.bn1.running_var f4 [64]
00000000: 2562 5f47 bd64 a447 f5b5 9548 730b e247
00000010: 99a0 0f47 ff80 7f48 9b32 2a48 fa1c f747
00000020: 75b8 6f48 1145 9846 1b7e 1548 25d2 7e48
00000030: 0502 4448 7ffc 2f48 ddbd ed46 7af3 ba47
00000040: 0f77 5a47 6f87 4848 ca02 4048 e409 d745
00000050: 654b 0b48 0dc3 1248 d140 df46 9988 6747
00000060: 49af c747 abef 9748 f842 c447 2ef9 b746
00000070: 10bd 0548 1e98 cd47 60aa b846 05cb 9a47
00000080: 937e 1148 b93a 9247 4858 ef47 6146 d746
00000090: bb0b f846 92bb 4048 91ba 0048 15fa 4448
000000a0: b0ed 4446 55e2 8947 9810 cc47 6ed9 be46
000000b0: 57b2 1247 a296 8647 79fb 8d47 1c31 0448
000000c0: 8528 4147 85f9 ab47 e9e0 b546 38d8 1148
000000d0: ce5a ef46 047d 5247 2d7a 3d48 7991 be47
000000e0: 2ee3 8a47 a0b7 a846 5d94 2647 3b33 0f47
000000f0: f415 d148 5018 6c48 f44c bc47 9743 9f47
57186.145 84169.48 306607.66 115734.9 36768.598 261635.98 174282.42 126521.95
245473.83 19490.533 153080.42 260936.58 200712.08 180209.98 30430.932 95718.95
55927.06 205341.73 196619.16 6881.2363 142637.58 150284.2 28576.408 59272.598
102238.57 311165.34 100485.94 23548.59 136948.25 105264.234 23637.188 79254.04
148986.3 74869.445 122544.56 27555.19 31749.865 197358.28 131818.27 201704.33
12603.422 70596.664 104481.19 24428.715 37554.34 68909.266 72694.945 135364.44
49448.52 88051.04 23280.455 149344.88 30637.402 53885.016 194024.7 97570.945
71110.36 21595.812 42644.363 36659.23 428207.62 241761.25 96409.91 81543.18

res_blocks.0.linear2.weight f4 [64, 64]
00000000: 968f b3be eec2 edbf 91ed c93e cdba e2be
00000010: 498f 493e 843e 463e 5e97 0bbf 50b3 14be
00000020: fc0b 883e 429c 483e 5bbd 723e f4a2 433e
00000030: de4d 8fbf dd25 a03d f54e 05bf 28dc adbe
00000040: de18 263e 5a72 693d 1b30 bd3e a32b 11bc
00000050: b527 9abd 7ab4 49bf 504e 583c 3d1f acbf
00000060: df74 adbe a983 033e 06c7 bbbf 1b68 803e
00000070: e80d 3cbf 3e72 2c3e 0c4c 15be 6ac5 06be
00000080: f73f b7be 78f8 e0be 3d11 5fbe 49ad 253f
00000090: 2809 ef3d 5cdc 1eba 2659 573e e84f f53d
000000a0: 4bde af3e 5777 21be 7cbe db3d d3ff 023e
000000b0: 61f9 96bf 8dbf 833e 0e04 f8be 682c 37bf
000000c0: 1596 c7be eeda 0ac0 8d3e 78be e0b2 9fbf
000000d0: b0a2 aebf ef72 02bf 7b3c 843e 56a2 0dbe
000000e0: 11c9 40be 4bce a83f c9bd 39bf 8d61 54be
000000f0: f39c 0b3f 40b6 1d3f 05ec 5d3e fb2c 323e
00000100: 69d1 023e a230 073f a024 debf 4993 f53c
00000110: fccd 8fbc fd8c 8bbf 6864 123f b757 373e
00000120: b969 45c0 d140 c4bf e7f5 cfbe 2995 c4bf
00000130: 8e40 913f ffde 5cbf d2d6 b0bd 012b 223f
00000140: 5a79 c0be 0410 93bf 4752 3bbf c2e2 433e
00000150: 528e 5b3e e784 d03d 291f 233e eede df3e
00000160: a054 203f 345c 4ec0 8156 e43f 3e5b 963e
00000170: 58be 5e3d c4cd 5bbf 9b1d babe 3916 ebbe
00000180: 20d6 523f fbee 2abd 9823 963e 254d 863d
00000190: da59 aabe e69c 823d 7f0c 8abe a97b 7abf
000001a0: b681 753e 5f9d 303f 8274 2cbf 6ff7 83be
000001b0: d05c 953f f6ef 96be 7948 413f cf9b c33d
000001c0: a649 14be 2fe6 d93e 54b1 373d 6ed7 df3e
000001d0: 29a9 8b3f 7f55 d3be 7c36 09be 5c4d 04bf
000001e0: f337 a8bc ed3e 56bf 5d0f 923f f109 80bd
000001f0: a2d7 25bf 8f74 b9bf b345 533e 34cb 823d
00000200: 45a6 653e 9e80 29c0 7d1c 923e 1a91 f9be
00000210: b165 0dbe ff65 313d 9454 2a3e 8612 21bf
00000220: f4a8 35bf 53b1 0a3f 5649 ddbd e4c5 f4bc
00000230: 92f1 3fbf ea0b 58bd 110e 36bf 38da 09bf
00000240: 7990 8d3d 4dc6 2b3e 5523 a43c 234f a63d
00000250: bf6f 74bf 7ef3 debe 71b2 8d3d a034 bcbf
00000260: 0eee 2f3c ab3d e73d 01f3 0cbf ad54 8f3d
00000270: 39e1 80bf 316e 89bc b18d 39bf bc3c bbbd
00000280: 3579 183f 78f4 74be 7af2 78bf 0383 4e3e
00000290: e8f1 16be 0cfa 2a3f 9adc 8abd 62e3 153e
000002a0: 793d 463e d1b8 6ebe e781 123e 52e4 3abc
000002b0: dcaa fcbf 44e5 533e 8973 a63e 2b6b 0abf
000002c0: ad02 6dbe 2245 eabf 1ff9 55be 977f cabf
000002d0: 12e9 a3bf e809 2cbf b097 073e 2d49 6bbe
000002e0: e700 cdbd 938d d33f b79a cdbf 4dde c7bc
000002f0: 3752 7cbf 610d 50bf 7c22 683d 2e6b 183e
00000300: 663c ee3e 2929 b5bf 2d14 2e3e 4f9e 40be
00000310: 87c3 463c ff6e 1e3e dfc2 d6be 26ab e0be
00000320: 7fad 2a3f b9a5 953f af5a 7cbd 4eea 63be
00000330: 4923 2bbf 1b3c 5dbe 03c9 62be 0af6 89bf
00000340: dfa6 af3e d2b1 413d f16d 563d 99c9 39bc
00000350: 4ab2 4cbf 550d a7bf 4034 90bd 8e75 4ebf
00000360: 7a0d 3ebf ffdd 6f3e 82d5 39bf 251e 0ebd
00000370: 1453 8bbe 69bc 2fbc 8bee 5b3f acee 283d
00000380: 2809 05bf ec84 a7be a645 f8be 7f6c d83e
00000390: ba77 a3bd 7eba e0bc 3510 8d3b 5db0 e63c
000003a0: ec7f f9bd 82d7 12bf 18c8 853d 9b8d 473e
000003b0: 087a 153e 8257 3c3e 46ae 53bf d734 a1be
000003c0: 3039 dc3e 2ab8 c8bf 1cb5 763b 4209 3abf
000003d0: b607 99bf 0208 18bf b917 aa3e 6cf9 98bd
000003e0: be55 e0be 4252 1440 9c8e 24bf 5b80 f0bd
000003f0: 1bad 063f 4890 483f fa56 553c 2421 983d
-0.35070485 -1.8575113 0.3943906 -0.44283143 0.19683565 0.19359785 -0.54527843 -0.14521527
0.26571643 0.19590858 0.23705046 0.1910513 -1.1195638 0.07819722 -0.52073604 -0.33957028
0.16220424 0.05699382 0.36950764 -0.008860501 -0.07527105 -0.7879101 0.013202265 -1.3447033
-0.33878228 0.12843193 -1.4670112 0.25079426 -0.7345872 0.16840455 -0.14579791 -0.13161245
-0.3579099 -0.43939567 -0.2178392 0.6471754 0.11671668 -0.0006060058 0.21030101 0.119781315
0.34349284 -0.15768181 0.107296914 0.12792902 -1.1794854 0.2573208 -0.48440593 -0.71552134
-0.3898169 -2.1696124 -0.24242611 -1.2476463 -1.3643398 -0.50956625 0.25827393 -0.13831457
-0.18826701 1.3187956 -0.72555214 -0.20740338 0.5453636 0.61606216 0.21672066 0.17399971
0.12775196 0.5280858 -1.7354927 0.029977458 -0.017554276 -1.0902401 0.5718446 0.17904554
-3.0845778 -1.533228 -0.40617296 -1.535802 1.1347826 -0.86277765 -0.08634724 0.6334687
-0.37592584 -1.1489263 -0.7317242 0.1912947 0.2144101 0.10181599 0.15929855 0.4372477
0.6262913 -3.2243776 1.7838899 0.29366487 0.054380745 -0.8586085 -0.36350712 -0.45915392
0.8235798 -0.041731816 0.2932403 0.06557683 -0.33271676 0.06377582 -0.2696266 -0.9784494
0.23975262 0.6899013 -0.67365277 -0.25774714 1.1668949 -0.2947995 0.7550121 0.095512025
-0.1448122 0.4255843 0.044846848 0.43719047 1.0910999 -0.41276166 -0.1339969 -0.5168054
-0.020534491 -0.8368977 1.1410939 -0.06251896 -0.64782155 -1.4488696 0.20632057 0.06386414
0.22426708 -2.6484752 0.2853736 -0.48743516 -0.13808323 0.04331016 0.16633826 -0.6291889
-0.70960927 0.54176825 -0.10805003 -0.029879518 -0.7497798 -0.052745737 -0.71115214 -0.538486
0.069123216 0.16774864 0.020036379 0.08120563 -0.9548301 -0.43545145 0.069188006 -1.470356
0.010737909 0.11291059 -0.55058295 0.069985725 -1.0068733 -0.016776176 -0.7248183 -0.091424435
0.5955995 -0.23921382 -0.9724499 0.20167165 -0.14740717 0.6678779 -0.06780358 0.14637521
0.19359387 -0.2331269 0.14307366 -0.011406975 -1.9739642 0.20692927 0.3251002 -0.54069775
-0.23145552 -1.8302348 -0.20895813 -1.5820187 -1.2805502 -0.67202616 0.13241458 -0.22977133
-0.10009938 1.652758 -1.606284 -0.024397993 -0.9856295 -0.81270415 0.056673512 0.14884636
0.46530455 -1.4153186 0.16999884 -0.1881039 0.012131578 0.15472029 -0.4194555 -0.43880576
0.66670984 1.16912 -0.06160992 -0.22257349 -0.66850716 -0.2160496 -0.22146992 -1.077821
0.34307 0.047288723 0.052350942 -0.0113395685 -0.7995955 -1.3050944 -0.07041216 -0.80648124
-0.74239314 0.23424529 -0.7259141 -0.034696717 -0.2721182 -0.010726073 0.8591086 0.04124324
-0.51967096 -0.327186 -0.48490638 0.42270276 -0.079818204 -0.027432676 0.0043049105 0.028160268
-0.12182602 -0.5736009 0.065323055 0.19487612 0.14597332 0.18392757 -0.82687795 -0.31485626
0.4301238 -1.5681202 0.003764457 -0.72670376 -1.1955478 -0.5938722 0.33221224 -0.074694484
-0.43815416 2.3175206 -0.64280105 -0.11743232 0.5260789 0.78345156 0.013021225 0.07428196

res_blocks.0.linear2.bias f4 [64]
00000000: d55d cbc0 7b3b d3c0 3999 04c1 7d49 e9c0
00000010: c60e b9c0 4c66 cdc0 40ab 4fc0 d357 c8c0
00000020: a607 d9c0 df2f 32c0 2d3a 0ac1 b315 c6c0
00000030: 33d9 b9c0 5690 adc0 edaa 68c0 4c3d dbc0
00000040: 5a11 b5c0 bd33 ddc0 8689 34c1 8cfe ccc0
00000050: 50c1 33c0 8039 c1c0 b389 cac0 a298 d2c0
00000060: 686e 39c0 2d65 eec0 967c dbc0 b77f 39c0
00000070: c48e b3c0 feb0 80c0 a609 bf40 236c aec0
00000080: 77e6 b1c0 d55d 9fc0 481f 03c0 e2da e6c0
00000090: d42b e9c0 a74f f4c0 0826 d1c0 8587 bec0
000000a0: 62d2 a7c0 5e75 f73f f563 bdc0 343e bdc0
000000b0: 383c 4fc0 42ad 1641 be9f dac0 e69f efc0
000000c0: 4cc5 e9c0 7a83 d8c0 7aee 4fc0 7953 e6c0
000000d0: a490 6cc0 6bee f8c0 6386 dac0 8281 42c0
000000e0: 0c26 06c1 5012 5c40 c278 59c0 0e7b bdc0
000000f0: 5acf 79c0 8349 a7c0 7990 b8c0 095e 31c0
-6.355204 -6.601011 -8.287408 -7.2902207 -5.7830534 -6.4187374 -3.2448273 -6.2607207
-6.7821836 -2.7841718 -8.639203 -6.190149 -5.8077636 -5.423869 -3.6354325 -6.8512325
-5.658368 -6.9125657 -11.283575 -6.4060726 -2.8086739 -6.038269 -6.329309 -6.581132
-2.8973637 -7.4498506 -6.8589582 -2.89842 -5.6111774 -4.0216055 5.969928 -5.4507003
-5.559383 -4.980204 -2.0487843 -7.214219 -7.2866 -7.634723 -6.5358925 -5.954043
-5.2444315 1.9332693 -5.918452 -5.913843 -3.2380505 9.417299 -6.832 -7.488269
-7.305334 -6.7660494 -3.2489305 -7.1976895 -3.6963282 -7.7791038 -6.8289046 -3.0391545
-8.384289 3.4386177 -3.3979955 -5.9212713 -3.9032807 -5.2277236 -5.767636 -2.7713645

res_blocks.0.bn2.weight f4 [64]
00000000: 8e91 e441 e8dd f241 17c8 df41 2d78 ea41
00000010: 9b28 e541 c848 f341 d2d5 db41 fb4c f141
00000020: b14b f141 f95e db41 57d4 ed41 04a1 ea41
00000030: 9a58 e141 01bb e441 119d b441 54e0 e841
00000040: 6931 f241 76ca e941 cfa9 e041 30b3 f341
00000050: d3bc d041 2947 e641 bb88 e841 8db6 e841
00000060: 9a07 bd41 03a3 e241 7242 e941 a4b2 ac41
00000070: 9075 e041 aa2e db41 c8e0 f741 bbfc f041
00000080: 0e19 c041 9273 cb41 f234 b241 d8fc f041
00000090: 9aad e741 63ad e741 060b ef41 ce4d c441
000000a0: fcae e641 bca3 db41 4e50 ce41 9715 ea41
000000b0: f3a4 e941 1904 f741 b401 f241 b242 e741
000000c0: de04 ef41 f2a1 ef41 bb50 ab41 bbd8 de41
000000d0: 1a56 de41 8361 e641 ae13 e941 4d47 d341
000000e0: a1c6 e941 1e20 be41 3f39 f341 9e29 f141
000000f0: c574 e941 4120 f141 7ba3 db41 88f1 bc41
28.571072 30.358353 27.9727 29.30868 28.644827 30.410538 27.479404 30.162588
30.161959 27.421373 29.728682 29.32862 28.168262 28.59131 22.576693 29.109535
30.274126 29.223858 28.082914 30.462494 26.0922 28.784746 29.066763 29.089136
23.628712 28.329596 29.157444 21.587227 28.057404 27.397785 30.984756 30.123404
24.012234 25.43143 22.275852 30.123459 28.959766 28.959661 29.880383 24.53799
28.835442 27.454948 25.789211 29.260542 29.205542 30.877 30.250832 28.907566
29.877377 29.954075 21.41442 27.855825 27.792042 28.797613 29.13461 26.409815
29.221987 23.765682 30.402952 30.14532 29.182016 30.140749 27.454824 23.617935

res_blocks.0.bn2.bias f4 [64]
00000000: 3011 f041 d5fe f541 55fa f241 2c0c f341
00000010: 9662 f641 0344 f641 0129 f641 d51b f641
00000020: c578 f641 982e f641 d681 f141 d9dc f041
00000030: b04c f641 855f f641 34f8 ed41 e55a f141
00000040: e6b4 f541 a4e1 f641 ae7f f041 76b7 f641
00000050: f3ae f241 5073 f641 bb8d f241 da76 f641
00000060: a780 f041 e56c f141 b355 f241 211f ed41
00000070: 2639 f641 eb39 f641 e579 f341 8b6e f541
00000080: c49d f141 473b f441 b024 ed41 30b4 f541
00000090: dcfe f141 e716 f341 b3ac f541 9ac3 f041
000000a0: aa0e f641 e94d f041 2205 f441 92d9 f141
000000b0: 89b4 f241 3e3e f341 6ad0 f641 4eb5 f241
000000c0: 118f f541 9bb2 f641 4e6e ed41 5bc8 f441
000000d0: c180 f641 6233 f141 83b8 f141 814c f341
000000e0: 8501 f241 fd3d f041 fd84 f641 3c40 f641
000000f0: a401 f241 4ac8 f641 0dca f041 e7d0 f241
30.008392 30.74943 30.372232 30.380943 30.798138 30.783209 30.770021 30.76359
30.80897 30.77275 30.188396 30.107836 30.787445 30.79664 29.746193 30.169382
30.71333 30.860176 30.062344 30.83958 30.335424 30.806305 30.319204 30.808033
30.062819 30.178171 30.291845 29.6402 30.777905 30.77828 30.434519 30.678976
30.202034 30.528944 29.642914 30.712982 30.249443 30.386183 30.709326 30.095509
30.75716 30.038042 30.502506 30.231236 30.338152 30.405392 30.851765 30.338528
30.694857 30.83721 29.67886 30.59783 30.812868 30.15009 30.215094 30.412355
30.250742 30.030268 30.814936 30.781364 30.250801 30.847797 30.098658 30.352003

res_blocks.0.bn2.running_mean f4 [64]
00000000: 9604 dcc0 7c40 d1c0 4da6 0ac1 aaa3 e1c0
00000010: bfdf b9c0 150d d5c0 ac16 5fc0 209f c9c0
00000020: 032a d2c0 b89b 53c0 ca59 0ec1 7f65 dbc0
00000030: c866 b9c0 60e9 a6c0 fc7a 65c0 27d2 ecc0
00000040: a142 b0c0 55e9 d7c0 efdd 39c1 0039 cec0
00000050: 7431 50c0 964e bcc0 fe14 d8c0 ebe6 d4c0
00000060: 7f9e 4dc0 479a e9c0 ca9a e7c0 8510 57c0
00000070: a2d5 b4c0 4a52 8ec0 bd55 b440 4874 a8c0
00000080: 093e bec0 9ea7 aac0 88cd 0cc0 b013 ddc0
00000090: 9cbe f3c0 9637 ebc0 cfa0 ccc0 10c4 c3c0
000000a0: b6a2 a0c0 abf0 f93f 5aff c7c0 1c9c c6c0
000000b0: 14cc 67c0 3541 1641 e1a6 dac0 c224 fec0
000000c0: 6072 f5c0 660a dbc0 eecf 76c0 c7c8 f2c0
000000d0: a1a2 7cc0 4d07 04c1 ca65 ebc0 d9ff 2cc0
000000e0: 2892 0dc1 cd9f 5540 37e8 53c0 68d4 cbc0
000000f0: c7b0 90c0 b939 a8c0 11a2 bac0 af7d 61c0
-6.87556 -6.5391216 -8.665601 -7.0512285 -5.8085628 -6.657847 -3.4857588 -6.3006744
-6.5676284 -3.3063793 -8.896921 -6.8561397 -5.7937965 -5.215988 -3.5856314 -7.4006534
-5.5081334 -6.747233 -11.616683 -6.444458 -3.2530184 -5.884593 -6.7525625 -6.653188
-3.2127988 -7.3000827 -7.237645 -3.3603833 -5.651078 -4.447545 5.635466 -5.2641945
-5.9450727 -5.332961 -2.2000446 -6.9086533 -7.6170177 -7.3505354 -6.39463 -6.1176834
-5.019862 1.9526571 -6.249921 -6.2065563 -3.621831 9.39092 -6.832871 -7.941987
-7.670212 -6.8450193 -3.856441 -7.587009 -3.947426 -8.251782 -7.3561754 -2.7031157
-8.848183 3.3378785 -3.3110483 -6.3696785 -4.5215793 -5.257046 -5.8322835 -3.523296

res_blocks.0.bn2.running_var f4 [64]
00000000: 42d9 aa3f 871d 9840 c214 2b3f 560e 973f
00000010: 8116 e43f ad7b 7f40 71a1 d83f 879d 8f40
00000020: 5327 ce3f feeb 9e3f d8d0 7b3f 0ce0 0140
00000030: a091 f83f e22c 0140 b6a7 9e3f 594f 9c3f
00000040: e7a5 9940 0313 2640 128e 643f f185 8040
00000050: 2f3a dd3f ea21 0e40 1005 b33f e79c b03f
00000060: d8ae 8e3f d5fe 863e 0d19 b33f 6857 ab3f
00000070: a30a 0440 959f cb3f 8e68 cb3f 1ee0 9040
00000080: 4299 0140 26d1 f93f 352d d23f 88e3 ac3f
00000090: 5518 6f3f ec92 5e3e 9646 3240 a3be dc3f
000000a0: 9ee4 ea3f 5b8b e03e 8778 c03f cbfc 953f
000000b0: 0214 9e3e 7b46 993f 81b4 0840 ae32 d93f
000000c0: 946c dd3e 0a94 0c40 a9c5 d83f bb73 063f
000000d0: 0a6d d13f fb31 9c3f 3729 ae3f 0498 603f
000000e0: 9dd5 8a3f cbb3 0040 4c46 ab40 5523 8d3f
000000f0: 8bd3 cf3f 81d4 1f40 0abc 133f d8a6 0840
1.3347552 4.7536044 0.6682855 1.180125 1.7819368 3.9919236 1.6924268 4.4879794
1.6105751 1.2415769 0.98365545 2.0292997 1.9419441 2.0183644 1.2394931 1.2211715
4.8015018 2.5949104 0.8927928 4.0163503 1.7283381 2.22082 1.398592 1.3797883
1.1147108 0.26366296 1.399202 1.3386049 2.0631492 1.5908076 1.5891283 4.527358
2.024979 1.9516952 1.6420046 1.3506937 0.933965 0.21735734 2.7855582 1.7245678
1.8351018 0.4385632 1.5036782 1.1717771 0.3087464 1.1974634 2.136017 1.6968591
0.432469 2.1965356 1.6935321 0.5252034 1.6361401 1.2202753 1.3606328 0.8773196
1.084644 2.0109737 5.352331 1.1026407 1.6236433 2.4973452 0.577088 2.1351833

res_blocks.1.linear1.weight f4 [64, 64]
00000000: 8067 833e 998e 643e 3cd2 c7bc fd59 debe
00000010: 39d0 a53e dfc4 0c3e c05f f13e 91ce b73e
00000020: 2be4 b63e e326 a63e 1bb4 83be 89c9 84be
00000030: 079c 983e 2d1c 8a3e 3df4 04be 751f ae3d
00000040: 6e92 ea3d ffed 6b3e 8b08 813e 40d0 823e
00000050: 3815 82be db7f 883e 2322 9b3d 4f0c 973e
00000060: 357b 9f3e 2023 483d 9c04 f73c e2cc 003f
00000070: 1e85 613e 4efa ac3e f2ff 06be 402d 7a3e
00000080: d4e7 663e 4ccb 3abc cfd5 173e d68c 4d3e
00000090: cf34 383e d2f9 6c3e a457 473e 9394 993e
000000a0: 2d83 373e 6d00 62be 7a4c aebd 4fe8 efbd
000000b0: f056 29bd 5862 32bd 258f 743e c3d1 ebbd
000000c0: aa21 e93e a29a 9d3e 6449 e43d 914e 383d
000000d0: b8f0 5a3e 5110 423e c7a1 58bc bbe3 7c3e
000000e0: cab1 a0bc f6a9 9a3e dccb 153e 78fc be3e
000000f0: 6bb2 bebd 914a 7e3e f549 483d 0f9e 113d
00000100: 9907 a9be e1ec 803e 039e 2ebe 7b4c 18be
00000110: 107d ec3d 5f54 f43b 0c53 efbd 6f02 e63e
00000120: 1af6 013d 1dad 02bd 668a 1abe 4bc1 97be
00000130: 9712 52bd 481f 4abd bb4c 75be 21a2 78be
00000140: 2621 ae3e 8298 053e ed02 24be dcc8 ee3d
00000150: 5bd9 64be c11b 9e3d 2e10 13be 0da7 8ebd
00000160: 4e0d bbbc 5ec2 15be 44ee 2abe 9ce8 c2be
00000170: b66d 053c 169e 31bd abbc 223e a643 e13e
00000180: 0f42 80be 2f8e d2bd 59c8 93be f38c f63d
00000190: 69f2 23be 45fd 87bd 1d4f fd3e af75 b8bc
000001a0: e603 08be 9a0b e7be 1d22 a6bd 8801 8fbe
000001b0: 70a4 30bd 2188 b6bc 0605 4f3e fa2d 2dbe
000001c0: d459 603e 7276 0b3e f22a 0cbe b0ab c83c
000001d0: c6b2 203d 70f6 4ebc 4f7a 40be 51d8 fcbd
000001e0: 5e95 86be e9b5 03bf a352 953e d032 9e3e
000001f0: 3587 08be 8852 3a3e 8490 85be 9a22 acbe
00000200: f682 83bd 6726 b1be 4b0a c23d afe9 17bd
00000210: 5ff5 b0bf 3a38 13bf fa9b 89bf 4280 16bd
00000220: c7a1 d3be cd62 9cbf 310a d0bd a8bd 27be
00000230: e9d3 a8bf c731 9bbf 343e ff3d e9d3 183e
00000240: 0537 c93d 1264 24bf e0e4 3bbd 46d8 45be
00000250: 668b d23c 421d 94bf 8e2b a8bb 4442 96bf
00000260: b2fa b53e 624c 8dbd 6732 29be e353 fc3d
00000270: 3fbf 71bf aa9e 8abf 30ac 913d b0a3 a7bc
00000280: eff2 a2bd 1e8c be3c a39c cf3d 8fff b3be
00000290: e196 cdbd 8314 8ebd 97e2 cd3d cf6a 513e
000002a0: 06dc b2bf 0fdb 293e 3674 d3ba 9da7 80bd
000002b0: 921e e9bc 314f 68bd ec81 61be d4ca 9f3c
000002c0: e7c0 6dbf 2ce8 bdbe c3ac 3b38 a0b6 1f3d
000002d0: 315f 8fbf cfc0 0b3d 0727 05bc af6b 49bd
000002e0: b49b d93c 76c2 7e3d 8dd3 5dbe b446 46bf
000002f0: c075 19be b7f1 8bbe ff67 42be 75cc 283d
00000300: e2b8 99be 55ba 073f aed6 0dbe ff7c b4be
00000310: 8422 dabd 84e4 043d ade0 0dbe d463 463f
00000320: 0a48 9e3e 3c9a 8ebe 2a8c a9be 5a0f 8bbd
00000330: 7ef8 aabd bc37 96be 3a8f a7bd 9cb0 92be
00000340: 95d3 083f 6d6d 033d 1189 cabe a3ad 9a3e
00000350: 2405 d63c 5a1a a9be 99df 2abe 037c 8fbe
00000360: 8b06 f8bc ef27 cbbd 067d 11be 4744 b9bd
00000370: 73f7 57be f4a9 67be 1617 ad3d e06d 2f3f
00000380: e6fd fcbd acfd 70be 89f9 30be 9b54 963c
00000390: 8e81 21be 868f 90be f3ca 483f 7e43 023e
000003a0: 3860 79be aa8d 52be 1f1b a7bd 4239 f9bd
000003b0: 417f 8ebe 2053 c73d dc43 f13e f85b d9be
000003c0: 5146 b8be b23d 363e a113 57be 6701 8fbe
000003d0: c0a0 80be 5c5b e7be 79c5 5fbe 5a96 4fbe
000003e0: 85fd 9dbe ac6f 83be f6aa ed3e 856d 54bd
000003f0: c1ed eabd c687 4e3e d908 f2bc 6cf8 9abd
0.25664902 0.22320022 -0.02439224 -0.4342803 0.32385424 0.13746975 0.47143364 0.35899785
0.35720953 0.32451543 -0.25723347 -0.2593501 0.2980654 0.2697462 -0.12983795 0.08502094
0.114537105 0.23040007 0.2520183 0.25549507 -0.25406814 0.26660046 0.075748704 0.29501578
0.31148687 0.048861623 0.030153565 0.50312626 0.22023436 0.33784717 -0.13183573 0.24431324
0.22549373 -0.011401009 0.14827655 0.20073256 0.17988895 0.23142174 0.19467026 0.29996166
0.17921133 -0.22070475 -0.085106805 -0.11714231 -0.041342676 -0.04355082 0.2388273 -0.11514618
0.45533496 0.30782038 0.11146811 0.0449968 0.2138089 0.18951537 -0.0132221645 0.24696247
-0.019616026 0.30207795 0.14628547 0.37301993 -0.09311374 0.24833132 0.048898656 0.035551127
-0.3301361 0.25180724 -0.17052464 -0.14872925 0.11547291 0.007456347 -0.11685762 0.44923732
0.03172884 -0.031903375 -0.15091857 -0.29639658 -0.05128726 -0.04934624 -0.23955052 -0.24280597
0.34009665 0.13046458 -0.16016741 0.11659405 -0.2234854 0.077201374 -0.14361641 -0.06965456
-0.022833493 -0.14624926 -0.16692454 -0.38068092 0.008143833 -0.043363653 0.15892284 0.43996924
-0.250504 -0.102810256 -0.2886379 0.12038603 -0.16010441 -0.06640104 0.4947442 -0.022517053
-0.13282737 -0.4512604 -0.08111975 -0.27930856 -0.04312557 -0.022281708 0.2021676 -0.1691207
0.21909267 0.13619402 -0.13688257 0.02449593 0.03923299 -0.0126319975 -0.18796657 -0.123459466
-0.26285833 -0.5144945 0.2916461 0.30898142 -0.13332827 0.18195546 -0.2608682 -0.3362015
-0.06421463 -0.3459961 0.094746195 -0.037088092 -1.3824881 -0.5750767 -1.0750725 -0.03674341
-0.41334364 -1.2217652 -0.10158194 -0.16380942 -1.318967 -1.2124566 0.12463036 0.14924587
0.09824947 -0.64215195 -0.04587257 -0.19320783 0.025701236 -1.1571429 -0.0051321452 -1.1738973
0.35542828 -0.068993345 -0.16523133 0.123206876 -0.94432443 -1.082967 0.0711292 -0.020463794
-0.07956492 0.023260172 0.10137298 -0.35155913 -0.100385435 -0.06937506 0.10052984 0.204509
-1.3973396 0.1658747 -0.0016132656 -0.0628197 -0.02845696 -0.056716148 -0.22022218 0.019505896
-0.9287247 -0.37091196 4.474517e-05 0.038992524 -1.1200925 0.034119423 -0.008126981 -0.04917496
0.026563503 0.06219717 -0.21662731 -0.77451634 -0.14986324 -0.2733285 -0.18984984 0.04121061
-0.30023867 0.53018695 -0.13851425 -0.35251614 -0.106511146 0.032444492 -0.13855238 0.77496076
0.30914336 -0.27852046 -0.3311475 -0.067900375 -0.083481774 -0.29339397 -0.08181615 -0.28650367
0.5344785 0.03208678 -0.39557698 0.302106 0.026125498 -0.33027917 -0.16686858 -0.280243
-0.030276557 -0.09919726 -0.14207849 -0.09046226 -0.21090488 -0.22623426 0.08451669 0.6852703
-0.12353115 -0.23534268 -0.1728269 0.01835089 -0.15772077 -0.282345 0.78434676 0.12721059
-0.24353111 -0.20561853 -0.0815947 -0.12169124 -0.27831462 0.09732652 0.47122085 -0.4245298
-0.35991147 0.17796972 -0.21003582 -0.27930757 -0.25122643 -0.4518689 -0.21852674 -0.20272198
-0.30857483 -0.25671136 0.46419495 -0.05186226 -0.11471129 0.20168981 -0.029545235 -0.07566914

res_blocks.1.linear1.bias f4 [64]
00000000: 1748 1b3e 89c0 873c 7a50 0d3e 48bb 94be
00000010: 3a1a 25be fb4b 493d 4f69 313f 6056 19be
00000020: e14f 7cbe ae4a 603e f5ea 4f3e fdf6 3a3e
00000030: 991f 3dbf 65c3 e5be fe17 243b 52c9 19be
00000040: 1015 553d 2bf1 fdbd 99f1 bb3f c910 283e
00000050: 6820 593d 0f6d 32bc 7b36 9e3c afd5 013f
00000060: 8d13 5a3f ca57 fdbd b3a2 753c 08be 793d
00000070: 9780 b43b 6d3b 273f 12a2 7cbd ff0a 273e
00000080: d4a4 0f3e 3e75 c9be f8ff 173d b1be 303f
00000090: d5e0 e93f 1b4b ea3e 480c f5be 7259 de3f
000000a0: bc7c acbe 37fc 9a3e a8e6 19bf 01ba 643e
000000b0: de60 753e 977a 913e 91de c3bd 86d5 9f3d
000000c0: 0b02 923e 3a00 15c0 5b92 2ebe e4b3 c8bc
000000d0: 46cb cbbc 5bbd 0abd da5d 0dbf 56e7 edbd
000000e0: a409 91be 3044 ed3d 120f 913c c853 003f
000000f0: c957 0abd 4f7a 3c3f e944 983f a260 513e
0.15164219 0.0165713 0.1380023 -0.29049134 -0.16123286 0.049144726 0.69301313 -0.14974356
-0.24639846 0.21903488 0.20304473 0.18258281 -0.7387634 -0.44875637 0.0025038715 -0.15018204
0.05202204 -0.12399515 1.4683105 0.16412653 0.05300942 -0.010890259 0.019313088 0.5071668
0.8518608 -0.1237026 0.014992404 0.060972244 0.005508493 0.6532505 -0.061678 0.16312788
0.1402772 -0.3934726 0.037109345 0.6904097 1.8271738 0.45760426 -0.47860932 1.7371047
-0.33688915 0.3027055 -0.6011758 0.2233658 0.23962733 0.2841384 -0.095639355 0.07804398
0.28517184 -2.3281388 -0.17048018 -0.024499841 -0.024877202 -0.03387199 -0.5522133 -0.116163895
-0.28327668 0.11585271 0.017707381 0.5012784 -0.033775125 0.7362413 1.189603 0.20447019

res_blocks.1.bn1.weight f4 [64]
00000000: 2a97 b63d 2f2c 943e d6d3 ba3e 8f8f 8d3e
00000010: ecd1 cf3e 5fd6 303e 4495 503e f62e a33e
00000020: a25b a03e 5565 193e 2b59 d63e 606a 073e
00000030: d0f7 c63e cdd0 f83e 2053 f63d 1877 493f
00000040: f9fd b43e 5829 833f 540a 643e 998f c53d
00000050: 7525 ae3e 6769 ee3e 1f22 5a3f b3f6 303e
00000060: 28b4 e93e 10b7 203e 2bcd 013f 53ed 923e
00000070: f08c b63e ca68 003f 972d 9dbc d4c0 a13e
00000080: 4d43 213f 7228 5e3f 64b6 8b3e bb9e 2b3f
00000090: 9b54 363f 44ed 473f 572b af3e 659c 613f
000000a0: e8de d63e 6c43 9f3e 69d3 e73f 6d64 893f
000000b0: 71d2 f23e ce54 5c3f 4714 15bd fc61 103e
000000c0: 59d5 de3e 8d83 bc3e d2e4 0e3e b6c0 773e
000000d0: 2b01 383f ef19 f03f 1f2b df3e 31fd 483f
000000e0: 65cc 613e f7c0 7b3e 1b6f 2c3f a778 943f
000000f0: 93aa a13e a12a c5bf 5cfc ec3e 2e83 fb3e
0.08915551 0.2893996 0.36489743 0.2764859 0.40589845 0.17269276 0.2036944 0.31871766
0.3131991 0.14980061 0.41864905 0.13224173 0.3886094 0.48596802 0.120275736 0.7869735
0.35350016 1.0246992 0.22269565 0.0964653 0.34012952 0.4656479 0.85208315 0.17281608
0.4564526 0.15694833 0.50703686 0.2869669 0.35654402 0.50159895 -0.019186778 0.3159243
0.6299332 0.86780465 0.2728759 0.6703908 0.7122285 0.78096414 0.34212753 0.88129264
0.4196694 0.31106126 1.8111392 1.0733773 0.4742618 0.860669 -0.03639629 0.14099878
0.43522146 0.36819115 0.13954476 0.24194607 0.7187678 1.8757914 0.43587586 0.7851134
0.22050627 0.24585329 0.67357033 1.159932 0.3157545 -1.5403634 0.46286285 0.4912352
